DeepLearningDemo/models/jingxin_9.pth (torch, 587999 bytes, 10 tensors)

weight f4 [32, 3, 5, 5]
0	0x3d0bba84	0.034113422
1	0x3db83b85	0.089957274
2	0x3d1dc8f3	0.03852172
3	0x3e231900	0.15927505
4	0x3e0af559	0.13570155
5	0x3d73fbd6	0.05956634
6	0xbd2b10e1	-0.041764144
7	0xbd0dff80	-0.034667492
8	0xbdbdb93e	-0.09263848
9	0xbd8f6b6a	-0.070029095
10	0xbd1975dc	-0.037465915
11	0x3d663ba6	0.05620923
12	0xbdde4db3	-0.10854664
13	0xbca14ed1	-0.019690903
14	0xbe17238e	-0.14759657
15	0xbe32df2c	-0.17467946
16	0xbe530047	-0.20605575
17	0xbd809b44	-0.062796146
18	0xbe04c9be	-0.12967584
19	0x3cd5ba93	0.026089942
20	0xbe1174a4	-0.14204651
21	0xbe3b6556	-0.18300375
22	0xbe6d4739	-0.231717
23	0xbe291f03	-0.16515736
24	0xbe09de49	-0.13463701
25	0x3e04941a	0.12947121
26	0xbbaf6da2	-0.0053536454
27	0x3e2cf7fd	0.16891475
28	0x3c31d48e	0.0108539
29	0x3b52acb2	0.0032146391
30	0x3e09410b	0.13403718
31	0x3e061dab	0.13097255
32	0x3c0d1ece	0.008613301
33	0x3cd81ba3	0.026380366
34	0xbd97b663	-0.074078344
35	0xbbc505b3	-0.0060126423
36	0xbb1ed041	-0.0024233016
37	0xbdbc7628	-0.09202224
38	0xbda02dc5	-0.0782123
39	0x3b99c4a4	0.004692631
40	0xbdf39378	-0.11893362
41	0xbe29f5d0	-0.16597676
42	0xbe11921c	-0.14215893
43	0xbc5de0bd	-0.013542351
44	0xbd66a783	-0.056312095
45	0xbd314986	-0.043283008
46	0xbdd663cb	-0.10468253
47	0xbdb379ea	-0.08763488
48	0xbe334011	-0.17504908
49	0xbe075953	-0.13217668
50	0x3d148884	0.036263004
51	0x3e41c8c7	0.18924247
52	0x3e1bd83e	0.15219209
53	0x3d85dafd	0.06535909
54	0x3d3fbd2e	0.046811275
55	0x3e3e1c21	0.18565418
56	0x3d6e8d5b	0.058240276
57	0x3e0a8b02	0.1352959
58	0x3e0b7a57	0.13620888
59	0x3cc79071	0.024360867
60	0x3d2181cc	0.039430425
61	0x3d46c4a6	0.048527382
62	0x3e1245a4	0.14284378
63	0x3c0f9e47	0.008765764
64	0x3e0f6475	0.14003165
65	0xbd29fa1b	-0.041498285
66	0xbbd0ebde	-0.006375774
67	0x3ce8c5c2	0.02841461
68	0x3c3125f4	0.010812271
69	0x3dd8a6b9	0.10578675
70	0x3dd27ef7	0.10278123
71	0x3ba3df3c	0.005000977
72	0x3d1519a2	0.0364014
73	0x3dcdb6ce	0.10044633
74	0x3de092f4	0.10965529
75	0x3e0177fb	0.12643425
76	0x3e3776dd	0.17916436
77	0x3e35295e	0.17691562
78	0x3dd6fd6d	0.10497556
79	0xbbb268d4	-0.0054446254
80	0x3e2bee85	0.16790207
81	0x3e230d2b	0.15922992
82	0x3e3350da	0.17511311
83	0x3d9bff39	0.07617039
84	0x3cfbb7ab	0.030727228
85	0x3e2f149e	0.17097709
86	0x3e1b74cd	0.15181275
87	0x3d8b07a1	0.067885645
88	0x3d9d3018	0.07675189
89	0xbba6838c	-0.0050815996
90	0x3d115e66	0.035490416
91	0x3de615b4	0.11234608
92	0x3d567f23	0.05236734
93	0x3d0c991c	0.034325704
94	0x3d40e1f5	0.04709049
95	0x3d861803	0.065475486
96	0x3db4423a	0.08801694
97	0xbd496c21	-0.049175385
98	0xbde6cd63	-0.11269643
99	0x3a2ca1de	0.00065853994
100	0xbd55662a	-0.052099384
101	0x3c021247	0.007938928
102	0xbc016d0e	-0.007899536
103	0xbc90e7ca	-0.01768865
104	0x3d115f30	0.03549117
105	0xbc781b55	-0.015143235
106	0x3dddb4f2	0.10825528
107	0x3d9caf23	0.07650592
108	0xbd1b26d7	-0.037878837
109	0xbe31cbd2	-0.17362908
110	0x3d930de0	0.07180381
111	0x3d782a45	0.060587186
112	0xbe03c60e	-0.1286852
113	0xbddc82c6	-0.107671306
114	0xbdd6c8e9	-0.10487539
115	0x3d51ff07	0.051268604
116	0xbdbc588f	-0.09196579
117	0x3da1b3bf	0.07895612
118	0xbd42e151	-0.04757816
119	0xbe495d3b	-0.19664471
120	0xbd7571ca	-0.05992297
121	0xbe113c8a	-0.1418325
122	0xbe37ebc4	-0.17961031
123	0xbe0d4a94	-0.1379798
124	0xbe413c9f	-0.18870781
125	0x3dbde8da	0.092729285
126	0x3e09f02c	0.13470525
127	0x3d55bee7	0.05218401
128	0xbdbc853a	-0.092050985
129	0xbe2ca130	-0.16858363
130	0xbc4b7dd4	-0.0124201365
131	0x3d5e7146	0.054307245
132	0xbdc6bb4d	-0.097036935
133	0xbdb1d88f	-0.086838834
134	0xbe2c91ff	-0.16852568
135	0x3d70ddfc	0.05880545
136	0xbb4b1f0b	-0.0030993845
137	0x3cddc3d0	0.02707091
138	0xbe21b845	-0.1579295
139	0xbe2f7568	-0.1713463
140	0x3e0d18b5	0.13778956
141	0x3e086f56	0.13323721
142	0x3cc448e5	0.02396054
143	0xbdc10fbd	-0.0942683
144	0xbd9101dd	-0.070804335
145	0xbdb7e349	-0.08978898
146	0x3d8987fc	0.0671539
147	0x3cc9de06	0.024642002
148	0xbb49a9b6	-0.0030771322
149	0xbdc6edfb	-0.0971336
150	0x3ced8080	0.028991938
151	0xbd873769	-0.066023655
152	0x3cf4a8b0	0.029865593
153	0x3c4e5531	0.012593553
154	0xbe0431f6	-0.12909684
155	0xbce5166c	-0.027964793
156	0x3ccd7993	0.025082385
157	0xbcbffb0d	-0.02343514
158	0x3ca516d2	0.020152483
159	0xbe08f0b2	-0.13373068
160	0x3d3d4c76	0.046215497
161	0x3dddba29	0.10826523
162	0x3d998d2b	0.07497629
163	0xbc942d71	-0.018088074
164	0x3d9bbf5f	0.076048605
165	0x3e1a40c1	0.15063764
166	0x3d995d32	0.07488479
167	0x3e0c8270	0.13721633
168	0x3dd20023	0.10253932
169	0xbd0c4527	-0.034245636
170	0x3d3ad231	0.04561061
171	0x3cc78be8	0.024358705
172	0x3d9a44fd	0.0753269
173	0xbda053f3	-0.07828512
174	0xbd024157	-0.031800594
175	0xbaa693cf	-0.0012708845
176	0x3dd794d5	0.10526434
177	0xbb70c648	-0.0036739279
178	0xbcbe65a4	-0.023241825
179	0xbd0638cd	-0.032769013
180	0xbd7b5386	-0.06135895
181	0x3d040262	0.032228835
182	0xbdce25c0	-0.10065794
183	0xbdac7dae	-0.08422409
184	0xbca42842	-0.020038728
185	0x3d0f954d	0.035054494
186	0x3d3d4d04	0.046216026
187	0xbd959fef	-0.073058955
188	0xbd694a0a	-0.056955375
189	0xbe15131c	-0.14558071
190	0xbdf17202	-0.117893234
191	0xbdbd2b65	-0.092367925
192	0x3d15b092	0.036545344
193	0xbdfbd795	-0.122969784
194	0x3d5d0c2b	0.053966682
195	0xbe336043	-0.1751719
196	0xbe1afc19	-0.1513523
197	0xbe3273eb	-0.17427032
198	0xbdf70cb0	-0.12062967
199	0xbd05a75f	-0.03263032
200	0x3e2cf268	0.16889346
201	0x3e2db9c2	0.16965392
202	0x3de88580	0.11353588
203	0x3dc056eb	0.09391578
204	0x3d5d9d1a	0.0541049
205	0x3da6daf9	0.081472345
206	0x3d68d95e	0.056847923
207	0xbce60c14	-0.028081931
208	0x3bd4b437	0.00649121
209	0x3da64f3a	0.0812058
210	0xbd5f59a5	-0.05452885
211	0x3db014ca	0.08597715
212	0x3e0d8ecd	0.13824005
213	0x3e1c4914	0.15262252
214	0x3d453ee5	0.048155684
215	0xbc17ddac	-0.009269159
216	0xbd30ff6b	-0.043212336
217	0xbb53796a	-0.0032268413
218	0xbd60099e	-0.05469667
219	0x3da00f58	0.078154266
220	0xbd7b65b2	-0.06137628
221	0x3c62a5e7	0.0138334995
222	0x3dcf0b2d	0.101095535
223	0x3d9b3e91	0.07580293
224	0xbdaa28b9	-0.083085485
225	0xbc9830d5	-0.018577972
226	0xbdf1de5f	-0.11809992
227	0xbe3bed6e	-0.18352291
228	0xbe28410b	-0.16431062
229	0x3d2f23f6	0.042758904
230	0xbdf695d6	-0.12040298
231	0xbd11b69d	-0.035574544
232	0x3c4fe115	0.012687941
233	0xbd5d3e4f	-0.0540145
234	0x3db4d48f	0.08829605
235	0x3dcd01e3	0.100101255
236	0x3cf17a08	0.029477134
237	0x3db1f2e1	0.086889036
238	0x3e15e8fe	0.1463966
239	0x3e163e0f	0.14672111
240	0x3dd6804e	0.10473691
241	0x3d06ea46	0.032938264
242	0x3d97b4b3	0.074075125
243	0x3d883def	0.06652438
244	0xbd189cb2	-0.03725881
245	0xbdd4b710	-0.10386479
246	0x3bb9a36e	0.0056652343
247	0xbdd4cf95	-0.10391156
248	0xbcf0f20a	-0.029412288
249	0xbbb0175d	-0.005373879
250	0xbe1c0adc	-0.15238518
251	0x3cc605a0	0.024172604
252	0xbe1cae5c	-0.15300888
253	0xbe15203f	-0.14563082
254	0xbdcb3748	-0.099226534
255	0xbd923fdc	-0.071410865

bias f4 [32]
0	0xbd8bf804	-0.068344146
1	0xbe8eb6c8	-0.27873826
2	0xbe88cbbf	-0.26717946
3	0x3cfde8ce	0.030994799
4	0x3d3e9d1c	0.04653655
5	0xbe832ee3	-0.2562171
6	0x3e4c4ebf	0.19951914
7	0x3dae3670	0.08506477
8	0x3d11eadc	0.03562437
9	0xbd0a5958	-0.03377661
10	0xbea1dcfa	-0.31613904
11	0xbe02be67	-0.12767945
12	0xbdd631bd	-0.104587056
13	0xbe47aa63	-0.19498591
14	0xbddc840d	-0.10767374
15	0x3dbff972	0.0937375
16	0x3e900974	0.28132212
17	0xbda19d3c	-0.07891318
18	0xbd0cf63f	-0.034414526
19	0xbe35d5f2	-0.17757395
20	0xbe804e8b	-0.25059924
21	0xbb799d3c	-0.0038088104
22	0xbd20b9bb	-0.039239626
23	0x3e280420	0.16407824
24	0x3dccff01	0.10009576
25	0xbe1495a2	-0.14510205
26	0x3e6a4a02	0.22879794
27	0xbd70a5ff	-0.058752056
28	0xbcabba1b	-0.020962765
29	0xbdefbf6b	-0.11706432
30	0x3e69fdff	0.22850798
31	0xbe7e9054	-0.24859744

weight f4 [32, 32, 5, 5]
0	0x3ab574c2	0.0013844001
1	0x39cb7b93	0.00038811247
2	0x3d775fd1	0.060394112
3	0x3c183389	0.009289631
4	0xbc46be4f	-0.012130334
5	0x3d163463	0.036671054
6	0x3c479c49	0.012183257
7	0x3cb763cc	0.022386454
8	0x3adc67c0	0.0016815588
9	0x3b946298	0.004528355
10	0xbd2f2122	-0.042756207
11	0xbd79c985	-0.0609832
12	0xbd4b871b	-0.049689393
13	0xbd76693e	-0.06015896
14	0xbc44b246	-0.012005394
15	0x3d1406fd	0.036139477
16	0x3d4ddaec	0.05025761
17	0x3d8dc77f	0.069228165
18	0x3ca8a178	0.020584807
19	0xbc745e79	-0.014915102
20	0xbcae228a	-0.021256704
21	0x3d0a2ef6	0.03373619
22	0xbc8e2f1f	-0.017356453
23	0x3d3d9d02	0.046292312
24	0x3c872f8b	0.016502162
25	0xbd0206af	-0.031744655
26	0x3ceddd13	0.02903608
27	0x3c9e275c	0.019305877
28	0xbc893a5c	-0.01675146
29	0x3cb461fc	0.022019379
30	0x3d0916f7	0.033469167
31	0x3ac2d038	0.0014863079
32	0xbc80bc80	-0.015714884
33	0xbbcb456d	-0.0062033446
34	0xbcbdfa72	-0.02319071
35	0xbd02ac28	-0.031902462
36	0x3b961536	0.0045801653
37	0x3cb7e8be	0.022449847
38	0xbd03e53d	-0.03220104
39	0xbd0ac274	-0.03387685
40	0x3d29845c	0.041385993
41	0x3cc15148	0.023598328
42	0xba8ed057	-0.001089583
43	0x3d03d1f4	0.03218265
44	0x3d213f28	0.03936687
45	0x3ce1bc04	0.027555473
46	0xbcb2c3e7	-0.02182193
47	0x3c895bed	0.016767466
48	0x3c1832c0	0.0092894435
49	0x3bc55023	0.006021516
50	0x3ca41065	0.020027349
51	0x3ad9a230	0.0016604122
52	0x3c1d780e	0.009611143
53	0x3ce02041	0.02735913
54	0x3c9105ae	0.017702904
55	0xbb3ac1bf	-0.002849683
56	0xbc2da675	-0.0105987685
57	0x3c83b43d	0.016077155
58	0x3cf6cfc1	0.030128362
59	0x3d146f61	0.03623903
60	0x3ca4ebe0	0.020132005
61	0xbccdbf1e	-0.025115546
62	0xbc4d7801	-0.012540818
63	0xbcba0db8	-0.02271162
64	0x3b93c6a0	0.004509762
65	0xbc4394cb	-0.0119373305
66	0xbcb5782b	-0.022152027
67	0xbc7d1a78	-0.015448205
68	0x3cd5d4f2	0.026102517
69	0xbcc525ab	-0.024065813
70	0xbc600e21	-0.013675244
71	0x3c9bce60	0.019019306
72	0xbbd2f854	-0.0064382944
73	0xbadc6d05	-0.0016817158
74	0xbce53341	-0.027978541
75	0x3d1a9dd5	0.037748177
76	0x3c4ddfb1	0.012565539
77	0x3bfe7022	0.007764832
78	0x3d140127	0.03613391
79	0x3c1692d9	0.009190285
80	0x3c0221d2	0.007942634
81	0x3cee22ac	0.029069267
82	0xbc5c1e8e	-0.013435019
83	0x3c9879b9	0.01861273
84	0xbd16f2e1	-0.03685272
85	0x3d51bbea	0.0512046
86	0x3c9cfd18	0.019163653
87	0x3d85ab2b	0.06526788
88	0x3d3f4d5d	0.04670464
89	0xbc798a5d	-0.015230742
90	0x3c42119c	0.011845019
91	0x3cf7efd3	0.030265724
92	0x3cc43aaf	0.023953764
93	0x3bfa28da	0.0076342644
94	0x3ca06eb2	0.019584034
95	0xbd16399e	-0.03667604
96	0x3c365062	0.011127563
97	0xbcbf9b61	-0.02338952
98	0xbd06dde6	-0.032926463
99	0xbd5301dd	-0.05151545
100	0x3c132c1e	0.008982686
101	0x3cceb88f	0.025234489
102	0x3d35858b	0.04431681
103	0x3d2d1f5e	0.042266242
104	0xbc9cd4d6	-0.019144457
105	0x3cf33a71	0.029690953
106	0x3cabc4f5	0.02096794
107	0xbc575328	-0.013142385
108	0x3d245e58	0.040129036
109	0x3d589ba3	0.0528828
110	0x3c74d547	0.014943427
111	0xbc59202f	-0.013252302
112	0x3a7b3bc0	0.00095837936
113	0xbd23a0f1	-0.039948408
114	0x38097ef0	3.2781565e-05
115	0x3d20922a	0.039201893
116	0x3ca2bd0a	0.019865531
117	0x3892a75c	6.9929956e-05
118	0xbc572c9a	-0.013133192
119	0x3c3f7a6e	0.011686904
120	0xbcbb1584	-0.022837408
121	0x3d0f02b5	0.03491469
122	0x3ca04514	0.019564189
123	0x3c1d5604	0.009603027
124	0xbc331dbe	-0.010932384
125	0x3d36b7e4	0.044608966
126	0x3c90dc90	0.017683297
127	0xbccd7f32	-0.025085066
128	0x3c9cb779	0.019130455
129	0xbc81fa79	-0.015866505
130	0x3c2690f5	0.010166396
131	0x3cb2ee89	0.021842258
132	0xbcdd6e98	-0.027030274
133	0x3ca78ff5	0.020454386
134	0x3c1f307d	0.00971615
135	0x3c916862	0.017749969
136	0x3d01d845	0.03170039
137	0xbd12e8ff	-0.035866734
138	0xbcc98baf	-0.02460274
139	0xbc58ee2f	-0.013240381
140	0x3d2e2e28	0.042524487
141	0x3d150d30	0.03638953
142	0x3d642d0e	0.05570703
143	0x3c8eb944	0.017422326
144	0x3d0d913e	0.034562342
145	0x3cc795b2	0.024363372
146	0xbc475ded	-0.01216839
147	0x3ca08077	0.019592507
148	0x3c429ab8	0.011877708
149	0x3bdeb7a7	0.0067967954
150	0xbbc2559b	-0.005930615
151	0x3c2b963a	0.0104728285
152	0xbbd696a7	-0.006548721
153	0xbc780032	-0.015136765
154	0xbc96b175	-0.018395165
155	0xbcf9ba62	-0.030484382
156	0x3c728593	0.014802354
157	0x3ca7baa5	0.020474741
158	0x3c060ba8	0.00818149
159	0x3c6fe20f	0.014641299
160	0xbcb3de1f	-0.021956502
161	0xbd23c85d	-0.039986003
162	0xbb7f7500	-0.003897965
163	0xbd617c0e	-0.05504995
164	0xbcec2be2	-0.028829519
165	0x3cde3666	0.027125549
166	0x3c2d40b4	0.010574508
167	0x3d657965	0.056023974
168	0x3c5474ee	0.012967331
169	0xbccf93e1	-0.025339069
170	0xbcce93da	-0.025216985
171	0xbc9bd484	-0.019022234
172	0x3c40a129	0.011757174
173	0x3bb009ee	0.0053722775
174	0xbbcfc88c	-0.0063410457
175	0x3c9026f2	0.017596696
176	0x3c025b32	0.007956313
177	0x3d1e19cf	0.03859883
178	0x3d14d72b	0.036338013
179	0x3cfd9fe6	0.030960035
180	0x3c94def8	0.018172726
181	0x3d116450	0.035496056
182	0xbc96094f	-0.018314986
183	0xbc4d71ea	-0.012539366
184	0xbc4a9fb1	-0.012367175
185	0x3a69117f	0.0008890852
186	0xbcce30c2	-0.025169734
187	0xbcb13a03	-0.021634107
188	0x3c04cba4	0.008105192
189	0xbc4fdb09	-0.012686499
190	0x3cc53f54	0.024078049
191	0x3d06997a	0.03286121
192	0xbb2994c7	-0.0025876032
193	0xbcdbf7f9	-0.026851641
194	0x3c5e00c2	0.013549985
195	0xbd36ae17	-0.04459962
196	0x3c84a2ab	0.016190847
197	0x3cdaf29f	0.026727019
198	0xbb588aa6	-0.0033041625
199	0x3cf2a59d	0.029619986
200	0x3aeb2ae1	0.0017941856
201	0x3c17f5d6	0.00927492
202	0x3b1a50a3	0.0023546598
203	0x3cf8b103	0.030357843
204	0x3ca4a43a	0.02009784
205	0x3d72417e	0.05914449
206	0x3d77f9f1	0.060541097
207	0x3d6f9eed	0.058501173
208	0x3d3f2061	0.04666174
209	0x3c751423	0.014958414
210	0x3cede665	0.029040525
211	0xbb1ac82c	-0.0023617847
212	0x3c8d34c8	0.017237082
213	0x3be40533	0.0069586276
214	0x3d225ef0	0.03964132
215	0xbd1a9b99	-0.037746046
216	0x3c6a857d	0.014314053
217	0xbc5c9026	-0.013462102
218	0xbce9ceb2	-0.028540943
219	0xbccd8b52	-0.025090847
220	0x3983d3c1	0.00025144036
221	0x3cfc9dba	0.030836929
222	0x3c9eb339	0.01937257
223	0xbc61451f	-0.01374939
224	0x3d07f276	0.033190213
225	0x3d5b3441	0.05351663
226	0x3d36ed41	0.044659857
227	0x3bbe59a0	0.005809024
228	0xbcd86a7e	-0.026417967
229	0xbcb7c3dc	-0.02243226
230	0x3d47dbf1	0.048793737
231	0x3d85dc4a	0.065361574
232	0x3d6eccc7	0.05830076
233	0x3b6c4580	0.0036052167
234	0xbc950fbf	-0.018195985
235	0xbbac26a2	-0.005253629
236	0xbb805876	-0.0039167954
237	0x3d318b2e	0.043345623
238	0x3d3149f3	0.043283414
239	0x3d8a96c7	0.0676704
240	0x3c0ffc0c	0.00878812
241	0xbd41e62b	-0.047338646
242	0xbd085aa4	-0.033289567
243	0xbd26ed27	-0.04075351
244	0xbabbfdc4	-0.0014342596
245	0xbcacf71c	-0.021113925
246	0x3b021d0e	0.0019853744
247	0x3c94932c	0.018136583
248	0xbd0e2fe4	-0.03471364
249	0x3b898f3a	0.004197982
250	0xbc6abdb4	-0.014327455
251	0x3c6238ef	0.013807519
252	0xbcb96f21	-0.022635998
253	0x3d0c06e1	0.034186248
254	0x3cbed353	0.023294127
255	0xbc66842a	-0.014069596

bias f4 [32]
0	0x3ba3eee7	0.0050028446
1	0xbc43e185	-0.0119556235
2	0x3a8e09c8	0.0010836655
3	0xbd1646c6	-0.03668859
4	0x3bf1ac4c	0.0073752757
5	0xbcb1b24f	-0.02169147
6	0xbdf0a04b	-0.117493235
7	0xbdc454e8	-0.09586507
8	0x3d27e623	0.04099096
9	0xbd0d4f7b	-0.034499627
10	0xbd21b3bd	-0.039478052
11	0x3d91c098	0.071168125
12	0xbdc8a19e	-0.09796451
13	0xbbc67ca2	-0.006057338
14	0x3d875248	0.06607491
15	0xbccf47e8	-0.025302842
16	0xbca3680d	-0.019947076
17	0x3c404c24	0.011736903
18	0x3d93e39d	0.07221148
19	0xbdaa72ae	-0.08322655
20	0xbc313f1d	-0.01081827
21	0xbd04dbbc	-0.032436118
22	0xbd05590b	-0.03255562
23	0x3cd33e6e	0.025786605
24	0x3d19345f	0.03740346
25	0x3d33f3b8	0.0439336
26	0xbe06966d	-0.1314332
27	0xbd424824	-0.04743208
28	0xbda59bbc	-0.080863446
29	0x3bab3a82	0.0052254805
30	0xbd8b29f0	-0.06795108
31	0x3d33e375	0.04391809

weight f4 [64, 32, 5, 5]
0	0x3c79e350	0.015251949
1	0x3c9303d3	0.01794616
2	0x3d02796b	0.031854074
3	0x3a322e5a	0.0006797068
4	0xbc984fe3	-0.01859278
5	0xba90ef7f	-0.0011057704
6	0xbcd50065	-0.026001165
7	0xbb9e0f4e	-0.004823602
8	0x3c059317	0.008152745
9	0x3d42a172	0.047517247
10	0xbcc92c0c	-0.024557136
11	0xbb3831a8	-0.002810577
12	0x3c13307e	0.008983729
13	0xbb844acc	-0.004037237
14	0xbd0223bd	-0.031772364
15	0xbc1be8ed	-0.009515983
16	0xbd379556	-0.044820152
17	0xbcefd41a	-0.029275943
18	0xbc5a8091	-0.013336317
19	0xbca2c121	-0.019867482
20	0x3bde84a0	0.0067907125
21	0xbc55a08e	-0.0130387675
22	0xbb69974c	-0.0035643158
23	0xbb212478	-0.0024588387
24	0xbcb9089e	-0.022587117
25	0xbbbcdc97	-0.005763601
26	0xbc585dba	-0.01320594
27	0xbc842545	-0.016131053
28	0x3bdc4393	0.0067219227
29	0x3b474cd2	0.0030410779
30	0xbc160231	-0.009155796
31	0xbcacde23	-0.021102017
32	0x3d05edb7	0.032697406
33	0x3c0578df	0.008146494
34	0x3c4569b9	0.012049132
35	0xbccf50bb	-0.02530705
36	0x3c0e5e15	0.008689423
37	0x3cba5156	0.022743862
38	0x3d349e96	0.04409655
39	0xbcac9a8e	-0.021069791
40	0xbce14f93	-0.027503764
41	0xbb75659f	-0.0037444604
42	0xbcd1c250	-0.02560535
43	0xbcfddae4	-0.030988164
44	0xbb0a592a	-0.0021110275
45	0xbc346cb8	-0.011012249
46	0xbcdb74cf	-0.026789097
47	0x3c973801	0.018459322
48	0xbce637ea	-0.028102834
49	0xbc441748	-0.011968441
50	0xbd02e198	-0.031953424
51	0x3b39c36a	0.0028345236
52	0x3b8b28e1	0.0042468165
53	0x3b186828	0.0023255441
54	0xbac3e8aa	-0.0014946659
55	0x3bee7878	0.0072775446
56	0xbc67c764	-0.0141466595
57	0xbd166f76	-0.03672739
58	0x3c9c1345	0.019052157
59	0x3d017468	0.031605154
60	0xbcbf3497	-0.023340506
61	0x39a95485	0.00032297164
62	0xbb673396	-0.003527855
63	0xbc23e5e7	-0.010003543
64	0xbcf827f2	-0.030292485
65	0xbce9bda0	-0.028532803
66	0xbcba9f08	-0.02278091
67	0x3c0e207e	0.008674739
68	0xbcc7053e	-0.024294492
69	0xbc4190ad	-0.011814279
70	0xbc06d3d7	-0.0082292175
71	0x3d0351ad	0.032060314
72	0xbc5f7800	-0.01363945
73	0xbbdbbf01	-0.006706119
74	0xbc74fd6f	-0.014953001
75	0x3c4db87a	0.01255619
76	0x3c70352f	0.014661117
77	0x3d7feb3b	0.062480193
78	0x3d90ec3b	0.070763074
79	0x3b42d612	0.0029729647
80	0xbd2db7bd	-0.042411555
81	0xbd04981a	-0.032371618
82	0xbc37dd4c	-0.011222195
83	0x3d708765	0.058722872
84	0x3d807422	0.062721506
85	0x3b7ae640	0.0038284212
86	0x3c84d657	0.016215486
87	0xbd08fe11	-0.03344542
88	0xbd0c4131	-0.03424186
89	0x3c19819a	0.009369278
90	0x3bf192e5	0.0073722475
91	0xbd494775	-0.049140412
92	0xbd1e9872	-0.038719602
93	0xbd3a7e58	-0.045530647
94	0xbc1f1814	-0.0097103305
95	0xbb73f8aa	-0.0037227073
96	0xbbea6664	-0.007153319
97	0xbcfa33e5	-0.030542323
98	0xbd4484d1	-0.047978226
99	0x3d0cdef4	0.034392312
100	0xbb0972fe	-0.0020973082
101	0xbc26586a	-0.0101529155
102	0xbc4b546f	-0.012410267
103	0x3c688cc1	0.014193715
104	0x3c198207	0.00936938
105	0x3d2cc26d	0.042177606
106	0xbc3912a1	-0.011295945
107	0x3d1829fe	0.037149422
108	0xbba9f923	-0.00518717
109	0x3d087018	0.033310026
110	0x3ca5d1f4	0.020241715
111	0x3c5e1091	0.013553754
112	0xbc6706e6	-0.014100766
113	0x3bbb97cb	0.0057248822
114	0xbcb9b295	-0.022668162
115	0xbc3dd59a	-0.011586571
116	0xbc368bb3	-0.011141705
117	0xbc47e2e6	-0.012200093
118	0xbcde7706	-0.027156364
119	0xbb060575	-0.002045003
120	0x3c258486	0.010102397
121	0xbb3dd666	-0.0028966903
122	0xbcb83660	-0.022486866
123	0x3bb0b7c5	0.005393001
124	0xba57ac11	-0.0008227239
125	0xbd15ed4f	-0.03660327
126	0xbd0961f3	-0.033540677
127	0x3b5d174d	0.0033735812
128	0x3d61d04b	0.055130284
129	0x3c084a08	0.008318432
130	0x3d579096	0.052628122
131	0x3ceb64e3	0.02873463
132	0x3b44d294	0.003003274
133	0x3d3abc53	0.045589756
134	0x3c8ecfee	0.017433133
135	0x3d42dec4	0.047575727
136	0x3c2a7477	0.010403744
137	0xbbcf6de5	-0.006330239
138	0xbb72a8d7	-0.0037026906
139	0x3d1a1f59	0.03762755
140	0x3d51daed	0.051234175
141	0x3d116ab9	0.03550217
142	0x3cae3601	0.021265985
143	0xbc867e73	-0.016417718
144	0x3c924d1c	0.017859034
145	0x3d2a6490	0.04159981
146	0x3d5a9979	0.05336902
147	0x3c71a437	0.0147486245
148	0x3c43dd14	0.011954565
149	0x3d66d602	0.056356438
150	0x3c4f7d3a	0.012664134
151	0x3ca3733a	0.019952405
152	0x3d0cebe9	0.03440467
153	0xbd21f87a	-0.039543606
154	0xbc9cd827	-0.019146038
155	0x3d00008e	0.03125053
156	0x3d6de9e8	0.0580844
157	0x3d83c211	0.064334996
158	0xbd111150	-0.0354169
159	0xbc932cd2	-0.017965708
160	0x3cb4f2b0	0.022088379
161	0x3cb0ff06	0.02160598
162	0x3d5460c5	0.0518501
163	0x3bc3e784	0.0059785265
164	0xbcc57192	-0.024102006
165	0xbcd0504c	-0.025428914
166	0x3d1774d7	0.03697666
167	0x3d03fbfe	0.03222274
168	0x3c95ce3a	0.018286813
169	0xbc265e01	-0.010154248
170	0xbd37d636	-0.04488202
171	0xbcd63117	-0.026146455
172	0x3d2e52ec	0.04255955
173	0x3c7a42d6	0.015274724
174	0xbd14959b	-0.036275487
175	0xbcfa4d72	-0.030554507
176	0xbbbd3026	-0.005773562
177	0x3d158250	0.03650123
178	0x3ca56f57	0.020194693
179	0xbd2036f5	-0.03911491
180	0xbd049f80	-0.032378674
181	0xbcbcb486	-0.023035299
182	0x3d0201c1	0.031739954
183	0xbb9d52d2	-0.0048011327
184	0x3cbabbdd	0.022794658
185	0xbceca52e	-0.028887358
186	0x3c960e4f	0.01831737
187	0x3aba7653	0.0014225937
188	0x3cc7bf72	0.02438328
189	0x3d12d5d7	0.035848465
190	0x3cb36097	0.021896644
191	0x3bbf4413	0.0058369725
192	0x3b4aa78a	0.0030922615
193	0xbbf7775c	-0.0075520705
194	0x3cdf763b	0.027278056
195	0xbcb87801	-0.02251816
196	0x3c355cdb	0.011069502
197	0x3ccd6718	0.025073573
198	0xbbe3d172	-0.006952458
199	0x3cd84ca8	0.02640374
200	0x3c959587	0.018259777
201	0x3c9fe434	0.019517995
202	0xbd3c4050	-0.04595977
203	0xbd077874	-0.033073857
204	0x3cda3edf	0.026641307
205	0x3ce511c5	0.027962575
206	0x3d3e2ca4	0.04642929
207	0xbc1f363a	-0.009717518
208	0xbbdf7944	-0.006819876
209	0xbaf8e7fe	-0.0018990037
210	0xbab64e3e	-0.0013908816
211	0x371d1820	9.363546e-06
212	0x3d13714e	0.035996728
213	0x3a74b98f	0.0009335512
214	0x3c7f3833	0.015577364
215	0xbc70357b	-0.014661188
216	0xbb9835ec	-0.0046451
217	0xbc478596	-0.012177845
218	0xbd15f771	-0.03661293
219	0x3c368397	0.011139772
220	0xbcdb1774	-0.026744582
221	0xbc799112	-0.015232341
222	0x3d10bf99	0.03533897
223	0xbc7dee66	-0.015498733
224	0x3b4ee9d7	0.0031572485
225	0xbbab1fc6	-0.0052222935
226	0x3bca6f82	0.0061778435
227	0x3c93c3b4	0.018037654
228	0x3d8e035a	0.06934233
229	0xbcbd5679	-0.023112522
230	0x3c2a19dc	0.010382142
231	0xbc3eec0e	-0.0116529595
232	0x3c8e6058	0.017379925
233	0x3ce78958	0.028263733
234	0x3d5560f1	0.052094404
235	0xbd157c20	-0.036495328
236	0xbd22dbbb	-0.039760333
237	0x3b7dace4	0.0038707787
238	0x3cbb0075	0.022827366
239	0x3c432b64	0.011912201
240	0xbd44e815	-0.048072893
241	0xbcb8de14	-0.022566833
242	0xbd502558	-0.050816864
243	0x3b2e0556	0.0026553473
244	0x3c84cffb	0.016212454
245	0xbc349c75	-0.01102363
246	0xbd174f1e	-0.036940686
247	0x3c366ea8	0.011134781
248	0x3ca33831	0.019924255
249	0x3cf1999c	0.029492192
250	0xbcf7865a	-0.030215431
251	0xbb5f3e67	-0.0034064294
252	0x3cce30e1	0.025169792
253	0x3c882f94	0.01662425
254	0xba3ab720	-0.00071226247
255	0xbb5d1cc7	-0.0033739076

bias f4 [64]
0	0xbca2b441	-0.019861342
1	0xbc260d4d	-0.010135007
2	0xbc590204	-0.0132451095
3	0xba10853f	-0.0005513019
4	0x3cd2eb01	0.025746824
5	0x3bf35d79	0.0074269143
6	0x3ca11820	0.019664824
7	0xbd4e7bca	-0.050411023
8	0xbd07aaa7	-0.03312173
9	0xbc6a599d	-0.014303592
10	0xbd4ba1e9	-0.049714956
11	0x3cfcbad0	0.030850798
12	0xbd474fc6	-0.048660062
13	0x3d36487e	0.044502728
14	0x3c8f0f6e	0.017463412
15	0xbd84b747	-0.0648027
16	0xbd04e967	-0.032449152
17	0xbdc8122b	-0.0976909
18	0xbcfb859d	-0.03070336
19	0xbd36c7f0	-0.04462427
20	0xbb09326f	-0.0020934602
21	0x3d1b941a	0.037983038
22	0xbca20187	-0.019776119
23	0xbce39cdf	-0.027784763
24	0xbd91e4d0	-0.07123721
25	0xbc4ab88c	-0.012373101
26	0x3cb6425e	0.022248443
27	0xbc6502fe	-0.013977764
28	0x3d1f5d76	0.03890749
29	0x3c404646	0.0117355045
30	0xbbeb87d9	-0.007187825
31	0xbd3a3f54	-0.04547055
32	0xbc472e69	-0.012157061
33	0xbd3bacfc	-0.045819268
34	0xbd2865e4	-0.041112795
35	0xbd491e27	-0.04910102
36	0xbd5b36bb	-0.053518992
37	0xbd3cdeb9	-0.046110842
38	0x3b24ad3b	0.0025127667
39	0xbd406791	-0.04697377
40	0xbd21ebd2	-0.039531536
41	0xbcf5a38c	-0.029985212
42	0xbd7cc67c	-0.061712727
43	0xbcbf08da	-0.02331965
44	0xbd3fc589	-0.046819244
45	0xbd7302c0	-0.059328794
46	0xbd19774f	-0.037467297
47	0xbccbcb4c	-0.024877213
48	0xbcf59f25	-0.029983113
49	0x3d1e9250	0.038713753
50	0xbc52f345	-0.012875383
51	0x3cf0f538	0.029413804
52	0xbd2f656b	-0.04282133
53	0x3d100074	0.035156682
54	0xbc034e2c	-0.008014243
55	0x3d759673	0.059957933
56	0xbd8b0f07	-0.067899756
57	0xbc581746	-0.013189143
58	0x3b8dc197	0.004326056
59	0x3ca64d07	0.020300401
60	0xbc0b5801	-0.0085048685
61	0xbd9e6801	-0.07734681
62	0xbbd2f06e	-0.006437353
63	0x3b95c0bc	0.004570095

weight f4 [64, 1024]
0	0xbce83012	-0.028343234
1	0x3c9a411a	0.018829871
2	0x3ad05f04	0.0015897457
3	0xbcb184bf	-0.021669744
4	0x3d1d8b41	0.03846288
5	0x3c03d3e1	0.008046121
6	0xbc25e0a1	-0.0101243565
7	0xbc1afa9e	-0.009459166
8	0xbcf660c9	-0.030075448
9	0xbd54d59d	-0.05196153
10	0x3d39e6dc	0.04538618
11	0x3c53a00c	0.012916576
12	0x3d1b717e	0.03795003
13	0xbc161844	-0.009161059
14	0x3bac3b66	0.0052561043
15	0x3b79aae8	0.0038096253
16	0x3cd6d95f	0.026226697
17	0xbc78301d	-0.01514819
18	0xbd1639dc	-0.036676273
19	0x3d0af147	0.033921506
20	0xbcfdaf4f	-0.030967383
21	0xbd1ec8bc	-0.038765654
22	0xbc5ccf05	-0.013477092
23	0x3c1ffd8d	0.009765041
24	0x3d0aea27	0.03391471
25	0xbc4cb5be	-0.012494503
26	0xbc9a9f14	-0.018874682
27	0x3d04bd03	0.032406818
28	0x3cd2f922	0.025753561
29	0x3d325e91	0.043547217
30	0x3d0603b0	0.03271836
31	0xbc9095be	-0.017649528
32	0xbc9a3064	-0.018821903
33	0x3d06e149	0.032929692
34	0xbce20c93	-0.027593886
35	0x3cc9bdb1	0.024626585
36	0xbbd9d085	-0.006647172
37	0x3cb7cbe2	0.022436086
38	0xbc240cc0	-0.010012805
39	0xbc57f1b9	-0.01318019
40	0x3c9efe2d	0.01940831
41	0xbcc33e63	-0.02383346
42	0xbbdcbaaa	-0.0067361193
43	0x3d03ef94	0.0322109
44	0xbd2481be	-0.040162794
45	0x3c27297b	0.010202761
46	0x3d104fa3	0.035232197
47	0x3c136d42	0.008998217
48	0x3b9b0add	0.0047315196
49	0xbcf0acad	-0.029379213
50	0x3c74dd58	0.014945351
51	0xbc33d2b4	-0.0109755285
52	0x3cefb41d	0.02926069
53	0xbccf12c3	-0.025277501
54	0x3ce51850	0.027965695
55	0x3cd6801d	0.026184136
56	0x3d0a1852	0.0337146
57	0xbca70341	-0.020387294
58	0xbb2f0be3	-0.0026709966
59	0x3c412942	0.011789622
60	0x3c5f2c47	0.013621396
61	0xbd13923b	-0.036028128
62	0x3c80dd51	0.015730532
63	0xbd0c1c1a	-0.034206487
64	0xbb579c62	-0.0032899608
65	0x3b8aa18b	0.004230683
66	0x3cf69a64	0.030102916
67	0xbbf050fb	-0.0073338724
68	0x3c067d6d	0.008208615
69	0xbc1703cf	-0.009217217
70	0xb730eda0	-1.0545744e-05
71	0xbc684421	-0.014176399
72	0x3c87a335	0.016557315
73	0x3d074ac3	0.033030283
74	0xbcaa526d	-0.020791257
75	0xbd1ad025	-0.03779616
76	0xbbd49fec	-0.0064887907
77	0xbca7da3b	-0.020489803
78	0x3c016e97	0.007899902
79	0x3b860913	0.004090437
80	0xbc7928f7	-0.015207521
81	0x3cc5547d	0.024088139
82	0xbbe134a6	-0.0068727313
83	0x3cbb3b55	0.02285544
84	0xbc82d51a	-0.015970755
85	0x3c71f444	0.01476771
86	0xbcbb5927	-0.02286966
87	0x3d24eef7	0.040266957
88	0x3b798255	0.0038072069
89	0x3ca8d9bf	0.020611642
90	0x3c28a028	0.0102920905
91	0x3d199bd6	0.037502132
92	0x3c564c5d	0.01307973
93	0x3c81dbad	0.01585182
94	0x3cfb7495	0.03069524
95	0x3c6953a7	0.014241136
96	0x3d25ff79	0.04052684
97	0x3c91ffe7	0.017822219
98	0x3aa21292	0.0012365154
99	0xbc06c5bb	-0.008225854
100	0x3c7d127f	0.015446304
101	0x3cf261e2	0.02958769
102	0xbc45ed8a	-0.0120805595
103	0xbc64ed16	-0.013972541
104	0x3cc61748	0.024181023
105	0x3b9e79de	0.004836305
106	0xbcbd2ca2	-0.023092572
107	0x3ba4438a	0.005012934
108	0x3c7d177a	0.015447492
109	0x3bf41c59	0.0074496684
110	0xbc9152c6	-0.017739665
111	0x3d01a7f2	0.031654306
112	0x3c5f0241	0.013611377
113	0xbc8ffdd2	-0.017577086
114	0xbd2cc462	-0.042179473
115	0x3c3a8420	0.01138404
116	0x3cda3f44	0.026641496
117	0xbcef50a2	-0.029213253
118	0xbd2ebe63	-0.042662036
119	0xbc873f9d	-0.016509825
120	0x3cc0ef65	0.023551652
121	0x3d47e8d6	0.048806034
122	0x3af01752	0.0018317497
123	0x3c8a52e0	0.016885221
124	0xbc4e4244	-0.012589041
125	0x3c3efcb7	0.011656932
126	0xbcd9470f	-0.026523141
127	0xbc8f2e42	-0.017478112
128	0x3cb26732	0.021777723
129	0x3bf72903	0.007542731
130	0xbc877a1a	-0.016537715
131	0x3b96cc7f	0.0046020146
132	0xbcc67707	-0.024226679
133	0xbb22a7af	-0.0024819185
134	0x3b12ea53	0.00224175
135	0xbd01220d	-0.031526614
136	0xbbd06f1f	-0.006360903
137	0xbd0aed2b	-0.033917587
138	0xbd03dbc9	-0.032192025
139	0xbcb028e3	-0.021503871
140	0xbd24493d	-0.040108908
141	0xbc3721ab	-0.011177461
142	0xbd06731a	-0.032824613
143	0x3c984864	0.018589206
144	0xbc7a824e	-0.015289856
145	0xbc007b2b	-0.0078418655
146	0x3c96a7ea	0.018390615
147	0xbc3c6c87	-0.011500484
148	0x3b78ca74	0.0037962468
149	0xb982e47a	-0.0002496576
150	0xbcf92d6e	-0.03041717
151	0x3c73cf4d	0.014880967
152	0x3d42c792	0.047553606
153	0x3d27a659	0.040930126
154	0x3c25d635	0.010121872
155	0xbbe25b26	-0.0069078384
156	0xbc7ad377	-0.015309206
157	0x3bd5e208	0.006527189
158	0x3a1829e4	0.0005804582
159	0x3d55a9e5	0.052163977
160	0x3bdf2c4b	0.0068107
161	0xbc9414ce	-0.018076327
162	0xbb966d7c	-0.0045906883
163	0xbcd90793	-0.02649287
164	0xbcc64b91	-0.024205955
165	0xbb966a7b	-0.00459033
166	0xbcc4ffa4	-0.02404768
167	0x3bac9122	0.0052663246
168	0x3c49ae7e	0.012309669
169	0xba4feb56	-0.0007931491
170	0xbd59ef55	-0.05320676
171	0xbcf44a4d	-0.029820586
172	0x3c1abb54	0.009444077
173	0x3c835e7c	0.016036265
174	0xbbca7a8a	-0.0061791586
175	0xbcda018e	-0.02661207
176	0xbcc4681b	-0.023975423
177	0x38ad0498	8.2501385e-05
178	0xbc1560e6	-0.009117341
179	0x3b9bee34	0.0047586206
180	0xbcc3a24d	-0.023881102
181	0x3a07514c	0.00051619555
182	0x3ceebe32	0.029143427
183	0x3bec330a	0.007208233
184	0x3ce97237	0.028496845
185	0x3b0902ae	0.0020906138
186	0x3d058a6a	0.032602705
187	0x3c2b94d6	0.010472497
188	0x3be1f784	0.0068959612
189	0xbb3bc5b1	-0.0028651769
190	0x3aeaae27	0.0017904685
191	0x3cd3d67a	0.025859106
192	0x3cb004f7	0.021486742
193	0x3cfae016	0.03062443
194	0xbcbecc14	-0.023290671
195	0xbc771fbf	-0.015083252
196	0xbcabaf9f	-0.020957766
197	0x3c5b7458	0.013394438
198	0xbd5a5376	-0.05330225
199	0xbc2709ad	-0.010195178
200	0x3bfef608	0.007780794
201	0x3bbe5884	0.0058088917
202	0xbc650445	-0.013978069
203	0x3ccb1437	0.024789913
204	0xbcf7ed13	-0.030264413
205	0x3c24a0a2	0.0100480635
206	0x3d078d96	0.03309401
207	0xbc77400f	-0.015090956
208	0xbcf34240	-0.029694676
209	0x3b970a94	0.0046094153
210	0xbca7e127	-0.020493103
211	0x3cc377c3	0.023860818
212	0xbd18a475	-0.037266213
213	0x3c994bf7	0.01871298
214	0xbab9ebdb	-0.001418467
215	0xbca130fd	-0.01967668
216	0xbcaf5c24	-0.02140624
217	0xbcf979d2	-0.030453596
218	0x3c5b1053	0.013370591
219	0x3cd30367	0.025758458
220	0xbba6cf31	-0.005090617
221	0x3c3f19cb	0.011663864
222	0x3cc74304	0.024323948
223	0x3d3226c8	0.043494016
224	0xbc0922a3	-0.008370074
225	0xbccb37c7	-0.02480687
226	0xb8a17a94	-7.69991e-05
227	0xbcd9f2e1	-0.026605071
228	0xbbc0d77f	-0.005885064
229	0x3ca1a1d3	0.019730484
230	0xbc7dbd5f	-0.015487044
231	0x3bff76b1	0.0077961315
232	0x3c9f3643	0.019435054
233	0xbc3c3226	-0.011486566
234	0x3cb9efaa	0.022697289
235	0x3c8c1424	0.017099448
236	0xbc30a441	-0.010781349
237	0x3bd00ea2	0.0063494006
238	0x3bb1ba42	0.005423815
239	0x3caa6371	0.02079937
240	0x3b27cf9d	0.0025605925
241	0xbceb1984	-0.02869869
242	0xbd180aee	-0.0371198
243	0x3bd2b732	0.00643053
244	0xbced993b	-0.02900373
245	0xbcaaa298	-0.020829484
246	0xbce0205c	-0.02735918
247	0xbc4b3f86	-0.012405282
248	0xbd2757ca	-0.040855207
249	0x3c8a6b3c	0.016896836
250	0xbc82f82b	-0.015987476
251	0xbd065428	-0.0327951
252	0xbac5bdd1	-0.0015086477
253	0xbcae152b	-0.021250328
254	0xbab1219c	-0.0013514045
255	0xbc21f28e	-0.00988449

bias f4 [64]
0	0xbc14fcc6	-0.009093469
1	0x3cb19cf1	0.02168128
2	0xbcb88eb2	-0.02252898
3	0x3c8c46b0	0.01712355
4	0x3c632bd1	0.013865427
5	0xbc9ee086	-0.01939417
6	0x3cc3052c	0.023806177
7	0x3d6d5729	0.05794445
8	0x3c9ff302	0.019525055
9	0xbc5236b3	-0.012830424
10	0xbd628a0e	-0.05530744
11	0x3c0bda05	0.008535867
12	0xbc7d7e74	-0.015472043
13	0x3cc111ea	0.023568112
14	0x3bf62131	0.007511281
15	0xbbbde87c	-0.0057955366
16	0xbb55f6b9	-0.003264828
17	0xbb8bc22a	-0.0042650895
18	0xbcb0c725	-0.021579335
19	0xbd2a9df1	-0.04165453
20	0x3cbf161d	0.023325974
21	0xbbf06362	-0.007336066
22	0x3d518283	0.051149856
23	0xbc2bde04	-0.010489944
24	0xbb016705	-0.0019745242
25	0x3c7b9efc	0.015357729
26	0xbc972c2c	-0.01845368
27	0xbc74e0fe	-0.01494622
28	0x3caa5428	0.020792082
29	0x3c28318d	0.01026572
30	0xbd07bd80	-0.033139706
31	0xbcbd4a71	-0.023106785
32	0x3d3a6e44	0.045515314
33	0x399a0b87	0.00029381757
34	0xbd1b8a38	-0.037973613
35	0x3d366615	0.044530947
36	0x3c614257	0.013748727
37	0xbc30f7c8	-0.010801263
38	0xbd2c3835	-0.04204579
39	0xbd16f56d	-0.03685515
40	0x3d008664	0.031378165
41	0x39cd9656	0.00039212656
42	0x3cc5d2c6	0.024148356
43	0x3c330b9e	0.010928063
44	0x3ca31d61	0.01991147
45	0xbcb9983f	-0.022655604
46	0x3d1048a0	0.03522551
47	0xbb2177a7	-0.0024637969
48	0xbcaa43bb	-0.02078425
49	0x3ac5ba3a	0.0015085407
50	0x3d5719ed	0.05251496
51	0xbcb66feb	-0.022270164
52	0x3d3b1ea4	0.045683518
53	0xbd817535	-0.063211836
54	0xbc53f72e	-0.01293735
55	0xbd26078a	-0.040534534
56	0x3cc57749	0.024104731
57	0xbd600b84	-0.054698482
58	0x3cff7fc2	0.03118885
59	0x3d147d04	0.036252037
60	0xbcab9b3c	-0.020948045
61	0xbc387cf2	-0.011260258
62	0x3cb59770	0.022166938
63	0xbcb68ae8	-0.022283033

weight f4 [10, 64]
0	0xbdf3b113	-0.118990086
1	0xbe0e757e	-0.13912007
2	0x3d2a787f	0.04161882
3	0xbb1746e3	-0.0023083023
4	0xbd9a4911	-0.075334676
5	0xbdd3186e	-0.10307394
6	0x3dd85551	0.10563148
7	0xbe86726a	-0.26259166
8	0x3e58f1c9	0.21185984
9	0xbb17f01f	-0.0023183895
10	0x3dc85a63	0.09782865
11	0xbe013a7c	-0.12619966
12	0xbd8d6710	-0.06904423
13	0xbd987576	-0.07444279
14	0xbdcbadab	-0.09945234
15	0x3d9ec3f7	0.07752221
16	0x3e33a413	0.17543058
17	0x3a3a615e	0.0007109846
18	0xbe3c83d2	-0.1840966
19	0x3e52488e	0.2053549
20	0x3d7e8e69	0.06214753
21	0x3e2537a7	0.16134511
22	0xbdc180de	-0.094484076
23	0x3e06429a	0.13111344
24	0x3d45f209	0.048326526
25	0xbd3f880a	-0.046760596
26	0xbe2138c6	-0.15744314
27	0x3e072e9e	0.13201377
28	0x3d9ef133	0.07760849
29	0x3d8bca6e	0.0682572
30	0xbe137fab	-0.1440417
31	0x3e4b8a47	0.19876967
32	0xbe09b9d0	-0.13449788
33	0x3db350c5	0.0875564
34	0x3d9a713c	0.07541129
35	0xbe1a2d00	-0.15056229
36	0xbd8ac175	-0.0677518
37	0x3e04fdb4	0.12987405
38	0x3e3d9e9a	0.18517533
39	0x3e15ebb6	0.14640698
40	0x3c0380d0	0.008026317
41	0x3d451216	0.04811295
42	0xbe32c20b	-0.17456834
43	0x3e4c7e87	0.19970141
44	0xbd2bccca	-0.04194335
45	0x3dca3e6b	0.098751865
46	0xbe25e030	-0.16198802
47	0x3e54d447	0.20784102
48	0x3e19d9ae	0.15024444
49	0x3e170083	0.14746289
50	0xbd2c5a33	-0.04207821
51	0x3ce7139b	0.02820759
52	0xbd5c0bba	-0.05372212
53	0x3e0d8294	0.13819343
54	0x3e00bd5f	0.1257224
55	0x3e25fa02	0.16208652
56	0xbba08bfd	-0.0048995004
57	0x3db5b10c	0.0887166
58	0xbd2e17ef	-0.042503294
59	0xbe1af912	-0.15134075
60	0x3e0540cf	0.13013004
61	0x3e019eee	0.12658283
62	0x3e25cd3d	0.16191573
63	0x3e2ac762	0.16677621
64	0xbddb9557	-0.10721844
65	0xbe12fa67	-0.14353333
66	0xbeacfe13	-0.33787593
67	0xbd82199d	-0.063525416
68	0xbd579e78	-0.052641362
69	0x3d72baac	0.059260055
70	0x3e4fd61e	0.20296523
71	0x3df9e3f1	0.122016795
72	0x3a649303	0.0008719416
73	0xbd9cd797	-0.07658308
74	0x3e341a8c	0.17588252
75	0x3e922f30	0.28551626
76	0xbda18ecc	-0.078885645
77	0xbeb7009c	-0.35742652
78	0x3e67452d	0.22584982
79	0xbe05a145	-0.130498
80	0xbdde0c6d	-0.10842214
81	0x3e4b3ea4	0.19848114
82	0xbe373c3d	-0.17894073
83	0xbd73df9a	-0.059539415
84	0x3dfe169d	0.12406657
85	0xbe526b8d	-0.2054884
86	0xbd935e47	-0.07195716
87	0xbe35fc96	-0.17772135
88	0xbc293fa7	-0.010330117
89	0xbc87f881	-0.016597988
90	0xbda40810	-0.0800935
91	0xbc951299	-0.018197345
92	0x3d05b7d4	0.032646015
93	0xbd6174c1	-0.055042986
94	0xbdc65d2e	-0.09685741
95	0x3da6266a	0.08112796
96	0xbda26129	-0.07928688
97	0x3e88359f	0.2660341
98	0x3c753b0a	0.014967689
99	0xbdfb665d	-0.122753836
100	0xbcb484c7	-0.02203597
101	0xbe2990dc	-0.16559166
102	0xbe51af4a	-0.20477024
103	0xbdfa7830	-0.12229955
104	0xbda74529	-0.08167488
105	0xbe89acf7	-0.26889774
106	0xbe16964f	-0.14705776
107	0xbda4f455	-0.08054415
108	0xbe2901a6	-0.16504535
109	0xbde919bb	-0.11381861
110	0xbe544d40	-0.20732594
111	0x3e25dcf4	0.16197568
112	0x3d5afc3b	0.053463202
113	0xbe1e2bb8	-0.15446365
114	0x3d31dfb8	0.043426245
115	0xbe113ffe	-0.14184567
116	0x3e8a1c36	0.26974648
117	0x3de111fb	0.109897576
118	0xbe1c0c42	-0.15239051
119	0xbd1ed08a	-0.038773097
120	0x3e23e578	0.16005504
121	0xbd945f94	-0.072447926
122	0x3dfc7e1d	0.12328742
123	0xbd98f2a8	-0.07468158
124	0xbe360170	-0.17773986
125	0x3cbfa5db	0.023394516
126	0xbd6b34ea	-0.05742351
127	0xbdfde69d	-0.123975016
128	0xbdb00478	-0.08594602
129	0x3e585239	0.21125115
130	0x3e44dcd5	0.19224866
131	0xbd20ac86	-0.03922703
132	0x3e3e6c5d	0.18596025
133	0xbe1f61af	-0.15564607
134	0xbcbd17f7	-0.023082716
135	0xbcc54a93	-0.024083411
136	0xbd9843af	-0.074347846
137	0x3da11a9c	0.078664035
138	0xbe08aca9	-0.13347115
139	0xbdca8c57	-0.09890049
140	0x3e333cfc	0.17503732
141	0xbae1061b	-0.0017167957
142	0xbc80e016	-0.015731853
143	0xbbdceebc	-0.0067423265
144	0x3e40ea0f	0.18839286
145	0x3da3c037	0.079956464
146	0xbdfb9173	-0.122836016
147	0x3df46fe0	0.11935401
148	0x3dbc5552	0.09195961
149	0x3e432b61	0.19059516
150	0x3b486ca9	0.0030582345
151	0xbe33b8f2	-0.1755102
152	0xbd2b0b29	-0.04175869
153	0x3d8fc00c	0.07019052
154	0x3e77d79d	0.24203344
155	0xbcb48a60	-0.022038639
156	0x3e5be908	0.21475613
157	0xbcbd918a	-0.023140687
158	0x3c5fcb03	0.013659242
159	0x3e0c3a7d	0.13694187
160	0x3caee3b7	0.021348817
161	0x3dd9fa8d	0.10643492
162	0xbc9ac846	-0.018894326
163	0xbe2c20e8	-0.16809428
164	0xbdf52e7f	-0.11971759
165	0xbc488ae0	-0.012240142
166	0x3ddb1a90	0.10698426
167	0x3c9d319a	0.01918869
168	0xbc02be8e	-0.007980002
169	0x3ddb8979	0.1071958
170	0xbd10e83a	-0.03537772
171	0x3dd0eed0	0.102018
172	0x3dc91645	0.09818701
173	0xbcfd56d0	-0.030925184
174	0x3e0a46cb	0.13503568
175	0xbdf84866	-0.12123184
176	0x3e0e00c2	0.13867477
177	0x3e71f2af	0.23627733
178	0x3cbc3df8	0.022978768
179	0x3d7c909d	0.06166135
180	0x3d54499b	0.05182801
181	0x3e40926f	0.1880586
182	0xbe184ad0	-0.14872289
183	0x3e0fac9f	0.14030693
184	0xbe769ea5	-0.24083956
185	0x3c44dcd3	0.012015539
186	0x3dca1151	0.09866584
187	0x3dce1e9e	0.100644335
188	0xbdc78c25	-0.09743527
189	0xbe16e551	-0.14735915
190	0xbe441d1b	-0.19151728
191	0x3e316b47	0.1732608
192	0x3da1a51c	0.0789282
193	0x3d143497	0.036182966
194	0x3e44bc9b	0.19212572
195	0xbd8807e5	-0.06642131
196	0x3da3e5b6	0.08002798
197	0xbb17bce9	-0.002315337
198	0x3db42105	0.087953605
199	0xbdda2fc2	-0.1065364
200	0xbdb8e799	-0.09028549
201	0xbd803eac	-0.06261954
202	0xbde83392	-0.11337961
203	0x3e083e16	0.13304934
204	0xbe29475e	-0.1653113
205	0x3de74e89	0.11294276
206	0xbe05bd53	-0.13060503
207	0xbde18649	-0.11011941
208	0xbc75780f	-0.0149822375
209	0xbe16a98c	-0.14713115
210	0x3d007760	0.031363845
211	0xbd8d40fb	-0.0689716
212	0x3e1fe078	0.15612972
213	0x3de958d6	0.11393897
214	0x3b861c78	0.004092749
215	0xbdad02e3	-0.08447816
216	0xbe17936a	-0.14802328
217	0xbe0db3e2	-0.13838151
218	0xbdebec7a	-0.11519714
219	0x3c72073d	0.014772234
220	0x3db573e7	0.08859997
221	0x3d9b94bb	0.075967275
222	0x3e26b381	0.16279413
223	0x3d8f278d	0.069899656
224	0xbe17545e	-0.14778277
225	0xbcbef4c6	-0.023310076
226	0x3db10fcf	0.086455934
227	0xbdb00c0d	-0.085960485
228	0xbd360fb0	-0.044448555
229	0x3db91480	0.09037113
230	0x3d28b2b2	0.041186042
231	0xbdfbd515	-0.122965015
232	0xbdd71cc1	-0.10503531
233	0x3daaa8cb	0.08332976
234	0x3e5b7d57	0.21434532
235	0xbd28c920	-0.041207433
236	0xbd4f8250	-0.050661385
237	0xbe038964	-0.12845379
238	0x3e41a56e	0.18910763
239	0xbb68afae	-0.0035505104
240	0xbd5c42a2	-0.053774484
241	0xbd075086	-0.033035778
242	0x3da5d21f	0.08096718
243	0x3dab4cfa	0.083642915
244	0x3d856799	0.065139
245	0xbd8735ae	-0.066020355
246	0x3d848739	0.06471104
247	0x3c2c8a9d	0.010531095
248	0xbd92c0e3	-0.071656965
249	0x3e422503	0.18959431
250	0x3d026407	0.031833675
251	0xbd84cfc4	-0.06484941
252	0x3c8c4655	0.01712338
253	0xbe3b1635	-0.1827019
254	0x3d079125	0.033097405
255	0xbda0720f	-0.07834255

bias f4 [10]
0	0xbd2f2d46	-0.042767785
1	0xbd2debaf	-0.042461094
2	0x3c0b56c2	0.008504571
3	0xbcf66012	-0.030075107
4	0x3d9eb1e8	0.07748777
5	0xbdae5346	-0.08511977
6	0x3d6a89fb	0.057260495
7	0x3cef253f	0.029192565
8	0x3d157070	0.036484182
9	0x3bcb64c7	0.006207082
