DeepLearningDemo/models/jingxin_5.pth (torch, 587999 bytes, 10 tensors)

weight f4 [32, 3, 5, 5]
0	0x3cbc2f85	0.022971878
1	0x3d85f5df	0.06541037
2	0x3c46aa2c	0.012125533
3	0x3e12f00e	0.14349386
4	0x3e04a0f8	0.1295203
5	0x3d453e63	0.0481552
6	0xbd5c7840	-0.053825617
7	0xbd25b653	-0.04045708
8	0xbdaeeda6	-0.085414216
9	0xbd6fe4a0	-0.058567643
10	0xbd27b103	-0.040940296
11	0x3d872ae0	0.06599975
12	0xbdb48fd7	-0.08816498
13	0xb9b0167c	-0.00033586088
14	0xbe0a5ff6	-0.13513169
15	0xbe2598c9	-0.16171564
16	0xbe340027	-0.17578183
17	0xbcd0194b	-0.025402686
18	0xbdd66a73	-0.10469522
19	0x3d182081	0.037140373
20	0xbe01a18a	-0.12659279
21	0xbe1fee4b	-0.15618245
22	0xbe4e33ba	-0.2013692
23	0xbe147462	-0.14497522
24	0xbe011045	-0.12603863
25	0x3df40261	0.11914516
26	0xbd02b9dd	-0.031915534
27	0x3e0ecac1	0.13944532
28	0xbbbd9c2c	-0.0057864394
29	0xbb4a0ecc	-0.0030831574
30	0x3de7f6b4	0.11326352
31	0x3dda446a	0.1065758
32	0xbc34f04f	-0.011043622
33	0x3cab1b7e	0.020887133
34	0xbd96b3ec	-0.07358536
35	0xbccd101a	-0.025032092
36	0xbc42202a	-0.011848489
37	0xbdbee1a7	-0.093203835
38	0xbda3def3	-0.080015086
39	0xbb17cafe	-0.0023161764
40	0xbdf9d0e1	-0.121980436
41	0xbe1f4149	-0.15552248
42	0xbe025730	-0.12728572
43	0xbc25d258	-0.010120951
44	0xbd842c90	-0.06453812
45	0xbd350a8b	-0.044199508
46	0xbdc67828	-0.09690887
47	0xbda21525	-0.07914189
48	0xbe336e6f	-0.17522596
49	0xbe10cb6c	-0.141401
50	0x3d13a920	0.036049962
51	0x3e2eb6b3	0.17061882
52	0x3e0480d0	0.12939763
53	0x3d6e5a6c	0.0581917
54	0x3d58bb5e	0.052913062
55	0x3e2f1045	0.1709605
56	0x3d106b1e	0.035258405
57	0x3deaa373	0.11456957
58	0x3e07c14c	0.1325733
59	0x3cfe5553	0.031046545
60	0x3cabf8a6	0.020992588
61	0x3d0b86fe	0.034064285
62	0x3e08e336	0.13367924
63	0x3b2a243e	0.0025961543
64	0x3e08c50c	0.13356417
65	0xbd32e121	-0.04367173
66	0xb98faae0	-0.00027402397
67	0x3d148bfb	0.03626631
68	0x3c2861e0	0.0102772415
69	0x3dc9213b	0.09820791
70	0x3dd8c7c7	0.105849795
71	0x3c48f90c	0.012266409
72	0x3d2de91c	0.04245864
73	0x3dcc12d9	0.099645324
74	0x3dd417bd	0.1035609
75	0x3e0a0d59	0.13481654
76	0x3e283a90	0.1642859
77	0x3e2c25e0	0.16811323
78	0x3dd631cf	0.10458719
79	0x3bc8cbe8	0.006127823
80	0x3e2690d7	0.1626619
81	0x3e07d882	0.13266185
82	0x3e26967e	0.16268346
83	0x3da630e5	0.08114795
84	0x3d46d4e9	0.04854289
85	0x3e200da6	0.15630206
86	0x3df858ee	0.12126337
87	0x3d5d2e44	0.0539992
88	0x3db01c02	0.08599092
89	0x3c87064b	0.016482493
90	0x3c971a01	0.018445017
91	0x3db0631f	0.08612656
92	0x3d2f7937	0.04284021
93	0x3d3ddacb	0.046351235
94	0x3d84a8fc	0.06477544
95	0x3d6cf938	0.05785486
96	0x3d9bd774	0.07609454
97	0xbd40678e	-0.046973757
98	0xbdc8c61d	-0.09803412
99	0x3c6aba34	0.014326621
100	0xbd1ae2a9	-0.037813816
101	0x3afc86f7	0.0019266297
102	0xbb458428	-0.0030138586
103	0x3a7e2286	0.00096944754
104	0x3d8a846e	0.0676354
105	0xbbc8880d	-0.006119734
106	0x3dcdafee	0.100433215
107	0x3db4a56f	0.088206165
108	0xbb9520bc	-0.0045510214
109	0xbe025d8a	-0.12730995
110	0x3d997afd	0.07494161
111	0x3d5cd87a	0.053917386
112	0xbdeace64	-0.11465147
113	0xbd8befa4	-0.06832817
114	0xbd5cf8c3	-0.053948175
115	0x3d4e026e	0.050295286
116	0xbdc5b716	-0.096540615
117	0x3dbf1b76	0.0933141
118	0xbc2f0d69	-0.01068435
119	0xbe1e83d0	-0.1547997
120	0xbd68a9b8	-0.05680248
121	0xbe0e40e4	-0.13891941
122	0xbe2553d7	-0.16145264
123	0xbddcdeb1	-0.107846625
124	0xbe249e39	-0.16075982
125	0x3dc237ab	0.09483274
126	0x3df28308	0.118413985
127	0x3d48ef12	0.04905612
128	0xbda4048f	-0.08008682
129	0xbe13a23e	-0.14417359
130	0xbc8d7706	-0.017268669
131	0x3d0e3c43	0.03472544
132	0xbdc1df0b	-0.0946637
133	0xbd8083b8	-0.06275123
134	0xbe078e19	-0.132378
135	0x3d3d2aea	0.046183504
136	0xbcca3a63	-0.024686044
137	0x3ce09781	0.027415993
138	0xbe075cf8	-0.13219059
139	0xbe095697	-0.13411938
140	0x3def1eff	0.11675834
141	0x3dde7e93	0.10863986
142	0x3c989513	0.018625772
143	0xbd9dfc6e	-0.07714163
144	0xbd462b17	-0.048380937
145	0xbde1b23a	-0.11020322
146	0x3d395909	0.045250926
147	0x3c98bf13	0.018645799
148	0x3b696570	0.003561344
149	0xbdbd0d71	-0.09231079
150	0x3cd8078b	0.026370784
151	0xbd94c916	-0.072649166
152	0x3cf50287	0.029908432
153	0x3cc9d432	0.024637315
154	0xbdde5bc5	-0.108573474
155	0xbcd58aa2	-0.026067082
156	0x3caa6e09	0.020804422
157	0xbce37bce	-0.027768996
158	0x3d001f5d	0.03127991
159	0xbde0fd2d	-0.109857894
160	0x3d173107	0.03691199
161	0x3dc1dcf6	0.09465973
162	0x3d7492ef	0.05971044
163	0xbc9f4b7a	-0.01944517
164	0x3dab0ab1	0.083516486
165	0x3e103144	0.14081293
166	0x3d75de25	0.060026307
167	0x3df88e29	0.1213649
168	0x3dc3bba7	0.09557276
169	0xbd1805ac	-0.037114784
170	0x3d2c5462	0.04207266
171	0x3c89c9d7	0.016819878
172	0x3d82ec14	0.063926846
173	0xbdae8e11	-0.08523191
174	0xbd15f408	-0.03660968
175	0xbbac41c6	-0.0052568642
176	0x3dc17f89	0.094481535
177	0xbb7a8a27	-0.0038229318
178	0xbc1eefe5	-0.00970075
179	0xbc4d833f	-0.012543499
180	0xbd67c2c3	-0.056582224
181	0x3cf02cf0	0.029318303
182	0xbdcd1394	-0.100135
183	0xbd8bb93b	-0.06822439
184	0x3bc0d331	0.005884551
185	0x3d15efca	0.036605634
186	0x3d2d5502	0.042317398
187	0xbd9f3478	-0.077736795
188	0xbd47c28d	-0.048769522
189	0xbe0684a9	-0.13136543
190	0xbdde478c	-0.1085349
191	0xbdb629c9	-0.08894689
192	0x3d1a38d5	0.037651855
193	0xbdeaaf5e	-0.1145923
194	0x3d7f04f6	0.06226059
195	0xbe24b850	-0.16085935
196	0xbe10a96c	-0.1412713
197	0xbe2d9991	-0.16953112
198	0xbde7eadf	-0.11324095
199	0xbcd80849	-0.026371138
200	0x3e252fb2	0.16131476
201	0x3e1afd2b	0.15135638
202	0x3dd5acd0	0.10433352
203	0x3dc9ed41	0.09859706
204	0x3d85305e	0.06503366
205	0x3da7ed72	0.08199586
206	0x3d3bf49f	0.045887586
207	0xbd1b4567	-0.037907984
208	0x3c3f8b28	0.011690892
209	0x3dc4b385	0.09604553
210	0xbd695e72	-0.056974836
211	0x3d9922ff	0.07477378
212	0x3dfe3ebb	0.12414309
213	0x3e1a5914	0.15073043
214	0x3d55ad96	0.052167498
215	0xbba20293	-0.0049441545
216	0xbd43a79b	-0.047767263
217	0xbc305713	-0.010762948
218	0xbd5ffee3	-0.05468644
219	0x3da0cb58	0.07851285
220	0xbd5b78f8	-0.05358216
221	0x3c64bf20	0.013961583
222	0x3dc3a8bd	0.09553669
223	0x3d999e31	0.07500876
224	0xbdab165d	-0.08353875
225	0xbb4b0b3c	-0.0030982038
226	0xbda9fe5e	-0.0830047
227	0xbe102a02	-0.14078525
228	0xbe066aa2	-0.13126615
229	0x3d859447	0.06522422
230	0xbdc9e7ef	-0.09858691
231	0xbc95de44	-0.018294461
232	0x3cae8a6f	0.021306245
233	0xbd6580ee	-0.05603116
234	0x3db36753	0.08759942
235	0x3dc05afe	0.093923554
236	0x3c152c76	0.009104839
237	0x3d65d03d	0.056106795
238	0x3de31618	0.110881984
239	0x3e08fcb3	0.13377647
240	0x3dcb5f8b	0.09930333
241	0x3c969090	0.01837948
242	0x3d54ea72	0.051981397
243	0x3d2a6d78	0.041608304
244	0xbd2c2802	-0.042030342
245	0xbdbc07c4	-0.09181169
246	0x3c79666a	0.015222171
247	0xbdb50ee8	-0.08840734
248	0xbc5251e8	-0.012836911
249	0x3c80cdad	0.015723074
250	0xbe16acb5	-0.1471432
251	0x3d409560	0.047017455
252	0xbdfe44cc	-0.12415466
253	0xbe000a09	-0.12503828
254	0xbdb4bad2	-0.08824696
255	0xbd6de76c	-0.05808203

bias f4 [32]
0	0xbdceb76d	-0.100935794
1	0xbe651adc	-0.22373527
2	0xbe79991e	-0.24374816
3	0x3d380744	0.044928804
4	0x3cc66e12	0.024222407
5	0xbe6ac832	-0.22927931
6	0x3e24505f	0.16046284
7	0x3d84fe1e	0.064937815
8	0x3ca7dbfd	0.02049064
9	0xbd16050e	-0.036625914
10	0xbe8cd448	-0.27505708
11	0xbdae1271	-0.08499611
12	0xbde6b1b6	-0.112643644
13	0xbe3b13d1	-0.18269278
14	0xbdd0e03d	-0.1019902
15	0x3d93dfa2	0.07220389
16	0x3e7594f9	0.2398261
17	0xbd92a8af	-0.0716108
18	0xbcba115a	-0.022713352
19	0xbe1d1e05	-0.15343483
20	0xbe4ce0ff	-0.20007704
21	0x3c0c06ba	0.008546526
22	0xbd12ca71	-0.035837594
23	0x3e07892e	0.13235924
24	0x3dab7642	0.08372165
25	0xbe0a5c85	-0.13511856
26	0x3e60f64c	0.21968955
27	0xbd771d84	-0.060330883
28	0xbc1e2b6f	-0.00965391
29	0xbdc55018	-0.09634417
30	0x3e432f67	0.19061051
31	0xbe6a3e65	-0.22875364

weight f4 [32, 32, 5, 5]
0	0xba059133	-0.0005095184
1	0xbb36bb5f	-0.0027882678
2	0x3d6a1d8f	0.057157096
3	0x3c229507	0.009923226
4	0xbbe9f378	-0.0071396194
5	0x3d0e4799	0.03473625
6	0x3c7ceb50	0.015436962
7	0x3ce47c02	0.027891163
8	0xba5a0eca	-0.0008318244
9	0xbb89f8dc	-0.0042105746
10	0xbd223e81	-0.03961039
11	0xbd56969c	-0.052389726
12	0xbd10e66b	-0.035375994
13	0xbd334eb1	-0.043776218
14	0xbbb85866	-0.0056257723
15	0x3cc3d4bb	0.023905149
16	0x3d093213	0.03349502
17	0x3d516b22	0.05112756
18	0x3bff5b71	0.007792883
19	0xbca8ae36	-0.020590883
20	0xbcca9ca2	-0.024732891
21	0x3cfc5d6c	0.030806266
22	0xbcce6b12	-0.02519754
23	0x3d0e3299	0.034716222
24	0x3b94b55c	0.0045382213
25	0xbd169b86	-0.036769412
26	0x3cd28f7c	0.025703184
27	0x3caa6efb	0.020804873
28	0xbc74c422	-0.01493934
29	0x3cbc10af	0.022957174
30	0x3d06987c	0.032860264
31	0x3bc7acd5	0.006093601
32	0xbc22780b	-0.009916316
33	0xbb9630b0	-0.0045834407
34	0xbcc669d6	-0.024220388
35	0xbcef3a6f	-0.029202668
36	0x3c26b145	0.0101741
37	0x3ce253a0	0.027627766
38	0xbd05b1bc	-0.032640204
39	0xbd004447	-0.031315114
40	0x3d1bceac	0.038038895
41	0x3ca43a79	0.020047413
42	0xbc163ebe	-0.009170232
43	0x3c899988	0.016796842
44	0x3ce7cb99	0.028295325
45	0x3cf42afd	0.029805655
46	0xbc8b817a	-0.017029513
47	0x3cb8ff10	0.02258256
48	0x3b852590	0.0040633157
49	0x3b2ccd4e	0.0026367488
50	0x3c82e664	0.015979
51	0xba96376f	-0.0011460612
52	0x3c00b7c3	0.007856312
53	0x3cd03fc4	0.02542103
54	0x3c6c8c8f	0.014437809
55	0xbb6620e3	-0.0035114817
56	0xbc0cc41b	-0.008591677
57	0x3ca49653	0.020091211
58	0x3d0615d7	0.03273567
59	0x3d0bd15b	0.034135204
60	0x3caf6983	0.021412617
61	0xbcb06ab0	-0.021535248
62	0xbc09931a	-0.008396888
63	0xbc90cc9c	-0.01767569
64	0x3c2db54d	0.0106023075
65	0xbc3d1de7	-0.011542774
66	0xbcb34d2e	-0.021887388
67	0xbc96c0a2	-0.018402401
68	0x3cacad2e	0.021078672
69	0xbcd9ed00	-0.026602268
70	0xbc1daed1	-0.009624199
71	0x3cd2ab6c	0.025716506
72	0xb8c666d4	-9.460529e-05
73	0x3a28624e	0.000642334
74	0xbce2406b	-0.027618608
75	0x3d16d0ad	0.036820102
76	0x3c4e4cc0	0.012591541
77	0x3bfdd2ab	0.007746061
78	0x3d05c340	0.032656908
79	0x3bc320f5	0.0059548565
80	0x3c4b3b4a	0.012404272
81	0x3d09bc0d	0.033626605
82	0xbc2679de	-0.010160891
83	0x3cc58852	0.024112854
84	0xbd0a0cf1	-0.033703748
85	0x3d1db5e8	0.038503557
86	0x3b5a24a3	0.0033285997
87	0x3d461ed5	0.048369247
88	0x3d154101	0.036438946
89	0xbc83db4b	-0.016095778
90	0x3c0d35b9	0.0086187655
91	0x3ce412d8	0.027841017
92	0x3c64aba3	0.013956937
93	0xbb92497e	-0.0044643274
94	0x3c0371c4	0.008022729
95	0xbd043ef6	-0.032286607
96	0x3c950bed	0.018194163
97	0xbc4981fc	-0.012299057
98	0xbc9e4862	-0.019321624
99	0xbd27fb84	-0.04101135
100	0x3bf92ee9	0.007604469
101	0x3cc032e0	0.02346176
102	0x3d34812a	0.044068493
103	0x3d3d6d02	0.046246536
104	0xbc6fe10c	-0.014641058
105	0x3cd42095	0.025894443
106	0x3cb48654	0.022036709
107	0xbc480109	-0.012207278
108	0x3d1edffd	0.03878783
109	0x3d4869d4	0.04892905
110	0x3c97eb06	0.018544685
111	0xbbc74b6f	-0.0060819904
112	0x3c1a3e2c	0.009414237
113	0xbd130e7e	-0.035902493
114	0xbb197969	-0.0023418313
115	0x3d0bf869	0.03417245
116	0x3c38c277	0.011276833
117	0xbbc29b77	-0.005938943
118	0xbc8e385e	-0.017360862
119	0x3bc07ead	0.005874476
120	0xbcbf5976	-0.023358088
121	0x3d08311b	0.033249956
122	0x3c5c0c53	0.013430673
123	0x3b9ec27a	0.0048449608
124	0xbc9041f6	-0.017609578
125	0x3d274ada	0.04084287
126	0x3c84d4ea	0.016214807
127	0xbcd2469b	-0.025668433
128	0x3c9d71f8	0.019219384
129	0xbc8337df	-0.016017852
130	0x3c21d4bb	0.009877379
131	0x3cbcf79e	0.023067292
132	0xbcc8286c	-0.024433337
133	0x3cbc4fb6	0.022987228
134	0x3c148914	0.009065885
135	0x3cad76d7	0.021174831
136	0x3d11bc74	0.035580114
137	0xbd00fdcf	-0.03149205
138	0xbc87bfe6	-0.016570996
139	0xbbac3bbe	-0.0052561453
140	0x3d2380f5	0.039917905
141	0x3d08fc3a	0.033443667
142	0x3d4d61b2	0.050141998
143	0x3c55c637	0.013047746
144	0x3d0ba1c3	0.034089815
145	0x3ccda494	0.025102891
146	0xbc253557	-0.010083518
147	0x3ca72635	0.02040396
148	0x3c4ff234	0.012692023
149	0x3bf29801	0.007403374
150	0xbbcff96f	-0.0063468735
151	0x3be91e63	0.007114218
152	0xbc31c7c0	-0.010850847
153	0xbc9ade72	-0.018904898
154	0xbc8fb05b	-0.017540148
155	0xbcf9b5fb	-0.030482283
156	0x3c7aa31c	0.015297677
157	0x3cc1f47d	0.023676151
158	0x3bcd8227	0.006271619
159	0x3c0a7c3c	0.008452471
160	0xbcc3962f	-0.023875324
161	0xbd1e755b	-0.038686138
162	0x3afb707c	0.0019183303
163	0xbd371fec	-0.044708177
164	0xbccdc90a	-0.025120277
165	0x3ca5dfca	0.020248313
166	0xbaf91471	-0.0019003284
167	0x3d2d4097	0.042297926
168	0x3b8cf4c2	0.0043016383
169	0xbce92b33	-0.028462982
170	0xbcbfaa0c	-0.023396514
171	0xbc9ab332	-0.018884275
172	0x3c0855d3	0.008321243
173	0x3a12707e	0.00055862207
174	0xbc257329	-0.010098257
175	0x3c84edcc	0.016226672
176	0x3b8af5ee	0.004240743
177	0x3d12eb06	0.035868667
178	0x3d15be59	0.036558483
179	0x3d0443c7	0.0322912
180	0x3c63bbfe	0.013899801
181	0x3d0e4420	0.034732938
182	0xbc88aaec	-0.016683064
183	0xbc55ea05	-0.013056283
184	0xbc89d290	-0.016824037
185	0x3b2bef90	0.002623532
186	0xbcae6910	-0.021290332
187	0xbc7f06f8	-0.015565626
188	0x3c75d037	0.015003256
189	0xbc246c90	-0.010035649
190	0x3ca9826f	0.020692078
191	0x3cd31479	0.025766598
192	0xbc06abbe	-0.0082196575
193	0xbcfa04f1	-0.030519934
194	0x3c4d2fed	0.012523633
195	0xbd2b8e23	-0.0418836
196	0x3c98c2c2	0.018647555
197	0x3cde221d	0.027115876
198	0xbb5dec7d	-0.0033862882
199	0x3ced05d3	0.028933441
200	0x3aca2106	0.0015421219
201	0x3c414ebb	0.011798556
202	0x3b1ef9c3	0.0024257756
203	0x3d06aa17	0.032877054
204	0x3cc18e63	0.023627466
205	0x3d4d05b8	0.050054282
206	0x3d34cdcc	0.044141576
207	0x3d0e1046	0.03468349
208	0x3cc3a3eb	0.023881873
209	0x3b503ae4	0.0031773383
210	0x3cdec3ed	0.027193034
211	0xbbfb0fdd	-0.007661803
212	0x3c343fdc	0.011001553
213	0xbc5c5003	-0.013446811
214	0x3c8f39c4	0.0174836
215	0xbd25f3cb	-0.040515702
216	0x3c5980c4	0.013275329
217	0xbc0c4722	-0.008561881
218	0xbcbf5c56	-0.023359459
219	0xbcc8d0bc	-0.024513595
220	0xbbd488c9	-0.0064860326
221	0x3ca5bfcf	0.020233063
222	0x3befb7dc	0.007315619
223	0xbcc0e0d4	-0.023544706
224	0x3ce72db9	0.028220044
225	0x3d4bb527	0.049733307
226	0x3d3307ec	0.043708727
227	0x3b35d3b3	0.002774459
228	0xbcde0bf0	-0.027105302
229	0xbcc811dc	-0.024422579
230	0x3d31c51f	0.04340088
231	0x3d68da24	0.05684866
232	0x3d3257d2	0.043540783
233	0xbc3ec475	-0.011643519
234	0xbcba03c0	-0.022706866
235	0xbba82222	-0.005131022
236	0xbbf2b30a	-0.007406597
237	0x3d0ebb21	0.03484643
238	0x3cbd5ce7	0.023115588
239	0x3d4734f6	0.04863449
240	0x3c3a0070	0.011352643
241	0xbd284416	-0.041080557
242	0xbcbf23a2	-0.02333242
243	0xbd271985	-0.04079582
244	0xbbf00672	-0.007324987
245	0xbcad15cc	-0.021128558
246	0x3abde094	0.0014486485
247	0x3c9933ec	0.018701516
248	0xbd0e9a5b	-0.034815174
249	0x3bb247a3	0.0054406687
250	0xbc8be656	-0.017077606
251	0x3c5c0800	0.013429642
252	0xbcb792e1	-0.022408905
253	0x3d06f58e	0.032949023
254	0x3cb62b36	0.022237401
255	0xbc808fe7	-0.015693618

bias f4 [32]
0	0x3b84b5e9	0.0040500057
1	0xbc6067ad	-0.013696593
2	0x3cc7da2a	0.02439602
3	0xbc9e98a9	-0.019359903
4	0x3c844789	0.016147392
5	0x3accb3a6	0.0015617504
6	0xbd9bdd1a	-0.07610531
7	0xbd8b8fc6	-0.06814532
8	0x3d179f26	0.03701701
9	0xbc6daf46	-0.0145071205
10	0x3ac34970	0.0014899205
11	0x3d814a1a	0.06312962
12	0xbd9cccc4	-0.076562434
13	0x3c06cb12	0.008227127
14	0x3da2109f	0.079133265
15	0xbc70bfef	-0.014694198
16	0xbca3d116	-0.01999716
17	0x3d15a754	0.03653653
18	0x3d3a6847	0.045509603
19	0xbd94b401	-0.072608955
20	0x3a5df546	0.00084670295
21	0xbd13fe6e	-0.036131315
22	0xbce51c16	-0.027967494
23	0x3cc3dd8b	0.02390935
24	0x3d1469b7	0.03623363
25	0x3ca5bd52	0.020231877
26	0xbdb80e28	-0.08987075
27	0xbceecbd6	-0.02914993
28	0xbd97676e	-0.073927745
29	0x3b833476	0.0040040566
30	0xbd37d415	-0.04487999
31	0x3d874156	0.06604259

weight f4 [64, 32, 5, 5]
0	0x3c9f98b5	0.019481996
1	0x3c07e2a1	0.008293779
2	0x3c8d08b8	0.017216071
3	0xbb1b5322	-0.0023700674
4	0xbc38a2d9	-0.011269295
5	0x39a55a98	0.0003153875
6	0xbccf4d6d	-0.025305474
7	0xbc841800	-0.016124725
8	0xbc72e237	-0.014824442
9	0x3d09dc4c	0.033657357
10	0xbcaf0f4f	-0.021369604
11	0x3b6d86fa	0.0036243782
12	0x3bfdcc5f	0.00774531
13	0xbbf8ad17	-0.0075889933
14	0xbcee1f07	-0.02906753
15	0xbc06ec4d	-0.008235049
16	0xbd0e2a00	-0.034708023
17	0xbca2278a	-0.019794244
18	0xbc349d31	-0.0110238055
19	0xbc8f9121	-0.017525258
20	0x3be2bb74	0.006919319
21	0xbc5607e8	-0.013063408
22	0xbbe38caa	-0.0069442587
23	0xbbd63cc7	-0.006538007
24	0xbcd62290	-0.026139528
25	0xbaaa9b09	-0.0013016175
26	0xbbc60c85	-0.006043973
27	0xbc1322a6	-0.008980429
28	0x3ca60d1f	0.020269929
29	0x3c323acd	0.010878277
30	0xbc20f91f	-0.00982502
31	0xbce54a7b	-0.027989617
32	0x3d0978dd	0.03356253
33	0x3c446e21	0.011989147
34	0x3c810968	0.015751556
35	0xbc997e85	-0.018737087
36	0x3c44ea2e	0.012018723
37	0x3c800382	0.015626673
38	0x3d136582	0.035985477
39	0xbc8b24f8	-0.016985402
40	0xbce77841	-0.028255584
41	0xbb9a0039	-0.0046997336
42	0xbce7a1dd	-0.028275425
43	0xbd059d89	-0.03262094
44	0xbb8e4fa0	-0.004342988
45	0xbc83b7f1	-0.016078921
46	0xbcbee4cc	-0.023302458
47	0x3ca3dd86	0.020003092
48	0xbcfd5428	-0.030923918
49	0xbc53ae6e	-0.012920005
50	0xbd02b742	-0.03191305
51	0xbbbf511b	-0.005838526
52	0xba5ec299	-0.0008497625
53	0xbb9a36e6	-0.0047062514
54	0xbb76a54b	-0.0037635143
55	0x3b715b53	0.0036828115
56	0xbcdbe58e	-0.026842859
57	0xbd363b25	-0.04449
58	0x3c39d1a5	0.011341487
59	0x3cec2952	0.028828297
60	0xbcefa0a5	-0.029251406
61	0xbc057be8	-0.008147217
62	0xbbf9070e	-0.007599718
63	0xbc3f3d7d	-0.011672375
64	0xbce808f8	-0.02832459
65	0xbd05b3b9	-0.0326421
66	0xbcfe9b0c	-0.031079791
67	0x3c017a1a	0.007902646
68	0xbcbd20f0	-0.023086995
69	0xbc5263cc	-0.012841176
70	0xbbd558c5	-0.0065108263
71	0x3ce7db53	0.028302824
72	0xbc89ef4c	-0.016837738
73	0xbc0cb53c	-0.0085881315
74	0xbc8cf774	-0.017207839
75	0x3c0b7877	0.008512608
76	0x3ab73aec	0.0013979352
77	0x3d00bec3	0.031431925
78	0x3d452376	0.04812952
79	0x3bbe9391	0.005815931
80	0xbd1d5229	-0.038408432
81	0xbcedc48a	-0.029024381
82	0xbcc88ee6	-0.024482202
83	0x3d012708	0.031531364
84	0x3d403f13	0.046935152
85	0xbafef26c	-0.001945091
86	0x3c9d34f3	0.019190287
87	0xbd005bb9	-0.031337474
88	0xbd18c049	-0.037292752
89	0xbb04c64e	-0.00202598
90	0x3b82be69	0.003989984
91	0xbd42851c	-0.047490224
92	0xbcfc811e	-0.030823287
93	0xbd2e2371	-0.04251427
94	0xbc429c6b	-0.011878113
95	0x3b8a3f0c	0.0042189416
96	0x3ad0dd3b	0.0015935072
97	0xbcf726c1	-0.030169846
98	0xbd0b4f16	-0.03401097
99	0x3d2a159c	0.041524515
100	0xbbc697c0	-0.0060605705
101	0xbc3e29df	-0.0116066625
102	0xbc5038fd	-0.0127089
103	0x3c7bf440	0.015378058
104	0x3bce2eb4	0.0062921885
105	0x3cf9dbd2	0.030500326
106	0xbcbbcc7d	-0.022924656
107	0x3cf11dfb	0.029433241
108	0xbc6dbaf7	-0.014509908
109	0x3cd4ab04	0.025960453
110	0x3cb9e3e6	0.022691678
111	0x3c071fb7	0.0082473075
112	0xbc9c48e6	-0.01907773
113	0x3ba31f09	0.004978065
114	0xbc8a363c	-0.016871564
115	0xbc831b7e	-0.01600432
116	0xbc9c136e	-0.019052234
117	0xbc9fa2f2	-0.019486878
118	0xbcdce464	-0.026964374
119	0xba9e13a8	-0.0012060301
120	0x3bf1032e	0.0073551154
121	0xbbd7c501	-0.006584764
122	0xbcb70467	-0.022340966
123	0x3bec4242	0.007210047
124	0x3af1f702	0.0018460455
125	0xbc92b748	-0.017909661
126	0xbcaae2e4	-0.020860143
127	0xbc335ccc	-0.0109474175
128	0x3d703f45	0.05865409
129	0x3c67d44e	0.0141497385
130	0x3d8885b7	0.06666129
131	0x3cfa9ccf	0.03059235
132	0xbb44f17a	-0.0030051158
133	0x3d2e138f	0.04249912
134	0x3c8f3315	0.017480412
135	0x3d5e7794	0.054313257
136	0x3c50998e	0.012731923
137	0xbaebad7c	-0.001798078
138	0xbc457545	-0.012051885
139	0x3d01382f	0.03154772
140	0x3d4c21f4	0.049837068
141	0x3d05a089	0.0326238
142	0x3c9fdf98	0.019515797
143	0xbc840a11	-0.016118081
144	0x3c8c7e93	0.017150199
145	0x3d3068a0	0.04306853
146	0x3d2d44bc	0.04230188
147	0x3bc6eab6	0.00607046
148	0x3c85fc76	0.016355734
149	0x3d4e93e6	0.050434016
150	0x3c5177b4	0.012784887
151	0x3ca2307d	0.019798512
152	0x3d37b4a7	0.044850018
153	0xbcdf937d	-0.027292008
154	0xbc6638bb	-0.014051612
155	0x3d029459	0.031879757
156	0x3d5c7401	0.053821567
157	0x3d82b1d6	0.06381576
158	0xbcc3b17e	-0.023888346
159	0xbbaad4db	-0.0052133626
160	0x3cb8289a	0.022480298
161	0x3c8779db	0.016537597
162	0x3d27ccba	0.040966727
163	0x3c61526f	0.013752564
164	0xbcba5469	-0.022745328
165	0xbcd279a1	-0.025692763
166	0x3d2a46e9	0.04157153
167	0x3cfcb54b	0.030848166
168	0x3ce1088d	0.027469898
169	0xbbfa0302	-0.007629753
170	0xbd2f5f31	-0.04281539
171	0xbc421611	-0.011846081
172	0x3d4fe450	0.050754845
173	0x3c337e52	0.01095541
174	0xbcfe1425	-0.031015465
175	0xbcaa871a	-0.020816375
176	0xb9ba2e30	-0.00035511097
177	0x3ce9b2e0	0.028527677
178	0x3cb4d152	0.022072468
179	0xbd17648b	-0.03696112
180	0xbccbea47	-0.024891986
181	0xbc9148a2	-0.01773483
182	0x3ce461a3	0.027878588
183	0xbbe24a53	-0.006905833
184	0x3cae5887	0.021282448
185	0xbcd4b9a2	-0.025967423
186	0x3cafa71a	0.021441985
187	0x3a1b9244	0.0005934576
188	0x3ca99400	0.020700455
189	0x3d014625	0.031561036
190	0x3c9d8aa8	0.019231156
191	0x3be5712f	0.007002018
192	0x3b16313e	0.0022917534
193	0xbc1fd3b9	-0.009755068
194	0x3ccfdd25	0.025374005
195	0xbce72dc7	-0.02822007
196	0x3bf198b5	0.0073729404
197	0x3cb73e9e	0.022368725
198	0xbbf2054a	-0.0073858844
199	0x3cc4fc0e	0.02404597
200	0x3bc86b54	0.00611631
201	0x3cad49ac	0.021153294
202	0xbcff4658	-0.031161472
203	0xbd122955	-0.03568395
204	0x3cd5e53e	0.026110288
205	0x3c47a06e	0.0121842455
206	0x3d34e2c0	0.04416156
207	0xbbf7a388	-0.0075573362
208	0xbbab665a	-0.005230707
209	0x3c29be28	0.010360278
210	0xbc1214de	-0.008916108
211	0xbb51d711	-0.0032019059
212	0x3d075bca	0.03304652
213	0x3c29971b	0.010350968
214	0x3cac6c7e	0.021047827
215	0xbcb8c0a6	-0.0225528
216	0x3b93e147	0.004512939
217	0xbb9bcc8c	-0.0047546085
218	0xbd0c9af6	-0.03432747
219	0x3c49507d	0.012287256
220	0xbcb5f058	-0.022209331
221	0x3a8da0d4	0.0010805377
222	0x3d138e5d	0.03602444
223	0xbcd1ded0	-0.02561894
224	0x3bab3c5b	0.005225701
225	0xb8ce0124	-9.823058e-05
226	0xbb40860f	-0.002937678
227	0xbc5dac40	-0.013529837
228	0x3d62ba7f	0.055353638
229	0xbcc32450	-0.023821026
230	0x3cc0a403	0.023515707
231	0xbbda190c	-0.006655818
232	0xba853124	-0.001016174
233	0x3c0239b5	0.007948329
234	0x3d0a9766	0.03383579
235	0xbd032093	-0.032013487
236	0xbd04946f	-0.03236812
237	0xbaaf0ba8	-0.0013354914
238	0x3c4517dd	0.012029615
239	0x3b33c6e4	0.002743178
240	0xbd34b6c6	-0.04411962
241	0xbc6ad5e3	-0.014333221
242	0xbd274ee5	-0.040846724
243	0x39576ff8	0.0002054571
244	0x3c7dc9ab	0.015489976
245	0xbbb6d142	-0.0055791447
246	0xbd0385ae	-0.03210991
247	0x3c6e0004	0.014526371
248	0x3ce6a6b8	0.02815567
249	0x3cdbc8ee	0.02682921
250	0xbccbacc9	-0.024862664
251	0xb91c990a	-0.00014934331
252	0x3cb11ee0	0.021621168
253	0x3cb4ed2a	0.022085745
254	0xba2678af	-0.0006350381
255	0x3bef8f4f	0.007310785

bias f4 [64]
0	0x3b2f3c97	0.0026738995
1	0x3bccba09	0.006247763
2	0xbc630ef6	-0.013858547
3	0x3bf7fc49	0.0075679165
4	0x3d25958b	0.04042582
5	0x3c2318fd	0.009954688
6	0x3ca94d87	0.02066685
7	0xbd27bc1a	-0.040950872
8	0xbce50bb8	-0.02795969
9	0x3a3351a5	0.0006840474
10	0xbd0e7bd3	-0.034786057
11	0x3cefe918	0.029285952
12	0xbd27464e	-0.040838532
13	0x3d36d6d4	0.04463847
14	0x3cfaa721	0.030597271
15	0xbd2f8c8c	-0.042858645
16	0xbc2b8657	-0.010469041
17	0xbd93ea1a	-0.07222386
18	0xbb2fdd78	-0.0026834887
19	0xbd0d2ed5	-0.03446849
20	0x3c94b89e	0.018154439
21	0x3d2259ec	0.039636537
22	0xbc5bef67	-0.013423777
23	0xbcc4ba5a	-0.02401464
24	0xbd7c2390	-0.061557353
25	0x3c7fb1df	0.015606373
26	0x3cd797b3	0.026317453
27	0x3be89ea3	0.007098989
28	0x3d107546	0.03526809
29	0x3c6cceb8	0.014453582
30	0x3ba36e9c	0.004987551
31	0xbd0027f5	-0.031288106
32	0x3afa50f4	0.0019097612
33	0xbcf52457	-0.029924555
34	0xbd1e7143	-0.038682234
35	0xbd0c72c0	-0.03428912
36	0xbd0487a5	-0.032355923
37	0xbce0bf96	-0.027435105
38	0x3c788d7c	0.015170451
39	0xbd20e5d1	-0.03928167
40	0xbbac128d	-0.005251235
41	0xbcdf097e	-0.027226206
42	0xbd204d6b	-0.03913633
43	0xbc65d918	-0.01402881
44	0xbcbc6432	-0.022996996
45	0xbd45e325	-0.048312325
46	0xbcada95b	-0.021198919
47	0xbc57a7a9	-0.013162532
48	0xbccafbac	-0.02477821
49	0x3d16fd95	0.03686293
50	0xbc1e706b	-0.009670357
51	0x3d1ff5b0	0.039052665
52	0xbd151b1f	-0.036402818
53	0x3d129811	0.035789553
54	0x3bd5d7c7	0.006525967
55	0x3d68950d	0.05678277
56	0xbd5b08bf	-0.053475138
57	0x397075fe	0.00022932139
58	0x3c667e22	0.014068158
59	0x3d1cfa0a	0.038324393
60	0xba8f90ab	-0.0010953149
61	0xbd765493	-0.06013925
62	0x3b416386	0.0029508783
63	0x3c89d89e	0.016826924

weight f4 [64, 1024]
0	0xbcdc0e2e	-0.02686223
1	0x3cc7f662	0.024409477
2	0x39d86d7e	0.00041280309
3	0xbcba1fce	-0.022720244
4	0x3d0bc967	0.03412762
5	0x3c6b5b0d	0.01436497
6	0xbbf7e977	-0.007565673
7	0xbc8366ba	-0.016040195
8	0xbd00f276	-0.03148123
9	0xbd2a48e7	-0.04157343
10	0x3d09c7ba	0.03363774
11	0xbbe07605	-0.0068500065
12	0x3d012cba	0.031536795
13	0xbc06019c	-0.008179095
14	0x3c3c4584	0.011491183
15	0xbbec1e76	-0.0072057797
16	0x3ca0fa34	0.019650556
17	0xbc82b1c2	-0.015953902
18	0xbd127177	-0.03575274
19	0x3ccd635f	0.025071798
20	0xbca5523b	-0.020180812
21	0xbc6aaaea	-0.014322976
22	0x3bdc9920	0.006732121
23	0x3c848da8	0.016180828
24	0x3ce20840	0.027591825
25	0xbc55903e	-0.013034878
26	0xbcb30462	-0.021852676
27	0x3cb56651	0.022143515
28	0x3c8260b0	0.015915245
29	0x3cd84390	0.026399404
30	0x3cce2773	0.025165295
31	0xbc9131b8	-0.017723903
32	0xbc98ac0a	-0.018636722
33	0x3d093949	0.033501897
34	0xbcdb900e	-0.026802089
35	0x3c9f5365	0.019448945
36	0xbc5114cb	-0.012761305
37	0x3c9724ce	0.018450167
38	0xbc41cf27	-0.011829174
39	0xbc5c8a40	-0.013460696
40	0x3c9776e9	0.018489318
41	0xbcf1ff00	-0.029540539
42	0xbc90f1d5	-0.01769344
43	0x3ce094a5	0.02741463
44	0xbcec75f5	-0.02886484
45	0x3c81e80c	0.015857719
46	0x3d1de7ae	0.038551025
47	0x3ca0b19b	0.019615939
48	0x3c2cc5b4	0.010545183
49	0xbcf05fa6	-0.029342484
50	0x3c73275c	0.014840927
51	0xbc7eda00	-0.015554905
52	0x3cf94480	0.030428171
53	0xbccdd51d	-0.025126034
54	0x3cfb1ed3	0.030654347
55	0x3c9132eb	0.017724475
56	0x3cf2de0a	0.029646892
57	0xbcbc7a22	-0.023007456
58	0x3b759468	0.003747249
59	0x3c01e8b6	0.007929018
60	0x3c6bbd54	0.014388401
61	0xbcf52e82	-0.029929403
62	0x3c8ecadf	0.01743072
63	0xbd12ecbd	-0.035870302
64	0xbbc6fdfe	-0.0060727587
65	0x3b4334ae	0.0029786038
66	0x3cf84939	0.030308353
67	0xbb5c9a0c	-0.0033661155
68	0x3c0bc711	0.008531348
69	0xbc01b4eb	-0.007916669
70	0x3bf9d035	0.007623697
71	0xbc36b47a	-0.011151427
72	0x3c5018f8	0.0127012655
73	0x3ce091da	0.027413297
74	0xbc7e00ad	-0.015503091
75	0xbd1a2ba2	-0.037639268
76	0xbadf9f72	-0.0017061068
77	0xbcc74a97	-0.02432756
78	0x3c391b91	0.011298076
79	0x3b5b3729	0.0033449626
80	0xbc5dbd2f	-0.013533874
81	0x3cd88332	0.026429746
82	0xbc60bb08	-0.013716467
83	0x3cab8177	0.020935757
84	0xbc8cb1db	-0.017174652
85	0x3c9e16b0	0.019297928
86	0xbcca0e81	-0.02466512
87	0x3d2768d8	0.04087147
88	0x3c52988e	0.012853755
89	0x3ca92c3e	0.02065098
90	0x3b9d9108	0.004808549
91	0x3d18cf8b	0.037307303
92	0x3c326944	0.010889355
93	0x3c144b01	0.009051085
94	0x3cd9ce46	0.026587617
95	0x3c8f8453	0.017519152
96	0x3d2bfb05	0.041987438
97	0x3ca67449	0.020319121
98	0x3c13bab3	0.0090166805
99	0xbbf1f9e1	-0.007384524
100	0x3c42b7f9	0.011884683
101	0x3d099a25	0.03359427
102	0xbc5176a3	-0.012784633
103	0xbc09a8cd	-0.008402062
104	0x3ca552e0	0.02018112
105	0x3c3f493d	0.011675176
106	0xbcb6baa8	-0.022305802
107	0x3ba4b246	0.0050261347
108	0x3c734a46	0.014849251
109	0x3a9db0ac	0.0012030802
110	0xbc96364e	-0.018336441
111	0x3d02d573	0.031941842
112	0x3c291f3a	0.010322386
113	0xbc8508fd	-0.016239638
114	0xbd0e9535	-0.034810264
115	0x3c1cfa6b	0.009581189
116	0x3cbb9d2c	0.022902094
117	0xbcd28de7	-0.02570243
118	0xbd3b4d3b	-0.04572795
119	0xbc7e3f18	-0.015517972
120	0x3c528d75	0.012851109
121	0x3d365559	0.044514988
122	0x3bf2ac8f	0.0074058245
123	0x3c77ecb6	0.01513212
124	0xbc927f72	-0.017883036
125	0x3bec4eec	0.0072115567
126	0xbcbebd90	-0.02328375
127	0xbcc2b5d7	-0.023768349
128	0x3cf1c699	0.029513644
129	0x3ba6f603	0.005095245
130	0xbc3d988b	-0.011572014
131	0x3c6e2fca	0.014537761
132	0xbce062af	-0.027390806
133	0x3bb732d9	0.0055907783
134	0x3c72a193	0.01480903
135	0xbcbe36b3	-0.023219442
136	0xb8912bf8	-6.9223286e-05
137	0xbcdecac5	-0.027196297
138	0xbcc3906b	-0.023872575
139	0xbbf5d4ba	-0.0075021656
140	0xbd043ff7	-0.032287564
141	0xbc550fee	-0.013004286
142	0xbd081f36	-0.03323289
143	0x3c9e84a6	0.019350361
144	0xbc64eea7	-0.013972915
145	0xbbc74549	-0.0060812575
146	0x3ccc6310	0.02494958
147	0xbcb57d9e	-0.022154626
148	0x3a92a910	0.00111893
149	0x3bb6f7fc	0.0055837613
150	0xbccf2fd0	-0.025291353
151	0x3ca52c08	0.020162597
152	0x3d136d0d	0.03599267
153	0x3cecd5e4	0.028910585
154	0x3c407fa4	0.011749182
155	0xbc005d48	-0.00783474
156	0xbc8f1749	-0.017467158
157	0xbb59cc61	-0.0033233392
158	0x3bbafd18	0.0057064407
159	0x3d5c631f	0.053805467
160	0x3bfeec9c	0.007779671
161	0xbcc549b0	-0.024082989
162	0xbb3a971a	-0.0028471411
163	0xbced60bd	-0.028976792
164	0xbcefbbb5	-0.02926431
165	0xbbc521c2	-0.006015987
166	0xbcf23455	-0.02956597
167	0x3be45a1e	0.0069687506
168	0x3c11a995	0.008890529
169	0xba7ab190	-0.0009563202
170	0xbd3df9d7	-0.046380844
171	0xbcafe13f	-0.02146971
172	0x3bf65a47	0.007518086
173	0x3bd9a25d	0.0066416697
174	0xbbf919ab	-0.007601937
175	0xbca481d0	-0.02008143
176	0xbcb30f4d	-0.021857882
177	0xbb83367e	-0.0040042987
178	0xbc5c94f3	-0.013463247
179	0x3bffe994	0.007809827
180	0xbcd5c2bb	-0.026093831
181	0xbab6df75	-0.0013952093
182	0x3ce07649	0.027400153
183	0xbb500322	-0.0031740149
184	0x3ca8aaa2	0.020589177
185	0xbc999a6c	-0.018750392
186	0x3c9811f6	0.018563252
187	0x3ba042c5	0.004890772
188	0x3c197508	0.009366281
189	0xbbc39732	-0.0059689516
190	0xba70d467	-0.0009186924
191	0x3cd0000c	0.025390647
192	0x3cba8861	0.022770109
193	0x3d01f4a8	0.031727463
194	0xbcb9d5b5	-0.022684911
195	0xbc6e991e	-0.014562873
196	0xbca39522	-0.019968573
197	0x3c07ab59	0.008280599
198	0xbd2af4ec	-0.041737482
199	0xbba1869c	-0.0049293768
200	0x3bb32ada	0.005467755
201	0x3b1a50cc	0.0023546694
202	0xbc5d98e5	-0.013525222
203	0x3ca41574	0.02002976
204	0xbce2ff52	-0.027709637
205	0x3c1ab6d2	0.009443002
206	0x3cf8bf16	0.030364554
207	0xbc9a3733	-0.01882515
208	0xbcd0a1c6	-0.025467765
209	0x3c3bfd29	0.011473932
210	0xbc83d8a5	-0.016094515
211	0x3cc2656c	0.023730002
212	0xbcf48d81	-0.02985263
213	0x3cd32a2a	0.025776941
214	0x3bc55758	0.006022375
215	0xbc92c32c	-0.01791533
216	0xbc9e710d	-0.019341016
217	0xbcad4c6c	-0.021154605
218	0x3cac747d	0.02105164
219	0x3c9dabd1	0.019246968
220	0x3bf710ba	0.0075398358
221	0x3c8ce74f	0.01720014
222	0x3cd78986	0.026310693
223	0x3d2f631e	0.042819135
224	0xbbeeb59b	-0.0072848327
225	0xbc935474	-0.017984606
226	0x3c072d60	0.008250564
227	0xbcc25152	-0.023720417
228	0xbbf1d918	-0.007380616
229	0x3cd5a7a8	0.026080921
230	0xbc64dd8a	-0.013968835
231	0x38a3405e	7.784435e-05
232	0x3c7a3aba	0.015272791
233	0xbcb7b607	-0.022425665
234	0x3bec7291	0.007215806
235	0x3c57bf19	0.01316812
236	0xbc6a4878	-0.014299504
237	0x3c2ad9ab	0.010427873
238	0x3b845d07	0.00403941
239	0x3c962803	0.018329626
240	0x3bd2fdd4	0.00643895
241	0xbcb5e039	-0.022201644
242	0xbd0e3ae5	-0.034724135
243	0x3bdb386a	0.0066900747
244	0xbd096e3a	-0.033552386
245	0xbcd4abe6	-0.025960874
246	0xbcee27c1	-0.02907169
247	0xbc707203	-0.01467562
248	0xbd247d6c	-0.040158674
249	0x3c7e09fb	0.015505309
250	0xbc8bdc04	-0.017072685
251	0xbcde4f58	-0.027137443
252	0xbafe014d	-0.001937905
253	0xbc979d22	-0.018507544
254	0xba4e0c2f	-0.0007860092
255	0xbbdf1f3f	-0.0068091447

bias f4 [64]
0	0xbc636c84	-0.013880853
1	0x3cc5429e	0.024079617
2	0xbc8194ec	-0.015818082
3	0x3c4672bd	0.012112317
4	0x3c3dbb75	0.011580338
5	0xbcb5c3a2	-0.022188012
6	0x3cd75bcd	0.026288891
7	0x3d5ee782	0.05442
8	0x3c87887c	0.016544573
9	0xbc3b7e09	-0.011443623
10	0xbd516797	-0.05112418
11	0x3bbc9cd1	0.0057559987
12	0xbc0a3189	-0.008434662
13	0x3cb540ac	0.022125565
14	0x3c5f182c	0.013616603
15	0xbb041dac	-0.0020159287
16	0xbba10168	-0.0049134977
17	0xb9db2140	-0.00041795708
18	0xbcc54a17	-0.02408318
19	0xbd2e4026	-0.042541645
20	0x3ca503a2	0.020143334
21	0xbbf4f5ce	-0.0074755913
22	0x3d29dbe3	0.041469466
23	0xbc90ccac	-0.01767572
24	0xbbc1d9b6	-0.0059158457
25	0x3c79c9cc	0.015245866
26	0xbc3cc0db	-0.01152059
27	0xbc663eab	-0.014053027
28	0x3cc98b83	0.024602657
29	0x3b662b2b	0.0035120945
30	0xbcd52b2b	-0.02602156
31	0xbcab21ac	-0.02089008
32	0x3d2fc6ce	0.042914204
33	0x3b1f691a	0.002432412
34	0xbd0ce9be	-0.0344026
35	0x3d143aac	0.036188766
36	0x3b7d4b6e	0.0038649696
37	0xbc57723b	-0.013149793
38	0xbd0b6f7f	-0.034041878
39	0xbd1f0db9	-0.038831446
40	0x3cc4f18e	0.024040964
41	0xbb5af5c3	-0.0033410646
42	0x3c8204ef	0.015871493
43	0x3c01b9dd	0.007917848
44	0x3c8e8293	0.017396247
45	0xbcdf1396	-0.027231019
46	0x3cc17a68	0.023617938
47	0xbb561956	-0.003266891
48	0xbc8502b9	-0.01623665
49	0x3bd227c8	0.0064134337
50	0x3d45aaf9	0.048258755
51	0xbc92a140	-0.017899156
52	0x3d232b02	0.039835937
53	0xbd5da64b	-0.054113667
54	0xbcbd7250	-0.023125798
55	0xbd1c359c	-0.038137063
56	0x3cb3e7fa	0.021961201
57	0xbd3fbb94	-0.046809748
58	0x3d030504	0.031987205
59	0x3d07eb8c	0.03318362
60	0xbcbadafc	-0.022809498
61	0xbc80bb9a	-0.015714455
62	0x3c12b0fe	0.008953331
63	0xbcad1290	-0.021127015

weight f4 [10, 64]
0	0xbdd6638c	-0.10468206
1	0xbdfd64d9	-0.12372751
2	0x3cd2ad8e	0.025717523
3	0xbc0a2c5c	-0.008433428
4	0xbd800114	-0.06250206
5	0xbd98a374	-0.07453051
6	0x3db1b6d3	0.08677449
7	0xbe6a2c2c	-0.22868413
8	0x3e38eca5	0.18059023
9	0xbb1ddc4c	-0.0024087606
10	0x3dc5116b	0.09622463
11	0xbdd52fa8	-0.1040948
12	0xbd714f08	-0.05891326
13	0xbdabb3b7	-0.08383887
14	0xbdb999e2	-0.09062554
15	0x3d69d3fb	0.057086926
16	0x3e2125ac	0.15737027
17	0x3c35be4f	0.011092736
18	0xbe244531	-0.1604202
19	0x3e529a3e	0.20566651
20	0x3d88be1c	0.066768855
21	0x3e1fa906	0.15591821
22	0xbda0e408	-0.078559935
23	0x3df3d304	0.119054824
24	0x3d4a77de	0.04943072
25	0xbd135c99	-0.03597698
26	0xbe1bf1c0	-0.15228939
27	0x3dd5c889	0.1043864
28	0x3d868133	0.065676115
29	0x3d86c0e4	0.0657976
30	0xbe1cf0a8	-0.15326178
31	0x3e290986	0.16507539
32	0xbdefcb9c	-0.11708757
33	0x3d8ece87	0.06972986
34	0x3d8bdc44	0.06829122
35	0xbe0cf358	-0.13764703
36	0xbd36307b	-0.04447983
37	0x3de2dd27	0.11077338
38	0x3e205c7e	0.15660283
39	0x3e14d381	0.14533807
40	0x3c0244dc	0.007950988
41	0x3d11c6fc	0.035590157
42	0xbe15087e	-0.14554021
43	0x3e377e57	0.17919289
44	0xbd14d795	-0.036338408
45	0x3dc97fc0	0.098388195
46	0xbe08dfa1	-0.13366558
47	0x3e42ecb8	0.19035614
48	0x3e21364b	0.15743367
49	0x3e09895d	0.13431306
50	0xbd1e82d8	-0.038699
51	0x3cb9d847	0.022686137
52	0xbd1d8ae8	-0.03846255
53	0x3dff0a53	0.12453141
54	0x3dee7e7f	0.11645221
55	0x3e0ec515	0.13942368
56	0x3c5b0571	0.013367997
57	0x3d901d7e	0.07036875
58	0xbccba079	-0.024856793
59	0xbe0936e8	-0.13399851
60	0x3df0cfef	0.1175841
61	0x3df246ca	0.11829908
62	0x3e17dc9c	0.1483025
63	0x3e1d6cc8	0.15373528
64	0xbdaaa15a	-0.083315566
65	0xbdf24771	-0.118300326
66	0xbe944094	-0.2895552
67	0xbd78b590	-0.060720026
68	0xbd81f260	-0.063450575
69	0x3d02dd3d	0.03194927
70	0x3e24f106	0.16107568
71	0x3dd65c69	0.104668446
72	0x3b10a296	0.0022069565
73	0xbd85bda6	-0.06530313
74	0x3e237149	0.15961184
75	0x3e7b3fb8	0.24536026
76	0xbdadefa5	-0.08492974
77	0xbea1756f	-0.31534907
78	0x3e4a060b	0.19728868
79	0xbdc04e25	-0.09389905
80	0xbda949f9	-0.08266062
81	0x3e426aa1	0.18985988
82	0xbe2e742e	-0.17036507
83	0xbd513371	-0.05107445
84	0x3dc89761	0.09794498
85	0xbe295742	-0.16537192
86	0xbd922e1f	-0.07137703
87	0xbe15d552	-0.14632156
88	0xbc64375f	-0.013929217
89	0xbcb34515	-0.021883527
90	0xbda5d325	-0.08096913
91	0xbc763e19	-0.015029454
92	0x3d0923d6	0.03348144
93	0xbd1b77d1	-0.037956063
94	0xbdb67ace	-0.08910142
95	0x3d850172	0.06494416
96	0xbd7b2dde	-0.06132304
97	0x3e6951a1	0.22785045
98	0x3cb8a6ac	0.022540413
99	0xbdf50199	-0.11963195
100	0xbd5931e6	-0.053026102
101	0xbe12bdcc	-0.14330214
102	0xbe1dea8a	-0.15421501
103	0xbdb8f897	-0.0903179
104	0xbda66cca	-0.081262186
105	0xbe66e532	-0.22548369
106	0xbe0c10e8	-0.13678324
107	0xbd80c1f6	-0.06286995
108	0xbe1c24be	-0.15248391
109	0xbdd67ee4	-0.10473421
110	0xbe3dd3e5	-0.18537863
111	0x3e0ec610	0.13942742
112	0x3d89ab7b	0.067221604
113	0xbe107a39	-0.14109124
114	0x3d0cf6a8	0.034414917
115	0xbe08a4ca	-0.13344112
116	0x3e798e1f	0.24370621
117	0x3de172c3	0.11008217
118	0xbe017c0b	-0.12644975
119	0xbcd950e5	-0.026527831
120	0x3e13f38c	0.14448375
121	0xbd668ef9	-0.056288693
122	0x3dd95780	0.106123924
123	0xbd9dcb9b	-0.0770485
124	0xbe1e5293	-0.15461187
125	0x3d0346b4	0.03204985
126	0xbd87a66f	-0.066235416
127	0xbdd2b695	-0.10288731
128	0xbda59bae	-0.08086334
129	0x3e42e76b	0.19033591
130	0x3e294057	0.1652845
131	0xbd1d0ab5	-0.03834029
132	0x3e2b9371	0.16755463
133	0xbdf8b1f5	-0.121433176
134	0xbb880475	-0.004150922
135	0xbc6d748c	-0.014493119
136	0xbd518ab1	-0.051157657
137	0x3d9ddf7a	0.077086404
138	0xbdf5c6e2	-0.120008245
139	0xbd97101e	-0.07376121
140	0x3e11c1d2	0.14234093
141	0x3bd9d650	0.0066478625
142	0xbc70e30f	-0.0147025725
143	0xbcc0a0b6	-0.023514133
144	0x3e240c1f	0.16020249
145	0x3d97f839	0.074203916
146	0xbde09ad8	-0.10967034
147	0x3dcf961d	0.10136054
148	0x3db04e6f	0.0860871
149	0x3e30cc5a	0.17265454
150	0x3bdaa238	0.00667217
151	0xbe1d0ce7	-0.15336953
152	0xbd720322	-0.05908502
153	0x3d7578e7	0.059929755
154	0x3e27149e	0.16316459
155	0xbc50605c	-0.012718286
156	0x3e2f7671	0.17135026
157	0xbc37b378	-0.011212222
158	0x3c67d3da	0.01414963
159	0x3e064d0c	0.13115329
160	0x3c319bb6	0.010840347
161	0x3db30190	0.087405324
162	0xbc0779db	-0.008268799
163	0xbe292016	-0.16516146
164	0xbde46681	-0.111523636
165	0xbc0fc225	-0.008774315
166	0x3da1bca9	0.07897312
167	0x3cda1cda	0.026625086
168	0xbcbac0e8	-0.022797063
169	0x3dcad029	0.09902985
170	0xbd1d0d01	-0.03834248
171	0x3dbb1c97	0.091363125
172	0x3dd9d371	0.106360324
173	0xbd05b8cb	-0.032646935
174	0x3dda1595	0.10648648
175	0xbda4c080	-0.08044529
176	0x3df24f06	0.11831479
177	0x3e4e8f63	0.20171885
178	0x3d0ae234	0.03390713
179	0x3d4b12a5	0.049578328
180	0x3d3cae8d	0.046064902
181	0x3e2bc15e	0.16772982
182	0xbe155679	-0.14583768
183	0x3debf25a	0.11520834
184	0xbe426eba	-0.18987551
185	0x3c1b4d10	0.009478822
186	0x3db98311	0.09058202
187	0x3db074d1	0.08616031
188	0xbdc073e3	-0.09397104
189	0xbe082bfc	-0.13298029
190	0xbe23bcf1	-0.15990044
191	0x3e0cee17	0.13762699
192	0x3d984d75	0.07436649
193	0x3d10b518	0.035328954
194	0x3e44af14	0.19207412
195	0xbda9a56e	-0.08283506
196	0x3db0a9f6	0.086261675
197	0xbb9fe94e	-0.004880107
198	0x3dce2f30	0.10067594
199	0xbdaec5ca	-0.08533819
200	0xbdaf3b20	-0.08556199
201	0xbd689899	-0.056786153
202	0xbdbb9c89	-0.09160716
203	0x3de49a3c	0.1116223
204	0xbe048f48	-0.12945282
205	0x3dbbf246	0.09177069
206	0xbe074350	-0.13209271
207	0xbdbb7fb6	-0.09155218
208	0xbc55e8e5	-0.013056015
209	0xbe0dd91d	-0.13852353
210	0x3cdf52b0	0.027261108
211	0xbd9920aa	-0.07476933
212	0x3e096374	0.13416845
213	0x3de743b7	0.112922125
214	0xbbfb8a62	-0.0076764086
215	0xbdc7c609	-0.09754569
216	0xbe0b7388	-0.1361829
217	0xbde5faa6	-0.11229448
218	0xbd990dde	-0.07473348
219	0x3c643f67	0.013931132
220	0x3db8828b	0.09009274
221	0x3d923ffc	0.0714111
222	0x3e1f09ce	0.15531084
223	0x3da431f9	0.08017344
224	0xbe12cf98	-0.14337003
225	0xbbea8836	-0.007157351
226	0x3d9a3dc9	0.07531316
227	0xbdd92bf5	-0.10604087
228	0xbd33b6b7	-0.043875422
229	0x3dc646b3	0.096814536
230	0x3d2ba8bc	0.041908965
231	0xbdff32af	-0.12460839
232	0xbdd68563	-0.1047466
233	0x3d9b4df8	0.07583231
234	0x3e4aa1d2	0.19788292
235	0xbd1f705e	-0.03892552
236	0xbd1fd3fd	-0.039020527
237	0xbe03bd9e	-0.12865302
238	0x3e2dbae7	0.16965829
239	0xbc2f1ac6	-0.010687536
240	0xbd0d811e	-0.034546964
241	0xbc9d74d6	-0.01922075
242	0x3dad8543	0.08472683
243	0x3dbf36d1	0.09336627
244	0x3d8d8f32	0.06912078
245	0xbd56542f	-0.052326377
246	0x3d30af2a	0.0431358
247	0x3cae3d7b	0.02126955
248	0xbd9aad1a	-0.07552548
249	0x3e228d6c	0.1587426
250	0x3d04febf	0.032469507
251	0xbd3c3e0e	-0.045957617
252	0x3bb13a76	0.0054085804
253	0xbe394323	-0.18092017
254	0x3ba85605	0.0051372075
255	0xbd8f1307	-0.06986051

bias f4 [10]
0	0xbd179474	-0.03700681
1	0xbd142ee0	-0.036177516
2	0x3d046c55	0.032329876
3	0xbd1203b7	-0.035648074
4	0x3d512e6e	0.05106967
5	0xbd91a66b	-0.0711182
6	0x3d15947c	0.03651856
7	0x3d02db7c	0.031947598
8	0x3ce3bb84	0.027799375
9	0x3c75badc	0.014998164
