DeepLearningDemo/models/jingxin_2.pth (torch, 588127 bytes, 10 tensors)

weight f4 [32, 3, 5, 5]
0	0xbbeff579	-0.007322964
1	0x3dd37b93	0.10326304
2	0xbd3ce8a4	-0.0461203
3	0xbd96594e	-0.07341252
4	0x3cf5a156	0.029984158
5	0xbd3b4667	-0.045721438
6	0xbdbaffb3	-0.09130802
7	0x3d7c3fb0	0.061584175
8	0x3d928426	0.071541116
9	0x3ccaf290	0.024773866
10	0x3d478e62	0.04871977
11	0x3df4bb70	0.11949813
12	0x3e0f0314	0.13966018
13	0x3d8b41db	0.0679967
14	0x3c04cf7a	0.008106107
15	0x3cbe9b3c	0.02326738
16	0xbd579f09	-0.052641902
17	0xbd91b203	-0.07114031
18	0x3cad54e6	0.021158647
19	0xbda69bb0	-0.08135164
20	0xbd267291	-0.040636603
21	0x3d415eff	0.047209736
22	0xbdbfe4a2	-0.0936978
23	0x3df067d7	0.11738556
24	0xbdb53f53	-0.08849969
25	0x3d7d43f8	0.0618324
26	0x3db5be83	0.08874228
27	0xbd8d0943	-0.06886532
28	0xbd997832	-0.074936286
29	0xbd5608d6	-0.05225452
30	0xbc6e9a87	-0.014563209
31	0xbdafcad6	-0.0858361
32	0x3dd07aba	0.10179658
33	0xbd4e2034	-0.05032368
34	0x3d256a99	0.040384863
35	0xbcf989d2	-0.030461226
36	0xbdc384e4	-0.09546831
37	0x3bf41a4f	0.0074494253
38	0x3df6909d	0.120393015
39	0x3c6bc0c2	0.014389219
40	0x3dc181d6	0.09448592
41	0x3aabe655	0.0013114909
42	0xbd90bc47	-0.07067161
43	0x3d4af86a	0.049553312
44	0x3d9bd1ef	0.07608401
45	0xbdf46147	-0.11932617
46	0xbdfcf2ee	-0.12351023
47	0x3c1ba46f	0.009499653
48	0xbca5bb3b	-0.02023088
49	0x3d195920	0.03743851
50	0xbd3c2736	-0.045935832
51	0xbca33d80	-0.019926786
52	0xbc88b8bd	-0.016689653
53	0xbd8e2c18	-0.06942004
54	0xbdcfe9d2	-0.101520196
55	0x3cf427de	0.029804166
56	0xbddcca1b	-0.10780736
57	0x3d671d17	0.056424227
58	0xbc80b8d8	-0.01571314
59	0x3dbb9f93	0.09161296
60	0x3d085d1a	0.033291914
61	0xbd926f4f	-0.07150137
62	0x3de82f12	0.11337103
63	0x3d02a45b	0.031895023
64	0x3cc5cde0	0.02414602
65	0xbd1c2499	-0.03812084
66	0x3b2c8159	0.0026322214
67	0xbdadef49	-0.08492906
68	0xbd5b21e6	-0.053499125
69	0x3c5f7252	0.013638096
70	0x3d8b794c	0.06810245
71	0xbd0cff5f	-0.03442323
72	0x3de097c2	0.109664455
73	0x3dc63355	0.096777596
74	0xbd56b4c8	-0.0524185
75	0xbdb66dfb	-0.08907696
76	0xbd759b75	-0.05996271
77	0x3cb8277d	0.022479767
78	0xbb1bf245	-0.0023795527
79	0x3c8a14c4	0.016855605
80	0x3dd03d39	0.10167927
81	0xbd2d61f6	-0.04232975
82	0x3c984897	0.018589301
83	0xbd6361b5	-0.055513103
84	0x3d2800e1	0.041016463
85	0x3ca2f7dc	0.01989358
86	0xbdfe3dc1	-0.124141224
87	0x3b423bd1	0.0029637704
88	0xbdacbeb1	-0.08434809
89	0xbd3aecb3	-0.04563589
90	0x3d1b88cd	0.03797226
91	0x3be5e1ce	0.0070154434
92	0x3dd672e4	0.104711324
93	0x3de433ed	0.111427166
94	0xbd9a13c6	-0.07523303
95	0xbc92f2c7	-0.01793803
96	0x3ce2c732	0.027682874
97	0xbd9ae4b0	-0.0756315
98	0x3de5038e	0.11182319
99	0x3d3678b2	0.044548698
100	0xbdfa684f	-0.122269265
101	0xbd192280	-0.037386417
102	0xbdf9edbf	-0.122035496
103	0xbd821b50	-0.06352866
104	0x3dbbb11a	0.09164639
105	0x3d4633fb	0.048389416
106	0xbcd9b025	-0.02657325
107	0x3dde97c2	0.10868789
108	0xbd26e9a2	-0.040750153
109	0xbdf640db	-0.12024089
110	0x3c387bd5	0.011259993
111	0x3cc98b2f	0.0246025
112	0xbbd0bc80	-0.006370127
113	0xbde42192	-0.111392155
114	0xbd064dc8	-0.03278902
115	0x3cb26bff	0.021780012
116	0x3dedf6f8	0.11619371
117	0xbd928015	-0.07153336
118	0x3d14fbbb	0.03637288
119	0x3db81fcf	0.08990442
120	0x3dbbd31f	0.091711275
121	0xbd475077	-0.04866072
122	0xbc12509f	-0.008930354
123	0x3cc02671	0.02345583
124	0x3c8a2752	0.016864453
125	0x3dbf637f	0.09345149
126	0x3d66c22e	0.056337528
127	0x3da0d5d9	0.07853288
128	0x3dc56cde	0.096399054
129	0xbda6211f	-0.08111786
130	0x3dbdd129	0.0926841
131	0x3d9acfe0	0.0755918
132	0xbd38f178	-0.045152158
133	0x3c3a5336	0.011372378
134	0xbc02590e	-0.007955803
135	0xbdaa34b1	-0.08310831
136	0x3dca6730	0.09882963
137	0xbd688c8f	-0.056774672
138	0xbd6b8448	-0.0574992
139	0x3dc879b7	0.0978884
140	0xbc6e062a	-0.014527837
141	0xbcc8b88d	-0.024502063
142	0x3c78915f	0.015171378
143	0x3d03ce96	0.032179438
144	0x3d0d8834	0.03455372
145	0x3dc4d647	0.09611183
146	0x3c88ce4b	0.01669993
147	0x3dc3089e	0.09523128
148	0x3d18bf56	0.037291847
149	0xbcc77c4e	-0.024351265
150	0xbd36310e	-0.044480376
151	0x3c35821c	0.011078384
152	0xbb296873	-0.002584961
153	0x3e05df37	0.13073431
154	0x3e2b0e4b	0.16704671
155	0xb9fcf5ed	-0.00048248415
156	0xbd52e6f1	-0.051489774
157	0x3d952a01	0.07283402
158	0xbd5a19f8	-0.053247422
159	0xbd8f4674	-0.0699586
160	0x3d4e910f	0.050431307
161	0x3c8d9e10	0.017287284
162	0x3d96e9a0	0.07368779
163	0xbdc8df9d	-0.09808276
164	0xbda9cd18	-0.08291072
165	0x3ccf628a	0.025315542
166	0xbbbd1c65	-0.005771207
167	0xbc83a3c3	-0.016069299
168	0x3cebd0fc	0.028786175
169	0xbde42c5c	-0.111412734
170	0x3d7023b2	0.05862779
171	0xbcf9e77e	-0.030505892
172	0xbd6841b2	-0.056703277
173	0x3d45755e	0.048207633
174	0x3d8b3c42	0.06798603
175	0x3dbbfb24	0.09178761
176	0xbe1520fd	-0.14563365
177	0xbdabb801	-0.08384705
178	0xbdfbd960	-0.1229732
179	0x3db1b214	0.08676544
180	0xbdcf1f71	-0.10113419
181	0xbdc464d4	-0.09589544
182	0xbe1fd6ce	-0.15609285
183	0xbe002b06	-0.12516412
184	0x3da5cd70	0.08095825
185	0xbcedd34f	-0.029031424
186	0xbe267e2a	-0.16259065
187	0xbd5b95b2	-0.053609557
188	0xbd936a51	-0.071980126
189	0xbdd7daba	-0.10539766
190	0xbe0b1eb1	-0.13585927
191	0xbcd79498	-0.026315972
192	0x3d966c87	0.07344919
193	0xbd99256a	-0.07477839
194	0xbe0f7935	-0.1401108
195	0xbc8adda2	-0.016951386
196	0xbdd16ba5	-0.1022561
197	0x3c122b61	0.008921475
198	0x3db563c0	0.088569164
199	0x3d05d5fd	0.03267478
200	0x3d889669	0.066693135
201	0xbdd5cdfb	-0.10439678
202	0xbdcaeb1b	-0.09908124
203	0xba0c264b	-0.0005346282
204	0x3ddec803	0.10877993
205	0x3ce8bc0e	0.028409984
206	0x3cc0531d	0.023477132
207	0xbdfa30a9	-0.122163124
208	0x3d43e692	0.04782731
209	0x3da1feeb	0.0790995
210	0xbd40ead8	-0.047098964
211	0xbdfe59e0	-0.12419486
212	0x3d8e6832	0.069534674
213	0xbdfb132c	-0.12259516
214	0xbd56f828	-0.052482754
215	0xbda76a73	-0.081746005
216	0xbdff5b43	-0.12468579
217	0xbc58eb8a	-0.013239751
218	0x3d682481	0.056675438
219	0xbdf8cd71	-0.1214856
220	0xbc8bff0f	-0.017089395
221	0xbc897492	-0.016779218
222	0xbd47fff1	-0.04882807
223	0xbce02cd8	-0.027365133
224	0x3daa7d7d	0.08324716
225	0xbc39666d	-0.011315924
226	0x3da855de	0.08219503
227	0xbdad0e1a	-0.08449955
228	0xbdcd20f8	-0.10016054
229	0x3b7db523	0.0038712702
230	0xbd535c8f	-0.051601943
231	0x3d0e879b	0.034797292
232	0xbc38a687	-0.011270172
233	0xbdc82c09	-0.09774024
234	0x3db5f451	0.0888449
235	0x3da43828	0.080185235
236	0xbbad7a43	-0.0052941157
237	0xbc917dcf	-0.017760186
238	0x3c7d7bfd	0.015471456
239	0xbdd61b6b	-0.10454448
240	0xbd5b3772	-0.053519674
241	0xbde352f5	-0.11099807
242	0x3be37021	0.006940857
243	0xbcc92969	-0.024555879
244	0xbd3b4bf5	-0.045726735
245	0xbdcea12b	-0.10089334
246	0x3de278bb	0.11058184
247	0x3d9725f6	0.07380287
248	0x3db0658e	0.0861312
249	0x3df2d1a1	0.1185639
250	0xbd58e681	-0.0529542
251	0x3d9908aa	0.07472356
252	0xbc774e31	-0.015094326
253	0xbcd3538b	-0.025796672
254	0x3d80143c	0.062538594
255	0x3b535dc8	0.0032251943

bias f4 [32]
0	0x3cbcbd87	0.023039592
1	0xbe3838f7	-0.1799048
2	0x3c4d95ff	0.012547969
3	0xbd9a8bb7	-0.0754618
4	0x3e0a4f29	0.1350676
5	0x3e129d93	0.14317922
6	0x3e516f1f	0.20452546
7	0xbe2e7048	-0.1703502
8	0xbd8df7f1	-0.06932057
9	0xbdf5e4b1	-0.1200651
10	0x3b1c7b9f	0.0023877395
11	0xbdb8616e	-0.09002958
12	0xbd993272	-0.07480325
13	0xbd16401f	-0.036682244
14	0xbd97304b	-0.07382258
15	0x3e1e66c1	0.15468885
16	0xbd2f6360	-0.04281938
17	0xbd534ece	-0.051588826
18	0xbe1283f5	-0.1430815
19	0xbe4cac5f	-0.1998763
20	0x3e35dd09	0.177601
21	0xbe19b93c	-0.15012068
22	0xbdcf12c9	-0.10111005
23	0x3d903b6a	0.07042582
24	0x3c4959d0	0.012289479
25	0xbd92b4fd	-0.07163427
26	0x3cd2a13a	0.025711644
27	0xbd009510	-0.031392157
28	0x3e4c0c31	0.19926526
29	0x3c0c5938	0.008566193
30	0xbdf9bc1e	-0.12194084
31	0xbd80c8bd	-0.06288288

weight f4 [32, 32, 5, 5]
0	0x3ce305cf	0.02771273
1	0xbc9e9158	-0.019356415
2	0x3c97ab4a	0.018514294
3	0xbd1103bf	-0.035403963
4	0x3c77e321	0.015129835
5	0x3c5e1932	0.013555812
6	0x3cdb12f3	0.026742434
7	0x3c295e23	0.010337385
8	0x3c9db105	0.019249449
9	0xbd09fa6e	-0.033686094
10	0xbce43367	-0.027856542
11	0xbd12c6c0	-0.035834074
12	0xbcf9017d	-0.030396217
13	0x3c2358df	0.009969919
14	0xbd0430d7	-0.03227314
15	0xbbb0188f	-0.0053740214
16	0xbca9d9ad	-0.020733679
17	0x3cceefea	0.025260884
18	0x3ca1cd15	0.019751111
19	0xbaf2ee42	-0.0018534141
20	0xbc0a6092	-0.008445876
21	0xbb408fce	-0.002938259
22	0xbcda158c	-0.026621602
23	0x3c938e74	0.018012263
24	0xbd03db9c	-0.032191858
25	0xbca69fba	-0.020339835
26	0xbd1aa86d	-0.03775828
27	0x3c316b87	0.010828859
28	0x3cf71896	0.03016309
29	0xbcf13243	-0.029442912
30	0xbc95d242	-0.018288735
31	0x3b242011	0.0025043527
32	0x3d04a880	0.032387257
33	0xbcdafdcb	-0.026732346
34	0xbcbfd78c	-0.02341821
35	0x3c0be387	0.008538133
36	0x3b5d8735	0.0033802513
37	0xbc803d4a	-0.015654225
38	0x3d04b479	0.032398675
39	0x3c862179	0.016373383
40	0x3b0e3914	0.0021701502
41	0x3cb2c280	0.02182126
42	0xbc3be3eb	-0.011467914
43	0xbc9dfa65	-0.019284436
44	0x3d0d8bc8	0.034557134
45	0x3c9a4cbb	0.018835416
46	0x3cc131ca	0.023583312
47	0x3cbb8a0c	0.022892974
48	0x3c9ab483	0.018884903
49	0x3bc76c9a	0.0060859444
50	0x3bcb5125	0.0062047415
51	0xbcbb97f6	-0.022899609
52	0x3cc278ff	0.023739336
53	0x3cd26884	0.025684603
54	0xbb29992d	-0.0025878653
55	0xbc9f4bbb	-0.01944529
56	0xbc66097d	-0.014040348
57	0x3c1f0901	0.009706737
58	0xbd0e5a8d	-0.034754325
59	0xba09b678	-0.0005253325
60	0xbbd55f74	-0.006511623
61	0xbc2fa89c	-0.010721352
62	0x3ada24a1	0.0016642996
63	0xbd0d4cce	-0.034497075
64	0xbcf8f840	-0.030391812
65	0x3bde9ba7	0.0067934575
66	0xbcb1d8d8	-0.021709844
67	0xbb3ec0ad	-0.0029106543
68	0xbd21b5fb	-0.03948019
69	0xbcf1442b	-0.02945145
70	0x3b4de2e0	0.0031415746
71	0xbce9ab1c	-0.028523974
72	0xbd26bcf0	-0.04070753
73	0xbc8ac9e9	-0.016941981
74	0x3ca48758	0.020084068
75	0x3c8182d8	0.015809461
76	0x3cc2ae73	0.023764824
77	0xbcc6935c	-0.024240188
78	0x3cc32c1a	0.02382474
79	0x3cadd08f	0.021217613
80	0xbc1df22c	-0.009640258
81	0xbc7381d8	-0.0148625
82	0xbcdff10e	-0.027336624
83	0x3cbb69fa	0.022877682
84	0xbc2ce6e0	-0.010553092
85	0x3d0e7d15	0.034787256
86	0xbd01ae0c	-0.031660125
87	0x3d05dfb5	0.032684047
88	0xbd00ff37	-0.03149339
89	0xbbf2c630	-0.0074088797
90	0x3aeea928	0.0018208371
91	0x3d09cb6c	0.033641264
92	0xbcea058b	-0.028567096
93	0x3c78511b	0.015156056
94	0x3ce162be	0.027512904
95	0xbd071843	-0.032982122
96	0xbb39c49d	-0.002834595
97	0xbc239968	-0.009985305
98	0x3c6e8fca	0.014560649
99	0x3cd4a69b	0.02595835
100	0x3cfd8ee6	0.030951928
101	0x3d0680b3	0.03283758
102	0xbd138758	-0.036017746
103	0x3c2c9228	0.010532893
104	0x3d09b0f4	0.03361602
105	0x3bd8aa24	0.006612079
106	0xbc55ec0c	-0.013056766
107	0xbd058919	-0.03260145
108	0xbae0c0f4	-0.0017147348
109	0xbc776cee	-0.015101654
110	0xbcd53af9	-0.026029097
111	0x3c04c88b	0.008104454
112	0xbc0f44c3	-0.008744421
113	0xbd1876e5	-0.03722276
114	0xbad47565	-0.0016209303
115	0xbcb9ea87	-0.02269484
116	0xbcf31cd1	-0.029676827
117	0xbcbcfde1	-0.023070278
118	0x3bae1df9	0.0053136316
119	0x3ce04765	0.027377794
120	0xbd1d224e	-0.038362794
121	0xbcfbc70c	-0.030734561
122	0xba0af6f9	-0.0005301084
123	0x3b9cf86d	0.004790357
124	0xbc877220	-0.016533911
125	0x3c430c7c	0.011904832
126	0xb9bfed41	-0.00036607127
127	0xbc3222fa	-0.010872597
128	0xbce99263	-0.028512185
129	0xbb527387	-0.0032112317
130	0x3c2c5f74	0.010520805
131	0xbc99e396	-0.01878528
132	0xbc4d10b0	-0.012516186
133	0xbc73f8fc	-0.0148909055
134	0x3cfe73cb	0.031061074
135	0x3d04eaf5	0.032450635
136	0x3ca1bf0c	0.019744419
137	0x3b02be70	0.0019949935
138	0x3b8246d4	0.0039757285
139	0xbcee095a	-0.029057194
140	0x3c89d33f	0.016824363
141	0xbd1dd61e	-0.038534276
142	0xbb93fa20	-0.004515901
143	0xbcf398c8	-0.029735938
144	0xbca50df4	-0.020148255
145	0xbcb913d0	-0.022592455
146	0xbd09e40f	-0.03366476
147	0xbd1b8cd9	-0.03797612
148	0xbd10f79a	-0.03539238
149	0xb900d04c	-0.00012284628
150	0x3d0c38cb	0.03423385
151	0x3c9f3e36	0.019438844
152	0x3c6f209a	0.014595175
153	0x3aca883e	0.001545198
154	0x3c8469c5	0.016163716
155	0x396158e5	0.00021490788
156	0xbb442766	-0.002993071
157	0xbc864319	-0.016389417
158	0xbd1084fe	-0.03528308
159	0x3ae40e11	0.0017399212
160	0x3bd6a921	0.0065509235
161	0x3c142b46	0.00904352
162	0xbc018fcc	-0.007907819
163	0x3c9a7a4b	0.018857142
164	0x3c3a1a45	0.011358802
165	0xbd1ee875	-0.038795907
166	0x3c81df0f	0.015853433
167	0xbced60c9	-0.028976815
168	0xbd2dc285	-0.042421836
169	0xbb24eff4	-0.0025167437
170	0xbd1b7ccb	-0.03796081
171	0x3c87a01a	0.016555835
172	0xbd0d3436	-0.03447362
173	0xbcbe31ef	-0.02321717
174	0x3ccb76ea	0.024836976
175	0xbcc93a5e	-0.024563964
176	0xbc69f448	-0.014279433
177	0xbcd25cc9	-0.025679009
178	0x3c4429d5	0.011972864
179	0xbc48a413	-0.01224615
180	0xbbabefad	-0.0052470774
181	0x3bf38d5b	0.0074326224
182	0xbcac5465	-0.021036336
183	0x3b188d88	0.0023277719
184	0x3c882935	0.016621212
185	0xbd1349b2	-0.035958953
186	0xbc78ac31	-0.015177772
187	0x3cb92a4c	0.022603177
188	0xbd09d0aa	-0.033646263
189	0xbcb014f9	-0.021494376
190	0xbd0b0d50	-0.033948243
191	0xbd1a02ae	-0.03760021
192	0x3cb23f96	0.021758836
193	0x3c8472e1	0.01616806
194	0x3cb40d45	0.021978984
195	0xbcc2f849	-0.023800032
196	0xbc345524	-0.011006627
197	0xbc831db1	-0.016005369
198	0x3cac6765	0.021045396
199	0xbcd384f0	-0.025820225
200	0x3d0025ee	0.031286173
201	0x3a97789d	0.0011556331
202	0x3c03cc92	0.008044379
203	0xbcce73ff	-0.025201796
204	0xbcabe459	-0.020982908
205	0x3c4e189c	0.0125791095
206	0x3c922b53	0.017842924
207	0x3b2a3e4f	0.002597708
208	0x3ccdb7cd	0.025112057
209	0x3c8452ad	0.016152704
210	0xbc0c2e54	-0.008555967
211	0xbca1c646	-0.019747864
212	0x3c992790	0.018695623
213	0xbb949dc1	-0.0045354073
214	0xbbf4b6a2	-0.0074680606
215	0x3c8a9d2b	0.016920647
216	0xbc5b268c	-0.0133758895
217	0xbcd8a4b3	-0.026445722
218	0x3b9a733f	0.0047134454
219	0x3cc7d137	0.024391754
220	0x3c08ca2c	0.008348983
221	0xbc8ce52a	-0.017199118
222	0xbb376ffd	-0.0027990334
223	0xbc6aafd6	-0.014324149
224	0x3c6661e6	0.014061427
225	0xbbb95ed1	-0.005657055
226	0x3c6e6ef8	0.014552824
227	0xbc580fa6	-0.013187325
228	0xbc88962a	-0.016673166
229	0x3b917ead	0.0044401498
230	0xbc03e36b	-0.008049826
231	0x3c0a8f68	0.008457042
232	0x3bda7461	0.0066667055
233	0xbbb56686	-0.0055359034
234	0xbcd3bae3	-0.02584595
235	0xbc7e7fef	-0.015533431
236	0xbcd5fe9b	-0.026122382
237	0xbc0cbb39	-0.008589559
238	0x3d187577	0.0372214
239	0xbcc4835b	-0.023988416
240	0xbceacec4	-0.028663047
241	0x3d0fc6ea	0.03510181
242	0xbcc265bc	-0.023730151
243	0x3d1549df	0.036447402
244	0xbca8a222	-0.020585123
245	0x3d0cfcc5	0.034420747
246	0x3d12fa94	0.0358835
247	0xbcc30c26	-0.023809504
248	0x3cfaf7af	0.030635683
249	0x3d04a8f1	0.032387678
250	0xbc55d72d	-0.01305179
251	0xbc47d29e	-0.012196211
252	0x3ad670fd	0.0016360577
253	0x3bd031a9	0.006353576
254	0xbbf43f52	-0.0074538374
255	0xbbcde9e6	-0.0062839864

bias f4 [32]
0	0xbc7271fd	-0.014797685
1	0x3d3eb22a	0.04655663
2	0xbd3ede1c	-0.04659854
3	0xbcae1ad0	-0.02125302
4	0xbbd12c4e	-0.0063834554
5	0xbca651b5	-0.020302633
6	0xbc9b53d5	-0.018960873
7	0xbcca598b	-0.0247009
8	0xbd2230d1	-0.039597336
9	0xbdae092a	-0.08497842
10	0xbd3bda16	-0.04586228
11	0x3cfeaaae	0.031087246
12	0x3c6352d9	0.013874733
13	0xbcd02c75	-0.025411824
14	0x3c99155e	0.018686946
15	0xbd9b24e7	-0.07575398
16	0xbcd9c9bc	-0.026585452
17	0xbcd30273	-0.025758004
18	0xbd022558	-0.031773895
19	0x3d940f51	0.07229484
20	0xbd153f67	-0.03643742
21	0xbc2fc41b	-0.0107279075
22	0xbb2c3536	-0.0026276833
23	0xbd04c76c	-0.032416746
24	0x3c98a9db	0.01863568
25	0xbd0e36de	-0.034720294
26	0xbcbd8001	-0.023132326
27	0x3d5161de	0.051118724
28	0x3cd2e8c5	0.025745759
29	0x3cbf9c3d	0.02338993
30	0xbc1f3f51	-0.009719686
31	0xbd7b45e6	-0.061345957

weight f4 [64, 32, 5, 5]
0	0x3c2f1ea0	0.010688454
1	0x3c24a5f0	0.010049328
2	0xbd1b1286	-0.037859462
3	0xbd047f25	-0.032347817
4	0xbcf63fa0	-0.030059636
5	0xbcad1f3d	-0.02113306
6	0x3ba639da	0.0050728144
7	0x3d0790e2	0.033097155
8	0xbc306961	-0.010767312
9	0x3c8c5f0a	0.017135162
10	0xbb80506a	-0.003915836
11	0x3cf1d97f	0.029522656
12	0xbc57c6fd	-0.013170001
13	0x3cf435f5	0.029810885
14	0x3cf8bb5f	0.030362783
15	0xb91c83d9	-0.00014926436
16	0x3cf5bd4e	0.029997494
17	0x3c9bf089	0.019035595
18	0x3be6302b	0.007024785
19	0x3cf4c836	0.029880624
20	0x3d06b080	0.032883167
21	0x3bb40d7d	0.005494772
22	0xbc86294c	-0.016377114
23	0xbccc3fb6	-0.024932723
24	0x3cc5cdea	0.024146039
25	0xbc35c259	-0.011093699
26	0x3c4b111d	0.012394217
27	0xba678589	-0.0008831849
28	0x3ca75ff5	0.020431498
29	0xbbbce356	-0.0057644052
30	0xbc93a42e	-0.018022623
31	0x3c968696	0.018374722
32	0xbc924aa6	-0.01785786
33	0x3c07a9f5	0.008280267
34	0xbc820602	-0.015872005
35	0x3d03250d	0.032017756
36	0x3d08aaf8	0.033366174
37	0xbc4ac63b	-0.012376363
38	0xbcb2a54a	-0.021807332
39	0x3a1a05f0	0.00058755185
40	0x3cee735d	0.029107744
41	0x3c7f111a	0.015568042
42	0x3bb07c21	0.005385891
43	0xbc471c9e	-0.012152819
44	0x3c2ae712	0.010431068
45	0x3ab9b6a4	0.0014168811
46	0xbcbe61a9	-0.023239927
47	0x3bc9d260	0.006159112
48	0xbcd09c37	-0.025465114
49	0xbc85f249	-0.016350882
50	0xbcacf942	-0.02111495
51	0xbc8b30ee	-0.016991105
52	0x3b848464	0.0040441025
53	0x3adb1bbb	0.0016716638
54	0xbd205426	-0.03914275
55	0xbc9b81bc	-0.01898276
56	0xbcd1b45f	-0.025598703
57	0x3c9e3fda	0.019317556
58	0x3c87aa0e	0.01656058
59	0xbc3e99e8	-0.011633374
60	0xbc9b2c95	-0.018942157
61	0xbc3f8ba4	-0.011691008
62	0xbc91e2ea	-0.017808396
63	0x3a6d6a78	0.00090566976
64	0x3d07d5b2	0.03316278
65	0x3b170a73	0.0023047
66	0x3d0ad12d	0.03389089
67	0x3cd1c331	0.02560577
68	0x3d274489	0.040836845
69	0x3c4895d1	0.01224275
70	0x3c7e23bb	0.0155114485
71	0x3c28848c	0.010285508
72	0x3cf23094	0.02956418
73	0xbc78e1ed	-0.015190584
74	0xbcd0740c	-0.02544596
75	0xbd1ea868	-0.038734823
76	0x3ca86e35	0.020560363
77	0x3c451dee	0.012031062
78	0xbcf6d09f	-0.030128775
79	0xbd346980	-0.044045925
80	0xbc2a8ff4	-0.010410298
81	0xbc5a5b06	-0.013327366
82	0x3b9011a9	0.0043966365
83	0x3c051800	0.008123398
84	0xbc1c6847	-0.009546346
85	0x3b8ea6de	0.004353388
86	0xbb80224c	-0.0039103385
87	0x3c53dfff	0.012931823
88	0xbcabc816	-0.020969432
89	0x3d23d8bf	0.040001627
90	0x3d30160f	0.042989787
91	0x3c207719	0.00979402
92	0xbb87f41e	-0.004148974
93	0xbcf4e9c7	-0.02989663
94	0xbc6116c3	-0.013738337
95	0xbd05c8df	-0.03266227
96	0x3c8723b9	0.016496526
97	0xbd12a527	-0.035802033
98	0x3c9586ba	0.01825272
99	0xbd1c10d4	-0.038101986
100	0xbcdb215a	-0.026749302
101	0xbc852f4a	-0.0162579
102	0x3d0751b0	0.033036888
103	0xbd0382d6	-0.032107197
104	0xbd1fb6e1	-0.038992766
105	0xbc993485	-0.018701801
106	0x3d0bb712	0.034110136
107	0x3d1e20aa	0.03860537
108	0x3d0d517e	0.034501545
109	0xbc852952	-0.016255055
110	0x3d128f5e	0.035781257
111	0x3d0561f1	0.032564107
112	0x3b302884	0.0026879618
113	0x3c88700e	0.016654994
114	0x3cc8232e	0.024430837
115	0xbb57a635	-0.0032905464
116	0x3c985ab2	0.018597934
117	0x3bcb66d1	0.006207325
118	0xbcb92ed9	-0.022605347
119	0xbb433f58	-0.0029792394
120	0x3b5a0e8a	0.0033272826
121	0x3c32636a	0.01088796
122	0xbcc49373	-0.02399609
123	0xbc19d09f	-0.009388118
124	0x3c0f3fcb	0.008743237
125	0xbd1989b6	-0.037484847
126	0xbc9830a7	-0.018577887
127	0xbd105795	-0.035239775
128	0x3bac0ae9	0.005250324
129	0x3cfaa202	0.03059483
130	0x3cccf311	0.025018247
131	0x3cf2ff7a	0.029662836
132	0x3c7db759	0.015485608
133	0xbbc944cd	-0.006142235
134	0x3be94628	0.007118959
135	0x3bd50b96	0.0065016253
136	0xbc807d91	-0.015684875
137	0xbc1f3608	-0.009717472
138	0xbcdde436	-0.027086359
139	0x3c0c7fe2	0.0085754115
140	0xbc83dfab	-0.016097864
141	0x3c8b03d7	0.016969604
142	0x3d2c689d	0.042091954
143	0x3d269e2f	0.0406782
144	0x3cd1a667	0.025592042
145	0x3c5060cd	0.012718392
146	0x3cfe8a94	0.031071939
147	0x3ccd4e71	0.025061818
148	0x3a437c43	0.0007457176
149	0x3d0a970c	0.033835456
150	0xbb897c94	-0.004195759
151	0xbccef105	-0.025261411
152	0x3bae3c3c	0.005317239
153	0x3cd668b5	0.026172975
154	0xbbec47e3	-0.007210718
155	0x3d17d341	0.0370667
156	0xb93a8356	-0.00017787269
157	0xbcb4078a	-0.021976251
158	0x3d18252e	0.037144832
159	0xbcc0a085	-0.023514042
160	0x3c16e657	0.009210191
161	0xbc635dac	-0.013877314
162	0x3c80b129	0.015709477
163	0x3c6d7234	0.01449256
164	0x3c90b8c7	0.017666234
165	0xbc822c2f	-0.015890209
166	0x3c8b3091	0.016990932
167	0x3cb956e1	0.022624435
168	0xbcfcd0e4	-0.030861326
169	0xbbe2b8dc	-0.0069190096
170	0x3cb49ed3	0.02204839
171	0x3d270a0c	0.040781066
172	0xbc3f30a8	-0.011669315
173	0x3cdff3ef	0.027337996
174	0x3ced8877	0.028995736
175	0xbbfb3773	-0.007666522
176	0x3caed68e	0.021342542
177	0xbcf1db11	-0.029523404
178	0xbd03334b	-0.03203134
179	0xbb9c860a	-0.004776721
180	0x3c632469	0.013863661
181	0xbcd6abed	-0.026205027
182	0x3c5db513	0.013531941
183	0x3c59aeec	0.0132863335
184	0x3cace488	0.021105066
185	0x3c19ce4a	0.009387562
186	0x3cf169bb	0.029469362
187	0x3d1eda0e	0.038782172
188	0x3d23fcd2	0.04003603
189	0x3d14e226	0.036348484
190	0x3d1c0599	0.038091276
191	0x3d1adeed	0.037810255
192	0x3bbd009e	0.005767896
193	0xbbf68f94	-0.00752444
194	0x3994da54	0.00028391427
195	0xbbe62f06	-0.0070246486
196	0xbd041fca	-0.03225688
197	0xbca4a1f4	-0.020096757
198	0xbc8a3d94	-0.016875066
199	0x3cfedc68	0.031110957
200	0x3c581f51	0.01319106
201	0xbbbc9dac	-0.0057561006
202	0xbb4d1fc9	-0.0031299463
203	0xbceb7935	-0.02874432
204	0x3ce6c7c9	0.028171437
205	0x3c38c567	0.011277533
206	0xbc727e05	-0.014800553
207	0x3b5dd0af	0.003384631
208	0xbc8eee96	-0.017447751
209	0xbcf86aa7	-0.030324293
210	0xbcbd12ad	-0.023080194
211	0x3bbb791a	0.0057212235
212	0x3cf5aff5	0.02999113
213	0xbb88909e	-0.0041676303
214	0x3d0848ea	0.03327266
215	0x3d08bc86	0.033382915
216	0xbc84003d	-0.016113395
217	0xbc987fd5	-0.018615643
218	0xbcc031ae	-0.02346119
219	0x3a81c1f6	0.0009899724
220	0x3cdeefe7	0.027214004
221	0x38123e07	3.486688e-05
222	0xbc377995	-0.011198421
223	0x3ccc6308	0.024949566
224	0xbccc4d22	-0.024939124
225	0x3c3e6da0	0.011622816
226	0xbcddbeeb	-0.027068576
227	0xbcff0cdd	-0.031134063
228	0x3c2e7b06	0.010649448
229	0xbd148248	-0.03625706
230	0x3cede0bb	0.029037824
231	0x3c421381	0.01184547
232	0xbd140cb1	-0.036144916
233	0xbc943aba	-0.01809441
234	0xbb1b1de8	-0.0023668949
235	0xbc1543a3	-0.009110364
236	0xbce82e91	-0.028342517
237	0x3a921ac2	0.001114689
238	0x3d023fb4	0.031799033
239	0x3cd9972c	0.026561342
240	0xbba5baf8	-0.005057689
241	0x3b8e738c	0.0043472704
242	0x3d448f51	0.04798824
243	0x3d40d6bb	0.047079783
244	0x3986b887	0.00025695955
245	0x3c2e58a5	0.010641252
246	0xbc9204f0	-0.01782462
247	0xbcae41d6	-0.021271627
248	0xbcd6dcdc	-0.02622836
249	0xbd05bcff	-0.032650944
250	0xbc126c31	-0.008936928
251	0x3bf0df11	0.0073508103
252	0xbbe446bc	-0.00696644
253	0x3caff0c6	0.021477114
254	0xbccd1a1e	-0.025036868
255	0x3d05e8c7	0.032692697

bias f4 [64]
0	0x3abd2709	0.0014431189
1	0xbd22aca6	-0.03971543
2	0x3c9da0b0	0.01924166
3	0xbc6d95da	-0.014501059
4	0x3cf4f4a9	0.02990182
5	0x3ca07910	0.019588977
6	0xbd219f53	-0.039458584
7	0xbcb0ad7a	-0.021567095
8	0x3c4f51f1	0.012653814
9	0xbc383bc9	-0.011244723
10	0x3d04fa89	0.03246549
11	0x3cd91cc3	0.026502972
12	0x3d478a77	0.048716035
13	0x38ad2d23	8.25769e-05
14	0x3bd11aa1	0.0063813482
15	0x3a26f6f3	0.0006369196
16	0xb9b15976	-0.00033826724
17	0xbccdcf5c	-0.02512329
18	0x3bf0b145	0.007345351
19	0xbd04f5cc	-0.032460973
20	0xbaf3621b	-0.0018568666
21	0xbc7ec6a2	-0.015550287
22	0xbd30fbf3	-0.043209027
23	0x3c637ecb	0.01388521
24	0x3d085d43	0.033292066
25	0x3cae8500	0.021303654
26	0x3ba1fc8a	0.004943435
27	0xbc3c5d3e	-0.01149684
28	0x3c68370c	0.01417328
29	0x3c81cbd1	0.015844258
30	0xbc943691	-0.018092426
31	0xbd1d0de6	-0.038343333
32	0x3c8fc0c6	0.017547976
33	0x3c4599db	0.012060608
34	0x3c5bf624	0.013425384
35	0x3d167a2f	0.036737617
36	0x3d002d10	0.031292975
37	0x3cddd280	0.027077913
38	0x3d2c21f2	0.04202456
39	0x3cecc45a	0.028902221
40	0x3c984792	0.018588815
41	0xbc8856ec	-0.01664301
42	0xbd478935	-0.048714835
43	0x3c8757b5	0.016521314
44	0x3ce6e2c9	0.028184311
45	0x3d01725b	0.0316032
46	0x3cd98f32	0.026557539
47	0x3ccab110	0.024742633
48	0x3d2db3a5	0.04240765
49	0xbcc2e44f	-0.023790507
50	0xbc859291	-0.01630524
51	0x3c63f0f1	0.013912425
52	0xbc9fb975	-0.019497612
53	0xbc8f7a53	-0.017514383
54	0xbd83c16c	-0.06433377
55	0xb978dd3e	-0.00023733542
56	0xbcb9c76f	-0.022678105
57	0xbd056576	-0.032567464
58	0x3b895c1a	0.0041918876
59	0x3d020033	0.03173847
60	0xbb929ef0	-0.004474513
61	0x3c0435ae	0.008069439
62	0xbc0e5e1e	-0.0086894315
63	0x3c75da37	0.01500564

weight f4 [64, 1024]
0	0x3b8225e2	0.003971801
1	0xbc72051d	-0.014771727
2	0x3cc9e234	0.024643995
3	0xbc9c6279	-0.019089924
4	0x3a54506d	0.00080991426
5	0x3cded55f	0.027201353
6	0xbafccbe4	-0.0019286838
7	0x3c105e24	0.008811507
8	0xbc9effc1	-0.019409062
9	0xbc0ce398	-0.008599184
10	0x3c86727c	0.016412012
11	0x3d037fba	0.03210423
12	0xbc096a37	-0.00838714
13	0xbbb8f7a6	-0.0056447564
14	0xbcade750	-0.021228462
15	0x3caeb77b	0.021327725
16	0xbcec1b59	-0.028821634
17	0xbb875c2f	-0.004130862
18	0xbbee4f4e	-0.0072726374
19	0x3c93a1c1	0.018021466
20	0xbc85d497	-0.016336722
21	0xbcd9ddbb	-0.026594987
22	0xb9a73bd1	-0.0003189729
23	0xbcb56c74	-0.022146441
24	0xbd0d91ce	-0.03456288
25	0x3cb0fea1	0.021605792
26	0xbcbf51f5	-0.02335451
27	0x3ba59aab	0.0050538382
28	0xbcf7973a	-0.030223478
29	0x3a5d2714	0.0008436304
30	0x3cdcba18	0.026944205
31	0xbc761ea4	-0.015021954
32	0x3b50ced3	0.0031861558
33	0x3c9bf7a9	0.019038992
34	0x3c059cef	0.008155092
35	0xbc2fdf1f	-0.010734349
36	0x3b74c4b1	0.0037348683
37	0xbca50f3a	-0.020148862
38	0xbc8f3fef	-0.01748654
39	0xbc596283	-0.013268116
40	0x3c87c378	0.016572699
41	0xbbcec23b	-0.006309775
42	0x3bc0c106	0.005882385
43	0xbcd1f89f	-0.025631247
44	0xbbc89c83	-0.0061221733
45	0x3aa6ec2a	0.0012735177
46	0xbcf2ce99	-0.029639529
47	0xbcd222ae	-0.025651302
48	0x3d01fd41	0.031735662
49	0x3d03a306	0.032137893
50	0x3c91f82f	0.017818538
51	0xbc971575	-0.018442849
52	0x3c2d0e48	0.010562487
53	0x3cb5effb	0.022209158
54	0xbb547a7b	-0.0032421637
55	0x3cb5c414	0.022188224
56	0x3c9fcaf9	0.019505965
57	0xbcd7bc7a	-0.02633499
58	0xbab980bd	-0.0014152747
59	0x3cb074c9	0.021540063
60	0x3d115e2a	0.035490192
61	0xbcd367d1	-0.02580634
62	0x3d09390f	0.03350168
63	0x3c9e24f7	0.019304736
64	0xbcbff4e7	-0.023432208
65	0xbb3f26f8	-0.0029167514
66	0x3b8a1c46	0.0042147962
67	0x3bf061aa	0.007335861
68	0x3cc920d6	0.02455179
69	0x3a5d158a	0.00084336905
70	0x397eed14	0.00024311646
71	0xbc554b99	-0.013018512
72	0xbd07c054	-0.033142403
73	0x3c36cdca	0.011157462
74	0xbcce8538	-0.025210008
75	0x3cb482b2	0.022034977
76	0xbc892aa1	-0.01674396
77	0x3c304fad	0.010761184
78	0xbce813d3	-0.028329765
79	0xbb95f09e	-0.004575803
80	0xbcd2a82f	-0.025714962
81	0x3ca1bef5	0.019744376
82	0x3cf41665	0.029795835
83	0x3ceff1d2	0.029290114
84	0x3ce15aa8	0.027509049
85	0x3cc30a74	0.023808695
86	0xbce0e0d7	-0.027450962
87	0xbc7323ee	-0.014840109
88	0x3d0d22f1	0.03445715
89	0xbc4d9df1	-0.012549863
90	0xbcf82860	-0.03029269
91	0x3cd53984	0.026028402
92	0x3cb4633c	0.022019975
93	0xbce89ab5	-0.028394083
94	0xbcbe0928	-0.023197725
95	0x3c99730b	0.018731615
96	0x3ced377d	0.028957123
97	0xbca00718	-0.019534633
98	0x3ca8aba7	0.020589663
99	0xbc3e27ec	-0.011606198
100	0xba337623	-0.0006845912
101	0xbb69133a	-0.0035564438
102	0xbb8b655b	-0.004254026
103	0xbc13e9bf	-0.009027897
104	0xbc82e3b9	-0.015977727
105	0xbcc4c20d	-0.024018312
106	0x3c7fe9fa	0.015619749
107	0x3ca2a009	0.019851701
108	0x3ce1ba50	0.027554661
109	0x3bd7b85c	0.0065832566
110	0xba85a15c	-0.0010195184
111	0x3b8d9521	0.004320756
112	0xbc699398	-0.0142563805
113	0xbc9fa773	-0.019489026
114	0x3d010da9	0.031507168
115	0xbb65bb12	-0.003505413
116	0x3b484fc1	0.0030565115
117	0xbcbe6c06	-0.023244869
118	0xbc81153e	-0.0157572
119	0x3ca4d3a8	0.020120457
120	0xbc592280	-0.013252854
121	0x3b9c8a30	0.0047772154
122	0xbc2eb5ad	-0.010663432
123	0x3c1ae688	0.009454377
124	0x3c75f3f9	0.015011781
125	0x3c76e6dd	0.0150696905
126	0x3c49654b	0.0122922165
127	0x3c79a3f6	0.015236845
128	0xbcc9cdf6	-0.024634343
129	0x3bc1c412	0.005913266
130	0xbcebe9f9	-0.02879809
131	0xbd04c708	-0.032416373
132	0x3c6c8477	0.014435879
133	0x3c05aed2	0.008159356
134	0x3ce7f492	0.028314862
135	0x3c9ee61a	0.01939683
136	0xbd062d56	-0.03275808
137	0xbc8641ed	-0.016388858
138	0x3c28ae8a	0.01029552
139	0x3b409c26	0.0029389947
140	0xbccd71f8	-0.025078759
141	0xbac78ee3	-0.0015225079
142	0xbbab506a	-0.005228092
143	0xbbf3d2a7	-0.007440883
144	0xbc47ab54	-0.012186844
145	0x3c08e281	0.008354784
146	0x3cc027ec	0.023456536
147	0xbca3e50f	-0.020006685
148	0x3cf00715	0.029300252
149	0x3bba93d1	0.0056938906
150	0xbc901709	-0.017589109
151	0x3c0bfb29	0.008543768
152	0x3c31eb64	0.010859344
153	0xbced757d	-0.028986687
154	0xbc3bc162	-0.01145968
155	0xbc99abd3	-0.01875869
156	0x39152d4a	0.00014226619
157	0x3c0b6764	0.008508537
158	0xbcb0aedf	-0.02156776
159	0x3ce971ce	0.02849665
160	0x3ae707a0	0.0017626174
161	0xbb9aa862	-0.00471978
162	0x3c68fe64	0.014220808
163	0x3cce0be5	0.025152156
164	0x3cdf5b39	0.027265178
165	0xbbb234b3	-0.005438411
166	0xbcaa2389	-0.020768898
167	0x3bab2e3f	0.005224019
168	0xba892d8a	-0.0010465842
169	0x3cc1b785	0.02364708
170	0x3cff7981	0.031185867
171	0xbc3ea824	-0.011636768
172	0xbc5dcef0	-0.013538107
173	0xbb8c5077	-0.004282053
174	0xbb853474	-0.004065091
175	0xbc1b9386	-0.009495622
176	0xbcf7cb53	-0.03024832
177	0xbc4fffef	-0.012695297
178	0x3c279435	0.010228206
179	0x3cec1e40	0.028823018
180	0x3cbe2179	0.02320932
181	0x3adfc461	0.0017072075
182	0xbc91ef82	-0.017814402
183	0xbcd222a9	-0.025651293
184	0x3ad033d7	0.001588459
185	0xbd158ea2	-0.03651298
186	0xbcdda3e5	-0.02705569
187	0xbc80c0d7	-0.015716953
188	0xbc266a24	-0.010157142
189	0xbcaf66bc	-0.021411292
190	0xbb9a9b92	-0.0047182525
191	0xbcc31ced	-0.023817504
192	0xbce14106	-0.027496826
193	0xbccb766f	-0.024836747
194	0x3c6f7be2	0.014616938
195	0xbc9e07e8	-0.01929088
196	0xbc67e1a3	-0.014152917
197	0x3bf0e087	0.0073509845
198	0xbbde2d68	-0.006780315
199	0xbc0b9fc9	-0.0085219825
200	0x3c8a2dba	0.016867507
201	0xbc38cd78	-0.011279456
202	0x3d1a278b	0.037635367
203	0xbcc63375	-0.024194458
204	0xbb80b6ee	-0.003928057
205	0xbcadd8d7	-0.021221561
206	0x3cbb86fd	0.022891516
207	0x3c929972	0.017895434
208	0xbccc4c3d	-0.024938697
209	0x3c9b0c60	0.0189268
210	0x3ac347c7	0.0014898711
211	0xbcf07aec	-0.029355489
212	0xbd17a618	-0.037023634
213	0x3c1a0489	0.009400495
214	0xbc96487d	-0.018345112
215	0x3c35e9b1	0.01110308
216	0xbcf37740	-0.029719949
217	0xbce01ce8	-0.027357534
218	0xbc5dacda	-0.013529981
219	0x3bb516f1	0.0055264165
220	0xba12fc54	-0.0005607058
221	0xbc4da14c	-0.012550663
222	0xbc2bd7fa	-0.010488505
223	0xbc8c891b	-0.01715522
224	0xbb82cb09	-0.003991489
225	0x3cda5867	0.026653482
226	0x39eea50e	0.00045517873
227	0xbb4b2514	-0.0030997442
228	0x3a271dbc	0.0006374975
229	0xbd05bd6b	-0.032651346
230	0xbcb03ddb	-0.02151387
231	0xbcde2e6c	-0.027121745
232	0x3ca02eec	0.019553624
233	0xbbd75089	-0.00657088
234	0x3ba05319	0.0048927185
235	0x3ccdd0b7	0.025123937
236	0x3cb67755	0.022273699
237	0x3b1aeccb	0.0023639675
238	0x3b2c5c67	0.0026300193
239	0xbbe5cb20	-0.00701274
240	0x3baedbb8	0.005336251
241	0xbc7f7ee7	-0.015594221
242	0x3bebac66	0.0071921824
243	0x3ca3952c	0.019968592
244	0x3ccf4d36	0.025305372
245	0xbce561aa	-0.028000671
246	0xbcf7ac8d	-0.030233646
247	0x3c10349f	0.008801608
248	0x3c86326d	0.016381467
249	0x3c087439	0.008328491
250	0xbc69b7a4	-0.014264975
251	0xbc1f9659	-0.0097404355
252	0x3cd49a59	0.025952505
253	0xbc997954	-0.018734612
254	0xbcd27b74	-0.025693633
255	0xba332199	-0.00068333145

bias f4 [64]
0	0x3c9d59b8	0.01920782
1	0xbd0c0d69	-0.034192476
2	0xbd2bbc46	-0.0419276
3	0x3c1010b0	0.008793041
4	0x3d0a505a	0.033768035
5	0xbcdc7b4e	-0.026914265
6	0x3c68b05b	0.014202203
7	0x3cd2918c	0.025704168
8	0x3c7ce544	0.015435521
9	0xb92b8c55	-0.00016360109
10	0xbcc3db7a	-0.023908366
11	0x3cbb08fc	0.022831433
12	0x3ca5e728	0.020251825
13	0xbd3042e5	-0.043032546
14	0x3cef1231	0.029183479
15	0x3b25bdeb	0.0025290202
16	0xb9cfcfbd	-0.00039636894
17	0x3cb50d48	0.02210106
18	0x3cf72619	0.030169534
19	0xbc78d534	-0.01518755
20	0xbcd23e48	-0.025664464
21	0x3cca97af	0.024730531
22	0xbc2da002	-0.010597231
23	0x3c65f908	0.014036424
24	0xbd07ac11	-0.03312308
25	0xbc227780	-0.009916186
26	0x3c6da191	0.014503852
27	0x39ffdbec	0.00048801245
28	0x3c8ef0e0	0.017448843
29	0x3c0db659	0.008649432
30	0x3d42ae88	0.047529727
31	0x3cc6b069	0.02425404
32	0xbca7fe74	-0.020507075
33	0xb999676e	-0.00029259495
34	0xbb992bb3	-0.004674399
35	0x3c225c97	0.00990977
36	0x3c22960d	0.00992347
37	0xbc899d3f	-0.016798614
38	0x3ba3f5e7	0.005003679
39	0x3c25a77e	0.010110734
40	0x3d30e7d9	0.043189857
41	0x3cfd31dd	0.030907566
42	0x3cdf09ba	0.027226318
43	0x3d1131f3	0.035448026
44	0x3c0b2696	0.008493086
45	0xbcd935fe	-0.026515003
46	0xbcd67696	-0.026179593
47	0x3be25d4a	0.0069080936
48	0xbca48934	-0.020084955
49	0x3c8805aa	0.016604263
50	0x3bae5f69	0.0053214324
51	0x3ca3b66b	0.019984445
52	0xbbd34ca6	-0.006448346
53	0xbcaef73b	-0.021358123
54	0xbd344cb4	-0.044018462
55	0x3988987f	0.0002605356
56	0x3d134b69	0.03596059
57	0xbbf48050	-0.007461585
58	0x386922f8	5.5584096e-05
59	0x3ca89c90	0.020582467
60	0xbc1eb79b	-0.00968733
61	0xbc996383	-0.018724209
62	0xbbbeeffe	-0.005826949
63	0x3d0452e3	0.03230561

weight f4 [10, 64]
0	0xbd4fbf65	-0.050719637
1	0xbd172163	-0.036897074
2	0x3db4f1d8	0.088351905
3	0xbdd97950	-0.10618842
4	0xbe0de41d	-0.1385655
5	0x3e32ded6	0.17467818
6	0x3d04b766	0.032401465
7	0xbd4f89a8	-0.05066839
8	0x3d52d5d2	0.051473446
9	0xbdd3b742	-0.10337688
10	0x3d3a581d	0.045494188
11	0xbc50d489	-0.012745985
12	0xbcc0f700	-0.023555279
13	0x3df5860d	0.11988459
14	0x3d022c59	0.031780574
15	0x3cf0967c	0.029368632
16	0x3c4680fd	0.012115714
17	0x3c14a885	0.009073381
18	0xbdc3c85f	-0.09559702
19	0x3d8e9dbd	0.0696368
20	0xbd8faf3c	-0.07015845
21	0x3c31494e	0.0108207
22	0x3e0cca5a	0.13749066
23	0x3c0c5a8b	0.008566509
24	0x3e128048	0.14306748
25	0xbd430491	-0.047611777
26	0xbdab619e	-0.083682284
27	0xbda35510	-0.07975209
28	0xbda07802	-0.0783539
29	0xbdec4701	-0.115369804
30	0xbe249128	-0.16070998
31	0xbdbcf391	-0.09226144
32	0xbc2e7a2a	-0.010649243
33	0x3db3cb88	0.08779055
34	0x3d81244e	0.06305753
35	0x3d146d68	0.03623715
36	0xbdb84627	-0.089977555
37	0xb8ca1c25	-9.637353e-05
38	0x3d62e341	0.055392507
39	0x3d75d7ae	0.06002014
40	0xbd98e6e5	-0.07465915
41	0x3e10de88	0.14147389
42	0xbd5fa34d	-0.054599095
43	0xbc210b84	-0.009829406
44	0xbcc01370	-0.023446769
45	0x3dfc5f6f	0.1232289
46	0x3db67780	0.089095116
47	0x3d087bbc	0.033321127
48	0x3d77a8ab	0.06046359
49	0x3e05cd6b	0.13066642
50	0xbc1400f7	-0.009033433
51	0x3ded4341	0.11585093
52	0x3a86d10f	0.0010285693
53	0x3da2de2b	0.079525314
54	0x3da7f46c	0.08200917
55	0xbe11961b	-0.14217417
56	0x3b9a0c83	0.0047011985
57	0xbdee151a	-0.116251186
58	0x3e043310	0.12910104
59	0xbd712100	-0.058869362
60	0xbe0dc1b2	-0.1384342
61	0xbd30e597	-0.043187704
62	0xbb98119c	-0.004640771
63	0xbdb748cc	-0.08949432
64	0x3c88ee94	0.016715325
65	0xbdfe6da5	-0.12423257
66	0x3e25e529	0.16200699
67	0xbe28bf9b	-0.16479342
68	0xbd578ec3	-0.052626383
69	0x3cd08f16	0.025458854
70	0x3d4fbc9c	0.05071698
71	0xbe09fcd6	-0.13475356
72	0xbba5f484	-0.005064549
73	0x3d2f9c16	0.042873465
74	0x3e03f470	0.12886214
75	0x3e161e62	0.14660028
76	0xbdcae8af	-0.09907662
77	0xbd8f0e92	-0.06985201
78	0xbd60b771	-0.054862443
79	0xbb89173e	-0.004183679
80	0xbc509c86	-0.012732631
81	0x3dddd879	0.108323045
82	0x3cc59071	0.024116727
83	0x3d3ffdc6	0.046872877
84	0x3e0f2c2a	0.13981691
85	0x3e0de1ca	0.13855663
86	0x3dff8ddc	0.124782294
87	0xbe2db8df	-0.16965054
88	0x3da26104	0.079286605
89	0xbe0b20a9	-0.13586678
90	0x3d9a2c6c	0.07528004
91	0xbcaeb776	-0.021327715
92	0xbe36672f	-0.17812799
93	0xbd76bf6e	-0.060241155
94	0xbdd1309f	-0.10214352
95	0xbd6481c7	-0.055787828
96	0xbbffc9b2	-0.0078060264
97	0x3da9932d	0.08280025
98	0xbc8b9001	-0.01703644
99	0x3b5e1f83	0.0033893294
100	0x3d58be27	0.05291572
101	0xbe0ddf7a	-0.13854781
102	0xbe02b5c4	-0.1276465
103	0x3e1cc0b3	0.15307884
104	0x3d9db29f	0.07700085
105	0x3dedda1e	0.11613868
106	0x3d001b3f	0.031275984
107	0x3bdd41fa	0.00675225
108	0xbe1a7ef0	-0.15087485
109	0xbddb97a4	-0.107222825
110	0x3d84d24b	0.06485423
111	0xbe2d2bef	-0.1691129
112	0xbe178e0c	-0.1480028
113	0xbe14323f	-0.14472292
114	0x3def2a07	0.11677938
115	0xbe08b98e	-0.13352033
116	0x3c0eb5ac	0.008710306
117	0xbe0bc3b3	-0.13648872
118	0x3b8cac53	0.0042930036
119	0xbb77d47b	-0.0037815857
120	0x3e09e589	0.13466467
121	0xbe43e589	-0.1913053
122	0xbe41d68a	-0.18929496
123	0xbd2a0f4f	-0.041518506
124	0x3da24bf0	0.0792464
125	0xbe087742	-0.13326743
126	0x3d08c9bd	0.033395518
127	0x3dda26b6	0.10651915
128	0xbe0903ed	-0.13380404
129	0xbddd5715	-0.10807625
130	0xbe2ba403	-0.16761784
131	0x3de7db68	0.11321145
132	0x3d43b299	0.047777746
133	0x3e161c8a	0.14659324
134	0x3de02cf6	0.109460756
135	0x3d58f680	0.052969456
136	0x3e2633b4	0.1623066
137	0x3d634298	0.05548343
138	0xbe191e3d	-0.14952941
139	0x3d994b49	0.07485063
140	0x3db579e7	0.08861142
141	0xbc873ce2	-0.016508523
142	0xbd24fb0a	-0.040278472
143	0xbe24ce13	-0.16094236
144	0xbd69ac15	-0.057048876
145	0x3e084b20	0.13309908
146	0x3d7e90c9	0.062149797
147	0xbd193989	-0.037408385
148	0xbcc7e0df	-0.02439922
149	0xbdd8f2e9	-0.105932064
150	0xbcd3e71a	-0.025867034
151	0x3dd1683c	0.10224959
152	0x3d83cb91	0.064353116
153	0xbdf3355b	-0.11875411
154	0xbda74c60	-0.08168864
155	0xbaefd187	-0.0018296697
156	0xbb63e7b4	-0.0034775557
157	0x3d347ece	0.044066243
158	0x3df45fa4	0.119323045
159	0x3d08e208	0.033418685
160	0x3d9c37c8	0.07627827
161	0x3db5286f	0.08845603
162	0xbd9779e0	-0.07396293
163	0x3c8b5eb3	0.01701293
164	0xbd12724e	-0.03575354
165	0x3e1e39f0	0.15451789
166	0x3dc9415a	0.09826918
167	0xbbec3a67	-0.0072091105
168	0xbd4bd15b	-0.049760204
169	0xbd196d70	-0.037457883
170	0x3d2cf1ad	0.042222667
171	0x3dd37674	0.103253275
172	0x3d25bc92	0.040463038
173	0xbc900f0d	-0.017585302
174	0x3e081ee6	0.13293037
175	0xbc929e31	-0.017897697
176	0xbd774965	-0.06037273
177	0xbc01b9d6	-0.007917842
178	0xbc03aa7f	-0.008036255
179	0x3d8e4c55	0.06948153
180	0xbe13a0ae	-0.14416763
181	0xbd826df0	-0.06368625
182	0x3d96ec60	0.07369304
183	0xbde2b909	-0.11070449
184	0x3df79afd	0.120901085
185	0x3d7079b1	0.058709804
186	0xbde58384	-0.11206725
187	0xbda31fb3	-0.079650305
188	0xbd0c6410	-0.034275115
189	0x3dd0eab0	0.10201013
190	0xbd183941	-0.037163977
191	0xbca24eec	-0.019813024
192	0x3c6e3160	0.014538139
193	0xbdce1db9	-0.10064263
194	0xbe09f6a8	-0.13472998
195	0xbdee0f80	-0.1162405
196	0x3d81113f	0.063021176
197	0xbd7d3044	-0.061813608
198	0xbc6f1448	-0.014592238
199	0xbd969e58	-0.073544204
200	0x3df71de5	0.12066249
201	0xbda08f42	-0.07839824
202	0x3d3e4338	0.046450824
203	0xbdeba7d4	-0.1150662
204	0xbb87af14	-0.004140744
205	0xbc39e0a6	-0.011345064
206	0xbc9cd2a9	-0.01914342
207	0xbd6e2beb	-0.058147352
208	0x3d955145	0.072908916
209	0xbd8b972a	-0.06815942
210	0x3e11cc47	0.14238082
211	0xbd3f85f1	-0.046758596
212	0x3c34ee05	0.011043076
213	0xbe0460b1	-0.1292751
214	0xba65708a	-0.00087524264
215	0x3df3ea18	0.11909884
216	0xbc35dff0	-0.011100754
217	0x3c13e6ef	0.009027227
218	0x3dcee501	0.10102273
219	0xbdb27319	-0.087133594
220	0x3e14d1dc	0.1453318
221	0x3c8ddf48	0.017318383
222	0x3e015a5b	0.12632124
223	0x3e2e1154	0.16998798
224	0xbd780824	-0.06055464
225	0x3c6b81c7	0.014374203
226	0xbc53df18	-0.012931608
227	0x3daccfaa	0.08438046
228	0x3defb4ab	0.117043816
229	0x3d74d386	0.059772037
230	0x3df5d2b3	0.12003078
231	0xbe55befe	-0.20873639
232	0x3dc3fab8	0.09569305
233	0xbe179429	-0.14802612
234	0x3c85bb21	0.016324582
235	0x3e040327	0.12891828
236	0xbd899372	-0.06717576
237	0xbd3cfed3	-0.046141457
238	0x3d79e285	0.06100704
239	0x3e3108e8	0.17288554
240	0xbd685c52	-0.05672867
241	0xbcda3ee2	-0.026641313
242	0xbde00503	-0.10938456
243	0xbe2fff23	-0.1718717
244	0x3c059327	0.00815276
245	0xbda53e38	-0.08068508
246	0x3b934056	0.0044937534
247	0x3e0019b5	0.12509806
248	0xbe131b01	-0.1436577
249	0xbda0e4d1	-0.07856143
250	0x3d1237f0	0.035697877
251	0x3c803892	0.015651975
252	0x3d918c6b	0.07106861
253	0xbaf4737d	-0.0018650141
254	0x3d520aec	0.051279947
255	0x3d71224c	0.0588706

bias f4 [10]
0	0xbe1a6056	-0.15075812
1	0x3d184fb0	0.03718537
2	0x3d979ad1	0.07402576
3	0x3d0e34d5	0.034718353
4	0x3d8a2060	0.06744456
5	0x3c01a1f6	0.00791215
6	0x3e0dd3a6	0.13850269
7	0x3cbdd9f2	0.023175213
8	0xbd6d9a3d	-0.05800842
9	0x3c2ea7af	0.010660096
