DeepLearningDemo/models/jingxin_3.pth (torch, 587999 bytes, 10 tensors)

weight f4 [32, 3, 5, 5]
0	0x3c6a6694	0.014306683
1	0x3d511ad0	0.05105096
2	0xb9501518	-0.00019844284
3	0x3e05c832	0.1306465
4	0x3def6f00	0.116910934
5	0x3d3eb025	0.046554703
6	0xbd63a2cf	-0.05557519
7	0xbd1e34fd	-0.038624752
8	0xbdacaa77	-0.08430951
9	0xbd73735b	-0.059436183
10	0xbd0b462c	-0.034002468
11	0x3da295d3	0.07938733
12	0xbd8d0ae7	-0.06886845
13	0x3c40f3a9	0.011776843
14	0xbe02b24e	-0.1276333
15	0xbe17296b	-0.14761893
16	0xbe1fb33c	-0.15595716
17	0x3b4498e0	0.0029998347
18	0xbdb2d085	-0.08731178
19	0x3d3f5c41	0.04671884
20	0xbde2a16d	-0.11065946
21	0xbe0cdbcf	-0.13755725
22	0xbe3294aa	-0.17439523
23	0xbe00d2ba	-0.12580386
24	0xbde8b21d	-0.113620974
25	0x3dd7428e	0.10510741
26	0xbd5785c6	-0.05261781
27	0x3df6ae69	0.12044985
28	0xbcbfe628	-0.023425177
29	0xbca604b9	-0.020265924
30	0x3dcb14b7	0.099160604
31	0x3dbb42a8	0.09143573
32	0xbcbc6a19	-0.02299981
33	0x3c1c5d70	0.009543762
34	0xbdb09bc3	-0.08623459
35	0xbd078a55	-0.033090908
36	0xbc6c0616	-0.014405748
37	0xbdb9e874	-0.0907754
38	0xbdac710e	-0.08420001
39	0xbc3540e4	-0.011062834
40	0xbdfd2389	-0.123602934
41	0xbe1bd103	-0.1521645
42	0xbdee2e0c	-0.116298765
43	0xbc1b5150	-0.009479836
44	0xbd91c92b	-0.07118448
45	0xbd36ae15	-0.04459961
46	0xbdc2d64f	-0.09513532
47	0xbd8f6d40	-0.0700326
48	0xbe30c425	-0.17262323
49	0xbe13ec12	-0.14445522
50	0x3cdfba1d	0.027310425
51	0x3e1e121b	0.15436594
52	0x3de6dd88	0.112727225
53	0x3d3983bd	0.04529165
54	0x3d2add9b	0.041715246
55	0x3e21c740	0.15798664
56	0x3c9c2b51	0.019063624
57	0x3dc9d3ce	0.09854852
58	0x3df550b9	0.11978287
59	0x3c9cc316	0.019135993
60	0x3c10a648	0.008828707
61	0x3ccb0103	0.024780756
62	0x3e014e71	0.1262758
63	0xbc0b8ea2	-0.008517893
64	0x3df66588	0.12031084
65	0xbd478779	-0.04871318
66	0xbb2b6443	-0.002615229
67	0x3d1e374b	0.03862695
68	0x3ba61443	0.0050683334
69	0x3db3a64c	0.08771953
70	0x3dd090ab	0.10183843
71	0x3c0ec466	0.008713817
72	0x3d326a57	0.043558445
73	0x3dc50318	0.09619731
74	0x3dc4b256	0.096043274
75	0x3e038f8e	0.1284773
76	0x3e15a3b2	0.14613226
77	0x3e1d2320	0.1534543
78	0x3dcfed72	0.10152711
79	0x3c73a93c	0.014871892
80	0x3e1bb3c1	0.1520529
81	0x3de5c712	0.1121961
82	0x3e180729	0.14846481
83	0x3da60d61	0.081080206
84	0x3d72f1fa	0.059312798
85	0x3e12b8a9	0.14328255
86	0x3dcd187b	0.10014435
87	0x3d223d0e	0.039609008
88	0x3db1c783	0.08680632
89	0x3ce6d46b	0.02817746
90	0x3b1d0d8a	0.0023964369
91	0x3d82df4a	0.06390245
92	0x3cf0f8e3	0.029415553
93	0x3d42d15f	0.047562953
94	0x3d97f010	0.07418835
95	0x3d4cf1ad	0.050035167
96	0x3d84cb8c	0.06484136
97	0xbd48f816	-0.04906472
98	0xbdb2a8ca	-0.087236
99	0x3cf39e2d	0.02973851
100	0xbd056cc1	-0.03257442
101	0xbb26973f	-0.002541974
102	0xbab9091a	-0.0014117092
103	0x3c81d606	0.015849125
104	0x3dc197e7	0.09452801
105	0x3a9cbada	0.0011957542
106	0x3dcdfed2	0.10058369
107	0x3dc7aebb	0.09750124
108	0x3ca7243a	0.020403016
109	0xbdbc3f10	-0.09191716
110	0x3da8183d	0.08207748
111	0x3d667422	0.056263097
112	0xbdd334af	-0.10312783
113	0xbd26ec4f	-0.040752705
114	0xbc857f7d	-0.016296143
115	0x3d5d6158	0.054047912
116	0xbdc47ed6	-0.095945045
117	0x3dd50a1b	0.10402318
118	0x3c74e982	0.014948251
119	0xbdf8d1cb	-0.1214939
120	0xbd4a2fce	-0.049361996
121	0xbe07e56e	-0.13271114
122	0xbe15500a	-0.14581314
123	0xbda36393	-0.07977977
124	0xbe03a47a	-0.12855712
125	0x3dc8ebd6	0.09810607
126	0x3de8cf73	0.11367693
127	0x3d524bd2	0.05134184
128	0xbd8306a9	-0.06397755
129	0xbdef15ef	-0.116741054
130	0xbc3e6b5f	-0.011622279
131	0x3d0e3a8b	0.0347238
132	0xbdadb78c	-0.084822744
133	0xbd19c7d7	-0.037544098
134	0xbdc75922	-0.097337976
135	0x3d4d27e7	0.050086882
136	0xbccbc7b0	-0.024875492
137	0x3d15643c	0.036472544
138	0xbddbb26c	-0.10727391
139	0xbdcb583b	-0.09928938
140	0x3de981c3	0.11401703
141	0x3dd24f70	0.10269058
142	0x3cb55d1f	0.02213913
143	0xbd70b580	-0.058766842
144	0xbcb2fc2c	-0.02184876
145	0xbde719aa	-0.11284192
146	0x3d25a167	0.04043713
147	0x3cb73f04	0.022368915
148	0x3ca4024c	0.020020626
149	0xbd90611e	-0.07049774
150	0x3cc5759a	0.024103928
151	0xbd9838c0	-0.07432699
152	0x3ccf653e	0.02531683
153	0x3cd9bf5e	0.026580509
154	0xbdcc6cc9	-0.099816866
155	0xbce4354b	-0.027857443
156	0x3cbad33a	0.022805799
157	0xbd09fd11	-0.03368861
158	0x3d0571a9	0.032579098
159	0xbdcb7660	-0.099346876
160	0x3ce313e2	0.027719442
161	0x3dbcab3f	0.0921235
162	0x3d5a500a	0.053298987
163	0xbcc1a703	-0.023639208
164	0x3db18709	0.08668334
165	0x3e046461	0.12928917
166	0x3d57914f	0.05262881
167	0x3df3cc44	0.11904195
168	0x3db9025c	0.09033653
169	0xbd194548	-0.037419587
170	0x3d0e119d	0.034684766
171	0x3c44a307	0.012001759
172	0x3d844186	0.0645781
173	0xbdb59666	-0.08866577
174	0xbd194c19	-0.037426088
175	0xbc3ed64c	-0.011647772
176	0x3db3c221	0.087772615
177	0xbc4364d5	-0.011925896
178	0xbc2aaec5	-0.010417645
179	0xbbf15c42	-0.0073657343
180	0xbd6e1bde	-0.058132045
181	0x3d002e7e	0.03129434
182	0xbdd68dd6	-0.10476272
183	0xbd86604d	-0.06561337
184	0x3c84c7c3	0.016208535
185	0x3d0aedb4	0.033918098
186	0x3d3d0d84	0.046155468
187	0xbda0075c	-0.07813904
188	0xbd43788d	-0.047722388
189	0xbdff572b	-0.12467798
190	0xbddb91be	-0.107211575
191	0xbdab3902	-0.08360483
192	0x3d3e2c3c	0.046428904
193	0xbde157a7	-0.110030465
194	0x3d8db8b1	0.06919993
195	0xbe206f62	-0.15667489
196	0xbe09c09a	-0.13452378
197	0xbe22da9c	-0.15903705
198	0xbddd89bc	-0.10817286
199	0xbca73681	-0.020411732
200	0x3e1b8171	0.15186097
201	0x3e0e45ec	0.1389386
202	0x3db8dfb3	0.09027042
203	0x3dc04d1b	0.09389707
204	0x3d86d5f7	0.06583779
205	0x3d9c56f0	0.076337695
206	0x3d283176	0.041062795
207	0xbd4c8f6d	-0.04994147
208	0x3c0b9d98	0.00852146
209	0x3dccfe74	0.100094706
210	0xbd816b88	-0.06319338
211	0x3d941429	0.07230408
212	0x3dee8620	0.11646676
213	0x3e155297	0.14582287
214	0x3d569fe3	0.052398574
215	0xbbfee144	-0.0077783186
216	0xbd4a16ff	-0.049338337
217	0xbc1bff0e	-0.009521259
218	0xbd65aabd	-0.05607103
219	0x3da23748	0.079207
220	0xbd619335	-0.05507203
221	0x3c47adea	0.01218746
222	0x3dc668c6	0.09687953
223	0x3d95b0f3	0.07309141
224	0xbdac71a3	-0.08420112
225	0x3c84c8ba	0.016208995
226	0xbd764749	-0.060126577
227	0xbdedd6bd	-0.11613224
228	0xbde05b4a	-0.10954912
229	0x3da84f06	0.082181975
230	0xbda466a4	-0.0802739
231	0xbbc3a46a	-0.0059705274
232	0x3cf20034	0.029541112
233	0xbd4ede2a	-0.05050484
234	0x3dbf8462	0.09351422
235	0x3dbae05c	0.091248244
236	0xbb15d349	-0.0022861531
237	0x3d2a57af	0.041587528
238	0x3dc6d551	0.097086556
239	0x3e0352a8	0.128245
240	0x3dc5e2d9	0.096624084
241	0x3c13c396	0.009018799
242	0x3d25c592	0.04047162
243	0x3cfe32df	0.031030117
244	0xbd36d30a	-0.044634856
245	0xbdaa55db	-0.08317157
246	0x3ca45384	0.020059355
247	0xbda5fe2a	-0.081051186
248	0xbb496ae7	-0.0030733885
249	0x3ce47fac	0.02789291
250	0xbe0b882f	-0.13626169
251	0x3d74b1da	0.059739925
252	0xbde2de6e	-0.11077581
253	0xbde83b83	-0.11339476
254	0xbda4aea3	-0.08041122
255	0xbd3bffdf	-0.045898315

bias f4 [32]
0	0xbdfeb8e0	-0.12437606
1	0xbe324451	-0.17408873
2	0xbe601e30	-0.21886516
3	0x3d7f2e13	0.0622998
4	0xbbbf6d86	-0.0058419136
5	0xbe580304	-0.210949
6	0x3e0c8a6e	0.13724682
7	0x3d6ce041	0.057831053
8	0xbaa8a654	-0.0012866952
9	0xbd2a3132	-0.041550823
10	0xbe6cfcac	-0.23143262
11	0xbd3af489	-0.045643363
12	0xbdfe3fd1	-0.12414516
13	0xbe262f8c	-0.16229075
14	0xbdaff1ad	-0.08591018
15	0x3d4a8be9	0.049449835
16	0x3e384afe	0.17997357
17	0xbdaaff7d	-0.08349512
18	0xbc4f4e71	-0.012652979
19	0xbe00dab1	-0.12583424
20	0xbe1952f9	-0.14973058
21	0x3ca6cfed	0.020362819
22	0xbd081062	-0.03321875
23	0x3dc11076	0.09426968
24	0x3da4d3c1	0.08048201
25	0xbdf2a522	-0.11847903
26	0x3e56da26	0.20981655
27	0xbd66f757	-0.056388225
28	0x3c33d8c6	0.010976976
29	0xbda0545a	-0.07828589
30	0x3e22a038	0.15881431
31	0xbe5c30e9	-0.21503033

weight f4 [32, 32, 5, 5]
0	0xba68e6cb	-0.00088844885
1	0xbbc59739	-0.00602999
2	0x3d5c08cc	0.053719327
3	0x3c1f2592	0.009713547
4	0xbbbb7b6d	-0.0057215006
5	0x3d07b00d	0.03312688
6	0x3c73a0c7	0.014869875
7	0x3ce01a1b	0.027356198
8	0xbbabeabb	-0.005246488
9	0xbc4ab272	-0.012371646
10	0xbd15c180	-0.03656149
11	0xbd36c794	-0.044623926
12	0xbcc93f99	-0.024566459
13	0xbd0803dd	-0.03320681
14	0xbab427a6	-0.0013744726
15	0x3c9740d7	0.018463535
16	0x3cd146f2	0.025546525
17	0x3d32b707	0.04363158
18	0x3b5fba40	0.0034138113
19	0xbcb25112	-0.021767173
20	0xbccadb7b	-0.02476286
21	0x3cfffd49	0.031248705
22	0xbcd9a08c	-0.026565813
23	0x3d05eac8	0.032694608
24	0x3b269014	0.0025415467
25	0xbd1348ee	-0.035958223
26	0x3ce310ec	0.02771803
27	0x3ccadc4e	0.024763253
28	0xbc52589a	-0.012838507
29	0x3ce67c61	0.02813548
30	0x3d04d557	0.03243002
31	0x3c1b1af5	0.009466876
32	0xbb8c9970	-0.004290752
33	0xbb8289bd	-0.003983705
34	0xbcb99a0e	-0.022656467
35	0xbcd8500a	-0.026405353
36	0x3c66e7e4	0.014093373
37	0x3d055700	0.032553673
38	0xbcf3c1f7	-0.029755576
39	0xbcce66c5	-0.025195489
40	0x3d10b40a	0.03532795
41	0x3c807879	0.015682446
42	0xbc7c9770	-0.015416965
43	0x3c12d2ef	0.008961423
44	0x3cd736fe	0.02627134
45	0x3d02c7a6	0.03192868
46	0xbc590623	-0.013246092
47	0x3ccf47c0	0.025302768
48	0x3b9be01f	0.004756942
49	0x3bcef945	0.0063163363
50	0x3c808b56	0.01569144
51	0xba48c020	-0.00076580234
52	0x3c10fcf3	0.00884937
53	0x3cd7cf65	0.02634401
54	0x3c7d4c60	0.015460104
55	0xbb4ca55b	-0.003122649
56	0xbbd7793e	-0.0065757325
57	0x3cc18f87	0.02362801
58	0x3d0d3ae4	0.03447999
59	0x3d0bbb1a	0.03411398
60	0x3cbe2942	0.023213033
61	0xbc96bffd	-0.018402094
62	0xbb80bf0d	-0.003929025
63	0xbc4dec0d	-0.012568486
64	0x3c80a4b8	0.015703544
65	0xbc2bf7c7	-0.010496086
66	0xbcb2573d	-0.021770114
67	0xbca2473d	-0.01980936
68	0x3c9f2a79	0.019429432
69	0xbcd90330	-0.026490778
70	0xbbce65d1	-0.0062987586
71	0x3cf9c224	0.030488081
72	0x3b816f0a	0.0039500045
73	0x3b60b62a	0.0034288266
74	0xbcd35c85	-0.025800953
75	0x3d026cb0	0.031841934
76	0x3c04a575	0.008096089
77	0x3b15307b	0.0022764492
78	0x3cd2bda7	0.025725199
79	0xba39fa68	-0.00070945034
80	0x3c7a122c	0.015263122
81	0x3d14d5d9	0.036336754
82	0xbbf6e03b	-0.0075340546
83	0x3ce48e81	0.027899982
84	0xbd0371ad	-0.03209083
85	0x3d031c5c	0.032009467
86	0xbbb6b8cb	-0.0055762283
87	0x3d221f3e	0.039580576
88	0x3cfef509	0.031122701
89	0xbc8ce6be	-0.01719987
90	0x3bfed1a3	0.0077764555
91	0x3cd9d964	0.026592918
92	0x3c1f0dc9	0.0097078765
93	0xbc1e0e05	-0.009646897
94	0x3b4751f3	0.0030413836
95	0xbce1f0dc	-0.027580671
96	0x3cc94d45	0.024572978
97	0xbb7101ab	-0.0036774676
98	0xbc2d6982	-0.010584237
99	0xbd130b15	-0.03589924
100	0x3c186467	0.0093012815
101	0x3cbecd7a	0.023291338
102	0x3d36c35d	0.044619907
103	0x3d4722c3	0.048617136
104	0xbc4eab3d	-0.012614069
105	0x3cc05985	0.023480186
106	0x3ca3fe71	0.020018788
107	0xbc67ade6	-0.014140582
108	0x3d0e96bd	0.034811724
109	0x3d329ece	0.04360848
110	0x3cabe151	0.020981463
111	0xba945893	-0.0011317901
112	0x3c7a8a16	0.015291711
113	0xbd076fae	-0.03306549
114	0xbb3e898c	-0.0029073684
115	0x3cf3af47	0.029746665
116	0x3bb48ca8	0.0055099316
117	0xbc1bca6e	-0.009508712
118	0xbca6d3f8	-0.020364746
119	0x3b848877	0.004044588
120	0xbcd00cba	-0.025396693
121	0x3cf590f6	0.02997635
122	0x3c1bdc75	0.00951301
123	0x3a7112ee	0.0009196241
124	0xbc987c53	-0.01861397
125	0x3d18d70d	0.037314463
126	0x3c5a6bd2	0.01333137
127	0xbce3fe5c	-0.027831249
128	0x3c93d8ad	0.018047655
129	0xbc8ddfbe	-0.017318603
130	0x3be93b86	0.0071176914
131	0x3cb01c04	0.021497734
132	0xbccffdbc	-0.025389545
133	0x3cb3a2c1	0.021928193
134	0x3bd55370	0.0065101907
135	0x3cb5a35b	0.02217262
136	0x3d18a212	0.037263937
137	0xbcf038ff	-0.029324053
138	0xbc517e00	-0.012786388
139	0xbb0c191c	-0.002137727
140	0x3d2171c8	0.03941515
141	0x3d044d91	0.032300536
142	0x3d444f7d	0.04792737
143	0x3c42093d	0.011843023
144	0x3d0bec93	0.03416116
145	0x3cdda44a	0.027055878
146	0xbbe98e17	-0.007127534
147	0x3cbb8725	0.02289159
148	0x3c7af9c0	0.015318334
149	0x3c15b266	0.009136772
150	0xbbce702a	-0.006299992
151	0x3b939f47	0.0045050713
152	0xbc779fb7	-0.015113763
153	0xbca9278f	-0.020648746
154	0xbc8a9e60	-0.016921222
155	0xbcf8d3d8	-0.030374452
156	0x3c724d77	0.014788977
157	0x3cb92ff3	0.022605872
158	0x3b7cba81	0.0038563313
159	0x3b77814b	0.0037766274
160	0xbcc7422f	-0.024323551
161	0xbd15a32f	-0.036532577
162	0x3bd2b002	0.006429673
163	0xbd1eea7c	-0.03879784
164	0xbcbb3f36	-0.02285729
165	0x3c8aea1b	0.016957333
166	0xbc0c047a	-0.008545989
167	0x3d12d803	0.035850536
168	0x3a76708a	0.0009400925
169	0xbcedf266	-0.029046249
170	0xbcb3a74c	-0.02193036
171	0xbc98a17f	-0.018631695
172	0x3becebbf	0.0072302516
173	0xba8ad1a8	-0.0010591047
174	0xbc2ae97b	-0.010431643
175	0x3c9908a9	0.018680887
176	0x3b929738	0.004473593
177	0x3d10efc7	0.03538492
178	0x3d20cad8	0.039255947
179	0x3d0e404a	0.03472928
180	0x3c4bb9e9	0.012434461
181	0x3d0b7d69	0.034055147
182	0xbc89f73d	-0.016841525
183	0xbc67b740	-0.014142811
184	0xbca54cd2	-0.020178232
185	0x3ba421f9	0.0050089327
186	0xbc889257	-0.016671343
187	0xbc1d8cfa	-0.009616131
188	0x3cb321f6	0.02186678
189	0xbbd40309	-0.0064700884
190	0x3c9ac5f5	0.018893221
191	0x3cb7d173	0.02243874
192	0xbc305f2e	-0.01076488
193	0xbcfe22c5	-0.031022439
194	0x3c591565	0.01324973
195	0xbd23b1d9	-0.03996453
196	0x3ca62c6d	0.020284856
197	0x3ce5f881	0.028072597
198	0xbb2071f6	-0.0024481989
199	0x3cfd9ae9	0.030957656
200	0xbb3e617c	-0.0029049804
201	0x3c113906	0.008863693
202	0x3a64f82c	0.000873449
203	0x3d05f594	0.032704905
204	0x3cc06ca9	0.023489313
205	0x3d2f3cd0	0.042782605
206	0x3d047ed7	0.032347526
207	0x3caa0465	0.020754049
208	0x3c38a6c3	0.011270228
209	0xbb8ecc75	-0.0043578693
210	0x3cc96049	0.024582045
211	0xbc360366	-0.011109209
212	0x3bba7e2c	0.0056913104
213	0xbcc2ba39	-0.023770439
214	0x3ba85372	0.0051369006
215	0xbd2d916b	-0.04237501
216	0x3c66f13d	0.014095602
217	0xbbb6799b	-0.0055686957
218	0xbc9dab7c	-0.01924681
219	0xbcbd3998	-0.023098752
220	0xbc289fd7	-0.010292015
221	0x3c6880d8	0.014190875
222	0x3acfd14b	0.0015855221
223	0xbce57783	-0.02801109
224	0x3cdd09f9	0.026982294
225	0x3d3adfb4	0.045623496
226	0x3d2a2e5e	0.041548125
227	0x3b343262	0.002749585
228	0xbce7ae3f	-0.02828133
229	0xbcdcb110	-0.026939899
230	0x3d292a5a	0.041300155
231	0x3d54e08d	0.05197196
232	0x3d1b4269	0.03790513
233	0xbc87c8bc	-0.01657521
234	0xbcb6aa3b	-0.02229797
235	0xbb76ff0b	-0.0037688639
236	0xbc12ea51	-0.008966998
237	0x3cfe715b	0.031059911
238	0x3c6f0358	0.0145882
239	0x3d28698a	0.041116275
240	0x3c6b013b	0.014343555
241	0xbd12cef4	-0.035841897
242	0xbc8e1e39	-0.017348396
243	0xbd1de49c	-0.038548097
244	0xbc02f8a4	-0.007993851
245	0xbcaab99c	-0.020840459
246	0x3a889d54	0.0010422864
247	0x3c9eff70	0.019408911
248	0xbd0bcc0b	-0.034130137
249	0x3bffc8e7	0.007805932
250	0xbca39b8a	-0.019971628
251	0x3c3ec213	0.011642951
252	0xbcc7128a	-0.024300832
253	0x3d053d17	0.032528963
254	0x3cbdfae3	0.023190921
255	0xbc96751a	-0.018366385

bias f4 [32]
0	0x3b9461f6	0.0045282794
1	0xbc494921	-0.012285502
2	0x3d37d418	0.044880003
3	0xbca5ce6e	-0.020240035
4	0x3c80870a	0.015689392
5	0xbb9003ae	-0.00439497
6	0xbd6e1f8c	-0.058135554
7	0xbd6f6bdc	-0.058452472
8	0x3d021e6d	0.031767298
9	0xbc24c661	-0.010057063
10	0x3c008332	0.007843779
11	0x3d780879	0.060554955
12	0xbd6e7507	-0.058217075
13	0x3c2f0f8a	0.010684857
14	0x3d9f6991	0.07783807
15	0xbc2e7516	-0.010648033
16	0xbc6f1302	-0.014591934
17	0x3d348623	0.044073235
18	0x3d323682	0.043509014
19	0xbd7e384b	-0.062065404
20	0x3a990673	0.0011674896
21	0xbd1a32bf	-0.03764605
22	0xbce378f2	-0.027767632
23	0x3ca934ae	0.020655002
24	0x3d3d93fe	0.046283714
25	0x3b553d56	0.003253778
26	0xbd96970d	-0.073530294
27	0xbc8eb409	-0.017419832
28	0xbd819299	-0.063267894
29	0x3c2feb28	0.010737218
30	0xbd01d9db	-0.031701904
31	0x3d89430b	0.067022406

weight f4 [64, 32, 5, 5]
0	0x3cbdb182	0.023155931
1	0x3c052efe	0.00812888
2	0x3c54d56d	0.012990338
3	0xbb4f6101	-0.0031643512
4	0xbb9fd18c	-0.004877275
5	0x3b4689e6	0.0030294596
6	0xbcc2e1c1	-0.023789288
7	0xbca25650	-0.019816548
8	0xbcc234fb	-0.023706904
9	0x3ce8b318	0.028405711
10	0xbc92a5de	-0.017901357
11	0x3c053194	0.008129496
12	0x3c4e08ab	0.012575309
13	0xbb696b7e	-0.003561705
14	0xbccd59c4	-0.025067218
15	0xbb2e991a	-0.0026641549
16	0xbcde80cd	-0.027161026
17	0xbc5119f5	-0.012762536
18	0xbbb8de95	-0.005641768
19	0xbc5503e7	-0.013001419
20	0x3c1b8691	0.009492532
21	0xbc203683	-0.009778622
22	0xbbdf9233	-0.006822848
23	0xbc12c07e	-0.0089570265
24	0xbce66888	-0.028126016
25	0xbb53aba1	-0.0032298344
26	0xbb8ad476	-0.004236753
27	0xbb6277ed	-0.0034556345
28	0x3cf656a0	0.030070603
29	0x3c938ddb	0.018011978
30	0xbc395404	-0.011311535
31	0xbcfec992	-0.031101976
32	0x3d04a3c1	0.03238273
33	0x3c628d16	0.013827583
34	0x3c834768	0.01602526
35	0xbc547f0c	-0.012969743
36	0x3c688b87	0.014193422
37	0x3c45d8a0	0.012075573
38	0x3d02a492	0.031895228
39	0xbc956004	-0.01823426
40	0xbcd57379	-0.026056038
41	0xbaacf666	-0.0013195991
42	0xbcde7164	-0.027153678
43	0xbd02d125	-0.031937737
44	0xbb447dc5	-0.002998219
45	0xbc8527d8	-0.01625435
46	0xbcaf8026	-0.02142341
47	0x3ca88a47	0.020573748
48	0xbd01fcac	-0.031735107
49	0xbc48ee69	-0.012263873
50	0xbd036148	-0.032075197
51	0xbc15f311	-0.00915219
52	0xbafa17f2	-0.0019080623
53	0xbc06e214	-0.008232612
54	0xbc0021b2	-0.007820534
55	0x3c05341d	0.008130101
56	0xbcd60b52	-0.026128445
57	0xbd24d85d	-0.040245403
58	0x3c5700df	0.013122766
59	0x3cf3f995	0.029782096
60	0xbce80e64	-0.028327174
61	0xbc31e58e	-0.010857953
62	0xbbb77cf1	-0.005599611
63	0xbc01ff10	-0.007934347
64	0xbcc9d56e	-0.024637904
65	0xbd038eb1	-0.032118503
66	0xbd098228	-0.033571392
67	0x3c4365c0	0.011926115
68	0xbc8d5778	-0.017253622
69	0xbc15fd37	-0.009154609
70	0xbb82872a	-0.003983398
71	0x3ccfc1ed	0.025361026
72	0xbc8b2779	-0.016986595
73	0xbbe8ef2b	-0.007108589
74	0xbc84d394	-0.01621417
75	0x3c578b15	0.013155718
76	0x3bb62a3d	0.0055592344
77	0x3cc96fef	0.024589507
78	0x3d1d6e49	0.038435254
79	0x3c0054d3	0.007832724
80	0xbd039e5d	-0.03213345
81	0xbcc371b6	-0.023857933
82	0xbce9e113	-0.028549707
83	0x3c9bb363	0.019006437
84	0x3d1ebb79	0.038753007
85	0xbb8f0d88	-0.0043656267
86	0x3ca6ed67	0.020376874
87	0xbce5522d	-0.027993286
88	0xbd0a3880	-0.03374529
89	0xbaf8a66a	-0.0018970494
90	0x3c3f96a2	0.0116936285
91	0xbd2b2080	-0.04177904
92	0xbcdcd2ec	-0.026956044
93	0xbd1d327e	-0.03837823
94	0xbc1e730d	-0.009670985
95	0x3c1ff445	0.009762828
96	0x3bb9dd53	0.005672136
97	0xbcfdda35	-0.030987838
98	0xbd0e4534	-0.034733966
99	0x3d13674b	0.03598718
100	0xbc790ca1	-0.015200765
101	0xbca174ba	-0.01970898
102	0xbc85771d	-0.01629215
103	0x3c8a77b2	0.016902778
104	0x3bab0e64	0.0052202214
105	0x3cc97d15	0.024595777
106	0xbcead88b	-0.028667709
107	0x3cdbc249	0.02682604
108	0xbc7143ac	-0.014725607
109	0x3cc8f843	0.024532443
110	0x3cc1c5c4	0.023653872
111	0x3bb03645	0.005377563
112	0xbcbc0ae4	-0.022954412
113	0x3ac4bea0	0.0015010424
114	0xbcae4b33	-0.021276092
115	0xbc98e212	-0.018662486
116	0xbcab7a44	-0.020932324
117	0xbca3fdf7	-0.02001856
118	0xbcd7b5f1	-0.026331874
119	0xbb1176cd	-0.0022196055
120	0x3beaffcc	0.0071716066
121	0xbbcb7b80	-0.0062097907
122	0xbc94dacd	-0.018170739
123	0x3c511e62	0.0127635915
124	0x3be91bfe	0.0071139326
125	0xbc908d5d	-0.017645532
126	0xbc4a1177	-0.0123332655
127	0xbc8dfd2b	-0.017332634
128	0x3d566307	0.052340534
129	0x3cc49dd5	0.024001041
130	0x3d67a47d	0.056553353
131	0x3cfbd227	0.030739857
132	0xbbba623a	-0.005687979
133	0x3d19cbb0	0.037547767
134	0x3c9ac144	0.018890984
135	0x3d4a8449	0.049442563
136	0x3c6953ca	0.014241168
137	0x38980368	7.248559e-05
138	0xbc80a4ba	-0.015703548
139	0x3cb6a6e3	0.022296375
140	0x3d334803	0.043769848
141	0x3cf7f820	0.030269682
142	0x3c885847	0.016643656
143	0xbc9af4df	-0.018915592
144	0x3bd1ffd8	0.006408673
145	0x3d26771b	0.04064093
146	0x3d11d2e2	0.035601504
147	0x3a83a909	0.0010044883
148	0x3c6b768f	0.014371528
149	0x3d2601ed	0.04052918
150	0x3ca5a877	0.020221932
151	0x3c997fba	0.018737663
152	0x3d56df62	0.05245913
153	0xbbf13b5b	-0.007361812
154	0xbc26ba92	-0.010176318
155	0x3d15ca14	0.03656967
156	0x3d47196d	0.048608232
157	0x3d6d0a97	0.057871427
158	0xbc8f6acb	-0.017506978
159	0xbb1aafca	-0.0023603314
160	0x3cb0f7ad	0.021602476
161	0x3c232a85	0.009958868
162	0x3cf5feca	0.03002872
163	0x3c668753	0.01407035
164	0xbca73cd0	-0.02041474
165	0xbcd5573f	-0.026042579
166	0x3d25ccf2	0.040478654
167	0x3cc1ac3e	0.023641702
168	0x3cd71778	0.026256308
169	0xbba00211	-0.004883059
170	0xbd33ba6e	-0.043878965
171	0xbc1db032	-0.009624528
172	0x3d3fd00e	0.046829276
173	0x3c051552	0.008122759
174	0xbce01e9f	-0.027358351
175	0xbc90001e	-0.01757818
176	0x3bc9efb6	0.006162609
177	0x3cd8bdcd	0.026457692
178	0x3cb417e9	0.021984058
179	0xbd058b77	-0.032603707
180	0xbcdb84ab	-0.02679666
181	0xbc80535a	-0.015664745
182	0x3cd2819a	0.025696564
183	0xbc16f4bd	-0.009213624
184	0x3ca9bca4	0.020719834
185	0xbcd78146	-0.02630676
186	0x3cc38805	0.02386857
187	0xb96644b2	-0.000219601
188	0x3c9b7373	0.018975949
189	0x3cf53578	0.029932722
190	0x3c9396ae	0.018016186
191	0x3bf4507b	0.007455883
192	0x393f1237	0.00018221965
193	0xbc4e9fe1	-0.01261136
194	0x3cb4a890	0.022053033
195	0xbcf404f6	-0.029787522
196	0x3beb7d2c	0.0071865525
197	0x3cabc91f	0.020969925
198	0xbc189ba7	-0.009314454
199	0x3cabec7d	0.02098679
200	0x3bcaea70	0.006192498
201	0x3c916293	0.0177472
202	0xbcabf7e2	-0.020992223
203	0xbd0640bb	-0.032776576
204	0x3c97d042	0.018531922
205	0x3c5b545b	0.013386811
206	0x3d223984	0.039605632
207	0xbbc51bdc	-0.006015284
208	0xbb3e9ffe	-0.0029087062
209	0x3c3789bb	0.011202271
210	0xbc31bcbc	-0.01084822
211	0xbc09c984	-0.0084098615
212	0x3cf61121	0.030037465
213	0x3c6bc788	0.014390834
214	0x3ccfd0e2	0.025368158
215	0xbcbb83b2	-0.022889946
216	0x3b96af2c	0.004598519
217	0xbb91bbe3	-0.0044474467
218	0xbd046af4	-0.03232856
219	0x3c80e370	0.01573345
220	0xbcc1389c	-0.023586564
221	0x3b011908	0.0019698758
222	0x3cff927c	0.031197779
223	0xbcf52f76	-0.029929858
224	0x3bf21d2d	0.007388732
225	0x3b795bdf	0.0038049144
226	0xb93cf303	-0.00018019606
227	0xbcd11401	-0.025522234
228	0x3d415fbf	0.04721045
229	0xbca157ea	-0.019695241
230	0x3cd89289	0.02643706
231	0xbafcc940	-0.0019286051
232	0xbc1f117a	-0.009708757
233	0xbbc9be1b	-0.0061566955
234	0x3ce38168	0.027771667
235	0xbce9f518	-0.028559253
236	0xbcdad35f	-0.026712118
237	0xba2486d2	-0.00062761933
238	0x3bcecebf	0.006311267
239	0x3aaee7c5	0.0013344219
240	0xbd263a80	-0.040583134
241	0xbc1bd59f	-0.00951138
242	0xbd1fff19	-0.03906164
243	0xbb75564f	-0.0037435477
244	0x3c82afdd	0.015952999
245	0xbb8bd34a	-0.004267131
246	0xbcf35ff6	-0.029708844
247	0x3c667dc0	0.014068067
248	0x3cbcf3ab	0.023065409
249	0x3cbc18b7	0.022961004
250	0xbcc98bae	-0.024602737
251	0x3ac142e5	0.0014744668
252	0x3c89a0c7	0.016800297
253	0x3c825ee0	0.01591438
254	0x3a2eecd3	0.0006672863
255	0x3bc49417	0.005999099

bias f4 [64]
0	0x3becc484	0.007225575
1	0x3c5e408a	0.013565192
2	0xbc5a9084	-0.013340119
3	0x3c1ea13c	0.009681996
4	0x3d584731	0.05280227
5	0x3c36b685	0.0111519145
6	0x3c7206c5	0.014772122
7	0xbd0f7e08	-0.035032302
8	0xbcf0b8db	-0.029385021
9	0x3b408845	0.0029378098
10	0xbcb51688	-0.02210547
11	0x3cde45aa	0.027132828
12	0xbd0a4b39	-0.033763144
13	0x3d1ded13	0.03855617
14	0x3d087352	0.033313103
15	0xbcd41ca7	-0.025892569
16	0x3b89a30f	0.0042003463
17	0xbd65361d	-0.05595981
18	0x3c5d1356	0.01349338
19	0xbce03075	-0.027366856
20	0x3d153ce6	0.03643503
21	0x3d117e9d	0.03552114
22	0xbc4e7719	-0.012601637
23	0xbcbf67bb	-0.023364892
24	0xbd4f696a	-0.05063764
25	0x3d0504c8	0.032475263
26	0x3cebfb70	0.028806418
27	0x3c5a0361	0.01330647
28	0x3d0f7c1e	0.035030477
29	0x3c3dd6ec	0.011586886
30	0x3c5de912	0.013544338
31	0xbcbefce2	-0.023313943
32	0x3a89dfd4	0.0010518976
33	0xbcbdf3ae	-0.023187485
34	0xbd05756e	-0.032582693
35	0xbccfd0b1	-0.025368067
36	0xbcb95f83	-0.022628551
37	0xbc822877	-0.015888436
38	0x3cb2a1aa	0.021805603
39	0xbd03e54b	-0.032201093
40	0x3c853d74	0.016264655
41	0xbcd6e72a	-0.026233274
42	0xbd072f21	-0.03300393
43	0xbc2c71ba	-0.010525161
44	0xbc0fb93f	-0.008772193
45	0xbd251497	-0.04030284
46	0xbc43617b	-0.011925097
47	0xbbb6a3bd	-0.0055737183
48	0xbca1dc01	-0.019758226
49	0x3d07673e	0.033057444
50	0xbc09cf2b	-0.008411209
51	0x3d343fb9	0.044006083
52	0xbcf852c4	-0.030312903
53	0x3cfc6e04	0.030814178
54	0x3c97b314	0.018518008
55	0x3d5f86c8	0.054571897
56	0xbd4a6b96	-0.04941901
57	0x3c20bcb7	0.009810618
58	0x3c854b3e	0.01627123
59	0x3d428755	0.047492344
60	0x3b07af79	0.0020703955
61	0xbd383345	-0.04497077
62	0x3b58d584	0.003308625
63	0x3ce068d8	0.027393743

weight f4 [64, 1024]
0	0xbcd9b7f7	-0.02657698
1	0x3cebcce0	0.028784215
2	0x38efa7aa	0.00011427638
3	0xbcb59307	-0.022164835
4	0x3d130e51	0.035902325
5	0x3caf8c01	0.021429064
6	0xbc4294cd	-0.011876297
7	0xbcb061d2	-0.02153102
8	0xbd10a1d4	-0.03531058
9	0xbd13ffe2	-0.0361327
10	0x3cc48a6f	0.023991792
11	0xbcaae970	-0.020863265
12	0x3cc30109	0.023804205
13	0xbc47226b	-0.012154202
14	0x3c6d4611	0.014482037
15	0xbc6cdf0d	-0.014457476
16	0x3ca4c570	0.020113677
17	0xbc3b3a01	-0.011427403
18	0xbcfeb5dc	-0.031092577
19	0x3cc4ead7	0.024037762
20	0xbc85093e	-0.016239759
21	0xbc0a16eb	-0.008428316
22	0x3c5df9ed	0.0135483565
23	0x3c9a97a8	0.018871143
24	0x3ce88bcd	0.028386975
25	0xbc20b708	-0.009809263
26	0xbca4d936	-0.020123105
27	0x3cab9b6c	0.020948134
28	0x3c48e074	0.012260545
29	0x3c94c867	0.018161966
30	0x3cad8317	0.021180673
31	0xbc9123bf	-0.01771724
32	0xbca00e36	-0.019538026
33	0x3d049fe4	0.032379046
34	0xbccc2352	-0.024919186
35	0x3c966fdb	0.018363884
36	0xbc90f0df	-0.017692981
37	0x3c5ddad8	0.013540946
38	0xbc510b42	-0.012759032
39	0xbc37a19d	-0.011207965
40	0x3c8d790b	0.017269632
41	0xbd0e2428	-0.03470245
42	0xbcc13483	-0.02358461
43	0x3cb7ee24	0.022452421
44	0xbcae5f10	-0.021285564
45	0x3cabf5b2	0.02099118
46	0x3d1e0537	0.038579192
47	0x3cbca5c5	0.023028264
48	0x3c4f62cd	0.012657833
49	0xbcf5c032	-0.029998872
50	0x3c698dec	0.014255028
51	0xbc739f9d	-0.014869598
52	0x3d044a39	0.032297347
53	0xbccd7e88	-0.025084749
54	0x3cec804b	0.028869769
55	0x3c47d73e	0.012197314
56	0x3cda66ef	0.02666041
57	0xbcc30b1e	-0.023809012
58	0x3b5acc2f	0.0033385863
59	0x3b8d4400	0.0043110847
60	0x3c5f215e	0.013618795
61	0xbcda7173	-0.026665425
62	0x3ca02c1c	0.019552283
63	0xbd13f92c	-0.0361263
64	0xbbc2cbc1	-0.0059446995
65	0x3b67eac6	0.0035387739
66	0x3cffbc9a	0.031217862
67	0xba7a9e20	-0.00095603056
68	0x3c4d5c46	0.012534207
69	0xbbdfdf9a	-0.0068320753
70	0x3c508e62	0.012729259
71	0xbc120cf8	-0.008914225
72	0x3c843da0	0.016142666
73	0x3cc1b9ea	0.023648221
74	0xbc43473c	-0.011918839
75	0xbd13a217	-0.036043253
76	0x3b8568ad	0.004071316
77	0xbce46129	-0.02787836
78	0x3c2ec599	0.010667228
79	0x3b96d4ae	0.00460299
80	0xbc50b1dd	-0.012737718
81	0x3cd59bfb	0.026075354
82	0xbc8e9f25	-0.01740987
83	0x3cb07c9d	0.021543795
84	0xbc6633a5	-0.014050399
85	0x3cc1da99	0.023663806
86	0xbcca6045	-0.024704108
87	0x3d23babd	0.03997301
88	0x3ca5dd4a	0.02024712
89	0x3cb64b32	0.022252653
90	0x3ba17b08	0.0049279965
91	0x3d16c451	0.036808316
92	0x3c51f8c1	0.012815655
93	0x3c04c5b6	0.008103779
94	0x3cd97557	0.02654521
95	0x3ca27305	0.019830236
96	0x3d195938	0.0374386
97	0x3c8d82af	0.017274229
98	0x3c872226	0.016495775
99	0xbbae70a1	-0.005323485
100	0x3b0b4082	0.0021248166
101	0x3cf7514d	0.030190134
102	0xbc5187b8	-0.0127887055
103	0xbbd85de0	-0.0066029876
104	0x3c401b19	0.011725211
105	0x3c4440f6	0.0119783785
106	0xbcd11802	-0.025524143
107	0x3b2b0ca4	0.0026100064
108	0x3c21952f	0.009862228
109	0xbc0f39bd	-0.008741793
110	0xbca9e6e4	-0.02073998
111	0x3cd6cd72	0.02622101
112	0x3c2083ef	0.00979708
113	0xbc5c639f	-0.013451486
114	0xbcfd4c34	-0.030920126
115	0x3c081c8c	0.008307587
116	0x3cb69dfc	0.02229213
117	0xbcd32cf7	-0.025778277
118	0xbd46325a	-0.048387863
119	0xbc9b6f1c	-0.01897388
120	0x3c3b4179	0.011429184
121	0x3d2c5a84	0.04207851
122	0x3c50d4f9	0.012746089
123	0x3c9beceb	0.01903387
124	0xbc9dbda4	-0.019255467
125	0x3bd436c7	0.0064762565
126	0xbcb5e42b	-0.022203526
127	0xbccb0c4e	-0.02478614
128	0x3d056b34	0.03257294
129	0x3b9d15aa	0.0047938423
130	0xbc2cf1f1	-0.01055573
131	0x3c9924b8	0.018694267
132	0xbce9a6bb	-0.028521886
133	0x3c221d4a	0.009894678
134	0x3c9f521e	0.019448336
135	0xbcb0dd6d	-0.021589959
136	0x3b1d6fc8	0.0024022926
137	0xbccfb6fb	-0.025355807
138	0xbca3e409	-0.020006197
139	0xba8e49ba	-0.0010855712
140	0xbcf25784	-0.029582746
141	0xbc5b7b92	-0.013396161
142	0xbd04f6e1	-0.032462005
143	0x3cadc56d	0.021212304
144	0xbc8dd5a0	-0.017313778
145	0xbb807d95	-0.0039212205
146	0x3d019164	0.031632796
147	0xbcda657f	-0.026659725
148	0xbbe2d682	-0.006922544
149	0x3bbbbad7	0.00572906
150	0xbcb880e1	-0.022522392
151	0x3cc21fb6	0.023696762
152	0x3cd23523	0.025660103
153	0x3cba57df	0.022746978
154	0x3c5d687c	0.013513681
155	0xbc15772c	-0.009122651
156	0xbcae0f8f	-0.021247653
157	0xbbe27503	-0.0069109215
158	0x3b8e056a	0.0043341415
159	0x3d39f39a	0.045398332
160	0x3c10c854	0.008836824
161	0xbcdc0c64	-0.026861377
162	0xbb109678	-0.0022062343
163	0xbceda42a	-0.029008944
164	0xbcfb7b8d	-0.030698562
165	0xbb80427c	-0.0039141756
166	0xbcf0172b	-0.029307922
167	0x3c135b00	0.008993864
168	0x3c1bc27a	0.009506816
169	0xbad94119	-0.0016575187
170	0xbd295f63	-0.041350733
171	0xbc888b34	-0.01666794
172	0x3c1285be	0.008943019
173	0x3c06f72f	0.008237644
174	0xbb8bd69d	-0.0042675273
175	0xbc65907f	-0.014011501
176	0xbcb5383e	-0.022121545
177	0xbc098119	-0.008392596
178	0xbc811fa3	-0.015762156
179	0x3c0e78d9	0.0086958045
180	0xbccbeddb	-0.024893692
181	0xba35dbf6	-0.0006937379
182	0x3cecca4e	0.02890506
183	0xbc068bc1	-0.008212031
184	0x3ca014bc	0.019541137
185	0xbcd41795	-0.025890151
186	0x3c5ac250	0.013351992
187	0x3b46f483	0.0030358143
188	0x3c3753a4	0.011189375
189	0xbc0d40fa	-0.008621449
190	0xbb0f9946	-0.0021911426
191	0x3cccece4	0.025015302
192	0x3cc9666c	0.024584971
193	0x3d0516dc	0.032492504
194	0xbcc337c0	-0.023830295
195	0xbc62c1ea	-0.013840178
196	0xbc9a69e0	-0.018849313
197	0x3b805cf3	0.0039173304
198	0xbd19dd83	-0.037564766
199	0xb914b03f	-0.00014180037
200	0x3b3deb0c	0.002897921
201	0x3b526b36	0.003210736
202	0xbc5dba11	-0.013533131
203	0x3ca2dc19	0.019880341
204	0xbcda3e9e	-0.026641186
205	0x3c16bebe	0.00920075
206	0x3ce92766	0.02846117
207	0xbc9200c2	-0.017822627
208	0xbcca1631	-0.024668785
209	0x3c29552a	0.010335246
210	0xbc64a4f5	-0.013955344
211	0x3cbb1a8f	0.022839813
212	0xbceb27c7	-0.02870549
213	0x3caec6c5	0.021335015
214	0x3c480ada	0.012209618
215	0xbc8569e2	-0.01628584
216	0xbcb00277	-0.02148555
217	0xbcbfcd27	-0.023413254
218	0x3cc423fe	0.023942944
219	0x3c693f7d	0.014236328
220	0x3c40b70e	0.011762394
221	0x3c34681a	0.011011148
222	0x3cc6e845	0.024280677
223	0x3d152fd4	0.036422566
224	0xbc29f495	-0.010373254
225	0xbc805d29	-0.015669422
226	0x3c4d1176	0.01251637
227	0xbcc43804	-0.023952492
228	0xbc32a441	-0.010903419
229	0x3cf2efb2	0.029655311
230	0xbc3b84c2	-0.011445226
231	0xbb95586c	-0.00455766
232	0x3c2101fe	0.009827135
233	0xbcd5a4bb	-0.026079526
234	0xba9624bc	-0.001145504
235	0x3bd986c3	0.0066383793
236	0xbc9ecbd9	-0.019384312
237	0x3c49318a	0.012279877
238	0x3b0a08ca	0.0021062368
239	0x3c815659	0.015788244
240	0x3bc100a2	0.005889968
241	0xbcad5848	-0.02116026
242	0xbd023705	-0.031790752
243	0x3c18da9f	0.009329467
244	0xbd0c41e2	-0.03424252
245	0xbcaf33ab	-0.021386942
246	0xbcdc157b	-0.026865711
247	0xbc473a17	-0.012159846
248	0xbd1a00e1	-0.037598494
249	0x3c857557	0.016291304
250	0xbc993a89	-0.01870467
251	0xbcc408c7	-0.023929967
252	0xbb076012	-0.0020656628
253	0xbc9c637c	-0.019090407
254	0xbacb2634	-0.0015499056
255	0xbbaff810	-0.0053701475

bias f4 [64]
0	0xbcb51900	-0.022106647
1	0x3cafff82	0.02148414
2	0xbc614f80	-0.013751864
3	0x3c307ac7	0.01077146
4	0x3c1d1c39	0.009589248
5	0xbcca8c6f	-0.024725167
6	0x3d043f3b	0.032286864
7	0x3d50ec0d	0.051006366
8	0x3ca31144	0.019905694
9	0xbc3ff482	-0.01171601
10	0xbd31e3d5	-0.04343017
11	0x3afeab59	0.0019429728
12	0xb98196ba	-0.00024717097
13	0x3c9f0126	0.019409727
14	0x3c86f540	0.016474366
15	0x3b05aa02	0.0020395522
16	0xbb771362	-0.0037700762
17	0x3b5c564f	0.003362078
18	0xbcfb9760	-0.03071183
19	0xbd2aa66d	-0.041662622
20	0x3c94dcdd	0.018171722
21	0xbc061b51	-0.008185224
22	0x3d078e76	0.033094846
23	0xbcb9e3a0	-0.022691548
24	0xbbd306b2	-0.006440007
25	0x3c987b18	0.018613383
26	0xbbbd5d90	-0.005778976
27	0xbc2972d8	-0.010342322
28	0x3ce1b197	0.027550502
29	0xbab5a12d	-0.0013857238
30	0xbcca602a	-0.024704058
31	0xbc66bd78	-0.014083259
32	0x3d20c29b	0.03924809
33	0x3bf7af38	0.0075587295
34	0xbd0d8a75	-0.03455587
35	0x3cef3327	0.029199196
36	0xbb98b9d5	-0.004660825
37	0xbc3e57cb	-0.011617611
38	0xbcf28e16	-0.029608767
39	0xbd233a0c	-0.03985028
40	0x3c9c32af	0.019067137
41	0xbc0f2a77	-0.008738152
42	0x3b4ffff8	0.0031738263
43	0x3c2c2ce2	0.010508748
44	0x3c73d4e7	0.014882303
45	0xbcf236d3	-0.029567158
46	0x3c108a12	0.008821981
47	0xbb21982a	-0.0024657347
48	0xbc3a5bd2	-0.011374431
49	0x3c4ba330	0.012429044
50	0x3d35c7c1	0.044379953
51	0xbc6cfd22	-0.014464648
52	0x3d10c3b6	0.035342894
53	0xbd2d8613	-0.04236419
54	0xbcfdfb5d	-0.031003648
55	0xbd046e32	-0.032331653
56	0x3ca35431	0.019937607
57	0xbd33f7e6	-0.043937586
58	0x3cfd06e5	0.030887077
59	0x3cf9a4e4	0.030474134
60	0xbcbc36ef	-0.022975413
61	0xbc9134dd	-0.017725402
62	0x358f96c0	1.0698204e-06
63	0xbc968ee4	-0.018378682

weight f4 [10, 64]
0	0xbdac99b0	-0.08427751
1	0xbde7f60a	-0.11326225
2	0x3cba91a3	0.022774523
3	0xbc580c6f	-0.013186558
4	0xbd976a8b	-0.07393368
5	0xbd4304b4	-0.047611907
6	0x3d81cbdc	0.06337711
7	0xbe4874c7	-0.19575797
8	0x3e1c13e9	0.1524197
9	0x3c2f3008	0.010692604
10	0x3db88ef4	0.09011641
11	0xbdcc0d3f	-0.09963464
12	0xbd3982b7	-0.045290675
13	0xbd901241	-0.07034732
14	0xbda6fa32	-0.0815319
15	0x3d575125	0.05256762
16	0x3dfdfb3b	0.12401434
17	0x3c4ee1c7	0.012627072
18	0xbe069dfd	-0.13146205
19	0x3e3f59be	0.18686578
20	0x3d6f1443	0.058368932
21	0x3e20754d	0.15669747
22	0xbd9b28cd	-0.075761415
23	0x3e0004ac	0.12501782
24	0x3d6d77b0	0.05797547
25	0xbd0c5496	-0.034260355
26	0xbe13da4a	-0.1443874
27	0x3db3e3ed	0.08783708
28	0x3d42edb2	0.047589965
29	0x3d8ecf1a	0.06973095
30	0xbe18ca32	-0.14920881
31	0x3df61bf1	0.12017048
32	0xbdcd966e	-0.10038458
33	0x3d1204d2	0.03564913
34	0x3d8250b0	0.06363046
35	0xbdef9473	-0.11698236
36	0xbca33fac	-0.019927822
37	0x3dbdf385	0.09274963
38	0x3e0f3653	0.13985567
39	0x3e192a63	0.14957576
40	0x3be4a3d8	0.0069775395
41	0x3ceb725d	0.028741056
42	0xbdf08d1d	-0.11745665
43	0x3e21e1dc	0.15808815
44	0xbce20a98	-0.027592942
45	0x3dcfe1ee	0.101505145
46	0xbdf1b074	-0.11801234
47	0x3e3d4591	0.18483569
48	0x3e1ad288	0.15119374
49	0x3ded8f54	0.11599603
50	0xbd23918e	-0.039933734
51	0x3cbe5106	0.023231994
52	0xbd35af2a	-0.044356503
53	0x3dc69305	0.096960105
54	0x3ddeb4e6	0.108743474
55	0x3e01cac3	0.12675004
56	0x3d078d72	0.033093877
57	0x3d6e423c	0.058168635
58	0xbc1fcefc	-0.009753939
59	0xbdfe1485	-0.124062575
60	0x3dc9a344	0.098455936
61	0x3df578b3	0.11985912
62	0x3e036d58	0.1283468
63	0x3e132f5a	0.14373532
64	0xbd9e13a9	-0.077185936
65	0xbdd2c3cf	-0.10291254
66	0xbe778696	-0.24172434
67	0xbd594cc4	-0.053051725
68	0xbd6061ee	-0.054780893
69	0x3c89cce2	0.016821329
70	0x3e195002	0.14971927
71	0x3dba7601	0.09104539
72	0x3c144329	0.009049215
73	0xbd5fae89	-0.05460981
74	0x3e1133b5	0.14179881
75	0x3e51efda	0.20501652
76	0xbda7e80b	-0.081985556
77	0xbe861455	-0.26187387
78	0x3e251acc	0.16123503
79	0xbdbdb6e1	-0.09263397
80	0xbd9183b5	-0.07105199
81	0x3e283492	0.16426304
82	0xbe1ebc2e	-0.15501472
83	0xbd506662	-0.05087889
84	0x3db20757	0.08692806
85	0xbe071d2e	-0.13194725
86	0xbd7e7ba5	-0.062129635
87	0xbe084bce	-0.13310167
88	0xbc72389f	-0.014784007
89	0xbcadbc9d	-0.021208102
90	0xbd94c7d6	-0.07264678
91	0xbc292a2f	-0.010324999
92	0x3cb15205	0.021645555
93	0xbcc4931c	-0.023995928
94	0xbd8db4ed	-0.069192745
95	0x3d71578b	0.058921378
96	0xbd85e836	-0.06538431
97	0x3e42e944	0.19034296
98	0x3bc3bb7b	0.005973277
99	0xbde7843c	-0.113045186
100	0xbd631268	-0.055437475
101	0xbdfcc5bd	-0.12342403
102	0xbe0996a8	-0.13436377
103	0xbd911959	-0.07084913
104	0xbdaa1374	-0.08304492
105	0xbe475b20	-0.19468355
106	0xbde1478d	-0.10999975
107	0xbd4512e0	-0.048113704
108	0xbe05fb00	-0.1308403
109	0xbdd7e9d3	-0.10542645
110	0xbe2b20db	-0.16711752
111	0x3df29b5b	0.11846038
112	0x3d8e7c19	0.069572635
113	0xbde9b19e	-0.11410831
114	0x3d037880	0.03209734
115	0xbdedc9aa	-0.1161073
116	0x3e4d07fb	0.20022576
117	0x3de188a1	0.11012388
118	0xbdf7f12c	-0.12106547
119	0xbc4c6f41	-0.012477697
120	0x3df9a597	0.12189787
121	0xbd6bad5d	-0.05753838
122	0x3dcd118f	0.10013115
123	0xbd7f08b8	-0.062264174
124	0xbe0c78cc	-0.13717955
125	0x3cabfa49	0.020993369
126	0xbd8f5c74	-0.07000056
127	0xbdb37c8e	-0.08763991
128	0xbda4d108	-0.08047682
129	0x3e31bf0e	0.17358038
130	0x3e16c725	0.14724405
131	0xbd0f13be	-0.034930937
132	0x3e1f158e	0.15535566
133	0xbdddd522	-0.108316675
134	0x3bce9a18	0.0063049905
135	0x3acf51ce	0.0015817226
136	0xbd2ce335	-0.04220887
137	0x3d9d4a59	0.07680196
138	0xbde5e43a	-0.112251714
139	0xbd6bb75f	-0.057547923
140	0x3e033907	0.12814723
141	0x3b4e0cde	0.0031440775
142	0xbc5acbb1	-0.013354228
143	0xbcff6a7f	-0.031178711
144	0x3e1183fc	0.14210504
145	0x3d98e35b	0.074652396
146	0xbdd20405	-0.10254673
147	0x3dc9d81d	0.098556735
148	0x3dabf4e6	0.0839632
149	0x3e25f74f	0.16207622
150	0x3c0ecc9f	0.008715778
151	0xbe16d66c	-0.14730233
152	0xbd7e73e1	-0.06212223
153	0x3d625f1e	0.055266492
154	0x3e09a314	0.13441116
155	0xbc1e9d73	-0.0096810935
156	0x3e1b2b0d	0.15153141
157	0xbc6ffe1b	-0.014647986
158	0x3c4f8d14	0.012667913
159	0x3e022d40	0.12712574
160	0x3c3ca340	0.011513531
161	0x3d9ecbed	0.077537395
162	0xbb514c29	-0.0031936264
163	0xbe218071	-0.15771653
164	0xbdce5972	-0.10075654
165	0xbc87faed	-0.016599143
166	0x3d85f6ff	0.065412514
167	0x3d05228b	0.032503646
168	0xbcd37c5c	-0.025816135
169	0x3dd27fa4	0.10278252
170	0xbd355bf8	-0.04427716
171	0x3daa2df7	0.08309548
172	0x3de0851a	0.10962887
173	0xbcfebc9d	-0.031095797
174	0x3dc3179c	0.095259875
175	0xbd89f5d4	-0.06736341
176	0x3dde7847	0.10862785
177	0x3e428f8e	0.19000074
178	0x3d2aef76	0.041732274
179	0x3d26a20b	0.04068188
180	0x3d38f3a9	0.045154247
181	0x3e2842dc	0.16431755
182	0xbe1e4888	-0.15457356
183	0x3dd812ac	0.105504364
184	0xbe2966c1	-0.16543104
185	0xba59e4cc	-0.00083119865
186	0x3db5a3d7	0.088691406
187	0x3db22777	0.086989336
188	0xbdbd87b5	-0.092544
189	0xbe0083fc	-0.12550348
190	0xbe14d928	-0.14535964
191	0x3df84a11	0.12123502
192	0x3da1ae63	0.0789459
193	0x3cfb1ad9	0.03065245
194	0x3e416238	0.18885124
195	0xbdbd769a	-0.09251137
196	0x3da486fa	0.08033557
197	0x39e1d343	0.00043072746
198	0x3de15e90	0.110043645
199	0xbd90c992	-0.070696965
200	0xbdb5c320	-0.08875108
201	0xbd6daf16	-0.058028303
202	0xbda5380c	-0.08067331
203	0x3ddc26c3	0.10749581
204	0xbde0c197	-0.10974424
205	0x3db2ae73	0.0872468
206	0xbe07256b	-0.13197868
207	0xbd991e74	-0.074765116
208	0xbcbd99e6	-0.023144674
209	0xbe0c9463	-0.1372848
210	0x3cbc9bed	0.02302357
211	0xbdb8cdc4	-0.09023622
212	0x3df15370	0.117834926
213	0x3dd6a89f	0.10481381
214	0xbc81aeee	-0.015830483
215	0xbdc8c6a5	-0.098035134
216	0xbe03f7a1	-0.12887432
217	0xbdd3f467	-0.103493504
218	0xbd5f5cd4	-0.054531887
219	0x3c83150d	0.016001249
220	0x3db45b62	0.088064924
221	0x3d9b855e	0.07593797
222	0x3e234c71	0.15947129
223	0x3daa82d4	0.08325735
224	0xbe0cff66	-0.13769302
225	0xbb11ea58	-0.0022264924
226	0x3d8b6e5f	0.06808161
227	0xbddf34d0	-0.10898745
228	0xbd296fb1	-0.041366283
229	0x3ddb436f	0.10706221
230	0x3d13cf40	0.03608632
231	0xbe0d7796	-0.1381515
232	0xbde3470a	-0.11097534
233	0x3d9b5bd9	0.07585878
234	0x3e4b4c59	0.19853343
235	0xbd28cf7e	-0.041213505
236	0xbd09b9d9	-0.033624504
237	0xbe00de6f	-0.12584852
238	0x3e2326f8	0.15932834
239	0xbc8eda5f	-0.017438112
240	0xbcf8f6fe	-0.030391213
241	0xbc79ddc8	-0.015250631
242	0x3d9aedc8	0.075648844
243	0x3dcc69c2	0.09981109
244	0x3d938ea0	0.07204938
245	0xbd4a99b0	-0.049462974
246	0x3cd96a52	0.026539955
247	0x3ccb9b39	0.02485429
248	0xbda2b573	-0.07944765
249	0x3e0f1090	0.13971162
250	0x3cf4a0d1	0.02986184
251	0xbd329d7a	-0.043607213
252	0xbb18cead	-0.0023316548
253	0xbe3babae	-0.1832721
254	0xbbd17acd	-0.006392813
255	0xbd95fdb2	-0.07323779

bias f4 [10]
0	0xbc94b5ff	-0.018153189
1	0xbcc6e991	-0.024281295
2	0x3d66c8cd	0.056343842
3	0xbd55ad99	-0.05216751
4	0x3cc66b98	0.024221227
5	0xbd86bf3d	-0.065794446
6	0x3cc58ca3	0.024114912
7	0x3d10bd2e	0.035336666
8	0x3c022b82	0.007944943
9	0x3cde6455	0.027147451
