DeepLearningDemo/models/jingxin_4.pth (torch, 587999 bytes, 10 tensors)

weight f4 [32, 3, 5, 5]
00000000: e8e1 993c 91f5 6e3d bae7 a93b a684 0c3e
00000010: f170 fe3d a251 403d a837 61bd 7608 26bd
00000020: 81e2 adbd aebc 6ebd 8000 1cbd da90 933d
00000030: a784 a3bd 1ff6 ab3b 27de 06be 8fbb 1ebe
00000040: 0adb 29be a036 4bbc 9582 c5bd 9263 293d
00000050: d7fe f3bd ad6e 16be 67a0 41be fb45 0bbe
00000060: 91d8 f6bd 6244 e73d ff23 2abd b5f9 043e
00000070: 9c51 65bc c459 27bc 8f6f da3d 73e4 cb3d
00000080: e212 8cbc 8c4c 823c 24ae a0bd 6d9f ecbc
00000090: 36db 54bc e062 bdbd 21b5 a7bd b909 ccbb
000000a0: c598 fabd 52c0 1cbe ee32 fabd 534b 1cbc
000000b0: bd9c 8abd 5f31 35bd 563c c3bd b79a 99bd
000000c0: 7117 32be 2968 12be fdcf 073d 2bd1 273e
000000d0: 9037 f93d 6ffc 583d 9a33 4a3d 86d8 293e
000000e0: b8bf ea3c 1733 dc3d f4e1 023e cdf5 e03c
000000f0: 966b 843c 02f6 fa3c cbc5 053e 183f dbba
00000100: cd82 033e f576 37bd e052 8b39 b0f5 1b3d
00000110: bcd9 103c 2a90 c03d bd07 d73d 896e 463c
00000120: 5994 323d c26e ca3d 9e1d ce3d 32e1 073e
00000130: a7d2 1f3e f3a3 253e 936d d33d ea9f 2b3c
00000140: b131 223e 5131 fc3d 241c 203e 5fd0 a53d
00000150: 199a 5b3d 6d6a 1a3e 7320 e43d 1ee1 413d
00000160: d261 b03d 270a b53c 2e3f 3f3c 31c3 9b3d
00000170: 194b 163d d95d 3f3d 44c5 8d3d 8ca7 603d
00000180: 5485 913d 1f6d 44bd 3b99 bfbd 7d3f ac3c
00000190: e35f 10bd d432 f6b9 27fc 16bb b365 f93b
000001a0: 1d25 a43d 5c9a 32bb 19d6 cc3d 9e23 bd3d
000001b0: 6c3d d63b 788a e3bd 2d2e a03d 376c 5f3d
000001c0: 12a3 e0bd 60d5 65bd f2f3 15bd 279f 553d
000001d0: 556e c5bd 4fae c83d 46e3 323a b9fa 0ebe
000001e0: e7d2 59bd 225e 0bbe 4722 1ebe 25a1 c3bd
000001f0: 33ff 15be 9aba c33d f787 eb3d 0fef 493d
00000200: 8b95 96bd 234e 07be dcf2 82bc 10b8 063d
00000210: 9071 bbbd c190 57bd 208a f0bd ff4f 3e3d
00000220: 934a dbbc 6019 f43c e9cd fabd 1e6c f4bd
00000230: 7a88 e93d ac42 d53d aa02 973c 2c6d 90bd
00000240: 41a5 1abd f07b e7bd e682 283d 3ad8 963c
00000250: 6e2d 123c df0a adbd d4f2 cc3c c7b5 97bd
00000260: 8320 e43c aafa d13c 6996 d5bd a6bf dcbc
00000270: f4da ac3c 116e f8bc 5dbe 033d 5069 d6bd
00000280: ed51 073d 97d7 be3d bf72 683d a09f acbc
00000290: f75f ae3d 27b7 0b3e fb83 693d 7736 f63d
000002a0: eaad bf3d 920d 18bd 00c5 223d cec8 793c
000002b0: 1ab4 833d b1e7 b0bd a051 16bd 16ac 09bc
000002c0: e305 ba3d 7744 efbb f9cb 1fbc 021f 20bc
000002d0: e652 6bbd 5ebc f13c 0b10 d1bd 70af 88bd
000002e0: 9ba9 323c 0a32 113d 9d76 323d 58d3 9fbd
000002f0: d12b 45bd 0364 03be 2fd0 dbbd 88db b0bd
00000300: 1fa9 293d 1d00 e6bd f7ca 853d 5d03 22be
00000310: 5b20 0dbe c1d2 28be eee2 e2bd d1f9 c1bc
00000320: 864a 213e f945 153e 3628 ca3d fd35 c73d
00000330: c6fd 873d f08e a33d e851 323d a247 2fbd
00000340: 523e 333c 6814 ca3d 7929 73bd 8e84 963d
00000350: ff6f f73d 0581 183e 669a 573d b308 b1bb
00000360: 9d23 45bd 0aa9 26bc c3aa 60bd bbf1 a13d
00000370: 16a9 5abd 3f4f 5f3c a4fe c43d f089 983d
00000380: 6c2a abbd 303d b83b d568 94bd 0940 04be
00000390: d087 f7bd e224 963d 54eb b7bd a61c 4fbc
000003a0: c2dc cc3c 5620 5bbd 832e b93d 24d8 bd3d
000003b0: 0d46 613b 2303 483d cfe0 d43d 3373 063e
000003c0: 1188 c93d 38b5 673c 0d1e 3f3d 4615 163d
000003d0: 9082 2fbd 5703 b3bd 1376 913c 62cc acbd
000003e0: e070 f9bb 5a25 b43c 1b39 12be 4bd3 563d
000003f0: 6b00 f2bd 8d52 f5bd e5f2 adbd 2290 57bd
0.018784478 0.05833966 0.0051850947 0.13722476 0.124238856 0.04695285 -0.05498472 -0.040535413
-0.08490468 -0.058285408 -0.038086414 0.072053626 -0.07984286 0.005247846 -0.13170682 -0.15501235
-0.16587463 -0.01240316 -0.09644047 0.041354723 -0.11913841 -0.14690657 -0.18908845 -0.13600914
-0.120530255 0.1129234 -0.041538235 0.1298588 -0.013996508 -0.010214273 0.10665809 0.099556826
-0.017098848 0.015905641 -0.07845715 -0.028884614 -0.012991717 -0.092473745 -0.081888445 -0.006226745
-0.1223617 -0.1530774 -0.12216745 -0.009539443 -0.06768177 -0.044236537 -0.095329925 -0.07500213
-0.17391755 -0.14297546 0.033157337 0.16388385 0.12168801 0.052975114 0.049365617 0.16586503
0.028655872 0.10751932 0.12781507 0.027460957 0.016164582 0.030634884 0.13063733 -0.0016727177
0.12842865 -0.04479118 0.00026573893 0.038076103 0.008840974 0.09402497 0.10499523 0.012111315
0.043598507 0.098844066 0.10064243 0.13269499 0.15607701 0.16175823 0.10323634 0.010475138
0.15839268 0.12314094 0.15635735 0.08096384 0.053613756 0.1507966 0.11139002 0.04733383
0.08612408 0.022099568 0.011672778 0.07605589 0.036692712 0.04672036 0.06922391 0.054847285
0.071055084 -0.04795563 -0.09355398 0.021026367 -0.035247695 -0.00046958646 -0.0023038478 0.0076110004
0.08014891 -0.002725265 0.100017734 0.09235309 0.006538084 -0.11110395 0.07821307 0.05454656
-0.10968603 -0.056111693 -0.036609598 0.052153733 -0.09640185 0.09798872 0.00068240275 -0.1396283
-0.053179648 -0.13610128 -0.15442763 -0.0955222 -0.14648132 0.09557076 0.115005426 0.04930025
-0.07352742 -0.132134 -0.015984945 0.03289038 -0.0915252 -0.052628282 -0.11745095 0.04646301
-0.026768958 0.029797256 -0.122463055 -0.11934684 0.11402984 0.10413107 0.018433888 -0.07052073
-0.037755255 -0.11302936 0.04114046 0.018413652 0.008921964 -0.08449339 0.025018133 -0.07407718
0.027847534 0.025632221 -0.10429079 -0.026946854 0.021100499 -0.030325921 0.032163966 -0.104693055
0.033037115 0.09318464 0.056750055 -0.021072209 0.085143976 0.13644086 0.057010632 0.12022107
0.09359343 -0.037122317 0.039738655 0.0152456295 0.06430836 -0.08637942 -0.036698937 -0.008402845
0.09083154 -0.007301863 -0.009753221 -0.009773018 -0.057452105 0.029508766 -0.10208138 -0.06674087
0.010904695 0.03544811 0.04357015 -0.078039825 -0.04813749 -0.1283112 -0.10733067 -0.08635622
0.041421052 -0.1123049 0.06532853 -0.15821595 -0.13781874 -0.16486646 -0.1107844 -0.023678692
0.15751085 0.14577474 0.09870951 0.09727094 0.066402 0.079862475 0.043535143 -0.042792924
0.010940151 0.098671734 -0.059365723 0.073495016 0.120819084 0.14892967 0.05263748 -0.0054026484
-0.048129667 -0.010172138 -0.05485035 0.079074346 -0.05338391 0.013629734 0.09618881 0.074481845
-0.08357701 0.0056225285 -0.072465576 -0.12915052 -0.12086451 0.073312536 -0.08980432 -0.012641108
0.02500761 -0.053497635 0.090420745 0.09269741 0.003437403 0.048831116 0.10394441 0.13129883
0.09840406 0.014142327 0.046659518 0.03664138 -0.042849123 -0.087408714 0.017756497 -0.084374204
-0.0076123327 0.021990467 -0.14279597 0.0524476 -0.11816486 -0.11978636 -0.08493594 -0.05262769

bias f4 [32]
00000000: 4abb e9bd 6492 4ebe 013e 6ebe 4390 523d
00000010: 6cad 153c 7433 62be 6342 173e 6084 753d
00000020: 5ecb 333c e987 21bd 3b9f 82be 65aa 88bd
00000030: 1b11 f5bd 0750 32be 61cd c3bd b70e 7b3d
00000040: a696 593e c799 9bbd 7131 99bc 222f 10be
00000050: 93e5 34be 5e1d 653c 4c0d 0fbd 969f ea3d
00000060: 2a7c a63d bead 03be 46d0 5d3e 810d 73bd
00000070: 6c16 36ba 2753 b6bd 15fe 333e 44db 64be
-0.11412676 -0.20173031 -0.2326584 0.05140711 0.009135585 -0.2208994 0.14771418 0.059940696
0.0109737795 -0.039436255 -0.25512108 -0.06673125 -0.11966153 -0.1741334 -0.09560657 0.06129333
0.21248874 -0.0759769 -0.018700333 -0.1408048 -0.176657 0.013984052 -0.03492479 0.1145622
0.08129151 -0.12859246 0.21661481 -0.05933905 -0.000694609 -0.08902579 0.17577393 -0.22349268

weight f4 [32, 32, 5, 5]
00000000: 3238 98b9 743f 6abb 15fd 653d 4234 2a3c
00000010: 0e33 bdbb 0a90 0b3d 30c1 7f3c 35bd e53c
00000020: 4b90 37bb 80bc 05bc 3c8d 1cbd 0b73 47bd
00000030: c3db f6bc d3e1 1dbd 840b 68bb 49f8 ac3c
00000040: d79b ef3c f11e 403d b185 ac3b ba48 adbc
00000050: a22c d0bc 68bb f73c 522a dbbc a1eb 053d
00000060: 7f8d 2b3b 2226 1abd 85cc d43c ba51 b53c
00000070: d6a3 67bc 107c ca3c 0bb0 023d 1c84 e43b
00000080: 20f7 00bc dda1 99bb ce7e c6bc 8510 eabc
00000090: b74e 3b3c bc90 f03c 7601 02bd 80e7 ebbc
000000a0: 77f6 143d 5dd8 903c d7db 4cbc 6f17 543c
000000b0: 18bb dd3c 7fea f73c 903b 80bc 2cad c03c
000000c0: 3d2c 8a3b 0057 873b d17a 7c3c 3088 9aba
000000d0: 33c3 053c a6ba d13c 8eec 6d3c 40d1 6ebb
000000e0: 055d 00bc 0266 b13c 97cf 083d c356 0a3d
000000f0: 9980 b43c 5a6d a6bc 4548 d6bb 5553 7cbc
00000100: d5cc 533c 7395 36bc 0bb4 b3bc ffae 9dbc
00000110: 9f97 a43c 29cb dabc c8a6 08bc 7e2e e33c
00000120: 861e d33a 6f7f e23a 581e debc 55e1 0e3d
00000130: ef58 303c 34af b53b b97e f23c 1d0c 463b
00000140: ebc6 653c 43df 0f3d 5226 0ebc 1913 d63c
00000150: bc1b 06bd 6eca 113d d234 67ba ad8e 353d
00000160: 0758 0b3d aee3 85bc e689 093c 6fe2 e03c
00000170: 3b4c 443c 3318 ebbb 288b af3b 4520 f7bc
00000180: d817 ad3c 5e29 05bc ba87 78bc e981 1ebd
00000190: bf29 063c 5fef c03c 90c4 353d cc09 433d
000001a0: 48c2 58bc 588f c93c 3ffd ae3c 4995 56bc
000001b0: 6923 173d bbdd 3d3d 3256 9f3c 2e7f 7cbb
000001c0: aff1 413c c2bf 0ebd 3d06 3fbb ceb3 023d
000001d0: 840a 063c 3706 05bc 4641 9cbc 8bc7 a03b
000001e0: dc22 c8bc a36b 013d ec9c 373c 9f55 363b
000001f0: 747b 95bc b061 213d aa93 7b3c ee1f d6bc
00000200: c521 9c3c 9204 86bc c6d5 113c b54c ba3c
00000210: ea5b c7bc 1a74 bb3c 32d4 043c 6ab8 b43c
00000220: e0b4 163d 6c68 f5bc fbaa 68bc 72ef 52bb
00000230: b40e 243d 6a31 083d a28c 4a3d bdc0 503c
00000240: ec42 0d3d 3cc8 d43c f50e 0fbc eebf b03c
00000250: 945d 633c 585d 043c 5dd9 cabb da49 c23b
00000260: f308 52bc deb6 a2bc 820d 8dbc 5a6b f9bc
00000270: ae89 773c c581 be3c e880 a13b a35e bf3b
00000280: fd31 c7bc 72a3 1bbd 0c03 7d3b 6d21 2cbd
00000290: 12e8 c7bc 4eab 973c 8fb5 b6bb 1703 1e3d
000002a0: 9f55 0a3b 9e2d eebc b669 bbbc 67c7 9dbc
000002b0: 5bde ec3b 1b0a 6fba 9ed5 32bc 1bd6 8b3c
000002c0: 7d21 883b 3666 113d 6c25 1a3d b77b 083d
000002d0: 6c5c 533c a678 0c3d 706a 8abc 50b1 63bc
000002e0: 7e50 9abc 37d4 5c3b 2e26 a0bc 94d0 58bc
000002f0: 9df9 913c 87a5 10bc 7fda a03c 2be2 c23c
00000300: b798 22bc a884 ffbc 8125 503c 0a8f 29bd
00000310: 74c2 9a3c 1a1e dd3c c030 6bbb 80de ef3c
00000320: acba a3b8 300e 303c f3a5 fa3a e7ea 073d
00000330: 5628 c63c 5a6c 403d c0d6 1e3d 85cf e43c
00000340: 5c31 923c 26c2 02b8 a1b5 d73c 7f35 14bc
00000350: 9567 0b3c 5d97 97bc de20 3b3c 1d18 29bd
00000360: 769b 633c 4e11 e3bb 95ed acbc a1f2 c1bc
00000370: e0a0 04bc dcd5 8e3c 750d 913b f8ad d1bc
00000380: 820a e53c a2e0 433d d161 2e3d 3c1e 233b
00000390: a977 e1bc da9b cfbc e8ce 2d3d 306a 5f3d
000003a0: 66f8 253d c6d2 69bc c5ed b6bc f593 8ebb
000003b0: 0ce9 02bc 3dba 063d 63ca 993c 275f 373d
000003c0: 520c 4f3c d71d 1ebd a84c a8bc 7a68 23bd
000003d0: 89a5 01bc 835b abbc 67a6 be3a efa8 9c3c
000003e0: 2120 0cbd b45a e43b 7e8b 96bc 592f 4f3c
000003f0: 7e72 bebc 7f41 053d b9f3 b63c f42b 8abc
-0.00029033568 -0.0035743387 0.05614956 0.010388436 -0.0057739085 0.034072913 0.015610024 0.028044323
-0.002800959 -0.008162618 -0.03822063 -0.048693698 -0.030134087 -0.03854544 -0.0035407254 0.021114485
0.029249115 0.046904508 0.0052649607 -0.021152843 -0.025411908 0.03024073 -0.026753578 0.032695416
0.0026176868 -0.037634023 0.025976429 0.022133697 -0.014138183 0.02471736 0.03190617 0.0069737565
-0.007871419 -0.004688485 -0.024230387 -0.02857233 0.011432341 0.02936589 -0.031739675 -0.028796911
0.03636786 0.017681295 -0.012503586 0.01294504 0.027066752 0.030263184 -0.015653402 0.023520075
0.0042166994 0.0041302443 0.015410141 -0.0011789855 0.008164215 0.025601696 0.014521731 -0.003644064
-0.007834678 0.021655086 0.033401098 0.03377415 0.022033976 -0.020315815 -0.006539377 -0.015400727
0.012927254 -0.01114403 -0.021936437 -0.019248484 0.02009183 -0.026708202 -0.008340545 0.02773213
0.0016107119 0.001728041 -0.027114078 0.034882862 0.010763391 0.0055445675 0.029601442 0.0030219622
0.0140244765 0.03512503 -0.008676128 0.026132153 -0.032741293 0.035593443 -0.00088198215 0.04432552
0.034019496 -0.016343918 0.008394694 0.027451722 0.011981065 -0.0071745156 0.005357165 -0.030166754
0.021129534 -0.0081275385 -0.0151690785 -0.03869811 0.008188664 0.023551641 0.04437691 0.047616765
-0.013229914 0.024604484 0.021360992 -0.013097116 0.036899004 0.046354037 0.01945028 -0.0038527953
0.011837407 -0.034850843 -0.0029148005 0.031909756 0.008181218 -0.0081191575 -0.019074094 0.0049066
-0.024430685 0.03159679 0.011206847 0.002782203 -0.018247344 0.039399803 0.01535503 -0.026138272
0.019059071 -0.016359601 0.008901065 0.022741655 -0.02433582 0.02288251 0.008107232 0.022060592
0.03679359 -0.029957019 -0.014200921 -0.0032186178 0.040053084 0.03325025 0.049450524 0.012741265
0.03448765 0.025974385 -0.008731593 0.021575894 0.013877291 0.0080788955 -0.0061904625 0.005929214
-0.0128195165 -0.019862588 -0.017218355 -0.030446697 0.015108509 0.023255238 0.004928697 0.005840139
-0.024315828 -0.03799767 0.0038606552 -0.042024065 -0.024402652 0.018514302 -0.0055758427 0.038577165
0.0021108163 -0.029074486 -0.022877555 -0.019260122 0.0072286553 -0.00091186323 -0.010915188 0.017069867
0.0041543827 0.035497867 0.037633345 0.03332111 0.012900453 0.034294747 -0.016896456 -0.013897255
-0.01883721 0.0033695826 -0.019549455 -0.013233323 0.01781922 -0.008828527 0.019635437 0.023789486
-0.009924105 -0.031191185 0.012704254 -0.04139618 0.01889155 0.026991893 -0.0035887212 0.029280901
-7.807216e-05 0.01074557 0.0019122943 0.033183005 0.024189156 0.046978332 0.03877902 0.027930984
0.017845802 -3.117523e-05 0.026331725 -0.009045958 0.008508583 -0.018504793 0.01142141 -0.04128276
0.013892045 -0.006929553 -0.021109382 -0.023675265 -0.008094996 0.01743596 0.004426653 -0.02559565
0.027959112 0.04782165 0.042573754 0.0024889847 -0.027522879 -0.02534287 0.04243365 0.054544628
0.040520094 -0.014271444 -0.022330174 -0.004351134 -0.007990133 0.032892454 0.018773263 0.04476848
0.012637215 -0.038602676 -0.020544365 -0.03989456 -0.007913002 -0.02091766 0.0014545441 0.019123523
-0.034210328 0.0069688205 -0.018377062 0.012645566 -0.023247954 0.032533165 0.022333013 -0.016866662

bias f4 [32]
00000000: 8ac7 4f3b 451b 56bc 9f38 0c3d 2e82 a2bc
00000010: 030d 7c3c a067 cbb9 668c 87bd aa47 80bd
00000020: 1037 0c3d 8357 3dbc 84c4 d63b c3a0 7d3d
00000030: 8b4e 8cbd b438 183c 42fd a23d 21f9 52bc
00000040: ce54 93bc 9176 293d d016 313d ca48 89bd
00000050: c99d 5f3a 768c 18bd c532 e4bc 1b34 b43c
00000060: b29f 253d 4f68 393c da96 a5bd 30d1 c0bc
00000070: cdf6 8dbd b8a9 bf3b c75a 1dbd 5cb3 8a3d
0.0031704628 -0.013068025 0.034233686 -0.019837465 0.015383962 -0.00038796384 -0.06618576 -0.06263669
0.0342322 -0.011556509 0.006554188 0.061920892 -0.068509184 0.009290863 0.07958461 -0.01287678
-0.017984774 0.04137284 0.043234646 -0.067033365 0.0008530287 -0.03724333 -0.02785624 0.021997502
0.0404355 0.011316373 -0.08085413 -0.023537248 -0.06931839 0.0058490895 -0.03841665 0.06772491

weight f4 [64, 32, 5, 5]
00000000: eb71 a73c 6c66 f13b 9dc6 733c a08b 19bb
00000010: cd94 00bc ed73 c73a 9d35 c9bc 402d 93bc
00000020: 23c5 9cbc bf9b 003d 29ee a5bc b62c b43b
00000030: 13ad 1c3c d776 c6bb a40a e3bc 51d5 cbbb
00000040: bc34 00bd 16c3 84bc 55ab 08bc 4ff4 78bc
00000050: 3067 003c c75a 3fbc 71e0 e9bb 142a 02bc
00000060: a4bb dfbc a7bf 09bb 74b2 a1bb e264 bcbb
00000070: 2d88 d33c ccb0 663c 2dab 30bc 9c84 f3bc
00000080: 40f9 093d 77f7 603c d7c5 863c ba9d 82bc
00000090: d3a9 563c 5227 5f3c 7ecf 0a3d e11f 8dbc
000000a0: 4579 ddbc 9d24 46bb 0258 e0bc 0b8f 02bd
000000b0: 4450 69bb dc66 89bc 2f66 b8bc 2601 a93c
000000c0: 9f12 fdbc 179a 4cbc 3cda 04bd 7665 06bc
000000d0: 7239 f5ba d9c7 ddbb a85c b4bb 49a4 a93b
000000e0: f267 dfbc 386d 30bd 7567 403c 4fbf f03c
000000f0: 8b27 efbc 8a57 23bc 0075 ecbb fdb2 29bc
00000100: 4c28 dcbc 466a 06bd cc6f 06bd 1491 1a3c
00000110: df62 aabc f69a 3fbc 9f76 bbbb bca6 d93c
00000120: 0ac4 8fbc 2f9e 10bc ac24 90bc a393 223c
00000130: 546e ef3a 43c6 db3c 2a29 313d 2262 e83b
00000140: 4ce8 0ebd 723b dbbc 5d7a e3bc 74c5 c63c
00000150: 8982 2b3d 5096 4ebb 0ccc a03c 15ba f6bc
00000160: c242 14bd df3d 56bb ab3f d83b 4a70 3bbd
00000170: c30f f5bc 3aff 27bd d0ea 36bc 8c5b f73b
00000180: 6849 843b ae4b ffbc 323e 0dbd 9fbb 1e3d
00000190: 7621 28bc 0434 77bc 122a 67bc 75ce 853c
000001a0: 0278 bb3b ff6d dd3c a866 d5bc 6102 e73c
000001b0: ac92 6dbc a587 d13c ee1a bd3c ddf8 d83b
000001c0: ebe4 adbc 7c19 583b 2d23 97bc bba2 8cbc
000001d0: bc2c a4bc 2064 a2bc 871f d9bc 3de9 ddba
000001e0: 25f3 df3b d961 e1bb 3839 a5bc cd01 2a3c
000001f0: 28be 953b 86e5 7fbc 8154 81bc 575c 6ebc
00000200: d029 6b3d 735f 9c3c 793e 823d 7e90 fa3c
00000210: 1d2e b1bb d0a7 293d eeef 923c ebbf 583d
00000220: d883 583c 12d0 ecba 322c 4fbc df2f df3c
00000230: d3d0 443d 1df9 fd3c dd03 8c3c f554 85bc
00000240: c0b0 503c 3154 313d c7b8 1c3d a5dd 1c3b
00000250: ee9a 893c ff86 3c3d 242a 813c 595c a53c
00000260: fb62 4f3d 5b51 90bc 2260 41bc 2f64 0a3d
00000270: d48a 573d 6acb 813d e264 a3bc ba1e 35bb
00000280: d21a b23c 385b 683c b7ce 173d 60c1 653c
00000290: 49ef b2bc 5e0b dabc 933e 2a3d fd68 ec3c
000002a0: 93e2 dc3c 9aec debb 31df 33bd 1646 1dbc
000002b0: 0033 4f3d b891 1b3c 4ed8 eebc 3458 98bc
000002c0: 722d 3a3b 8d47 de3c 0eb3 b93c 6076 0fbd
000002d0: 0884 cdbc 0fc2 87bc 531b db3c 881d f3bb
000002e0: 8142 aa3c 2363 d3bc d694 b83c 664f 6339
000002f0: 899d a73c b3b3 fa3c c706 9a3c 2a44 e33b
00000300: 62cb 963a 7b4b 2cbc 2064 c43c 842f edbc
00000310: 7c5f e03b cdfa ae3c e330 00bc eb47 b93c
00000320: ac43 8f3b e74d a73c 230c cfbc d0fe 0fbd
00000330: 7b37 c13c b37a 353c 30df 2f3d 5618 c9bb
00000340: 56bb a4bb 79b9 463c 060c 36bc 12cf a8bb
00000350: 8eb7 013d 4beb 383c 051e c03c beff c6bc
00000360: a5fa ba3b dee2 81bb be5f 0dbd 4522 5f3c
00000370: 05b4 c0bc 3e7c 6a3b 3682 0b3d ac9d eebc
00000380: 8f39 cf3b 11b7 a83a cad0 2cbb 0445 a7bc
00000390: 744f 533d d077 b6bc 8570 cc3c 5495 a2bb
000003a0: 1557 c7bb e42e 813a ef29 f73c be06 fbbc
000003b0: cf4e f7bc 2a75 bcba 68dd 183c 2ea8 ba3a
000003c0: d6e9 2ebd 76b0 4fbc fdd8 22bd ca5d 99ba
000003d0: c142 7f3c 284a a3bb 68a8 00bd edeb 683c
000003e0: 552b d63c 2c83 c93c b5f1 c4bc 58c0 303a
000003f0: c14c 9d3c a91e a43c 2c45 3939 6742 f73b
0.020440063 0.007366946 0.014878896 -0.002342917 -0.007847977 0.0015217044 -0.024561698 -0.017965913
-0.01913697 0.03139853 -0.020255165 0.005498494 0.0095627485 -0.0060566473 -0.027715035 -0.0062204977
-0.03130029 -0.016206305 -0.00834163 -0.015194966 0.007837102 -0.011679358 -0.007137351 -0.0079446025
-0.027311154 -0.0021018775 -0.0049346033 -0.005749331 0.02582177 0.014080238 -0.010782999 -0.029726319
0.03368497 0.013730875 0.01645176 -0.01594435 0.013102013 0.013620215 0.033889286 -0.017227115
-0.027035365 -0.0030234226 -0.027385715 -0.031874698 -0.003560082 -0.01677268 -0.022509662 0.02063043
-0.030892668 -0.01248791 -0.032434687 -0.008202901 -0.0018709137 -0.0067682085 -0.0055042095 0.005177055
-0.027271245 -0.04307291 0.011743416 0.029388098 -0.02919366 -0.009969601 -0.007216096 -0.010357616
-0.026874684 -0.032816194 -0.03282146 0.009434003 -0.020799099 -0.01169466 -0.005720928 0.026568763
-0.017549533 -0.008826776 -0.017595612 0.009922895 0.0018267133 0.026827937 0.043252148 0.0070917765
-0.034889504 -0.026761744 -0.027768308 0.024264075 0.041872535 -0.0031522699 0.019628547 -0.030118028
-0.036196478 -0.0032690687 0.0065993867 -0.045761384 -0.029914742 -0.041014887 -0.011164382 0.007548755
0.004037071 -0.031164017 -0.034483142 0.03875315 -0.010261884 -0.015088085 -0.014109151 0.016333798
0.005721093 0.02702999 -0.026049927 0.028199377 -0.014500301 0.025577376 0.02308413 0.0066214637
-0.02122732 0.0032974174 -0.01844939 -0.01716744 -0.020040862 -0.019823134 -0.026504291 -0.0016930472
0.006834405 -0.0068781194 -0.020168886 0.010376406 0.0045697875 -0.0156186875 -0.015787365 -0.014548383
0.057412922 0.019088482 0.06359572 0.030586477 -0.0054071085 0.041419804 0.017936673 0.052917402
0.013215028 -0.0018067381 -0.012644814 0.027244506 0.048050713 0.031002576 0.017091686 -0.016275862
0.012737453 0.04329318 0.038262155 0.0023935821 0.016797509 0.04602718 0.015767165 0.020185636
0.050631505 -0.017616918 -0.011802705 0.03378695 0.05262263 0.06337626 -0.019945566 -0.0027636723
0.021741305 0.0141819045 0.037062373 0.014023155 -0.021842616 -0.026616748 0.04156358 0.028858656
0.026963508 -0.0068031074 -0.043914024 -0.009599229 0.050585747 0.009495191 -0.029155876 -0.018596746
0.0028408435 0.027133727 0.022668388 -0.035025 -0.025087371 -0.016572027 0.026746428 -0.007419292
0.020783665 -0.025804108 0.022531908 0.00021677985 0.02046086 0.030603265 0.01880206 0.006935616
0.0011504705 -0.010516043 0.023973525 -0.028953321 0.00684732 0.021359826 -0.0078241555 0.022617301
0.004372081 0.020422889 -0.025274342 -0.035155118 0.023586025 0.011076617 0.042937458 -0.0061369343
-0.005027215 0.012129181 -0.011111265 -0.005151638 0.031669192 0.011286567 0.023451814 -0.02429187
0.0057061487 -0.0039638123 -0.034515135 0.01361901 -0.02352334 0.003577962 0.034059726 -0.029127918
0.006324 0.0012871941 -0.0026369565 -0.020418651 0.051589444 -0.022273928 0.024955997 -0.004961649
-0.006083379 0.0009855893 0.030171363 -0.030642863 -0.030188946 -0.0014378179 0.009330131 0.0014240795
-0.042703472 -0.012676349 -0.039757717 -0.0011700925 0.01557988 -0.0049832053 -0.031410605 0.014216405
0.02614371 0.02459868 -0.024041036 0.00067425286 0.019201638 0.020034151 0.00017668743 0.0075457576

bias f4 [64]
00000000: 1cef af3b 7a36 243c 4d4e 76bc d777 153c
00000010: 92d8 3e3d bb9a 293c 9cb8 913c 2e41 1abd
00000020: 78e8 ecbc f6c2 2a3b 16c3 e8bc 028e e23c
00000030: fa8f 18bd 1992 2a3d 61de 043d 034f 0dbd
00000040: 5193 3cbb 7801 84bd a522 b63b 9309 00bd
00000050: 3c5f de3c 2b3c 1a3d cae1 4fbc c7b0 c4bc
00000060: 6811 69bd 2e48 c83c 72a1 e03c 8920 363c
00000070: 035f 0d3d 8765 553c c7ea 0e3c c741 dcbc
00000080: ce15 ce3a aa41 dabc 4df4 13bd 81e0 f1bc
00000090: ee81 e1bc 9a6e b0bc 2e01 9b3c 22bd 12bd
000000a0: 3fbc c53b ff9c debc 2894 11bd 01f3 4bbc
000000b0: de20 80bc 21ff 35bd 6e10 87bc e811 19bc
000000c0: 3957 b7bc 85a6 0f3d 206b 19bc b8a5 293d
000000d0: 377c 0abd 36af 053d c375 4c3c 7426 623d
000000e0: afc2 51bd fd05 993b 7cd4 7e3c 35e7 313d
000000f0: c8c7 f539 2628 5abd d538 4d3b 26e3 b63c
0.00536908 0.010022754 -0.015033317 0.00912281 0.046593256 0.010351832 0.017788224 -0.037659816
-0.028919443 0.0026056147 -0.028413337 0.027655605 -0.03724668 0.041643236 0.03243864 -0.03449918
-0.002877433 -0.06445593 0.005558329 -0.03125913 0.02714502 0.037655037 -0.01268811 -0.024010075
-0.056901366 0.02444848 0.027420733 0.011116155 0.03451444 0.013024694 0.0087229675 -0.026886834
0.0015723051 -0.02664264 -0.036121655 -0.029525997 -0.027527776 -0.021537114 0.018921461 -0.035824902
0.0060344036 -0.027174471 -0.035541683 -0.012448073 -0.015640672 -0.044432763 -0.016487326 -0.009342648
-0.022380458 0.035070915 -0.0093639195 0.041417807 -0.033809867 0.032637797 0.012479248 0.055212453
-0.051211055 0.0046699033 0.01555359 0.043433387 0.0004687889 -0.053260945 0.0031314392 0.02232511

weight f4 [64, 1024]
00000000: 24a9 dbbc d111 de3c 2a9c 9e38 61e4 bbbc
00000010: 207b 0e3d 4ecc 993c 9862 12bc 98cd 9ebc
00000020: b3a5 0abd 8bc0 1dbd fd1d ec3c ea63 68bc
00000030: 3dad e13c b7c7 24bc 0d37 5a3c ab2e 36bc
00000040: a159 9e3c 87a3 69bc 1b5a 0cbd fc0d c23c
00000050: 3449 92bc 670c 2abc 78d9 373c a278 923c
00000060: bcee db3c 2abd 4cbc 2598 b2bc 65e6 a93c
00000070: 1c33 593c b14a af3c 5207 b93c 36a0 93bc
00000080: 9ecc 99bc e3c5 0a3d a8b6 d0bc 2e4c 993c
00000090: ba90 79bc 464f 833c 4ecc 42bc 6942 41bc
000000a0: 795d 963c 4e95 03bd 08dc abbc 1e17 cf3c
000000b0: f835 cbbc 3f70 9b3c eb4d 213d 56cf b23c
000000c0: fad7 3f3c a69d f3bc 89bc 713c c97d 7abc
000000d0: 280d fe3c a561 d0bc e6d8 f73c 6e82 713c
000000e0: 7da5 e63c 424d bfbc 548e 843b 429b be3b
000000f0: 6df8 643c e67b e6bc fd65 983c b055 15bd
00000100: d46a c9bb 8b58 533b 619f fc3c 0711 1bbb
00000110: 9d30 223c 0230 00bc dc45 293c 5a61 2abc
00000120: 0a26 5f3c 5271 d23c b618 52bc e52b 18bd
00000130: fa4f fb39 0157 d7bc 2eac 363c d6e3 5b3b
00000140: da44 57bc 9926 d83c 1ff5 7ebc 3067 ad3c
00000150: a9cf 7cbc 545a b23c 1a95 cbbc 3a25 283d
00000160: e572 893c fbbf b03c e2db 973b 9081 183d
00000170: b2d0 3e3c f1c4 0b3c 6f53 da3c def0 9b3c
00000180: 7288 253d 7848 a13c 227b 543c cb35 d0bb
00000190: a44d ff3b 1229 063d 072e 4fbc b788 e9bb
000001a0: 671e 873c c86b 4a3c 7ce1 c2bc 5575 8b3b
000001b0: b826 523c f65e 5ebb 8a93 9dbc 34a6 f63c
000001c0: ad2e 223c 157d 7abc 2388 07bd 9f11 0d3c
000001d0: da96 b73c fd5d d0bc ec5a 41bd 45d7 8abc
000001e0: 0686 383c 18da 2f3d 189e 253c 6ab4 8a3c
000001f0: f404 a0bc 2eb7 be3b 02f0 bfbc 1422 ccbc
00000200: d25a 013d b1e3 a93b e101 28bc 13dd 8c3c
00000210: f709 e5bc 11e1 ec3b f1c6 8d3c 8b6b b3bc
00000220: bfbf ad3a 6b43 d6bc d17c b0bc a45f 89bb
00000230: ad8e fcbc ce22 5cbc 6667 08bd 763d a23c
00000240: 2cd8 77bc cba1 94bb 6793 e93c 144a c9bc
00000250: 3f79 0cbb e294 bf3b 9d36 c1bc f765 b73c
00000260: faf7 fd3c b7e6 d13c ae86 543c 3e6d 05bc
00000270: f119 9cbc 949e 9cbb 1cab c83b 7c4a 503d
00000280: a48d 083c 1cf2 cfbc 3ac5 25bb 5c51 f0bc
00000290: 3570 f6bc 7eae a5bb cd2d f2bc 13e1 023c
000002a0: 71ef 133c ab62 01bb e9be 35bd 8eac 9cbc
000002b0: 03a2 f83b 173c d83b aa88 dbbb b754 90bc
000002c0: 106e b2bc 5028 b8bb 517e 6bbc 4f8c 073c
000002d0: 3732 d5bc 64c7 9cba 5dca e73c 7c0e c0bb
000002e0: f0ca a23c 3232 bdbc ef33 7c3c a86b 7b3b
000002f0: 1589 2b3c b56e e8bb f1b4 d3ba 3322 cd3c
00000300: 20bc c03c 91a8 023d aab3 bebc dc26 69bc
00000310: facb a0bc b25c bc3b a79c 22bd 1b06 3abb
00000320: 9f47 833b 22a2 0f3b 4f09 60bc 581b 9f3c
00000330: 3f25 e0bc 29ad 1b3c acdf f13c 6261 99bc
00000340: 900a ccbc 2c8c 413c da9b 71bc a270 be3c
00000350: 6738 edbc f620 c93c 74d7 193c f55e 8bbc
00000360: 4230 a9bc f37a b0bc 4ac4 bb3c f505 8a3c
00000370: 8635 1f3c 757e 753c 47b9 d43c 5101 263d
00000380: ea1d 0abc 4a2c 88bc 3c37 303c 00ba c0bc
00000390: 00f2 0ebc 0061 e33c a276 51bc 9dd1 fcba
000003a0: 9931 573c 832d c6bc b2af 403b 78fc 203c
000003b0: 468f 86bc ae37 463c 0df9 693b 90d2 8b3c
000003c0: 3977 d33b f79e aebc 2a76 09bd 366b fb3b
000003d0: b5af 0cbd 5cf5 c5bc 3ad4 e9bc fb04 66bc
000003e0: 1693 21bd 93f2 833c c83b 91bc b40d d5bc
000003f0: dca7 1dbb d0e6 98bc 7369 82ba 7151 d3bb
-0.026814051 0.027108105 7.563115e-05 -0.022936048 0.03478539 0.018774178 -0.008934639 -0.019385144
-0.03384943 -0.0385137 0.028822893 -0.014183978 0.027548427 -0.010057381 0.013318789 -0.011119525
0.019329848 -0.014260179 -0.03426562 0.023688309 -0.017857172 -0.0103789335 0.011221282 0.017879788
0.026847236 -0.012496272 -0.021801064 0.020739743 0.013256814 0.02139792 0.022586498 -0.01802073
-0.018774327 0.033880126 -0.025477722 0.018713083 -0.015232259 0.016029011 -0.01188953 -0.011795619
0.018355118 -0.03212481 -0.020978943 0.025279578 -0.024806008 0.018974422 0.03938095 0.021827381
0.011709208 -0.029738259 0.014754423 -0.015288779 0.031012133 -0.025437186 0.030254792 0.0147405695
0.028155083 -0.02335227 0.004045287 0.005816848 0.013975245 -0.028135251 0.01860332 -0.03645867
-0.006146768 0.003224882 0.030837717 -0.0023661272 0.009899286 -0.007823946 0.010331597 -0.010399187
0.013619909 0.025688801 -0.012823274 -0.037151236 0.00047934038 -0.026286604 0.011149449 0.003355255
-0.013138974 0.026385592 -0.015561371 0.021167368 -0.015430369 0.021771587 -0.02485137 0.041051127
0.016778419 0.021575918 0.0046343664 0.037232935 0.0116464365 0.008530841 0.026651112 0.019035753
0.040413328 0.019687876 0.01296881 -0.006354069 0.007791238 0.03275401 -0.012645251 -0.0071268934
0.01649399 0.012354799 -0.02378916 0.0042559304 0.012826614 -0.0033931113 -0.019235391 0.030108549
0.009898824 -0.015288611 -0.033088814 0.008610158 0.022410799 -0.025435442 -0.04720585 -0.016948352
0.011262422 0.0429326 0.010108493 0.016931731 -0.019533612 0.0058201766 -0.023429874 -0.024918593
0.031580754 0.0051846136 -0.010254354 0.01719526 -0.027958853 0.0072289784 0.017306777 -0.021901866
0.0013255997 -0.026155194 -0.021543892 -0.0041923095 -0.030829752 -0.013436032 -0.033301733 0.019804697
-0.015127223 -0.004535889 0.02851267 -0.024571456 -0.0021434573 0.0058466056 -0.023585612 0.022387488
0.031002034 0.025622709 0.012971563 -0.008143721 -0.019055339 -0.004779646 0.0061239135 0.050852284
0.008334551 -0.025384001 -0.0025294558 -0.02933567 -0.030082801 -0.0050562015 -0.029562855 0.007988232
0.009029255 -0.0019742649 -0.04437152 -0.01912525 0.0075876727 0.00659896 -0.0066996412 -0.01761852
-0.021780998 -0.00562004 -0.014373378 0.008273198 -0.02602492 -0.0011961279 0.028294737 -0.0058611017
0.019872159 -0.023095224 0.015393241 0.0038363729 0.010469695 -0.0070932754 -0.0016151947 0.025040722
0.023527205 0.03189904 -0.02327903 -0.014230456 -0.019628514 0.005748355 -0.039700177 -0.0028384987
0.0040063406 0.0021916707 -0.013674094 0.019422218 -0.02736151 0.009501734 0.0295256 -0.018723194
-0.02490738 0.011813205 -0.014746631 0.023247067 -0.028957559 0.02455185 0.009389747 -0.017013052
-0.020652894 -0.021543002 0.022920746 0.016848544 0.009717351 0.014983763 0.025967253 0.0405286
-0.008429984 -0.016622681 0.010755356 -0.023526192 -0.0087246895 0.027756214 -0.012784632 -0.0019288544
0.013134384 -0.024191624 0.0029401598 0.009825818 -0.01642574 0.012098236 0.0035701424 0.017068177
0.0064534214 -0.021316035 -0.033559956 0.0076726926 -0.034347255 -0.024164848 -0.02854358 -0.014039273
-0.039446913 0.01610688 -0.017728701 -0.02600751 -0.002405635 -0.018664747 -0.0009949639 -0.0064489176

bias f4 [64]
00000000: 6c79 8ebc e583 bb3c f4b5 6cbc 29fb 3b3c
00000010: 5a47 2d3c fced c0bc c3c8 ed3c 9cfc 583d
00000020: 18e1 903c 7e08 41bc 9ef5 43bd 45ee 813b
00000030: 3001 91bb bf4a ae3c 0fd5 713c 03a6 6c39
00000040: d8a9 8ebb f67b 8a3a f7eb ddbc e6ce 2dbd
00000050: 2460 9d3c ffce fdbb 7b0b 1a3d f56e a3bc
00000060: 903a c9bb 0cc5 893c 49b5 06bc 00b6 45bc
00000070: 25f9 d73c cbd7 973a 302a cdbc c175 91bc
00000080: 62fd 283d 2bef 9b3b 035c 0dbd bb30 073d
00000090: 5ea9 e5b8 2586 48bc d321 02bd aa9a 22bd
000000a0: 04d1 b13c eefd b9bb d8fd 283c cab6 133c
000000b0: a3a1 843c 65b8 e8bc fcb5 893c 4c11 59bb
000000c0: 9e46 66bc bd2d 193c b7ba 3c3d 510d 83bc
000000d0: 112c 1a3d e2c9 46bd 6844 dbbc b7e0 10bd
000000e0: 33d9 a73c 98bf 39bd b06e 003d 8ce1 023d
000000f0: dc91 bbbc 1e9f 8abc 2ba0 8f3b d3b0 a1bc
-0.017391883 0.02289004 -0.014447678 0.0114734555 0.010576094 -0.02355098 0.029026395 0.052975282
0.017685458 -0.01178181 -0.04784166 0.0039651715 -0.0044251904 0.021275876 0.01476027 0.00022568558
-0.004353743 0.0010565508 -0.027090056 -0.04243364 0.019210882 -0.007745623 0.037608605 -0.01995037
-0.0061410144 0.016817592 -0.008221933 -0.012067318 0.026363919 0.0011584697 -0.02504453 -0.017756345
0.04125727 0.0047587357 -0.034511577 0.033005457 -0.00010951118 -0.012239014 -0.03177054 -0.03969828
0.021706112 -0.0056760227 0.010314427 0.009015748 0.016190356 -0.028408239 0.01681041 -0.0033121882
-0.014054922 0.009349284 0.046076503 -0.01599756 0.03763968 -0.048532374 -0.026766017 -0.035370555
0.02048931 -0.045348734 0.03135556 0.03195338 -0.0228967 -0.016921576 0.004383107 -0.019737637

weight f4 [10, 64]
00000000: e5ab c4bd 209f f2bd 7189 a63c f26f 3ebc
00000010: 0c11 8bbd 1283 79bd 4676 993d 9bec 5abe
00000020: f75e 2b3e 110d 8b3b 0475 c23d 9654 cdbd
00000030: 8dbd 61bd 432a a9bd 7d64 aabd 00c5 583d
00000040: d146 123e 9c9c 763c a052 17be 2ed0 4c3e
00000050: 4eb0 823d 5c5c 1e3e b641 9ebd 90ad f63d
00000060: 77cb 5b3d 5c59 13bd 7adf 1bbe a43c c03d
00000070: 30bc 663d f815 883d 9794 1ebe 966a 123e
00000080: 4ece ddbd 7f8f 5e3d f40d 8b3d 63af 03be
00000090: ca0c 08bd bfea cc3d 3997 173e 18ed 173e
000000a0: df7e e43b fe4d fd3c 2098 09be 5ccb 2c3e
000000b0: e0c6 05bd faf6 cd3d 8270 00be 4e85 423e
000000c0: 1e9a 1f3e e73e fd3d acc1 1ebd 84e0 a13c
000000d0: f1ff 1bbd f5f7 e33d be12 e83d f850 063e
000000e0: c987 cf3c 7d75 843d 12bb 88bc 4f29 06be
000000f0: 407e de3d 33e0 f73d a41c 103e d17c 183e
00000100: 0063 a8bd 51cf eabd 8c6d 8bbe 5aad 69bd
00000110: 729d 7dbd 460d d03c a6c6 203e 97d0 c53d
00000120: b445 e93b d1e3 7dbd 1771 1d3e 58e3 693e
00000130: 0f1b b5bd 43b6 97be 1f06 3c3e 4439 bebd
00000140: 42de 9bbd 2d58 3a3e cc27 29be 9906 49bd
00000150: e83d c03d 294f 1bbe e8b0 8dbd 4c3d 0fbe
00000160: 2619 73bc 9e66 bfbc 437d a3bd 617b 57bc
00000170: 61dd e63c fdff 00bd 25ca abbd a0b0 7c3d
00000180: 43a2 83bd a373 5a3e 5447 8d3c fd4f eebd
00000190: 3c33 65bd 91a5 0abe 5092 14be d45e a3bd
000001a0: ccee a7bd 34e3 59be 3822 03be 4dd8 64bd
000001b0: ee6a 15be 05c0 d6bd c27c 37be 5c75 093e
000001c0: e0b9 8f3d 853c 08be 1e4c 0c3d 3c8a 03be
000001d0: 523b 693e 264a e43d a2ab f7bd a4d7 afbc
000001e0: 0441 0c3e 6a35 66bd 2acc d23d 0507 99bd
000001f0: ee71 15be e74c f23c a67e 88bd 73ce c4bd
00000200: 270f a7bd b095 3c3e dae3 243e d913 16bd
00000210: aa6f 273e 6a9a e9bd 104a 243b 0e42 e3bb
00000220: 4804 3abd 93ae 9f3d b6c8 efbd 2c08 8abd
00000230: 3f20 0d3e f23c 143c 6cdd 7dbc a00d eabc
00000240: 3e3f 1b3e 2f1f 933d cd68 d5bd 2d18 c93d
00000250: 1c0b ac3d ce74 2c3e a378 ec3b 3443 1abe
00000260: 0fe5 81bd 888c 6d3d 8b5f 183e eaad 2cbc
00000270: f0a6 243e f86f 41bc 3f61 8c3c 6871 053e
00000280: b326 0c3c cd5e a53d 17c2 bcbb 2be3 26be
00000290: e5a1 dbbd 0a10 2abc b7a3 933d 87f3 ee3c
000002a0: 2881 d5bc c04a cf3d a389 22bd c13e b53d
000002b0: fbff dc3d 4904 0fbd f53f cd3d a61f 99bd
000002c0: 2b3f e73d e8ac 4a3e ab11 203d bdd9 3e3d
000002d0: 4a03 293d 56b1 2a3e 4d90 1bbe 1174 e43d
000002e0: 2cad 36be 6605 d73b c1c6 b43d cf7f b43d
000002f0: 59e2 bcbd f38d 06be a95b 1ebe da4c 033e
00000300: e2be 9a3d a2a1 053d 4532 443e b844 b3bd
00000310: 272c ac3d 2e39 1bbb 4f4e d93d e70c a0bd
00000320: 8496 b1bd 5219 69bd 399c b0bd f6a1 dd3d
00000330: fcfa f3bd aa58 b73d fb1f 07be 28a2 acbd
00000340: f2fe 89bc 6277 0dbe 5254 d53c 6762 a5bd
00000350: 02bb 013e 38ca e03d 6666 48bc 30e6 c9bd
00000360: 83fc 07be e848 dbbd 8831 82bd 7a85 793c
00000370: e487 b73d be02 953d f28c 203e 0104 a83d
00000380: e9af 12be 7672 9ebb b96a 923d f710 debd
00000390: 497b 2dbd 65c6 cf3d da3f 1f3d 42ed 05be
000003a0: fa94 dcbd 6f51 9b3d 4355 4a3e 86b3 22bd
000003b0: 7cfc 12bd 6f33 03be f986 283e f884 62bc
000003c0: 6062 02bd 24fb 7fbc 49a9 a73d 377a c63d
000003d0: 989e 8c3d a88e 4bbd 7d94 0e3d 0cef c53c
000003e0: 4546 9fbd c77d 183e 49f9 013d 0c9b 2fbd
000003f0: 3782 163b 3ff2 3abe 6db1 ffba eaeb 91bd
-0.09603099 -0.11846757 0.020329209 -0.0116233695 -0.06790361 -0.060916014 0.07493262 -0.2137932
0.16735445 0.004243501 0.09494975 -0.10025899 -0.05511241 -0.08260014 -0.08319948 0.05292225
0.14284827 0.015051987 -0.14777613 0.20001289 0.06381284 0.1546492 -0.07727377 0.12044823
0.053660836 -0.03597389 -0.15221968 0.09386566 0.056331813 0.06644815 -0.1548637 0.14298472
-0.10830365 0.054336067 0.06789771 -0.12859873 -0.03321532 0.10005712 0.1480378 0.14836538
0.006973132 0.030920979 -0.13436937 0.1687445 -0.032660365 0.10056873 -0.12542918 0.18996164
0.15586135 0.12365513 -0.03875892 0.019760378 -0.03808588 0.111312784 0.113317 0.13116825
0.025333302 0.064677216 -0.016690765 -0.13101695 0.10863924 0.121033095 0.14073426 0.14891364
-0.08222008 -0.11465324 -0.27232015 -0.057050087 -0.06191773 0.025396954 0.15700778 0.09658926
0.007118905 -0.06198484 0.15375172 0.22840631 -0.08843052 -0.29631242 0.1836171 -0.09288266
-0.07610752 0.18197699 -0.16519088 -0.049078558 0.09386808 -0.15166916 -0.06918508 -0.13988227
-0.014837539 -0.023364361 -0.07982876 -0.013151974 0.028181734 -0.03149413 -0.083881654 0.06169188
-0.06427433 0.21333174 0.017245926 -0.1163635 -0.055957064 -0.13539721 -0.14508939 -0.079770714
-0.08199844 -0.21278077 -0.12806022 -0.055870343 -0.14591572 -0.104858436 -0.17918685 0.13423675
0.07017875 -0.13304336 0.03425228 -0.12845701 0.22776535 0.11146955 -0.12093283 -0.02146513
0.13696676 -0.056203283 0.102928475 -0.07472042 -0.14594242 0.029577686 -0.06664781 -0.096096896
-0.08157187 0.18416476 0.16102543 -0.036640022 0.1635119 -0.11406405 0.0025068559 -0.0069353646
-0.04541424 0.07796969 -0.117082044 -0.0673984 0.13781832 0.009047734 -0.015494686 -0.02857095
0.15160844 0.07183682 -0.1042038 0.09819064 0.084005564 0.16841432 0.0072165295 -0.15064698
-0.063425176 0.05799535 0.14880197 -0.010539511 0.16079307 -0.011806481 0.017136214 0.13031542
0.0085541485 0.080747224 -0.005760442 -0.16297595 -0.10724238 -0.010379801 0.072089605 0.029168857
-0.026062563 0.10121679 -0.03968204 0.0884986 0.10791012 -0.034916196 0.100219645 -0.074767396
0.11291345 0.19792521 0.03907935 0.04659437 0.041262902 0.16669211 -0.15191765 0.111549504
-0.17839497 0.006561923 0.08826972 0.0881344 -0.0922286 -0.13140087 -0.15464653 0.12822285
0.07555939 0.03262485 0.19159801 -0.087533414 0.08406859 -0.0023685205 0.10610639 -0.07814961
-0.08671287 -0.056908913 -0.08623547 0.10821907 -0.11913106 0.08952458 -0.13195793 -0.08429366
-0.0168452 -0.13815072 0.026041184 -0.080754094 0.12668994 0.1097607 -0.012231445 -0.09858358
-0.1327992 -0.10707265 -0.063571036 0.015229577 0.08961466 0.07275914 0.15678766 0.08203889
-0.14324917 -0.004835422 0.07149262 -0.108430795 -0.042353902 0.10145263 0.038879253 -0.13078788
-0.107706025 0.075838916 0.19759087 -0.03972199 -0.03588532 -0.12812589 0.16457738 -0.0138256475
-0.0318321 -0.015623841 0.081865855 0.096912794 0.06866187 -0.049696594 0.03480958 0.024161838
-0.07777075 0.1489173 0.031731877 -0.042872474 0.0022965798 -0.18256472 -0.0019507833 -0.07125075

bias f4 [10]
00000000: 9bba edbc a807 02bd 14c9 333d edef 2fbd
00000010: 0578 1a3d 8c53 8bbd 4df4 013d 1ea9 093d
00000020: 5118 9a3c 4ca9 a93c
-0.029019644 -0.031745583 0.043892935 -0.04295342 0.037712116 -0.06803045 0.031727124 0.03360855
0.018810423 0.02071061
