DeepLearningDemo/models/jingxin_1.pth (torch, 587999 bytes, 10 tensors)

weight f4 [32, 3, 5, 5]
000000 d5 5a c2 bb 48 2c bd 3c 42 2a b5 bc b0 39 ce 3d
       -0.005931238 0.023092404 -0.022114877 0.10069597
000010 41 80 a5 3d 6b 10 17 3d c8 7c 8d bd e2 9f 33 bd
       0.08081103 0.03688089 -0.06908566 -0.043853648
000020 06 1c c4 bd 87 f5 9f bd 0a a3 db bc 44 5f ba 3d
       -0.095756575 -0.078105025 -0.026811142 0.09100202
000030 ce 97 40 bd 22 fc ad 3c 5c b3 fc bd 53 e2 06 be
       -0.047019772 0.02123839 -0.123388976 -0.13172273
000040 d7 09 0c be 73 77 1c 3d c0 dd 8b bd 18 5e 6c 3d
       -0.13675629 0.038199853 -0.06829405 0.057706922
000050 c1 82 b9 bd ed 94 f2 bd 10 02 0f be f0 9d d0 bd
       -0.090581425 -0.118448116 -0.1396563 -0.10186374
000060 19 fe c8 bd 0c 85 b6 3d 86 66 9d bd b4 1e d1 3d
       -0.0981409 0.089120954 -0.076855704 0.10210934
000070 2e 26 40 bd c4 7c 4b bd 25 c5 b4 3d 0f 0b 9c 3d
       -0.04691141 -0.049679533 0.08826665 0.07619297
000080 38 5a fa bc 29 14 39 bb c9 57 d8 bd a2 9a eb bc
       -0.030560598 -0.0028240776 -0.10563619 -0.028760258
000090 05 65 c3 bb b3 0c 96 bd 29 ea a1 bd 17 a7 49 bc
       -0.00596297 -0.07326641 -0.07905991 -0.012307904
0000a0 fc 40 e5 bd 1e c4 0c be 76 fc b0 bd 45 e5 94 3b
       -0.111940354 -0.13746688 -0.08641903 0.0045439326
0000b0 bc 54 86 bd 1b 5c 03 bd 03 5c ac bd a0 85 35 bd
       -0.065591305 -0.03207026 -0.08415987 -0.044316888
0000c0 fd 28 20 be 79 34 0b be 46 84 8f 3b d5 45 fa 3d
       -0.15640636 -0.13594235 0.004379782 0.12220351
0000d0 7e 77 ac 3d fa b0 78 3c ee 5c e7 3b ff 34 09 3e
       0.08421229 0.015178913 0.0070606386 0.13399123
0000e0 8e c7 3a bc 19 08 94 3d d5 ad bc 3d e5 b5 57 bc
       -0.011400117 0.07228107 0.09212843 -0.013165926
0000f0 3a 8f c3 bb aa 49 3e 3c a2 55 f3 3d f1 51 c8 bc
       -0.0059680017 0.011614243 0.118815675 -0.024453135
000100 38 9d ce 3d 6d 91 5f bd 2e 19 f9 bb a3 0e 3c 3d
       0.10088581 -0.05458205 -0.0076018786 0.045912396
000110 ce 6e d4 39 1e 62 9e 3d 96 0f c6 3d 00 f7 0a 3a
       0.00040518347 0.07733558 0.096709415 0.0005301088
000120 01 d2 41 3d 74 b1 bf 3d ca 8e b4 3d 65 8d d9 3d
       0.047319416 0.093600184 0.08816297 0.10622672
000130 0a 18 ee 3d 46 43 fd 3d 80 d8 a4 3d d4 43 2b 3b
       0.11625679 0.12366347 0.080491066 0.0026132958
000140 4d c8 f5 3d 3a a7 99 3d 81 e7 ea 3d aa 44 76 3d
       0.12001095 0.07502599 0.11469937 0.060124077
000150 a0 7c 41 3d f9 c7 e1 3d 0a 51 83 3d ad f4 1c 3c
       0.047237992 0.1102447 0.06411941 0.00957982
000160 48 5d 92 3d 2c f7 aa 3c f1 36 d8 bc 9c a5 08 3d
       0.07146698 0.020869814 -0.026393386 0.033361062
000170 64 8d ee 3b 99 8f 22 3d 6b 66 94 3d cc c4 19 3d
       0.0072800387 0.039687727 0.07246097 0.037541196
000180 79 be 5b 3d 67 25 4f bd 88 e4 9c bd c4 3c 2a 3d
       0.053648446 -0.05057278 -0.076607764 0.041561857
000190 b1 56 fe bc d2 a9 e2 bb ac 0e 32 bb cd 18 d0 3c
       -0.031047197 -0.006917217 -0.002716939 0.025402451
0001a0 5d 2a e7 3d 24 ff e3 39 e8 f3 c5 3d 26 8e cd 3d
       0.11287377 0.00043486909 0.09665662 0.10036878
0001b0 2a 21 1d 3d ba fc 85 bd e1 5d a8 3d 47 e4 65 3d
       0.038361706 -0.065423444 0.08221031 0.056125905
0001c0 4d d3 c0 bd f6 2b 7c bc f0 84 86 3c 86 fa 6b 3d
       -0.094153024 -0.0153913405 0.016420811 0.057611965
0001d0 ea 56 bb bd ed 89 f2 3d 30 13 36 3d b5 f2 af bd
       -0.09147437 0.118427135 0.044451892 -0.085912146
0001e0 dd ed 08 bd 10 2d e9 bd d5 7b f0 bd a2 a0 22 bd
       -0.03342997 -0.11385548 -0.11742369 -0.039703973
0001f0 38 83 b2 bd 5e 59 ce 3d 10 0d e4 3d c4 be 56 3d
       -0.08716434 0.10075639 0.11135304 0.052428022
000200 6b 28 5c bd cc 2f c8 bd 31 8c 14 bc 37 e1 0e 3d
       -0.053749483 -0.097747415 -0.009066627 0.03488275
000210 97 97 9f bd d5 a3 93 bc 34 c2 8e bd ea 2a 56 3d
       -0.07792585 -0.018022457 -0.06970635 0.05228702
000220 5a 97 bc bc 21 12 3f 3d 06 30 aa bd ac 19 8b bd
       -0.023021389 0.04664815 -0.08309941 -0.06792006
000230 fd fe ec 3d 49 fa d5 3d ed 90 05 3d 21 bf 10 bd
       0.11572073 0.10448129 0.032608915 -0.035338525
000240 a2 8a 06 3c a5 61 d1 bd 75 97 56 3d 77 76 2d 3d
       0.008211764 -0.10223702 0.052390534 0.042349305
000250 85 79 4c 3d 12 30 1a bd 38 db 9f 3c 08 a3 9b bd
       0.049920578 -0.0376435 0.019513711 -0.07599455
000260 16 9b 51 3c a8 07 ba 3c 3c d0 c5 bd b1 5d 04 bd
       0.012793323 0.022708729 -0.09658858 -0.032315914
000270 68 ee dd 3c ab d6 42 bd 78 26 e7 3c 96 c4 bd bd
       0.02709122 -0.047568005 0.028216586 -0.092660114
000280 fc 1e ab 3b de 44 a4 3d 0e 09 05 3d a4 b9 2e bd
       0.0052221995 0.08020948 0.03247934 -0.04265751
000290 33 49 a0 3d ee eb d7 3d fb f6 11 3d 54 5c e2 3d
       0.07826462 0.10543047 0.03563593 0.110527664
0002a0 90 76 99 3d e3 d0 3d bd 0e 8f ad 3c 8a ff b1 3b
       0.07493317 -0.046341788 0.021186378 0.005432074
0002b0 f8 07 8c 3d 46 bc be bd ad 53 29 bd 14 f5 34 bc
       0.068374574 -0.09313254 -0.041339565 -0.011044759
0002c0 27 48 b8 3d bf dd 98 bc ea 64 f9 bb 0c af 6a 3a
       0.08998137 -0.018660424 -0.007610907 0.00089524756
0002d0 7c c9 4a bd ea 6f 46 3d 1f a3 d5 bd c2 63 66 bd
       -0.049508557 0.048446573 -0.104315035 -0.05624748
0002e0 da 16 0c 3d 9e 30 0c 3d a4 64 69 3d 64 a1 9d bd
       0.03420148 0.034226052 0.056980744 -0.076967984
0002f0 ef 35 3d bd 14 9d eb bd db c2 cd bd b6 18 8f bd
       -0.046194013 -0.1150457 -0.10046931 -0.06987135
000300 57 c9 87 3d 35 63 cb bd 2c 5a a9 3d 47 4e 11 be
       0.066301994 -0.099310316 0.08269152 -0.14190017
000310 72 71 e6 bd 86 2c 04 be 15 aa b5 bd 53 35 45 bb
       -0.11252107 -0.1290761 -0.08870331 -0.0030091598
000320 95 9e 0d 3e bf 2d ff 3d cb f1 89 3d ef ca a9 3d
       0.13830025 0.12459897 0.067355715 0.0829066
000330 a5 cd 72 3d d4 5c 90 3d df 29 29 3d 31 46 88 bd
       0.05927815 0.070489556 0.041299697 -0.06654013
000340 c6 9e 35 3b dc b2 d0 3d db 26 9b bd f3 bc 8a 3d
       0.0027713045 0.10190365 -0.075757705 0.067743205
000350 21 e7 cf 3d e0 dd 07 3e b6 83 3c 3d 0e 33 6d bc
       0.10151506 0.13268232 0.046024047 -0.014477504
000360 da e1 52 bd bc d6 cb bb 81 ff 75 bd 8d 61 9d 3d
       -0.05148492 -0.0062206667 -0.06005812 0.07684622
000370 3a 17 61 bd c4 f3 89 3c fc 90 de 3d 71 84 9d 3d
       -0.05495379 0.01683987 0.10867497 0.07691277
000380 05 25 a9 bd fa 1f 1f 3d b2 67 08 bd 61 fa b6 bd
       -0.08259014 0.038848855 -0.033302017 -0.08934475
000390 6c cc b1 bd ba da cd 3d a5 30 8f bd 4a 93 0f 3b
       -0.086815685 0.100514844 -0.069917 0.002190786
0003a0 f3 3f 06 3d 21 a9 53 bd 9a 07 be 3d 66 8e a3 3d
       0.03277583 -0.051674966 0.09278794 0.07986145
0003b0 ae 3f 98 bc 3c 08 af 3c 19 81 9c 3d 7b c3 e6 3d
       -0.018585052 0.021366231 0.07641811 0.11267754
0003c0 3f 90 ac 3d 81 da 05 bc 58 d8 a8 3c bb 4c 44 3c
       0.0842595 -0.008169771 0.020610973 0.011981185
0003d0 50 c1 71 bd 4b cd a9 bd d8 bb 93 3c 88 54 ab bd
       -0.059022248 -0.0829111 0.018033907 -0.083657324
0003e0 2a 4f 93 bb 71 ef e6 3c 24 88 e2 bd c2 87 b3 3d
       -0.004495521 0.028190346 -0.11061123 0.08766128
0003f0 95 28 ac bd 8b 62 b7 bd 47 4d 75 bd d2 8f fd bc
       -0.08406178 -0.089543425 -0.05988815 -0.030952368

bias f4 [32]
000000 da ab e4 bd 1d 21 c8 bd 82 e4 1c be da 4a bf 3d
       -0.111655906 -0.09771941 -0.15321544 0.09340449
000010 db 46 c3 bc 74 b8 2b be de 3c 04 3e b4 7a 97 3d
       -0.023837497 -0.16769582 0.12913844 0.07396451
000020 b5 e8 40 bd f4 96 1b bd 76 6c 23 be 9d 5f 0f bc
       -0.047096927 -0.037985757 -0.15959343 -0.008750823
000030 3f fb bb bd c5 79 e9 bd 6f 20 44 bd f7 ed c5 3c
       -0.09178781 -0.11400179 -0.047882494 0.024161322
000040 e2 d2 ca 3d 17 a3 c0 bd 66 c2 a4 3c 99 f9 92 bd
       0.09903504 -0.09406107 0.020112228 -0.07176513
000050 41 80 df bd 13 e0 d1 3c e2 74 a0 bc 64 fa 63 3d
       -0.10913134 0.025619542 -0.019586984 0.055658713
000060 98 6c a2 3d cf fd 89 bd f1 d4 16 3e 9d 32 35 bd
       0.07930869 -0.06737863 0.14729668 -0.04423772
000070 e6 7a db 3c 99 a1 f4 bc 66 86 f8 3d f8 54 2d be
       0.026792001 -0.029862212 0.121350095 -0.16926944

weight f4 [32, 32, 5, 5]
000000 9d 68 de bb 6f 28 8e bc d1 18 2c 3d 3e f8 71 39
       -0.006787373 -0.017353265 0.042015854 0.00023076028
000010 8a 02 68 bc c0 79 0a 3d 4f fb 6f 3c 0a 4a dc 3c
       -0.014160762 0.033807516 0.014647319 0.026890773
000020 a3 8c 0d bc 5c 75 9a bc 9a ae fa bc e9 38 10 bd
       -0.008639487 -0.01885479 -0.030600835 -0.035210524
000030 1c 4b 53 bc ed 34 b4 bc a1 db 9f 3b bc 73 5f 3c
       -0.012896325 -0.021997893 0.0048784767 0.013638433
000040 8f ac 9c 3c c3 ed 1f 3d d2 3c aa 3a 3a bf c3 bc
       0.019125251 0.039045107 0.0012988097 -0.023894895
000050 80 8a aa bc 23 a2 11 3d 08 17 b9 bc d6 54 15 3d
       -0.020817995 0.035555016 -0.02259399 0.03645786
000060 b3 7a 9b 3b c8 23 07 bd 2f 1d ed 3c f6 ce d3 3c
       0.0047448515 -0.032993108 0.02894458 0.025855523
000070 13 04 86 bc 4a f4 f5 3c ae 62 0a 3d 7f fc 65 3c
       -0.016359365 0.030023713 0.033785515 0.014037251
000080 c2 01 bc 3a 3e 35 95 bb 31 56 a5 bc e2 9c d0 bc
       0.0014343786 -0.004553466 -0.0201827 -0.025465433
000090 5c 95 7b 3c 13 1a 0d 3d 87 91 f9 bc 92 b3 b3 bc
       0.015355434 0.034448694 -0.0304649 -0.021936212
0000a0 af da ec 3c cd d2 e0 3b dd 74 d2 bc f6 56 86 bb
       0.02891287 0.006861067 -0.02569049 -0.004099722
0000b0 2a c7 9b 3c 03 ae 0e 3d 41 dd 23 bc 5a c3 d6 3c
       0.019015867 0.03483392 -0.0100014815 0.026216198
0000c0 5f d4 6a 3a 02 d6 c3 3b 46 39 84 3c 67 71 c6 ba
       0.00089580374 0.0059764395 0.016140591 -0.0015139998
0000d0 14 45 eb 3b 4b c9 c5 3c 1c af 68 3c ba 3d 2d b8
       0.0071798656 0.024143836 0.014201906 -4.13039e-05
0000e0 7c 6b 31 bb af d7 e4 3c 61 6a 16 3d 5e d2 10 3d
       -0.0027072122 0.027934877 0.036722545 0.03535687
0000f0 51 b8 d7 3c f5 b3 65 bc 91 84 b8 3a a7 40 f6 bb
       0.026333006 -0.014019956 0.0014077594 -0.0075150314
000100 51 24 a7 3c 17 42 2c bc a2 b5 bc bc 74 95 b4 bc
       0.02040306 -0.010513804 -0.023035828 -0.022043921
000110 80 e6 8d 3c 24 83 e2 bc 9d dd ea ba 4e ff 11 3d
       0.017321825 -0.027650423 -0.0017918829 0.03564387
000120 27 6d ff 3b 4a 11 c1 3b 8d eb c3 bc ec 4a e4 3c
       0.0077949944 0.0058919536 -0.02391603 0.027867757
000130 09 d3 a5 3b 70 dd 16 bb d3 97 aa 3c 15 7b a8 bb
       0.0050605577 -0.002302017 0.020824349 -0.0051416256
000140 1d cc 4b 3c 19 e1 0a 3d da 3d 26 bc df 06 dc 3c
       0.012438801 0.033906076 -0.0101465825 0.026858745
000150 77 96 0c bd df 26 a4 3c 4b 7e 9a bc bb 4c d3 3c
       -0.034323182 0.020038066 -0.01885905 0.025793424
000160 d6 99 a7 3c bd 3f c5 bc cb 42 35 3b 46 c4 a9 3c
       0.020459097 -0.024078244 0.002765822 0.020723473
000170 76 25 ce 3a 34 6b 8a bc e8 b7 29 bb ec bc ba bc
       0.0015727717 -0.016896822 -0.002589697 -0.022795163
000180 d2 78 fb 3c b4 02 39 3b aa 43 7d bb 38 ef fa bc
       0.03069726 0.002823037 -0.0038645067 -0.030631647
000190 e6 17 3a 3b 4f 11 51 3c 97 3b 11 3d c3 93 24 3d
       0.0028395592 0.012760474 0.03545722 0.04017998
0001a0 12 57 ab bc de 43 a8 3c 3a 89 6f 3c 89 75 99 bc
       -0.020915542 0.020540174 0.01462012 -0.018732803
0001b0 de 89 ea 3c 66 6d 17 3d 1f 5c e7 3c 61 fd e2 3b
       0.028630193 0.036969565 0.028242169 0.006927178
0001c0 0c 23 d0 3c f4 23 d3 bc 90 a4 90 3a 34 5f f7 3c
       0.025407337 -0.02577398 0.0011035372 0.030196764
0001d0 0a 56 a2 3b d6 dc d2 bb 3e bf 8a bc ba ef c1 3b
       0.0049541043 -0.006435017 -0.016936895 0.00591847
0001e0 b8 b6 bf bc c2 2a 00 3d 69 e2 51 3c 18 d2 68 3b
       -0.023402557 0.031290777 0.012810328 0.0035525616
0001f0 36 22 81 bc 08 9c 0a 3d 16 eb 17 3c 90 f3 04 bd
       -0.015763383 0.03384021 0.009272357 -0.03245884
000200 74 e6 64 3c 68 30 ab bc 5c e9 ab 3b 22 c2 a9 3c
       0.01397096 -0.020897105 0.0052463245 0.020722453
000210 73 7b d7 bc 0d d9 ab 3c 42 45 95 3b e2 e1 a1 3c
       -0.026303982 0.020977521 0.0045553753 0.01976103
000220 49 96 10 3d 58 af fe bc c2 1e 59 bc 8a 40 2b bb
       0.035299573 -0.03108947 -0.013251962 -0.0026130998
000230 b2 4d 05 3d 2b a1 c6 3c e7 b9 1e 3d 6a 7e 8a 3b
       0.0325448 0.024246773 0.03875151 0.0042264955
000240 59 5c e5 3c 2f 5f da 3c a9 d2 f4 bb 6b 18 b0 3c
       0.027998136 0.026656715 -0.0074714017 0.021496018
000250 19 b6 66 3c 58 d1 01 3c 64 07 11 bc 8a 06 a8 ba
       0.014081501 0.007923447 -0.00885186 -0.0012819332
000260 6f 81 ba bc d0 2c d1 bc a1 7d a4 bc a1 94 ed bc
       -0.022766797 -0.025534064 -0.020079436 -0.029001536
000270 89 26 75 3c 29 67 af 3c 41 14 17 3b 1a 76 a0 3a
       0.014962801 0.021411495 0.0023052844 0.0012242228
000280 b5 fc a7 bc 05 57 f2 bc 1a d7 6a 3c 67 7c f7 bc
       -0.020506242 -0.02958251 0.014333511 -0.030210687
000290 43 e1 88 bc ea 0f 84 3c 19 7f 27 bc 84 6c 0f 3d
       -0.016708976 0.01612087 -0.010223174 0.035015598
0002a0 6d b1 56 3b 4d cd d4 bc ea 15 8e bc 03 9a 62 bc
       0.0032759563 -0.025976801 -0.017344434 -0.013830665
0002b0 07 c9 39 3c a4 c9 7a 3b 8c 9e bd bb 45 64 93 3c
       0.011339433 0.003826716 -0.0057867225 0.017992148
0002c0 2a bb aa b9 4f c1 f0 3c c3 1d 16 3d 17 cb 01 3d
       -0.00032564375 0.029389052 0.036649477 0.031687822
0002d0 35 05 59 3c e5 03 0c 3d a0 00 89 bc 08 e3 64 bc
       0.01324587 0.0341834 -0.01672393 -0.013970144
0002e0 38 14 b5 bc 2a 9c 3c 3c 3a 2e 0a bc 82 61 34 b9
       -0.022104368 0.011511842 -0.008433873 -0.00017202462
0002f0 e6 e2 04 3d 05 af 64 3a cd bb 95 3c 41 f0 aa 3c
       0.03244295 0.00087235897 0.018278027 0.020866515
000300 1c 6f 3b bc 36 3c eb bc 08 8e 70 3c c9 80 0d bd
       -0.011440065 -0.028715234 0.0146823 -0.034546647
000310 a7 d0 d1 3c f2 4d 08 3d 4b 2c 66 3b 8a 5a 14 3d
       0.025612189 0.03327746 0.0035121616 0.036219157
000320 26 3b 69 bc e7 f9 09 ba 1b a5 c3 bb a5 a9 e3 3c
       -0.0142352935 -0.00052633736 -0.00597061 0.027790854
000330 2e 0c 94 3c 41 6f 05 3d ce e9 92 3c c4 83 c8 3b
       0.018072214 0.032576803 0.017933752 0.0061192233
000340 59 ed 08 bb e1 0a 78 bc 9a 23 c0 3c ac b7 58 bc
       -0.0020893423 -0.0151393125 0.023454476 -0.013227385
000350 cb af 35 3b 1d df f9 bc 9a 20 77 bb d5 34 27 bd
       0.002772319 -0.030501897 -0.003770864 -0.04082187
000360 c0 d3 98 3c 51 e9 9f 3a 9e 8f 50 bc 93 f5 a1 bc
       0.018655658 0.0012200271 -0.0127295535 -0.01977042
000370 fa a6 5b bc be 95 32 3c 00 a2 88 38 0d f2 ec bc
       -0.0134065095 0.010899959 6.51516e-05 -0.028924013
000380 58 ec da 3c 43 d5 1c 3d b5 71 16 3d 39 73 9a 3a
       0.026724026 0.03828932 0.036729533 0.0011783607
000390 62 a6 00 bd e3 ae fe bc ca 30 0a 3d 3d d1 29 3d
       -0.031408675 -0.031089252 0.033737935 0.04145931
0003a0 44 de e9 3c 27 b5 ce bc f9 76 e5 bc 54 d5 c0 bb
       0.028548367 -0.025232865 -0.028010832 -0.0058848057
0003b0 50 05 71 bc 78 32 c9 3c ef dd a3 3b 01 93 04 3d
       -0.014710739 0.024560198 0.005000822 0.032366756
0003c0 6d 6c 9f 3c 7a 72 f3 bc bc 65 2b bc ac 8e 0f bd
       0.019460881 -0.029717673 -0.010461267 -0.035048172
0003d0 dc dc da bb f4 53 a7 bc 37 e9 a6 3a 58 40 af 3c
       -0.0066791605 -0.020425774 0.0012734298 0.021392986
0003e0 52 87 08 bd 4f 94 11 3c a6 88 9e bc 8f eb 49 3c
       -0.033332177 0.008885457 -0.019352268 0.012324228
0003f0 32 6c cb bc 92 c6 09 3d 59 0e d5 3c 87 36 9a bc
       -0.024831865 0.033636637 0.026007818 -0.018824829

bias f4 [32]
000000 d4 ae 83 3c 58 ff b1 ba 82 13 66 3d fa 7d ab bc
       0.016074575 -0.0013580127 0.056170948 -0.020934094
000010 f6 71 f2 3c 7f 64 26 3b 9e 0c e2 bc bb c5 49 bd
       0.029595356 0.002538949 -0.027593907 -0.049260836
000020 8f 69 09 3d 97 57 e1 bb b8 8f 87 3b 85 c7 5e 3d
       0.033547934 -0.0068768966 0.0041370057 0.054389495
000030 62 ae f5 bc f1 9f bd 3c ae a5 81 3d f6 2f 9b bb
       -0.029990379 0.023147555 0.06330429 -0.004735942
000040 e5 5f b8 3b 91 ba 34 3d 1c 3b 40 3d 07 e9 31 bd
       0.005626666 0.044123236 0.04693137 -0.043435123
000050 15 49 4f 3c 33 0b 8a bc 1b 74 a1 bc 0d 6d f0 3c
       0.012651701 -0.016851043 -0.019708684 0.029348874
000060 8d 78 4f 3d 7a ba 71 bb db c1 6d bd 53 63 e3 3b
       0.050652076 -0.003688483 -0.058046203 0.0069393306
000070 5f 3e 26 bd 4d 0a ff 3c 70 f0 9a bc 06 9a 80 3d
       -0.040586825 0.031132841 -0.018913478 0.06279378

weight f4 [64, 32, 5, 5]
000000 ed 63 f1 3c 50 ad 4d 3c 42 b2 36 3c 3b ee c2 bb
       0.029466594 0.012553528 0.011150898 -0.0059488094
000010 58 f5 95 ba 97 69 d0 3b a8 5b b7 bc 2e 39 bf bc
       -0.0011440916 0.0063602435 -0.022382572 -0.023342695
000020 b5 96 06 bd 20 bd af 3c a3 89 6f bc a0 a8 4d 3c
       -0.03285857 0.021452487 -0.0146202175 0.01255241
000030 4c 65 94 3c 75 4c 86 39 f6 e8 ba bc ed 4e e2 3b
       0.018114708 0.00025615437 -0.022816163 0.0069063813
000040 86 3c 82 bc 3d fc 2f bb 9f a7 ef 3a 0f 24 e8 bb
       -0.015898 -0.0026853227 0.0018284208 -0.0070843766
000050 8b 8d 79 3c da 88 42 bb 0e 0a 9f ba c0 57 b9 bb
       0.0152315 -0.002968362 -0.0012133734 -0.0056562126
000060 d9 83 d2 bc 0f 97 cb bb b7 50 a3 bb ac 5c 3a bb
       -0.025697635 -0.006213076 -0.004983987 -0.0028436584
000070 59 2f 02 3d de e5 b6 3c d5 67 2b bc c7 b3 fd bc
       0.031783435 0.022326406 -0.010461767 -0.030969514
000080 d1 d6 f4 3c 73 45 44 3c 39 04 82 3c c2 b2 26 bc
       0.029887589 0.011979449 0.015871154 -0.010174455
000090 ff 33 5c 3c 13 8e b8 3b 2d b7 c4 3c 16 c2 bf bc
       0.013440131 0.005632171 0.024013126 -0.023407977
0000a0 52 5b e1 bc 6c 3f f3 ba aa c1 e8 bc 20 fa 0e bd
       -0.027509365 -0.001855833 -0.028412659 -0.034906507
0000b0 78 4e a8 bb a4 a6 7a bc c8 d3 a3 bc f0 95 a5 3c
       -0.0051363073 -0.015298519 -0.019998446 0.020213097
0000c0 af 66 0a bd 44 e4 28 bc 15 0a de bc 6f df ab bb
       -0.033789333 -0.010308329 -0.027104417 -0.005245141
0000d0 54 fd a4 3b 10 e5 9a bb 65 2e 1a bc cd 0c 84 3c
       0.005035082 -0.0047270134 -0.009410475 0.016119385
0000e0 2c d3 b3 bc 8b 56 04 bd 0a 27 a5 3c 75 7b f4 3c
       -0.02195128 -0.032309096 0.020160217 0.029844025
0000f0 17 e1 ca bc 7b 55 31 bc 30 90 25 b9 d6 32 8e 3a
       -0.024765534 -0.010823603 -0.0001578934 0.001084889
000100 b6 15 9e bc 89 ad e4 bc 21 73 fa bc 2e 15 a5 3c
       -0.019297462 -0.02791478 -0.030572476 0.0201517
000110 2f 24 c0 bb e8 00 9d 3a 35 c7 2f 3b eb 98 e2 3c
       -0.0058636884 0.001197842 0.0026821618 0.027660808
000120 40 dd 3e bc 4f 48 28 3b 85 b2 f4 bb 2f 99 94 3c
       -0.01164943 0.0025677865 -0.0074675702 0.01813945
000130 22 4e 66 3c a6 5f b1 3c 6e 84 cd 3c 01 92 8e 3b
       0.014056714 0.021652054 0.025087561 0.004350901
000140 d0 f7 05 bd 7e da 9f bc 8d 3e e8 bc 06 0b e5 3b
       -0.032707036 -0.019513365 -0.028350139 0.0069898395
000150 63 ac f3 3c bc f2 e7 bb 56 f5 cc 3c f2 75 95 bc
       0.029745286 -0.0070784967 0.025019329 -0.018244717
000160 64 d3 e6 bc c4 55 8b 3a f5 51 b6 3c 5a 81 e9 bc
       -0.02817697 0.0010630419 0.022255877 -0.028504062
000170 a0 59 56 bc 7a 89 e7 bc 2b ec 61 bb 5c 23 34 3c
       -0.013082892 -0.028263796 -0.0034473042 0.010994758
000180 5e b6 32 3c a5 2b c2 bc 5f e1 08 bd d6 01 03 3d
       0.010907738 -0.023702452 -0.033418056 0.031984173
000190 ce 78 ac bc 01 10 d6 bc b6 fd 96 bc 81 f0 9b 3c
       -0.021053698 -0.026130678 -0.018431526 0.01903558
0001a0 70 3f a2 3b 0b 21 cd 3c 4d c8 f1 bc 34 6e da 3c
       0.00495141 0.02504017 -0.029514456 0.026663877
0001b0 30 72 4a bc 1e 34 d5 3c 92 6e d2 3c 4d 86 6e 3b
       -0.012356326 0.026025828 0.02568749 0.0036395967
0001c0 e1 12 dd bc 3a d8 2a bb 26 77 d8 bc 98 c1 b5 bc
       -0.026986541 -0.0026068822 -0.026424002 -0.02218704
0001d0 c8 50 c5 bc 14 b7 ac bc 14 bf db bc c0 6c 80 bb
       -0.024086371 -0.021083392 -0.026824512 -0.003919214
0001e0 72 bc 05 3c df 11 b5 bb 5e 0c 86 bc 7b 1c 86 3c
       0.008162605 -0.005525812 -0.016363319 0.016371002
0001f0 41 f6 65 3c 92 05 f3 bc da af 71 bc cb 4a d9 bc
       0.014035762 -0.029665742 -0.014751399 -0.026524922
000200 92 d3 f1 3c ee 5a 88 3c e3 55 18 3d 26 2e d5 3c
       0.02951983 0.016644921 0.037191283 0.026022982
000210 f1 3f 14 bc 4d 02 97 3c fb 45 01 3c 68 8f 12 3d
       -0.009048448 0.018433714 0.00789022 0.035781294
000220 e0 93 33 3c f9 2f cb ba 77 51 fa bc 63 33 e1 3b
       0.010960549 -0.0015501968 -0.030556424 0.006872581
000230 10 05 01 3d 3e b9 cc 3c a2 ac 6f 3c 8b c9 f6 bc
       0.03149897 0.024990674 0.014628561 -0.0301254
000240 24 f4 30 bc ab 48 e2 3c 96 56 e3 3c 6e 18 ba 39
       -0.010800395 0.027622541 0.027751248 0.00035494886
000250 ce 08 c9 3b 53 19 e3 3c dc 13 bd 3c aa 90 c2 3b
       0.006135083 0.027722036 0.023080759 0.0059376555
000260 df 20 26 3d be b4 89 3a 09 a2 e4 bb e2 f5 15 3d
       0.040558692 0.0010506136 -0.006977324 0.036611445
000270 b1 72 f8 3c 71 3c 06 3d 82 6a cb bc 62 68 be bb
       0.030328127 0.032772485 -0.02483106 -0.0058107832
000280 29 d4 86 3c ec d3 1c bc cf 69 94 3b 77 9d 9a 3b
       0.016458588 -0.0095720105 0.004529215 0.0047184783
000290 f7 17 a9 bc 3c b3 d3 bc 6f 4b 02 3d 01 a9 f0 3b
       -0.02064131 -0.025842302 0.03181022 0.0073443656
0002a0 00 23 a8 3c 34 c0 77 3a 59 06 26 bd dc 9a 66 bc
       0.020524502 0.0009450943 -0.040533397 -0.014075007
0002b0 8d 6a 08 3d 86 d7 ce 3a 73 a7 bb bc 5d f4 91 bc
       0.03330474 0.0015780784 -0.022906994 -0.017816717
0002c0 cc ba 1a 3c 14 4b c7 3c aa 94 84 3c eb 36 00 bd
       0.00944395 0.024327792 0.01618417 -0.031302374
0002d0 09 01 f5 bc c3 ea 70 bc d8 94 b8 3c 9a 97 87 bc
       -0.02990772 -0.014704409 0.022531912 -0.016551781
0002e0 e8 76 95 3c 9e f4 df bc 2b 57 cb 3c 95 34 0d bb
       0.018245175 -0.027338322 0.024821838 -0.0021546234
0002f0 8d 3b 5b 3c 7d ff dd 3c 65 61 8e 3c 14 ec 09 3c
       0.013380897 0.027099365 0.017380426 0.008418102
000300 23 97 8e ba 5a b7 99 bc de cd 8a 3c 7d 93 02 bd
       -0.0010878782 -0.018764187 0.016943868 -0.031878937
000310 5e 14 03 3c 1e fc ac 3c 2f cb 6b bc 42 d6 84 3c
       0.008000461 0.021116313 -0.014391704 0.016215447
000320 14 8d fe 3b 82 27 1b 3c 72 93 a6 bc 3d 54 ea bc
       0.0077682827 0.009469869 -0.02033398 -0.028604621
000330 ec fe b5 3b e3 a9 6b 3c b9 fc d6 3c de 13 47 bc
       0.0055540707 0.014383766 0.026243554 -0.012150733
000340 80 89 f1 39 ae d2 bf 3a 4c b0 74 bc f6 02 b9 bc
       0.00046069548 0.0014634931 -0.014934611 -0.02258442
000350 f1 df c9 3c 91 82 a9 3c a8 a4 d1 3c 62 63 b1 bc
       0.024642916 0.020692142 0.02559121 -0.021653835
000360 9a 3a 88 ba c0 f8 d5 bb 3d ce cb bc 02 54 bb 3c
       -0.0010393441 -0.0065298975 -0.024878616 0.022867206
000370 30 8c bf bc 84 97 b2 bb b1 ac c8 3c 54 54 d3 bc
       -0.023382276 -0.005450191 0.024496408 -0.025797047
000380 06 ef 2e 3c 23 7c 19 3c 67 85 a7 3b b8 6b 05 bd
       0.010677105 0.009367975 0.0051123383 -0.03257343
000390 17 33 1a 3d bf 8c 7e bc 97 49 f4 3c 1d 7f 7f 3b
       0.03764638 -0.015536486 0.029820247 0.0038985678
0003a0 af ba 6d bc 18 54 9d bc 56 a2 c3 3c 16 4e c3 bc
       -0.014509841 -0.019205138 0.023881119 -0.023840945
0003b0 9c a6 9c bc af a5 a0 3a 5a 8d c7 39 8e 53 4a 3a
       -0.019122414 0.0012256409 0.00038061553 0.0007718139
0003c0 81 70 0f bd c5 24 cc ba 56 0d 15 bd 81 e5 0b bc
       -0.0350194 -0.0015574923 -0.03638967 -0.008538605
0003d0 50 5d 84 3c 01 48 dd ba fe a6 c1 bc 37 dd 84 3c
       0.016157776 -0.0016882421 -0.023639198 0.016218765
0003e0 ba e0 95 3c 21 c5 b0 3c 60 7c cb bc 37 00 97 3b
       0.018295635 0.021578373 -0.02483958 0.00460818
0003f0 cf 14 4b 3c 37 c4 6b 3b 5e 70 aa bb 81 6e 98 3a
       0.012395098 0.0035975107 -0.0052013835 0.0011629612

bias f4 [64]
000000 96 2b 2b 3c d2 e5 77 3c 8e 98 09 bb 9d 79 12 3c
       0.010447403 0.015130477 -0.002099547 0.008940128
000010 c9 0c 5e 3d e4 b4 6f 3c 53 f2 60 3c 94 ef 03 bd
       0.05421141 0.01463053 0.01372965 -0.0322109
000020 fe 46 a7 bc 20 0d 47 3b 31 60 84 bc 34 83 d3 3c
       -0.020419594 0.0030372813 -0.016159149 0.025819398
000030 f7 89 db bc f2 34 0d 3d f8 f4 06 3d 58 b3 86 bc
       -0.026799185 0.03447432 0.032948464 -0.01644294
000040 6f 2f 10 3c 7e ff 05 bd ca c1 ac 3c fd cc 71 bc
       0.008800372 -0.03271436 0.0210885 -0.014758346
000050 98 0c 1f 3d be a7 0a 3d 43 b0 1d bc 60 31 9c bc
       0.03883037 0.033851378 -0.009624544 -0.019066513
000060 b8 94 15 bd a2 6b 1b 3d a6 d0 e9 3c 35 04 83 3c
       -0.036518782 0.037944444 0.028541874 0.015993217
000070 0e 49 14 3d 3b 51 31 3c 4a dc 8f 3c c1 2e c6 bc
       0.036202483 0.0108225895 0.017561097 -0.024192216
000080 8c c0 e4 3b 3b aa 82 bc e9 42 b8 bc 6e 63 89 bc
       0.006980961 -0.015950313 -0.022492843 -0.016771045
000090 81 86 69 bc d1 19 fc bb b8 91 96 3c 8a b9 ce bc
       -0.01425326 -0.0076935072 0.018380031 -0.025234956
0000a0 c7 2d f4 3c 04 28 e7 bc 1b 24 de bc 89 52 05 bc
       0.029806985 -0.028217323 -0.027116826 -0.008137354
0000b0 d6 05 1f bb 1c 9b 01 bd 32 44 e2 bb 83 42 03 3b
       -0.0024264953 -0.031642064 -0.006905102 0.0020028658
0000c0 23 eb 9c bc 4d bd fc 3c 28 c0 c4 bb d6 df 39 3d
       -0.01915509 0.030851984 -0.006004352 0.045379482
0000d0 bc 6f cb bc f1 25 0b 3d ee 17 8e 3c c2 08 5a 3d
       -0.024833553 0.03397173 0.017345395 0.05323101
0000e0 3a ad 26 bd 9b 74 99 3c 1c f9 8c 3c e1 35 49 3d
       -0.040692545 0.01873236 0.017208628 0.04912365
0000f0 6f e0 56 3b d6 84 13 bd ca 80 b2 3b 2b 3a 10 3d
       0.0032787581 -0.036015354 0.0054474818 0.035211723

weight f4 [64, 1024]
000000 74 25 e9 bc 89 5f e1 3c 6e de d9 39 fc 72 ad bc
       -0.028460242 0.027511375 0.00041555188 -0.021172993
000010 ca ea 0a 3d 93 3a 7f 3c 63 3e 8c bc 09 53 ce bc
       0.03391532 0.01557793 -0.017119592 -0.025186079
000020 3e 72 0d bd d5 7b 07 bd 10 e2 b4 3c cc 1b d2 bc
       -0.034532778 -0.03307708 0.022080451 -0.02564802
000030 f4 b4 a8 3c 61 11 78 bc 3b d2 83 3c 38 c1 8b bc
       0.020594098 -0.015140862 0.016091457 -0.017059907
000040 14 b7 ab 3c 4f e2 c9 bb 20 cd de bc 4f d5 d0 3c
       0.020961322 -0.0061610113 -0.02719742 0.025492338
000050 19 9e 97 bc e6 2f ef bb c0 8c 41 3c b8 05 8f 3c
       -0.018508004 -0.007299411 0.011813343 0.017458782
000060 6f fe fd 3c 38 31 a6 bb 98 19 9d bc aa f9 ae 3c
       0.031005112 -0.0050717853 -0.019177243 0.021359283
000070 4d c2 64 3c f1 38 8a 3c fb 0b ad 3c 1f f3 76 bc
       0.013962341 0.016872855 0.021123877 -0.015072613
000080 80 55 c0 bc 99 e4 ca 3c 55 b2 ea bc 31 9f 82 3c
       -0.02347827 0.024767207 -0.028649488 0.015945049
000090 75 50 9e bc b5 da 88 3c 9c 2b d4 bb f8 17 db bb
       -0.019325474 0.01670585 -0.006474925 -0.006686207
0000a0 fb e7 56 3c 02 fa f1 bc f6 38 46 bc 43 9a b7 3c
       0.013116832 -0.029538158 -0.0120985415 0.022412425
0000b0 69 fb a6 bc cd 5e b1 3c b3 5f 03 3d 32 e2 ac 3c
       -0.020383554 0.02165165 0.032073688 0.021103952
0000c0 07 ed 34 3c ed 3f f8 bc 14 82 4f 3c 4c 0d 71 bc
       0.01104284 -0.03030392 0.01266529 -0.014712643
0000d0 c7 d1 04 3d c8 07 96 bc 33 9f f3 3c 9c ae 1a 3c
       0.03242662 -0.018314257 0.029738998 0.009441044
0000e0 d9 d3 c9 3c 1c c0 bc bc aa fc 88 b9 d2 18 70 3b
       0.02463715 -0.023040824 -0.0002612819 0.0036635888
0000f0 de 9c 44 3c e0 5a ca bc d9 a4 9d 3c 6c 5a 07 bd
       0.012000291 -0.024701536 0.019243645 -0.033045217
000100 52 a3 0d bb 00 b7 31 3b 9b d0 fd 3c d8 d8 c4 3b
       -0.002161224 0.0027117133 0.03098326 0.006007295
000110 92 af 9d 3c fb 4f 0b bc f6 09 43 3c 60 24 5c bb
       0.019248758 -0.008502956 0.01190423 -0.0033591017
000120 ad 68 ce 3c 4d db b0 3c 56 bd 81 bc 19 96 02 bd
       0.025196398 0.021588946 -0.015837353 -0.031881426
000130 e4 c4 5a 3c a7 1f da bc fc 07 da 3b 74 d3 36 3c
       0.013352606 -0.026626421 0.006653784 0.011158813
000140 8d 87 27 bc 41 70 e0 3c 47 56 8f bc 42 6e bc 3c
       -0.010225189 0.027397277 -0.017497195 0.023001794
000150 12 04 68 bc 22 e2 ce 3c 0f ee 8e bc 08 ef 0d 3d
       -0.014161127 0.025254313 -0.0174475 0.034651786
000160 07 fe a6 3c 46 f7 95 3c a9 53 a4 3b 86 6f 08 3d
       0.020384802 0.018306386 0.005014856 0.033309482
000170 11 5e 56 3c 99 39 c4 3b 74 17 d3 3c 87 d8 96 3c
       0.013083951 0.0059883115 0.02576802 0.018413795
000180 35 d4 f5 3c 08 3f 10 3c 80 20 5b 3c e9 3f d0 bb
       0.030008415 0.00880409 0.013374448 -0.006355275
000190 f7 a0 e7 bb 16 84 ad 3c ac c8 35 bc d0 c0 68 bb
       -0.007068749 0.021181148 -0.011095207 -0.0035515316
0001a0 24 50 3d 3c a3 0f 23 3c 33 59 9d bc 77 05 d0 3b
       0.011554752 0.009952459 -0.019207573 0.0063483077
0001b0 6d 08 d1 3b e9 a0 a6 bc 9d 65 cd bc 65 be 95 3c
       0.0063791783 -0.0203404 -0.025072867 0.018279264
0001c0 8e fc 1a 3c e5 95 cf bb 35 2f ce bc 34 aa d6 3b
       0.009459628 -0.0063350075 -0.025168994 0.0065510515
0001d0 14 54 89 3c 26 0f c7 bc d5 cf 3a bd 20 1d ca bc
       0.016763724 -0.024299216 -0.04560836 -0.024672091
0001e0 71 48 0f 3c b8 60 17 3d 5f 87 72 3c 21 d8 bb 3c
       0.008745299 0.036957473 0.014802783 0.022930207
0001f0 9d 54 87 bc 4d 52 2b 3c 65 6b 8c bc 03 2e bc bc
       -0.016519839 0.010456634 -0.017141053 -0.022971159
000200 c3 e6 df 3c 37 ad 00 bb 1a 95 94 bc ca a2 57 3c
       0.027331715 -0.0019634494 -0.018137503 0.0131613705
000210 e0 ee f5 bc b0 48 8d 3c d2 51 c7 3c 12 03 b5 bc
       -0.030021131 0.017246574 0.024331007 -0.02209619
000220 4c 40 7f 3a 40 89 9e bc 8c 92 8e bc d8 b6 bc ba
       0.0009737059 -0.019352555 -0.017403863 -0.0014397753
000230 f3 b7 00 bd 0e 88 81 bc b5 3a 0a bd 2d 59 98 3c
       -0.031425428 -0.015811946 -0.033747394 0.01859721
000240 bb 4a 9a bc 37 b0 e8 bb a5 07 ff 3c 47 15 e9 bc
       -0.018834462 -0.0071010846 0.031131575 -0.028452529
000250 6e 0a 3d bc 2a df d7 3b 56 1c a8 bc 25 3b cd 3c
       -0.011538131 0.0065878825 -0.020521324 0.025052616
000260 f3 71 b9 3c 27 b8 9d 3c 9c ac 81 3c 16 ca 22 bc
       0.022637343 0.01925285 0.015829377 -0.009935876
000270 1d 00 be bc 4c 06 59 bc e6 6b ec ba 16 42 0b 3d
       -0.023193413 -0.01324613 -0.0018037527 0.03399857
000280 b3 59 e4 3b 8f 75 fa bc 56 ef 81 bb 92 43 f6 bc
       0.006968701 -0.030573634 -0.0039652986 -0.030061517
000290 9a 4c 07 bd 93 0d b8 bb 26 39 e1 bc d8 f2 25 3c
       -0.033032037 -0.0056168525 -0.02749307 0.010128699
0002a0 d6 49 54 3c 2e ab 31 3b 41 d5 ef bc 7f 63 1b bc
       0.012957057 0.0027110088 -0.029276492 -0.009484171
0002b0 6d 84 27 3c 45 99 13 3c b9 42 8f bb 35 be 53 bc
       0.010224444 0.00900871 -0.0043719676 -0.012923767
0002c0 c8 aa bc bc 9a 2d 5a bc d8 24 92 bc 4f fa 36 3c
       -0.023030654 -0.013316536 -0.017839834 0.011168077
0002d0 98 6f a4 bc bf de 54 3b 78 4f ee 3c 00 33 12 bc
       -0.020072743 0.00324814 0.029090628 -0.008923292
0002e0 1e 4c b9 3c 36 c9 bb bc 6b b1 2b 3c 33 26 84 3b
       0.022619303 -0.022923093 0.010479311 0.004032874
0002f0 26 f5 22 3c 7f 56 2d bc 65 65 2c bb 10 56 dd 3c
       0.009946143 -0.010579704 -0.0026305553 0.027018577
000300 f2 c1 ba 3c 1b 37 f5 3c 32 65 d0 bc be 00 81 bc
       0.022797558 0.029933503 -0.025438879 -0.015747424
000310 95 61 9e bc b7 86 31 3b fb e7 e6 bc 92 b8 07 3c
       -0.01933364 0.0027088353 -0.028186789 0.008283751
000320 f4 69 b6 3a ec c0 00 3c 99 aa 49 bc 17 7b a3 3c
       0.0013917075 0.007858496 -0.01230874 0.019956155
000330 26 b7 c7 bc 84 dd cb 3b 83 71 cf 3c 82 df 86 bc
       -0.024379324 0.006221475 0.025322681 -0.016463999
000340 38 3e ca bc b2 38 a1 3b 0c 34 89 bc db d0 bf 3c
       -0.024687871 0.0049200887 -0.01674845 0.02341502
000350 13 25 d4 bc 6d a8 46 3c 0f ec 1a 3c b6 be 41 bc
       -0.025896585 0.012125117 0.009455695 -0.011825254
000360 cb f9 51 bc 57 ef b5 bc f1 bc e8 3c 7f a7 8a 3c
       -0.012815903 -0.022208853 0.028410407 0.016925571
000370 55 b1 9b 3c 30 3d ae 3b 0e 97 a6 3c 60 13 d7 3c
       0.019005457 0.0053173527 0.0203357 0.026254356
000380 b5 a2 42 bc a9 8b 83 bc 57 c6 7a 3c 75 fd b6 bc
       -0.011879613 -0.016057806 0.015306077 -0.022337655
000390 7d 84 42 bc 42 52 fb 3c a0 e1 35 bc 1d 37 d8 bb
       -0.011872408 0.030678872 -0.0111011565 -0.006598367
0003a0 0a 90 de 3b 47 30 dc bc 88 8b df bb 2b 7c c5 3b
       0.006792073 -0.02687849 -0.0068220533 0.006026765
0003b0 ac 0c bc bc d8 4c 42 3c 28 12 88 ba 70 c6 78 3c
       -0.022955261 0.011859141 -0.0010381388 0.01518403
0003c0 fd 70 62 3b 9e 74 ca bc ac ad ea bc 1a 82 71 3c
       0.003455221 -0.02471381 -0.028647266 0.014740491
0003d0 ee fa 07 bd 93 a7 a9 bc 72 13 b6 bc c8 c6 0a bc
       -0.03319829 -0.020709788 -0.02222607 -0.008470245
0003e0 57 ed ed bc 0f 57 96 3c 16 88 95 bc 9c 69 94 bc
       -0.029043837 0.01835206 -0.018253367 -0.018116765
0003f0 0f f5 e9 3a 54 66 88 bc 59 39 81 bb aa 53 a4 b9
       0.0017849522 -0.016650356 -0.003943604 -0.00031342852

bias f4 [64]
000000 d9 bd e1 bc cb 27 73 3c 46 08 3e bc 56 b2 02 3c
       -0.027556347 0.01484103 -0.011598652 0.007977089
000010 50 5d 96 39 fb f0 c8 bc 7b 3a 15 3d 82 ed 3b 3d
       0.00028679753 -0.024528971 0.036432724 0.045880802
000020 2d 2e c3 3c 07 45 3b bc d0 fb 0b bd 18 3b 57 bb
       0.02382573 -0.011430032 -0.034175694 -0.003284162
000030 32 dc 80 3b 1a 09 9b 3c b3 bf 9a 3c 99 5a d5 3b
       0.0039324993 0.018925238 0.018890237 0.006511044
000040 4b e1 f4 bb 3f 6b ae 3b f1 63 05 bd e8 6e 2b bd
       -0.007473146 0.0053228433 -0.032566015 -0.041853815
000050 de 2b 5c 3c 44 c6 15 bc 1a bf bd 3c 96 f0 a9 bc
       0.013438193 -0.0091415085 0.023162413 -0.020744603
000060 30 59 b3 bb 85 a1 97 3c b9 a4 9a bb 7e 2c d0 bb
       -0.0054732785 0.018509636 -0.0047193435 -0.00635296
000070 06 74 d2 3c 87 20 95 bb 6e 0f ba bc a8 3a 62 bc
       0.02569009 -0.0045509967 -0.022712436 -0.01380793
000080 e7 91 0c 3d 92 3f c0 3b 1d 87 05 bd df ee cd 3c
       0.03431883 0.005866953 -0.032599557 0.025138317
000090 70 e5 14 bc bc 22 3a bc 41 74 c4 bc 71 f4 19 bd
       -0.009087905 -0.01136082 -0.023981215 -0.037586633
0000a0 0b 05 78 3c 85 af 78 bc 77 3a cd bb 11 8b 37 3c
       0.015137921 -0.015178566 -0.006263073 0.01120259
0000b0 8e 6a 39 3c 25 34 eb bc 81 05 0c bc fc c8 1a 3b
       0.0113169085 -0.028711388 -0.008546234 0.0023618331
0000c0 a9 ec ee bb 92 50 8f 3c e0 07 1a 3d ae cc 34 bc
       -0.0072913957 0.017494474 0.037605166 -0.011035128
0000d0 42 5e ca 3c 1f 7e 11 bd 58 84 13 bd 8d 5e e8 bc
       0.024703149 -0.03552067 -0.036014885 -0.028365398
0000e0 3a 7d c4 3c 7d ec 23 bd 90 6b f0 3c 02 c6 cb 3c
       0.023985494 -0.040020455 0.029348165 0.02487469
0000f0 f1 62 a9 bc af ce 74 bc 7a 14 d8 bb bd 8e 8e bc
       -0.020677062 -0.014941855 -0.006594238 -0.017402047

weight f4 [10, 64]
000000 2d 83 57 bd 1e 8a cb bd a2 b9 98 3d 4c 54 35 bc
       -0.052615333 -0.09938453 0.07457282 -0.011067461
000010 e7 98 7e bd f6 79 2a bd 95 d5 6a 3d 6a 6e 20 be
       -0.062157538 -0.041620217 0.057332594 -0.1566712
000020 5f 25 ec 3d 5f e5 94 3b 5d 30 83 3d 41 1f b5 bd
       0.115305655 0.0045439447 0.06405709 -0.08843852
000030 67 f3 d7 bc 31 19 86 bc 7c 7e cf bd fd 49 4a 3d
       -0.02636118 -0.016369434 -0.10131547 0.049386967
000040 de 89 c0 3d d1 af c6 bc 94 bc c4 bd 65 9f 18 3e
       0.09401296 -0.024253758 -0.09606281 0.14904554
000050 03 9c 84 3d 6e 7d 11 3e ee 22 6b bd f7 ac 02 3e
       0.064750694 0.14208004 -0.05740636 0.12761293
000060 f1 85 37 3d dd 20 22 bd f2 0b d6 bd 0c a6 d4 3d
       0.04480547 -0.039582122 -0.10451497 0.103832334
000070 d3 92 70 3d 57 0e 9c 3d 89 b6 e5 bd 89 4e ca 3d
       0.058733772 0.076199226 -0.112164564 0.09878261
000080 3c f0 dd bd 76 82 91 3c 3b 67 68 3d 36 92 da bd
       -0.10836837 0.017762404 0.056739073 -0.10672419
000090 27 00 a7 bc dc 41 cc 3d 7f 95 ff 3d ae de f2 3d
       -0.020385815 0.09973499 0.12479686 0.11858879
0000a0 00 52 c0 bb 21 6d 21 3d c4 49 76 bd ac 78 0a 3e
       -0.00586915 0.039410714 -0.060128942 0.13522595
0000b0 8b c6 24 bd 66 73 8a 3d 47 03 ab bd 1c 23 16 3e
       -0.040228408 0.06760292 -0.083502345 0.1466183
0000c0 2a f5 fa 3d 5f 21 f8 3d 0b 9e d6 bc 73 3f 2a 3d
       0.122537926 0.1211574 -0.026198408 0.041564416
0000d0 77 ed 38 bd 28 ac bd 3d fa 51 bc 3d 90 b9 fa 3d
       -0.04514834 0.09261352 0.09195323 0.122424245
0000e0 3a 77 8b 3c 1a 82 79 3d 4a cd 99 bc 10 3b b5 bd
       0.017024625 0.06091509 -0.018774647 -0.08849156
0000f0 33 19 af 3d 5f 57 98 3d 9d d0 c0 3d 33 dd e8 3d
       0.08549728 0.0743854 0.0941479 0.113703154
000100 63 3e 42 bd 20 24 a4 bd d1 c2 1a be 51 d8 53 bd
       -0.047422778 -0.08014703 -0.15113379 -0.051719967
000110 bf 0a 57 bd a4 54 6e ba a4 09 0b 3e 3c cb a6 3d
       -0.052500483 -0.0009091592 0.13577896 0.08144233
000120 02 70 f5 bc c3 4b 54 bd 38 32 eb 3d 1f 2f 2c 3e
       -0.029960636 -0.051830065 0.11484188 0.1681485
000130 ad b0 8b bd 3d fd 2e be b8 90 f2 3d 44 c7 be bd
       -0.068208076 -0.1708879 0.11844009 -0.09315351
000140 65 93 b1 bd b4 a4 dd 3d d9 61 ee bd 19 f1 ba bd
       -0.086706914 0.1082243 -0.11639757 -0.09128017
000150 97 65 9d 3d 8a 5b d1 bd f2 91 2d bd 2b 0f 04 be
       0.07685392 -0.10222538 -0.042375512 -0.12896411
000160 f8 ba 79 bc 70 31 d4 bc 9a 21 3b bd a1 e7 0f bb
       -0.015242331 -0.02590248 -0.04568634 -0.002195813
000170 bd 13 97 3c 6b b6 37 bc 3b ce 4a bb 28 1d 4e 3d
       0.01844203 -0.011212925 -0.0030945677 0.050320774
000180 f7 1f a0 bd 74 a6 0b 3e 7f a0 26 bc 29 fe d8 bd
       -0.07818597 0.13637716 -0.010170101 -0.10595352
000190 c9 2c 52 bd 11 72 c7 bd 72 cd e9 bd e5 53 b4 bd
       -0.05131224 -0.09738553 -0.11416139 -0.08805064
0001a0 88 28 b5 bd 32 11 20 be e3 57 23 bd 4d e0 42 bd
       -0.08845621 -0.1563156 -0.039878737 -0.04757719
0001b0 68 23 f1 bd 2e 32 01 be e2 2d 1c be 91 34 8f 3d
       -0.11774331 -0.12616798 -0.15251878 0.06992448
0001c0 03 29 37 3d fe 0f 8f bd eb 9a b9 3c 65 f3 8c bd
       0.044716846 -0.06985472 0.022656878 -0.06882361
0001d0 ec 52 0d 3e c6 db cc 3d 09 8e 01 be 8d cf 0d 3c
       0.13801163 0.10002856 -0.12651838 0.008655441
0001e0 ea eb ad 3d fb 2e 18 bd 12 f2 bb 3d 3a 78 02 bd
       0.08492263 -0.03715418 0.091770306 -0.03185294
0001f0 49 30 fd bd 33 6a 9c bc 50 88 b6 bd 66 f6 b4 bd
       -0.12362725 -0.019093608 -0.08912718 -0.08836059
000200 e4 d5 8d bd c5 7b 06 3e c1 88 ae 3d 65 07 c9 bc
       -0.06925562 0.13133152 0.085221775 -0.024539659
000210 ba b5 05 3e 71 ac b8 bd 76 34 9a 3b ea ab 56 3c
       0.13057604 -0.090172656 0.004705961 0.013102511
000220 59 52 ff bc d9 67 7d 3d 14 a6 d8 bd 87 8a 01 bd
       -0.031167196 0.061866615 -0.10578552 -0.03162625
000230 fe bc bd 3d fe 98 f9 bc 3f 7b 8b bc 8d 47 ba bc
       0.09264563 -0.03046846 -0.017026542 -0.022739196
000240 d2 24 0f 3e 39 8b b7 3d 99 b5 d8 bd 34 23 e2 3d
       0.1397889 0.089621015 -0.10581512 0.11041871
000250 a3 33 af 3d b0 73 18 3e a6 0e 9d 3c b5 10 df bd
       0.08554771 0.14887881 0.019172024 -0.108918585
000260 be 92 1c bd 78 6c 5d 3d ed c7 cd 3d 67 e3 b7 bb
       -0.03822588 0.054058522 0.100478984 -0.0056118253
000270 b4 ad 08 3e 5c 43 70 bc 1c a5 1b bd d0 0b e2 3d
       0.13347512 -0.014664497 -0.037999257 0.11037409
000280 b9 08 03 3d 21 ee ad 3d 82 10 01 bb 6e 17 03 be
       0.03199074 0.08492685 -0.0019693677 -0.12801906
000290 8e 4d 95 bd 0b a4 9a bc 53 da 51 3d a8 09 3d 3d
       -0.07290183 -0.01887705 0.0512336 0.046151787
0002a0 71 47 22 bc a3 25 d5 3d 2c b7 71 bd 2e 68 af 3d
       -0.009904728 0.10407569 -0.059012577 0.085647926
0002b0 83 60 ea 3d 29 c0 28 bb 6e e5 c0 3d 9d db 20 bd
       0.114441894 -0.0025749302 0.0941876 -0.03927194
0002c0 6c 22 ce 3d e9 c5 19 3e f4 09 db 3c 1b 80 75 3c
       0.10065159 0.15016903 0.026738144 0.014984156
0002d0 ae b8 ac 3d e8 ee 0b 3e 85 47 ff bd 9e 2a ba 3d
       0.08433662 0.13665354 -0.12464813 0.0909016
0002e0 4b dc 14 be b9 e1 02 bd 25 7f b8 3d 12 fa 81 3d
       -0.1453716 -0.031953547 0.09008626 0.06346525
0002f0 c7 54 b7 bd 83 3c bb bd 2d 46 cc bd 82 ab f6 3d
       -0.08951717 -0.09142401 -0.099743225 0.12044431
000300 4c 30 58 3d f7 f1 9f 3c b1 fd 12 3e 09 71 d0 bd
       0.052780434 0.019524558 0.14354588 -0.1017781
000310 54 b8 8c 3d ee cf 53 3c c8 7c f3 3d aa 64 a6 bd
       0.06871095 0.012927992 0.118890345 -0.08124669
000320 fc 22 83 bd 4d 6c 3d bd 31 ba 42 bd 8f 45 bb 3d
       -0.06403157 -0.04624586 -0.047540847 0.091441266
000330 ef f3 d8 bd 87 82 2e 3d 0f b8 e6 bd c8 b9 83 bd
       -0.10593402 0.04260495 -0.11265575 -0.06431919
000340 2d 0f ba bc c1 0a d3 bd 0a 04 81 bb e4 6e 9d bd
       -0.022712315 -0.103047855 -0.003937249 -0.07687166
000350 b6 bf ce 3d 6c a6 db 3d 9a 2a 1e bd 5e e4 cc bd
       0.1009516 0.10725102 -0.038614847 -0.10004495
000360 d0 e4 e4 bd 15 bb c1 bd 4e 1e 90 bd ad a9 24 bb
       -0.11176455 -0.09459511 -0.0703703 -0.0025125549
000370 86 c3 89 3d cf ed 9f 3d 79 69 00 3e 2a f4 bf 3d
       0.06726746 0.0780903 0.12540235 0.093727425
000380 55 59 f2 bd 56 4e 69 3c 64 5d 82 3d 02 25 df bd
       -0.11833445 0.014239868 0.06365469 -0.108957306
000390 32 97 0d bd 03 ef d9 3d 75 a6 13 3d 2d bc e3 bd
       -0.03456802 0.10641291 0.036047418 -0.11119876
0003a0 c8 97 e2 bd fb 29 7b 3d f0 58 1c 3e 7c 0e e6 bc
       -0.11064106 0.061319333 0.15268302 -0.028083079
0003b0 73 36 c5 bc f9 43 bc bd d7 95 01 3e 1e 89 bd 3c
       -0.024073815 -0.09192652 0.12654816 0.023136672
0003c0 ea e8 5b bb 2b 1f dd bc b2 88 7d 3d d6 3b b8 3d
       -0.0033555576 -0.026992401 0.06189794 0.08995788
0003d0 3f aa 9f 3d 3a da 62 bd 76 62 cb 3c e7 73 db 3c
       0.07796144 -0.0553839 0.024827223 0.026788665
0003e0 81 80 80 bd a1 b8 f4 3d 15 c4 14 3d ef 45 91 bd
       -0.0627451 0.11949278 0.03631981 -0.07093417
0003f0 2a ee bc bb 8f 1c 19 be b5 c2 1e 3c 4b 88 60 bd
       -0.005765696 -0.149523 0.009689976 -0.05481748

bias f4 [10]
000000 a9 86 03 3c b6 1b 97 bc f0 e8 6a 3d 5f f7 8f bd
       0.008027711 -0.01844583 0.057351053 -0.07029604
000010 91 67 bd bb cc 16 46 bd df ef c2 3b b5 ca 44 3d
       -0.0057801683 -0.048361585 0.005949005 0.04804488
000020 03 48 c4 bb 26 19 35 3d
       -0.00599003 0.044213437
