DeepLearningDemo/models/jingxin_1.pth (torch, 588127 bytes, 10 tensors)

weight f4 [32, 3, 5, 5]
000000 17 79 12 bc a4 b4 d0 3d 86 ff 39 bd 31 9b 91 bd
       -0.008940003 0.101907045 -0.0454097 -0.071096785
000010 7f 30 f6 3c 10 89 3e bd c8 77 be bd a6 af 62 3d
       0.030052422 -0.04651743 -0.0930019 0.055343293
000020 68 96 84 3d db 7a 90 3c ed 63 31 3d 15 12 e7 3d
       0.06474 0.017636707 0.043308187 0.11282746
000030 97 fd 03 3e cd 10 6b 3d c1 95 32 ba 92 8c b1 3c
       0.12889706 0.05738907 -0.0006812476 0.021673474
000040 0d 8d 57 bd f5 77 91 bd 67 3b a7 3c bc 23 a7 bd
       -0.05262475 -0.07102958 0.020414067 -0.08161113
000050 41 55 1d bd b6 8b 4f 3d cb 63 bb bd e0 5d f1 3d
       -0.038411383 0.050670348 -0.091498934 0.11785483
000060 fb a1 b2 bd 5d 88 82 3d c2 62 bb 3d 0f 01 84 bd
       -0.087223016 0.063736655 0.09149696 -0.064455144
000070 9b d4 8d bd 10 62 49 bd 2e 97 3e bc f6 34 aa bd
       -0.06925317 -0.049165785 -0.011632724 -0.08310883
000080 d7 6f cb 3d 2a 14 5d bd 04 b4 12 3d f1 d6 06 bd
       0.09933441 -0.053974308 0.035816208 -0.032919828
000090 bc d3 c9 bd 61 9b d9 b9 28 eb e4 3d c8 ae e3 3b
       -0.09854838 -0.00041505232 0.11177665 0.006948326
0000a0 b4 90 bf 3d 23 83 1f 3b a4 25 8f bd 0b 13 48 3d
       0.09353772 0.0024339638 -0.06989601 0.048846286
0000b0 27 58 9a 3d 52 a9 f2 bd 97 59 f8 bd 70 5e 27 3c
       0.07536345 -0.118487015 -0.12126463 0.010215387
0000c0 59 e8 af bc 0c a7 16 3d cd 8c 30 bd dd cd 85 bc
       -0.021473097 0.036780402 -0.043103028 -0.016333515
0000d0 cf d4 3c bc 70 51 81 bd 8d cc c7 bd dd 5a 09 3d
       -0.011525347 -0.06314361 -0.09755812 0.03353392
0000e0 34 57 d5 bd 4e b1 63 3d 9f 1a 90 bc 61 c2 b5 3d
       -0.10417023 0.055589013 -0.017590819 0.088749655
0000f0 18 86 01 3d fd 08 97 bd 52 82 db 3d e1 0d cf 3c
       0.031622022 -0.07374761 0.10718216 0.025275173
000100 a3 dc 96 3c 8a 97 1f bd fe d3 68 3b 13 b6 ab bd
       0.018415755 -0.03896288 0.0035526748 -0.08384337
000110 c9 f0 5a bd da c1 5e 3c 4a 7d 8c 3d 1b b1 06 bd
       -0.053452287 0.0135960225 0.068598345 -0.032883745
000120 6b ac e1 3d 3c 36 c4 3d 19 79 58 bd bf 1f a5 bd
       0.11019214 0.09580657 -0.052849863 -0.08062696
000130 e6 20 5a bd e8 08 dd 3c 70 e4 b1 38 33 e8 a6 3c
       -0.05325403 0.026981786 8.4825675e-05 0.020374393
000140 82 17 db 3d bd c9 18 bd 51 80 c1 3c 1c 2e 51 bd
       0.10697843 -0.037301768 0.023620756 -0.051069364
000150 c2 6e 47 3d bb a9 c5 3c b2 df f2 bd 9f 00 e6 3b
       0.04868961 0.024128785 -0.11859073 0.007019117
000160 3a 7a a7 bd e1 4a 20 bd 7e 09 14 3d 6a 40 63 3b
       -0.0817761 -0.03913391 0.036141865 0.0034675845
000170 a1 1b cb 3d a1 91 dd 3d da bb 9d bd 52 cb b7 bc
       0.09917379 0.10818792 -0.077018455 -0.022435818
000180 36 2a a3 3c fb 79 aa bd ed 02 df 3d 3c 8d 26 3d
       0.019917589 -0.08324047 0.1088923 0.040662035
000190 c1 65 ec bd 21 8a 04 bd 18 2c f2 bd 37 78 79 bd
       -0.115428455 -0.032358292 -0.118248165 -0.06090566
0001a0 83 06 c5 3d fe 31 58 3d 53 7d bb bc b3 40 e8 3d
       0.09620383 0.05278205 -0.022886908 0.113404654
0001b0 2d 57 11 bd 2c 30 e3 bd 89 fa 86 3c 89 92 fa 3c
       -0.035483528 -0.110931724 0.016476886 0.030587452
0001c0 3c c8 4c ba ec 49 da bd ef a0 c5 bc 2c df b9 3c
       -0.00078118197 -0.10658631 -0.02412459 0.022689424
0001d0 31 16 ec 3d b0 bc 96 bd 89 cc 16 3d 03 32 bb 3d
       0.1152767 -0.07360208 0.036816154 0.09140398
0001e0 7d cb ba 3d d3 03 56 bd c9 de 43 bc d8 1a d1 3c
       0.091208436 -0.05224974 -0.011954972 0.025525495
0001f0 bf 9c 94 3c 2a 8e c3 3d e8 94 66 3d 8a b4 9e 3d
       0.018141149 0.095486 0.05629435 0.07749279
000200 77 ed c1 3d 6c 35 a4 bd 18 01 bd 3d 87 b1 97 3d
       0.09469121 -0.08018002 0.09228724 0.074069075
000210 58 4d 3a bd f9 87 42 3c 84 06 44 bb 9c 08 a7 bd
       -0.045483917 0.011873239 -0.002991111 -0.08155939
000220 56 45 ce 3d 4f 78 62 bd d6 26 68 bd 8b 4b d2 3d
       0.100718185 -0.055290516 -0.05667766 0.10268315
000230 bc 19 85 bc 4c 9b e7 bc a5 bc 27 3c ef 9e f5 3c
       -0.016247623 -0.028272294 0.010237847 0.029983012
000240 62 02 09 3d fb 18 c0 3d 13 c2 34 3c 19 96 b8 3d
       0.033449538 0.09379765 0.011032599 0.09013004
000250 26 1a 1a 3d 43 aa c9 bc 3f 8e 7d bd 4d b1 69 bb
       0.037622593 -0.02461732 -0.061903235 -0.0035658658
000260 24 10 99 bc f2 88 e1 3d 01 4d 11 3e a3 5f 22 bc
       -0.018684454 0.11012448 0.14189531 -0.009910497
000270 9e a2 62 bd ad d0 8b 3d e2 31 76 bd 8e 7c a9 bd
       -0.055330865 0.06826911 -0.060106166 -0.0827571
000280 15 0e 4a 3d 59 7f b4 3c b0 50 a0 3d 98 84 be bd
       0.049329836 0.02203338 0.0782789 -0.09302634
000290 04 cf a6 bd 7d f1 f1 3c cf 71 d9 3a c8 a6 36 bc
       -0.08144954 0.029534096 0.0016589704 -0.011148162
0002a0 00 ab 07 3d 6c e2 dd bd a8 54 76 3d 54 d8 e9 bc
       0.033122063 -0.10834202 0.06013933 -0.028545536
0002b0 f3 74 75 bd 12 f8 2f 3d 8c 11 7d 3d 3b 2b bd 3d
       -0.059925985 0.042961188 0.061784312 0.09236761
0002c0 8c c8 0e be ee 24 9f bd f9 7d fb bd 9e 03 a3 3d
       -0.1394369 -0.07770716 -0.12279887 0.07959674
0002d0 a2 bd c3 bd 71 28 a9 bd 56 21 12 be 4c 6b ed bd
       -0.09557654 -0.08259667 -0.14270529 -0.11592731
0002e0 72 72 a7 3d 39 09 99 bc 2f b3 14 be 73 62 15 bd
       0.081761256 -0.018681156 -0.14521478 -0.03647084
0002f0 fe b2 64 bd 39 5f c1 bd ac 38 00 be 5c 44 44 bc
       -0.055834763 -0.094419904 -0.12521619 -0.011979189
000300 c4 dd ad 3d 5f 7d 84 bd 66 26 07 be 1a 15 5d bc
       0.08489564 -0.06469225 -0.13198242 -0.013493801
000310 3f a7 c8 bd 9d ee 01 3c d3 7a ae 3d 3f 45 e5 3c
       -0.09797525 0.007930425 0.085195206 0.02798712
000320 a2 54 7c 3d 03 29 d6 bd 3a 36 ca bd 81 64 d1 bb
       0.06160415 -0.10457041 -0.09873624 -0.006390155
000330 9a 74 c4 3d 34 bc db 3c 4f ac eb 3c 50 39 ee bd
       0.095925525 0.02682314 0.028768687 -0.11632025
000340 db a6 48 3d f3 7e 93 3d 4a 80 33 bd 41 fd ea bd
       0.04898725 0.07201948 -0.043823518 -0.114740856
000350 7a b4 a1 3d 25 e4 ea bd 56 10 4b bd c4 09 9e bd
       0.07895751 -0.11469296 -0.049576126 -0.077167064
000360 94 bc ef bd f4 eb 06 bc 3e 46 76 3d df 35 f5 bd
       -0.1170589 -0.008234967 0.060125582 -0.11973166
000370 46 8c 9b bc e0 86 93 bc 5e 6a 60 bd 44 72 13 bd
       -0.018987786 -0.01800865 -0.05478894 -0.035997644
000380 1d 80 96 3d 92 bb 7c bc bc b7 9f 3d 71 02 ae bd
       0.073486544 -0.01542558 0.077987164 -0.084965594
000390 1a 75 ce bd 8d 4e b1 3a 82 c1 5d bd 5b 09 0e 3d
       -0.10080929 0.0013527438 -0.05413962 0.03467689
0003a0 e4 3d 0d bc 03 dd c6 bd f6 1a b4 3d b5 0d a0 3d
       -0.008620713 -0.097101234 0.08794205 0.078151144
0003b0 34 13 6f bb e8 65 70 bc 5f 0f 87 3c 0a 94 d4 bd
       -0.0036479952 -0.014672734 0.016486822 -0.10379799
0003c0 6f 96 55 bd 06 a2 dd bd dd d2 05 3c ea cf d1 bc
       -0.052145418 -0.10821919 0.0081679495 -0.025611836
0003d0 37 7a 3f bd f7 92 d2 bd d0 d4 dd 3d 26 af 8c 3d
       -0.046747413 -0.102819376 0.108316064 0.068693444
0003e0 ec b2 a1 3d 7e b8 e4 3d 52 93 5b bd cc 68 99 3d
       0.07895455 0.111680016 -0.053607292 0.074906915
0003f0 14 a2 33 bc 70 ac b5 bc 73 5c 84 3d d1 3c 6b 3b
       -0.010963935 -0.022176951 0.06462946 0.0035894404

bias f4 [32]
000000 ce 41 c4 3c 3f c3 19 be 90 f6 b5 b9 08 89 91 bd
       0.02395716 -0.15015887 -0.00034706714 -0.07106215
000010 7a 47 e5 3d 0c 85 02 3e 08 56 39 3e c8 eb f8 bd
       0.11195274 0.12746066 0.18099225 -0.12154347
000020 57 a8 79 bd 49 0f ae bd b4 14 89 3c 4f 4c b5 bd
       -0.060951557 -0.08499009 0.016733505 -0.08852445
000030 76 c8 89 bd 16 bd 99 bc 07 4c ad bd ad 7e 13 3e
       -0.06727688 -0.018766921 -0.08461767 0.14403792
000040 99 0e 69 bd 66 3d 9f bc 58 da db bd cc 3f 1f be
       -0.056898687 -0.019438457 -0.10735005 -0.1555168
000050 12 ca 1a 3e 1a f1 ef bd 15 30 9c bd 9b 8f ae 3d
       0.15116146 -0.11715908 -0.076263584 0.08523484
000060 76 b0 69 3c 59 99 30 bd 4d 00 37 3a 25 1c e1 bc
       0.014263263 -0.043114994 0.0006980941 -0.02747924
000070 57 ab 2a 3e 8b d4 cb 3c f9 8f dd bd 83 d4 1e bd
       0.16666923 0.024881622 -0.10818476 -0.038776886

weight f4 [32, 32, 5, 5]
000000 e8 ce e0 3c 3d e1 a1 bc 82 9c 95 3c f3 c1 10 bd
       0.02744241 -0.019760722 0.018263105 -0.035341214
000010 61 46 7a 3c 08 e3 65 3c dd 3d e0 3c 86 f8 36 3c
       0.015275569 0.014031179 0.027373249 0.011167651
000020 30 5d a5 3c ff 0d 06 bd 1f 89 e2 bc 2c 11 11 bd
       0.020186037 -0.03272819 -0.027653275 -0.035416767
000030 f0 89 f3 bc 34 14 31 3c 56 56 01 bd 97 ab a0 bb
       -0.02972886 0.010808039 -0.031576477 -0.0049032676
000040 d6 b9 a1 bc c3 da d7 3c 71 e2 ab 3c 56 af 5b ba
       -0.019741934 0.02634943 0.020982 -0.0008380314
000050 50 5c 03 bc 91 82 19 bb b2 e1 d3 bc 0d a4 98 3c
       -0.0080176145 -0.002342377 -0.025864456 0.018632913
000060 a5 1f 01 bd aa 4e a0 bc e2 3e 19 bd 29 a0 2d 3c
       -0.03152432 -0.01956876 -0.037413485 0.010597267
000070 34 45 f2 3c 6e 93 f0 bc ab a6 90 bc 39 b3 28 3b
       0.029574014 -0.029367175 -0.017657598 0.002574159
000080 1f 6d 04 3d 3a 9a dd bc c1 3b bd bc b4 69 02 3c
       0.03233063 -0.02705108 -0.023099782 0.007959772
000090 30 56 19 3b 65 22 89 bc ec 36 00 3d e8 32 83 3c
       0.002339732 -0.016740033 0.031302378 0.016015485
0000a0 57 a7 a1 3a 12 1e a6 3c 37 54 53 bc 1f 9c aa bc
       0.0012333196 0.02027801 -0.012898496 -0.020826397
0000b0 5d 76 0a 3d 00 c4 94 3c c3 5f b7 3c a6 df b2 3c
       0.033804286 0.018159866 0.02238453 0.02183516
0000c0 28 5a 90 3c 7b fb b0 3b a4 fa e0 3a b4 5e d1 bc
       0.017621115 0.0054010726 0.001716454 -0.025557853
0000d0 c1 94 be 3c 51 17 d7 3c 29 cd 31 bb 4b 65 ca bc
       0.02326429 0.026256235 -0.0027130342 -0.024706503
0000e0 1a 02 8a bc 40 8f 18 3c 1b 9d 0b bd 3d a1 9b ba
       -0.016846705 0.009311497 -0.034085374 -0.0011873614
0000f0 bb a5 13 bc 13 46 2d bc 5c fd 74 3b 88 a6 03 bd
       -0.009011681 -0.010575789 0.003738246 -0.03214124
000100 d2 ad f8 bc c0 be c7 3b 8a 52 a6 bc 62 85 c6 b9
       -0.030356321 0.006095737 -0.02030303 -0.0003786488
000110 94 37 18 bd be a3 f0 bc 66 64 14 3b 37 b3 e1 bc
       -0.03716238 -0.029374953 0.002264285 -0.027551277
000120 82 6a 1f bd 76 d6 7b bc c9 1f a4 3c 42 6a 6d 3c
       -0.038919933 -0.015370956 0.020034688 0.014490666
000130 ae e9 ba 3c 9a a1 ca bc 85 55 c0 3c dc 3e ac 3c
       0.022816505 -0.02473526 0.023478279 0.021026067
000140 3e bd 36 bc 44 99 7e bc 94 e8 df bc 80 1e bc 3c
       -0.011153517 -0.015539471 -0.027332582 0.022963762
000150 10 8c 30 bc 84 a8 07 3d 06 95 04 bd 4c 16 05 3d
       -0.010775581 0.033119693 -0.032368682 0.032491967
000160 3a 5e 02 bd cd 4c 06 bc 37 40 b9 3a 08 3d 0b 3d
       -0.031828143 -0.008197022 0.0014133517 0.03399375
000170 e3 61 e5 bc fb 4b 7a 3c 40 26 de 3c 5d 37 06 bd
       -0.028000778 0.015276904 0.027117848 -0.032767642
000180 2f 60 19 bb fd ab 1c bc 52 c8 6d 3c 00 61 d3 3c
       -0.0023403277 -0.00956249 0.014513092 0.02580309
000190 c8 49 f8 3c bd 8b 06 3d 0b 46 10 bd 26 c2 3d 3c
       0.03030862 0.03284811 -0.03522305 0.011581933
0001a0 28 47 0b 3d 9d 00 d8 3b af 94 4b bc 8b 67 00 bd
       0.034003407 0.00659187 -0.012425586 -0.031348746
0001b0 4f e1 34 b9 8e 36 69 bc 9e 98 ce bc b9 b6 1c 3c
       -0.00017250072 -0.014234198 -0.025219258 0.009565049
0001c0 cc 86 df bb 70 ff 0f bd 86 4c 0a ba 47 d1 ae bc
       -0.006821489 -0.035155714 -0.0005275685 -0.021340026
0001d0 b3 03 e1 bc 11 25 a9 bc 6b 9b 00 3c e0 c3 eb 3c
       -0.027467584 -0.020647557 0.0078495545 0.028779924
0001e0 86 6f 1a bd 8a c1 ef bc 53 e7 a7 3a 72 39 d2 3b
       -0.037704013 -0.029267091 0.0012810029 0.0064155394
0001f0 37 20 80 bc 52 e0 13 3c e0 47 e7 ba cf 1d 2f bc
       -0.015640361 0.00902565 -0.0017645322 -0.010688259
000200 16 55 e3 bc 34 98 43 bb d7 e3 f3 3b dc f6 a2 bc
       -0.027750533 -0.0029845359 0.007442932 -0.019893102
000210 4b 6a 42 bc 82 8b 59 bc a1 3b 01 3d f1 b5 f5 3c
       -0.0118661625 -0.01327789 0.031551007 0.029993983
000220 cf 75 a0 3c 6b 45 69 3b cb 8e c4 3b b3 9e e9 bc
       0.019587426 0.0035594355 0.0059984676 -0.028518056
000230 1b 13 8b 3c 7b 9e 15 bd 8e 46 c0 ba f5 66 dc bc
       0.016976884 -0.036528092 -0.0014669464 -0.026904562
000240 c9 67 9f bc 24 fa b4 bc 3a 21 01 bd 43 51 11 bd
       -0.019458668 -0.022091933 -0.031525828 -0.035477888
000250 1e 1a 08 bd e1 74 a6 39 3f 25 00 3d f6 cb 90 3c
       -0.033228032 0.0003174907 0.03128552 0.017675381
000260 f9 8b 6b 3c 7a 17 34 3b ef ef 8c 3c 89 72 2f bb
       0.014376634 0.0027479813 0.017204253 -0.002677115
000270 2b 3b 8a bb 58 aa 7e bc dd fa 07 bd 33 ed 3b 3b
       -0.004218479 -0.015543543 -0.033198226 0.0028675317
000280 24 91 8d 3b f2 f4 16 3c 6e c7 c0 bb 97 17 b1 3c
       0.0043202806 0.009213673 -0.005883149 0.021617694
000290 05 ff 4a 3c 05 c9 1d bd c6 8a 93 3c a2 bf d1 bc
       0.012389903 -0.038521785 0.018010508 -0.025604073
0002a0 3d 33 21 bd ee ab a7 ba 68 11 19 bd 62 79 98 3c
       -0.039355505 -0.0012792328 -0.037370116 0.018612567
0002b0 4a 5c 02 bd 30 ac ad bc 3c 93 d2 3c 22 00 9d bc
       -0.031826295 -0.02120027 0.025704972 -0.019165102
0002c0 cd 57 24 bc a7 8c bc bc e2 6f 54 3c a0 aa 3d bc
       -0.010030699 -0.023016287 0.012966128 -0.011576325
0002d0 20 6d a8 3a 35 7c 4d 3c 63 ab 91 bc cb fc 90 3b
       0.0012849905 0.01254182 -0.017781919 0.0044246665
0002e0 aa 10 99 3c 5c 99 f5 bc 24 41 37 bc 99 ae cf 3c
       0.018684704 -0.029980354 -0.011184964 0.02535181
0002f0 34 e0 01 bd 7b 41 9b bc 16 4c f9 bc 88 6b 12 bd
       -0.031707957 -0.018952122 -0.030431788 -0.03574708
000300 c0 e5 b8 3c 11 7e 88 3c 80 d5 bb 3c 6a 44 bb bc
       0.02257049 0.016661676 0.022928953 -0.02285977
000310 a9 94 40 bc bb 4a 8e bc 90 20 a0 3c b8 87 dd bc
       -0.011754193 -0.017369619 0.019546777 -0.027042255
000320 67 0e ff 3c 81 9d 4e 3a e9 9e fa 3b f4 1e d1 bc
       0.031134797 0.0007881746 0.007648338 -0.025527455
000330 5d ed ac bc 06 b6 4f 3c 87 ef 94 3c d1 e8 4b 3b
       -0.021109277 0.012677675 0.018180622 0.0031114111
000340 e4 42 d0 3c 3e 2c 87 3c 79 e9 0f bc 94 be a2 bc
       0.025422521 0.016500589 -0.008783692 -0.019866265
000350 cb 8d 9a 3c ff 78 90 bb 36 b2 f0 bb 92 39 8e 3c
       0.01886644 -0.004408955 -0.007345463 0.017361436
000360 15 34 50 bc 7a b2 d2 bc 3b 79 ad 3b 54 ba cd 3c
       -0.01270773 -0.02571987 0.005293993 0.025113262
000370 a0 bc 0a 3c bd ca 8a bc 17 a8 13 bb 7c f1 64 bc
       0.008467823 -0.016942376 -0.002253061 -0.01397359
000380 eb df 6f 3c 90 b0 91 bb c3 34 77 3c af 40 57 bc
       0.014640789 -0.0044460967 0.015088263 -0.01313798
000390 8b e9 89 bc 48 53 a4 3b cd 59 e5 bb ee 2a 13 3c
       -0.016834995 0.0050148107 -0.0069992305 0.008982403
0003a0 e4 3b ec 3b 70 cc a2 bb 60 eb ca bc df 06 8f bc
       0.007209288 -0.0049682185 -0.024770439 -0.017459331
0003b0 8b b1 e6 bc 23 33 29 bc 19 29 13 3d f9 69 ca bc
       -0.028160831 -0.010327133 0.035927866 -0.024708735
0003c0 cf 97 fa bc 4e 32 08 3d 4c 91 cf bc 02 66 0f 3d
       -0.030589966 0.0332511 -0.025337838 0.03500939
0003d0 6f c2 b3 bc 9c ab 07 3d 77 d3 0b 3d 41 04 d1 bc
       -0.0219433 0.033122644 0.034137215 -0.025514724
0003e0 af 26 eb 3c 01 fb fa 3c 27 0f 57 bc 8a 23 4e bc
       0.02870497 0.030637266 -0.013126171 -0.012581715
0003f0 48 a4 af 3a 26 62 cc 3b 7e 77 da bb bb f0 da bb
       0.00134004 0.006237286 -0.0066670766 -0.0066815293

bias f4 [32]
000000 da 31 32 bc a2 aa 3f 3d 24 cd 14 bd a8 7d 1b bc
       -0.010876143 0.046793588 -0.03632845 -0.009490408
000010 e6 75 ce 3b a1 88 1e bc e0 9b 04 bc 88 52 b2 bc
       0.0063006757 -0.00967613 -0.008093804 -0.02176787
000020 00 42 f7 bc d5 e3 87 bd 4a 46 23 bd 82 d7 d0 3c
       -0.030182838 -0.066352524 -0.039861955 0.025493387
000030 78 6c 8d 3c 2c e9 9b bc c0 89 76 3c 06 3d 80 bd
       0.017263636 -0.019032083 0.015047491 -0.06261639
000040 7c 02 b5 bc 1c 4d b0 bc 8a 3d c9 bc 7f 30 92 3d
       -0.022095911 -0.021521144 -0.024565477 0.07138156
000050 46 f6 fe bc ff fb 3f bc 63 29 3f 3a a8 20 97 bc
       -0.031123292 -0.011717795 0.0007292239 -0.018448189
000060 81 52 a2 3c 5c bb ba bc b3 fc 6b bc 9b a5 50 3d
       0.019814732 -0.022794418 -0.01440351 0.050939184
000070 2f 85 f7 3c 8e be be 3c 96 7c 1a 38 5a e8 65 bd
       0.030214874 0.023284223 3.683249e-05 -0.05612979

weight f4 [64, 32, 5, 5]
000000 65 31 33 3c cc d8 2c 3c 14 2e 12 bd d5 f7 fb bc
       0.01093707 0.010549735 -0.035688475 -0.030757824
000010 04 77 ef bc 07 99 ad bc d7 74 a1 3b b2 4c 0a 3d
       -0.029231556 -0.021191133 0.0049272585 0.03376455
000020 0e 9d 3d bc df de 83 3c 84 a5 ac ba 54 48 f7 3c
       -0.011573089 0.016097484 -0.0013171886 0.030185856
000030 a2 94 4a bc f9 4b f0 3c f2 cc f3 3c 75 f2 ce 39
       -0.012364538 0.029333102 0.029760811 0.00039472026
000040 1d 94 f2 3c 83 88 a3 3c 8d 1a 03 3c b1 0c f8 3c
       0.029611642 0.019962555 0.008001936 0.03027949
000050 9f a0 08 3d 17 59 d5 3b bf 48 6d bc 09 60 c3 bc
       0.033356305 0.0065108645 -0.014482676 -0.023849504
000060 3d 59 ca 3c 67 f9 35 bc c6 25 31 3c 03 8f 22 bb
       0.024700755 -0.011106825 0.010812229 -0.002480448
000070 b5 70 a5 3c bf a5 a1 bb ad bb a2 bc 1e 4b 77 3c
       0.020195344 -0.0049330886 -0.019864881 0.015093593
000080 d2 4f aa bc 4f 58 e7 3b b6 55 87 bc 82 fa fc 3c
       -0.020790014 0.0070600878 -0.016520362 0.03088117
000090 f1 69 00 3d 13 fd 63 bc 8a 8c ae bc 3a a0 45 3a
       0.031351034 -0.013915318 -0.021307249 0.0007538829
0000a0 09 05 e9 3c 0e 1b 68 3c ce 56 a5 3b 32 72 35 bc
       0.028444784 0.014166607 0.0050457483 -0.01107459
0000b0 76 8d 35 3c 89 d1 bb 3a 0a eb bd bc 0e 6e e5 3b
       0.01108109 0.0014329414 -0.023183364 0.007001645
0000c0 74 09 c5 bc a2 0f 76 bc 36 97 a1 bc d5 39 7e bc
       -0.02405236 -0.015018376 -0.019725423 -0.015516718
0000d0 2e 27 c8 3b 71 28 79 3b 80 b3 1d bd 8c 5d 9c bc
       0.006108186 0.003801849 -0.038501263 -0.019087575
0000e0 35 71 d5 bc f2 2f a2 3c c4 71 90 3c 61 8a 34 bc
       -0.026054958 0.019798253 0.017632373 -0.01101932
0000f0 0d 8d 8f bc 5d 52 38 bc 22 61 8f bc 28 21 56 3a
       -0.017523313 -0.011250106 -0.017502371 0.0008168393
000100 15 33 09 3d a1 9f 80 3b 92 57 07 3d aa bb c6 3c
       0.03349598 0.0039252792 0.033042498 0.024259407
000110 44 e0 22 3d cd 23 39 3c 52 f3 86 3c 1a 6c 24 3c
       0.039764658 0.0113000395 0.016473446 0.010035539
000120 a6 89 f9 3c 1a 13 59 bc db ba c2 bc df 45 0f bd
       0.030461144 -0.013249183 -0.02377074 -0.034978744
000130 b9 00 b5 3c 30 8b 57 3c 2f 17 eb bc 1a c9 2a bd
       0.022095071 0.0131557435 -0.028697578 -0.04169569
000140 0f 51 53 bc 5e 66 84 bc ea 2e 90 3a 35 28 a5 3b
       -0.012897744 -0.016162094 0.001100031 0.0050401934
000150 b8 78 40 bc 5c 46 90 3b b2 0c fb bb df 90 0a 3c
       -0.011747532 0.0044029187 -0.0076614255 0.0084573915
000160 e3 df c5 bc f3 8b 14 3d db 65 21 3d 7f 1d 87 3b
       -0.02415461 0.03626628 0.039403778 0.0041233893
000170 72 58 02 bc e3 dc fe bc 16 a6 7c bc 68 a6 ff bc
       -0.007955657 -0.031111186 -0.015420457 -0.031207278
000180 4b 62 a7 3c fa f3 f8 bc 77 1f bd 3c 88 57 08 bd
       0.020432612 -0.030389775 0.023086293 -0.0332866
000190 8d 12 d8 bc 6f 2b 89 bc 7c a3 09 3d b4 93 01 bd
       -0.026376033 -0.016744344 0.033603176 -0.031635
0001a0 67 b5 19 bd ea 62 9d bc ef 79 02 3d 2f 37 15 3d
       -0.037526514 -0.019212205 0.031854566 0.03642958
0001b0 6b 43 03 3d 4a ed 97 bc 95 44 12 3d f8 40 f3 3c
       0.032046717 -0.018545765 0.035709936 0.029694065
0001c0 37 4d 27 3a 13 f6 77 3c 53 be ba 3c bd b0 8f bb
       0.00063820503 0.015134352 0.022795832 -0.0043850825
0001d0 d0 e4 8e 3c a3 31 04 3c fb 6c a9 bc 25 ac 77 ba
       0.01744309 0.008068475 -0.020681849 -0.0009447954
0001e0 d0 05 78 3b bf 54 4c 3c e9 9e ae bc 78 dc f3 bb
       0.0037845261 0.012471377 -0.021316009 -0.0074420534
0001f0 e1 2c 3d 3c 89 e0 06 bd cc 78 6d bc 68 91 09 bd
       0.0115463445 -0.032928977 -0.014494132 -0.033585936
000200 ef 71 d2 3b 63 05 fb 3c a0 8a de 3c c2 b1 fa 3c
       0.0064222733 0.030642217 0.02716571 0.03060234
000210 5b 80 8b 3c a5 7b 82 bb 23 6b 08 3c 35 3a 88 3a
       0.017028978 -0.0039820247 0.008326325 0.0010393324
000220 d5 7a 9b bc 7d d9 2f bc 66 61 e6 bc b1 38 fb 3b
       -0.01897947 -0.010733006 -0.028122615 0.0076666703
000230 b1 50 87 bc 62 71 7f 3c 63 1f 23 3d 13 ef 19 3d
       -0.016517969 0.015590997 0.039824855 0.037581515
000240 2d 1a bb 3c 6e a5 2a 3c 98 72 ec 3c ed de c2 3c
       0.02283963 0.010415418 0.028863236 0.02378794
000250 b0 01 82 3a 37 ca 0f 3d fb f9 0e ba 4a 8a ad bc
       0.0009918716 0.035104956 -0.000545412 -0.021184105
000260 6a eb e8 3b 73 c4 de 3c 35 94 cd bb ed 8a 24 3d
       0.0071081417 0.027193284 -0.006273771 0.040171552
000270 8a dd 74 3a c3 59 b5 bc 70 80 16 3d 45 f4 d0 bc
       0.0009340873 -0.022137528 0.03674358 -0.025507102
000280 25 fa 1c 3b 76 61 9c bc 01 4b 55 3c a6 75 5b 3c
       0.0023952809 -0.019089442 0.013018371 0.013394749
000290 57 15 82 3c a7 fc 78 bc 03 2e a2 3c 7a 35 c7 3c
       0.015879316 -0.015196956 0.01979733 0.024317492
0002a0 f1 07 01 bd 45 89 02 bc 05 39 a3 3c 41 77 1c 3d
       -0.031501714 -0.007967298 0.01992465 0.038199667
0002b0 2e 05 6c bc 8d 9b cb 3c a4 a6 e1 3c d3 7d f9 bb
       -0.014405532 0.024854446 0.02754528 -0.0076138764
0002c0 8a 9f b2 3c 51 e7 e8 bc df e7 00 bd 1d 3d a3 bb
       0.02180459 -0.028430613 -0.03147113 -0.0049816505
0002d0 9b 51 61 3c 0a e8 df bc 4e 97 3c 3c 77 d7 23 3c
       0.013752366 -0.027332325 0.011510683 0.010000101
0002e0 bd d1 8a 3c b1 d6 1b 3c c8 5e d7 3c e4 65 10 3d
       0.016945714 0.009511636 0.026290312 0.03525342
0002f0 d1 39 16 3d 64 41 06 3d ec 0d 05 3d 9c 66 0a 3d
       0.03667623 0.032777205 0.03248398 0.033789262
000300 95 9f c4 3b ca 4d cb bb b2 7b 79 3a ec 6f fb bb
       0.006000469 -0.0062043415 0.0009517028 -0.0076732542
000310 33 07 fc bc e4 12 a0 bc 44 12 90 bc e8 ae f3 3c
       -0.030765152 -0.019540258 -0.017586835 0.029746488
000320 ba 3a 6b 3c f2 5d 80 bb a1 80 f9 ba 5e 19 da bc
       0.014357263 -0.003917449 -0.0019035527 -0.026623424
000330 5f bd ea 3c e4 9c 1e 3c 1a 42 6d bc 13 d3 6a 3b
       0.028654752 0.00968096 -0.014481092 0.0035831376
000340 84 67 88 bc 42 23 f6 bc f7 0b ad bc a2 c1 e4 3b
       -0.016650923 -0.03004611 -0.02112387 0.0069810906
000350 6c 91 ed 3c 1d 43 a8 bb 1d 0b 03 3d e0 80 04 3d
       0.029000007 -0.0051349537 0.03199302 0.032349467
000360 e9 5a 91 bc 4e c6 ab bc 15 26 c8 bc 8d 37 28 b9
       -0.017743545 -0.020968582 -0.024432221 -0.00016042423
000370 fa 10 ed 3c 6e 10 48 3b ce 6d 07 bc 49 e6 e3 3c
       0.02893876 0.003052737 -0.008265926 0.02781977
000380 85 33 be bc 34 09 80 3c 7b 7d c5 bc 98 cc e1 bc
       -0.023217926 0.015629388 -0.024107685 -0.027563378
000390 69 1f 65 3c 54 29 0d bd 3f 39 eb 3c d4 81 41 3c
       0.01398454 -0.03446324 0.02871382 0.011810739
0003a0 1f 4e 0f bd 88 c2 8e bc 2a 41 08 bb 94 9f c6 bb
       -0.03498661 -0.017426744 -0.0020790794 -0.0060615037
0003b0 d7 61 db bc 1a 18 18 3b cc 0b 03 3d 0d 85 da 3c
       -0.026780052 0.0023207725 0.031993672 0.026674772
0003c0 73 7b bf bb da 76 02 3a dc c0 37 3d b1 18 36 3d
       -0.0058435737 0.00049768167 0.04486166 0.04445714
0003d0 52 bf 4a bb 2f c6 4d 3c ba 32 70 bc c8 e8 84 bc
       -0.003093679 0.012559458 -0.014660532 -0.01622428
0003e0 49 34 b4 bc a6 b5 ee bc 66 b6 e6 bb 04 47 24 3c
       -0.021997588 -0.029139351 -0.0070407866 0.010026697
0003f0 c2 ce 99 bb b1 54 bf 3c 6c a7 c8 bc 1e 6c 09 3d
       -0.004693837 0.023355814 -0.024493895 0.033550374

bias f4 [64]
000000 d8 3b af 3b a7 b2 0d bd 14 43 ad 3c aa ae ee bb
       0.00534771 -0.034594204 0.02115015 -0.007284005
000010 fc 2f d5 3c 39 1e 95 3c aa 38 16 bd 6e f4 8f bc
       0.026023857 0.018202888 -0.036675133 -0.017572608
000020 95 bd 62 3c 4f 44 e2 bb f6 1c f9 3c dc c2 f2 3c
       0.013839145 -0.0069051157 0.030409317 0.029633932
000030 e8 3e 3d 3d be 42 ad 39 11 1e 1c 3c ce 67 03 3a
       0.04620257 0.00033046858 0.009528653 0.00050127215
000040 67 c3 95 ba f4 a7 c5 bc c7 3b 04 3c a5 0d e3 bc
       -0.0011426032 -0.024127938 0.008070893 -0.027716467
000050 44 68 0e bb d0 50 85 bc e3 c5 34 bd fc d4 80 3c
       -0.0021729628 -0.016273886 -0.044134032 0.015726559
000060 4d 55 08 3d c6 a3 ce 3c 6b 6d 1d 3c 2c 13 df bb
       0.033284474 0.025224578 0.009608607 -0.0068077054
000070 e9 b0 9c 3c 26 53 82 3c bc 0b 86 bc 3e ce 14 bd
       0.019127326 0.015908789 -0.016363017 -0.0363295
000080 7b e7 a8 3c 12 0b 4f 3c 70 29 86 3c 2f 29 17 3d
       0.020618191 0.012636917 0.01637718 0.03690451
000090 7f 16 05 3d 69 c0 ea 3c 1f fc 1f 3d fc 28 e8 3c
       0.032492157 0.028656201 0.0390588 0.028339855
0000a0 04 79 86 3c dd fa a0 bc 1d 02 36 bd c0 20 a7 3c
       0.016415127 -0.019650871 -0.04443561 0.020401359
0000b0 5b df fb 3c 32 80 06 3d bd 6c df 3c 28 a3 bc 3c
       0.030746153 0.0328371 0.02727353 0.023027018
0000c0 0e d6 2a 3d ca f4 ac bc 2c 34 40 bc 87 9d a4 3c
       0.041708045 -0.021112818 -0.011731189 0.020094646
0000d0 6a 07 87 bc 11 2e 71 bc 11 8c 5e bd 90 9b 2e 3b
       -0.016483027 -0.014720456 -0.054332796 0.0026643015
0000e0 22 9e a1 bc e8 8a ee bc 45 09 8b 3b ad b5 07 3d
       -0.019728724 -0.02911897 0.0042430484 0.033132244
0000f0 a1 6f ba bb 81 ac 36 3c 49 bc ac bb 6b 73 61 3c
       -0.0056895767 0.011149527 -0.005271469 0.013760428

weight f4 [64, 1024]
000000 1d 20 f0 3a 6c 74 84 bc 81 5e c7 3c 80 ab a2 bc
       0.0018320117 -0.016168796 0.024337055 -0.019857168
000010 32 ca 62 39 ed 49 dd 3c 1a 11 be 39 de be 21 3c
       0.00021628363 0.02701279 0.00036252366 0.009872166
000020 fa ae 97 bc cc f8 e2 bb ee 6a 8c 3c 7a 99 04 3d
       -0.018516053 -0.0069266316 0.017140832 0.03237293
000030 6c 00 07 bc 94 67 5e bb 91 9b b1 bc 1f 9d a8 3c
       -0.008239847 -0.003393625 -0.021680625 0.020582734
000040 1c a0 ef bc b0 08 b7 bb cc 29 fa bb e8 86 8d 3c
       -0.02925115 -0.0055857524 -0.007634377 0.017276242
000050 7c b6 81 bc ce e5 e0 bc 0e 61 0b 3b 89 eb a2 bc
       -0.015834086 -0.02745333 0.0021267566 -0.019887703
000060 7a 20 05 bd 5f dd b9 3c d7 27 ba bc 12 7e ca 3b
       -0.032501675 0.022688566 -0.022724075 0.0061795795
000070 b1 25 f9 bc f6 6b c3 3a 62 5c de 3c 0c ae 84 bc
       -0.03041348 0.0014909494 0.027143661 -0.016196273
000080 28 77 4c 3b 99 ad a9 3c fa bd 19 3c 5e 3e 14 bc
       0.0031198952 0.02071266 0.009383673 -0.009048073
000090 2b bc 55 3b 05 48 a0 bc 93 fd 7d bc 5e 6e 4e bc
       0.0032613378 -0.019565592 -0.015502351 -0.012599556
0000a0 6f aa 85 3c a6 8c e7 bb 32 85 36 3c bf cf c7 bc
       0.01631662 -0.007066327 0.011140155 -0.024391053
0000b0 21 ed b6 bb c1 56 aa 3a b8 d3 e3 bc 63 34 d0 bc
       -0.005582467 0.0012995825 -0.027810916 -0.025415605
0000c0 75 21 01 3d b4 73 03 3d 62 71 93 3c 4f e0 9a bc
       0.031526048 0.032092765 0.017998401 -0.018905787
0000d0 7c 0c 15 3c 09 fb c2 3c 46 11 63 3a 4d f8 b5 3c
       0.009097215 0.023801344 0.0008661937 0.022213126
0000e0 18 1b a0 3c dd 7e c8 bc 81 1f 35 3b 00 81 ad 3c
       0.01954417 -0.024474556 0.0027637186 0.021179676
0000f0 be f7 11 3d 77 1b c9 bc f4 ce 0e 3d d6 f5 9a 3c
       0.035636656 -0.02454923 0.034865335 0.018916052
000100 70 69 ae bc 22 b2 8d bb 0c 92 ad 3b cc e7 05 3c
       -0.02129051 -0.0043242136 0.005296951 0.00817294
000110 43 c7 d2 3c c0 26 4a 3a 7e 0f a5 3a da a6 4d bc
       0.025729781 0.00077114627 0.0012593118 -0.012551988
000120 fb 46 03 bd c4 b6 4b 3c e9 81 c5 bc fe b7 c7 3c
       -0.032050114 0.012433711 -0.024109798 0.024379726
000130 b9 ab 84 bc 3d b1 19 3c 68 ba ea bc d4 d3 7e bb
       -0.016195165 0.009380636 -0.028653339 -0.0038883584
000140 37 05 ce bc 65 cc a4 3c 38 7c fd 3c 9e 64 f6 3c
       -0.025148971 0.020116994 0.030943021 0.030077275
000150 75 39 d9 3c ff 63 bb 3c ce 93 d4 bc 33 69 80 bc
       0.026516655 0.02287483 -0.025949385 -0.015675163
000160 01 ad 0a 3d 50 f1 1b bc 1c e3 e4 bc 56 17 d5 3c
       0.033856396 -0.009517983 -0.027940325 0.026012104
000170 e4 59 ac 3c a4 55 d3 bc 43 3c b4 bc 4b 38 a6 3c
       0.021038957 -0.025797673 -0.022001391 0.020290514
000180 08 84 e8 3c 94 70 9f bc 3c f6 a8 3c 9a 51 39 bc
       0.02838327 -0.019462861 0.020625226 -0.011310959
000190 84 eb 9b 39 d6 fb 0c bb ae 21 b2 bb 1c 1f 06 bc
       0.00029739377 -0.002151241 -0.005436144 -0.008186128
0001a0 cb 09 80 bc 67 71 aa bc 70 57 6d 3c 7e aa a5 3c
       -0.01562967 -0.020806028 0.014486179 0.020222899
0001b0 4f ce df 3c 4b 23 e3 3b cc f5 80 ba e0 b2 b5 3b
       0.027320055 0.0069316975 -0.0009838878 0.005545005
0001c0 98 d6 63 bc ca ed a5 bc e1 44 00 3d 25 c7 5c bb
       -0.013906144 -0.020254988 0.031315688 -0.0033688035
0001d0 7b 05 c2 3b 5d 32 d1 bc a4 42 90 bc 6b 08 b3 3c
       0.0059210635 -0.02553671 -0.017609902 0.0218546
0001e0 77 79 42 bc 70 f8 63 3b 35 d9 29 bc 7c 94 2d 3c
       -0.01186978 0.0034785531 -0.010366728 0.010594483
0001f0 69 55 7e 3c 0a c1 6a 3c 13 b3 5b 3c 54 03 6a 3c
       0.015523293 0.014328251 0.013409394 0.01428302
000200 a7 b2 cf bc 93 72 ba 3b be 04 f3 bc b2 29 04 bd
       -0.025353743 0.005689928 -0.029665347 -0.032266326
000210 41 a2 80 3c 15 10 25 3c 7a e8 eb 3c 49 e5 a3 3c
       0.015702369 0.010074635 0.028797377 0.020006793
000220 21 25 ff bc 3d 63 82 bc 3b 13 39 3c b4 a2 71 3b
       -0.031145634 -0.015916461 0.011296089 0.003687066
000230 bb 0f cb bc dc e2 e7 ba 74 13 8c bb 7f cc fe bb
       -0.024787774 -0.0017691511 -0.00427478 -0.0077758427
000240 14 59 68 bc 3b a6 0a 3c 70 a7 c6 3c f7 d8 a7 bc
       -0.014181394 0.008462484 0.024249762 -0.0204892
000250 94 b5 e3 3c eb 4f b4 3b be 06 83 bc 7b b5 00 3c
       0.027796544 0.005502691 -0.015994426 0.007855768
000260 07 27 61 3c 1c 22 e4 bc 12 28 ed bb 45 70 8b bc
       0.013742215 -0.027848296 -0.007237443 -0.017021308
000270 3e 22 47 3a ce 11 d8 3b a0 00 97 bc 9a 82 e1 3c
       0.000759635 0.0065939194 -0.018432915 0.027528096
000280 e9 79 98 3a 26 ff 4d bb f1 ae 89 3c 84 5c c7 3c
       0.0011633012 -0.0031432598 0.016807051 0.024336107
000290 7a 3f c9 3c 0c 5c 14 bb 04 13 83 bc 07 26 87 3b
       0.0245664 -0.0022637872 -0.016000278 0.0041244063
0002a0 3a c7 37 b9 93 27 c8 3c 6b 1e 03 3d ae 73 30 bc
       -0.00017526458 0.024432933 0.03201143 -0.010769768
0002b0 d9 07 70 bc 73 5b a6 bb 34 7d b0 bb 9e b2 22 bc
       -0.0146503085 -0.0050768196 -0.005386019 -0.009930281
0002c0 10 b9 fa bc 40 5d 3f bc 58 ad 26 3c b4 23 ea 3c
       -0.030605823 -0.011679947 0.010173164 0.028581478
0002d0 17 0e be 3c 6c 0d 14 3a 5c 78 62 bc c4 df cb bc
       0.023200078 0.0005647752 -0.013822641 -0.024886973
0002e0 b1 d7 86 3a 50 02 0a bd a8 45 d8 bc d7 22 8a bc
       0.001028767 -0.03369361 -0.026400402 -0.016862316
0002f0 d7 f5 20 bc 5d 60 97 bc 17 06 6e bb d2 be af bc
       -0.009824238 -0.018478567 -0.0036319548 -0.021453295
000300 2e f8 de bc a9 3f cd bc 77 a9 76 3c 60 ae 90 bc
       -0.02721795 -0.02505477 0.015055052 -0.017661273
000310 41 40 5a bc b3 5d cf 3b 3b a4 65 bb bc d6 de bb
       -0.013320983 0.0063283085 -0.0035040516 -0.0068005007
000320 06 00 72 3c d4 2d 0b bc e9 e2 0d 3d 34 3d c4 bc
       0.014770513 -0.008494813 0.034640227 -0.023954965
000330 1e ea 66 bb fe 38 a2 bc 7f 52 a5 3c 35 f1 a1 3c
       -0.003523476 -0.019802567 0.020180939 0.019768337
000340 26 c0 bd bc 65 f3 8d 3c bc 4d 92 3a 73 59 ed bc
       -0.023162913 0.017327974 0.0011162083 -0.028973317
000350 07 3f 0e bd e4 8b 1e 3c 48 c0 8f bc 48 7e 4b 3c
       -0.034728076 0.009676907 -0.017547742 0.0124202445
000360 d1 2f e5 bc 8a 6d d4 bc fe f4 52 bc 5a ea f6 3b
       -0.027976902 -0.025931139 -0.0128757935 0.007535261
000370 d6 67 50 39 7f 80 39 bc 30 e4 2f bc 07 a4 7f bc
       0.00019875108 -0.01132214 -0.0107355565 -0.015603072
000380 d2 09 53 bb 0d ce e2 3c 6a 4c 19 3b 8f 8f 67 ba
       -0.0032201898 0.027686143 0.0023391494 -0.00088333426
000390 cf 82 24 3b a8 1f f1 bc 79 ea 9a bc b8 25 d7 bc
       0.0025102382 -0.02943404 -0.018910633 -0.026263103
0003a0 7b aa a0 3c c4 fc a8 bb af 03 10 3c a9 51 d8 3c
       0.019612541 -0.005157085 0.008789941 0.026406126
0003b0 dc 81 bc 3c a2 15 84 3b 59 99 ef 3b e5 c9 a7 bb
       0.02301114 0.004030899 0.0073119816 -0.0051205033
0003c0 01 a7 dc 3b 31 09 7b bc 08 41 eb 3b b8 ca a2 3c
       0.0067337756 -0.015322016 0.007179383 0.019872054
0003d0 3a 99 c4 3c b9 e3 ce bc 8e 41 ed bc 24 ed 00 3c
       0.023998845 -0.025255071 -0.028961923 0.007869039
0003e0 82 19 7c 3c 7f a6 33 3c 86 4a 6f bc 50 cb 03 bc
       0.015386941 0.010964989 -0.01460517 -0.008044079
0003f0 a4 fb d8 3c 47 2c 87 bc 65 0c c4 bc 8b 1a a4 3a
       0.02648718 -0.016500605 -0.023931691 0.0012520117

bias f4 [64]
000000 05 a4 9c 3c 6f 3d 0a bd 5e 78 1d bd 9f a6 f9 3b
       0.01912118 -0.033749994 -0.03844487 0.0076187397
000010 3b 11 f8 3c 84 ab cc bc 2c f5 80 3c 51 37 c7 3c
       0.030281654 -0.024984129 0.015741907 0.02431837
000020 f5 b1 85 3c 79 9b 91 ba 6c 20 b3 bc 07 7c c7 3c
       0.016320208 -0.0011108957 -0.021866046 0.024351133
000030 b8 b5 98 3c f1 cb 21 bd 21 1e e1 3c 82 c6 0c 3c
       0.018641338 -0.039501134 0.027480187 0.00859225
000040 ea 2b 8d 3a e4 d0 a5 3c d6 c3 ed 3c b5 6b 84 bc
       0.0010770534 0.020241208 0.029024046 -0.01616464
000050 ca f6 da bc 5e 2b d2 3c 51 01 ff bb 85 59 11 3c
       -0.026729006 0.025655445 -0.0077821393 0.008871441
000060 ed 79 04 bd 15 0d 63 bc 8b 90 6f 3c 6c e2 39 bb
       -0.03234284 -0.0138580995 0.014621864 -0.0028363718
000070 8b 90 74 3c 0a 63 e9 3b d7 62 2b 3d b0 75 d2 3c
       0.01492704 0.007122402 0.041842308 0.025690883
000080 db 54 a5 bc 78 b4 12 3b df 55 0d bc d2 45 09 3c
       -0.020182064 0.00223854 -0.00862643 0.008378463
000090 2d 6d 53 3c 53 71 55 bc 19 e3 d1 3b 6e 92 59 3c
       0.0129044475 -0.013027507 0.006405246 0.01327954
0000a0 d3 f8 1c 3d b6 39 02 3d 83 62 d1 3c 95 13 fc 3c
       0.038323235 0.03179332 0.02555967 0.030771056
0000b0 f5 cd e3 3b ce 37 e9 bc b7 23 d1 bc 4f 39 41 3c
       0.006952042 -0.028468993 -0.025529725 0.011793449
0000c0 3d 4a 90 bc 2a f4 8b 3c ae b4 c7 3b d4 96 8e 3c
       -0.017613525 0.0170842 0.0060945367 0.017405905
0000d0 88 58 bb bb 01 50 a4 bc 1c d6 28 bd 04 2a f7 ba
       -0.005717341 -0.02005768 -0.041219816 -0.0018857126
0000e0 bf 91 05 3d 12 70 d3 bb 5f 72 4a b9 9d 1f 8e 3c
       0.032609697 -0.006452569 -0.00019306828 0.017349059
0000f0 af 73 64 bc c4 39 cb bc be 46 e3 bb d2 81 f9 3c
       -0.013943597 -0.024807818 -0.0069359234 0.030457411

weight f4 [10, 64]
000000 77 92 47 bd 72 c8 0e bd a8 38 73 3d ef 6b c3 bd
       -0.048723664 -0.03485913 0.059380203 -0.09542071
000010 9b 33 f8 bd 77 02 21 3e d9 6d f6 3c 0a f5 4d bd
       -0.12119218 0.15723597 0.030081676 -0.050282516
000020 a3 8a 80 3d 25 df d0 bd 6c 6c 17 3d 7b 1a c7 bc
       0.06276443 -0.101988114 0.036968634 -0.024304619
000030 34 16 6c bc 79 82 ed 3d fe 0b 06 3d be e9 fe 3c
       -0.0144095905 0.11597151 0.03272628 0.031117316
000040 83 59 24 3c 25 c9 f8 3b cc 14 9f bd 80 15 65 3d
       0.010031107 0.0075923377 -0.077676386 0.055928707
000050 c2 e8 a5 bd 24 69 fe 3b 9c 37 fc 3d 1b a8 84 3c
       -0.08101036 0.0077639986 0.12315294 0.01619344
000060 82 4c fa 3d e5 33 45 bd 68 d6 a0 bd 45 bd ba bd
       0.12221624 -0.048145194 -0.07853395 -0.091181315
000070 b4 fb 6b bd 20 44 cb bd 92 6b 15 be 8c 8b 76 bd
       -0.05761309 -0.09925103 -0.14591816 -0.060191676
000080 c0 8d 95 bc 5d 36 8f 3d 38 5c 69 3d d4 2a 07 3d
       -0.018256068 0.06992791 0.056972712 0.03299983
000090 4f fb 97 bd 3a 79 7c 3c 3a da 7b 3d b6 e2 05 3d
       -0.0742098 0.015409762 0.061487414 0.03268691
0000a0 b7 fc a4 bd cb 38 eb 3d db 23 3a bd 74 0f 26 3b
       -0.08056014 0.11485442 -0.04544435 0.00253388
0000b0 93 99 c2 bb 76 df f6 3d d9 bb a8 3d 69 62 7b 3d
       -0.0059387176 0.120543405 0.08238954 0.061373148
0000c0 b3 e0 80 3d 5e ec f7 3d 19 d4 88 bc f9 b0 e5 3d
       0.06292858 0.1210563 -0.016702699 0.112153955
0000d0 2c 09 f2 3b a7 9c b6 3d 5f 14 95 3d 67 28 fe bd
       0.0073863473 0.08916598 0.07279276 -0.1241005
0000e0 bf 03 30 bb a3 f2 ce bd 85 d3 06 3e 95 09 87 bd
       -0.0026857702 -0.10104873 0.13166626 -0.065936245
0000f0 dd 45 01 be f4 71 22 bd 7a 45 7e bb d4 63 a3 bd
       -0.12624307 -0.039659455 -0.0038798735 -0.07978025
000100 a8 d3 87 3c d0 6b 02 be 69 bb 05 3e 19 ac 16 be
       0.016580418 -0.1273644 0.13059773 -0.14714088
000110 d5 aa 27 bd ab 48 06 3c 85 9c 36 3d 1b 2f 09 be
       -0.040934402 0.008196036 0.044582862 -0.13396876
000120 da 9d c1 bb 01 a2 3a 3d dc 39 02 3e 2a c7 0c 3e
       -0.00590871 0.045564655 0.12717384 0.1374785
000130 10 05 ae bd 8a 2f 8d bd fb 9f 27 bd 79 84 04 bc
       -0.08497059 -0.06893833 -0.040924054 -0.008088225
000140 71 12 81 bb 49 8e da 3d 9a 3c 17 3d 01 88 ff 3c
       -0.003938966 0.1067167 0.03692303 0.031192781
000150 df 81 04 3e 76 07 09 3e 8b e9 d7 3d 0b 14 25 be
       0.12940167 0.13381752 0.10542592 -0.16120927
000160 d9 48 67 3d 78 80 02 be 3f 38 a0 3d fc a2 d6 bc
       0.056465957 -0.1274432 0.07823228 -0.026200764
000170 c0 aa 18 be 94 9b 52 bd ca e6 97 bd 1a 2e 13 bd
       -0.14908886 -0.051417902 -0.074170664 -0.035932638
000180 83 10 79 bc bd 8e 85 3d 7c 2e c5 bc ad 26 c8 bb
       -0.015201691 0.06521366 -0.024070017 -0.006108126
000190 16 44 5b 3d f5 73 fc bd d8 ec 01 be 3e 1a f0 3d
       0.05353173 -0.123268045 -0.12688005 0.11723755
0001a0 37 27 93 3d 97 e1 b7 3d d3 cb ff 3c 83 c3 07 3c
       0.07185214 0.08978575 0.03122512 0.00828636
0001b0 f8 67 0d be f7 b9 d7 bd 31 d1 75 3d e0 49 15 be
       -0.13809192 -0.10533517 0.060013954 -0.14578962
0001c0 b5 06 09 be 75 3f 13 be 37 2f e4 3d e7 69 0d be
       -0.13381465 -0.14379676 0.11141818 -0.1380993
0001d0 43 0d 9b 3c 48 2d 00 be c6 3e 39 3c d0 06 c5 3b
       0.018927222 -0.12517273 0.01130647 0.006012775
0001e0 cf ca f4 3d 7d 75 31 be de 8d 34 be 9b 95 10 bd
       0.11952745 -0.17329974 -0.17632243 -0.035298925
0001f0 a6 03 b3 3d f9 f5 f6 bd 5e 88 bd 3c 0e 12 c7 3d
       0.0874093 -0.12058634 0.023136314 0.097202405
000200 2a 1a e8 bd 4a c1 be bd 30 55 0c be 0c 60 d1 3d
       -0.113331154 -0.09314211 -0.13704371 0.102233976
000210 78 88 04 3d 3c 44 0b 3e 7a a5 c9 3d 25 5d 77 3d
       0.03235671 0.13600248 0.09846015 0.060391564
000220 8a bc 0c 3e 40 67 70 3d 8f fb 11 be 4d ba 93 3d
       0.13743797 0.058692217 -0.14256118 0.072132684
000230 ac 68 b6 3d 5c bb ac bc a4 b1 f0 bc b9 f4 1b be
       0.08906683 -0.021085434 -0.02938158 -0.15230073
000240 2d 0b 82 bd ec 34 f4 3d 1b a9 2d 3d 0d 99 dc bc
       -0.06349788 0.119241565 0.0423976 -0.026928449
000250 ff 9b a1 bc 52 8a c5 bd 94 03 ab bc 1e 3b d0 3d
       -0.019727705 -0.09645523 -0.02087573 0.10167526
000260 13 e4 70 3d 67 8c d2 bd 5f 88 b2 bd 56 03 80 3c
       0.05881126 -0.10280686 -0.08717417 0.01562659
000270 53 b0 a0 bb 78 7f c8 3c 80 ff d5 3d c6 08 85 3c
       -0.004903832 0.024474844 0.104491234 0.016239535
000280 6a d3 8a 3d bc 9f bd 3d 21 25 6a bd 51 cb 9e 3c
       0.06778605 0.092589825 -0.057164315 0.019384058
000290 ae 3f 64 bd 73 1d 00 3e c4 2a b1 3d ae 8a 8b 3c
       -0.055724792 0.12511234 0.08650735 0.017033901
0002a0 90 0e 33 bd 7b 48 88 bc 75 d7 10 3d e6 bb d6 3d
       -0.04371506 -0.016636124 0.035361726 0.104850575
0002b0 a5 89 23 3d 7d 2e e8 36 fc 21 ec 3d 3d 9f 35 bd
       0.03992619 6.9195507e-06 0.115299195 -0.044341315
0002c0 a7 ad 67 bd 32 47 29 bb c6 30 05 3b a5 71 a4 3d
       -0.056562092 -0.002582979 0.002032326 0.080294885
0002d0 a1 0f 0e be 04 86 6a bd 54 9e 8a 3d ad 8a e3 bd
       -0.1387315 -0.057256714 0.0676848 -0.11110435
0002e0 25 dd ef 3d fa 24 51 3d 9d 24 cd bd 18 13 8e bd
       0.11712102 0.051060654 -0.10016749 -0.069372356
0002f0 d6 22 20 bd ef c1 db 3d 42 3a 08 bd 14 f0 cd bc
       -0.039095722 0.10730349 -0.033258684 -0.025138892
000300 bc 03 54 3c 94 d1 cb bd 9b 07 d1 bd 38 f6 fc bd
       0.0129403435 -0.09952083 -0.10206529 -0.1235165
000310 63 59 48 3d be db 3c bd f4 53 a2 bb 65 73 85 bd
       0.04891337 -0.046108 -0.0049538556 -0.065161504
000320 80 1f d7 3d 2b 99 a8 bd 5d 9d 5a 3d 2d 4e d9 bd
       0.10504055 -0.082323395 0.05337273 -0.10610614
000330 04 67 8a bc d2 0b 8c bb ea 2f 83 bc 6c ee 48 bd
       -0.016894825 -0.00427387 -0.016014058 -0.0490555
000340 e8 b5 8a 3d a8 93 96 bd 6f d4 fc 3d 03 08 02 bd
       0.06772977 -0.07352382 0.12345206 -0.03174592
000350 70 bf 9f 3c 39 86 fb bd 4c 4c 4b 3c c1 57 ed 3d
       0.019500464 -0.1228146 0.012408327 0.11589003
000360 cb be d4 3b 1f 50 34 3c 3f 95 c1 3d 68 a1 93 bd
       0.006492471 0.0110054305 0.094522946 -0.0720852
000370 b2 2e 03 3e 5f 97 57 3a 68 ee dc 3d a5 37 0a 3e
       0.12810782 0.0008224155 0.1078766 0.13497789
000380 99 22 57 bd 25 22 0b 3d 2a e6 9f bb de 9d ae 3d
       -0.05252323 0.03396811 -0.0048797326 0.085262045
000390 32 65 cf 3d ae 61 39 3d dc 14 f1 3d 3d 02 30 be
       0.10126723 0.04525917 0.11771557 -0.17188354
0003a0 b2 bf c5 3d fd ec fb bd 10 82 18 3c 50 c0 f4 3d
       0.096557036 -0.12301061 0.009308353 0.11950743
0003b0 48 3e b3 bd a0 a6 0f bd 44 d1 7c 3d 33 b0 10 3e
       -0.087521136 -0.035071015 0.06172301 0.14129715
0003c0 67 fc 85 bd 1b 0b a6 bc b8 72 e4 bd 44 cd 1e be
       -0.065422826 -0.020268967 -0.11154693 -0.1550799
0003d0 d5 43 81 ba 9c 10 9f bd e6 9a 14 3c c3 2b dd 3d
       -0.0009862134 -0.0776684 0.009070134 0.107993625
0003e0 a7 67 0b be d5 8f b7 bd 54 94 32 3d 0f 96 b8 3c
       -0.13613759 -0.08962981 0.043598488 0.022532491
0003f0 c0 1d 74 3d 1c 38 0b 3b e2 6c 6c 3d dc 9e 4e 3d
       0.059598684 0.002124316 0.057721026 0.05044447

bias f4 [10]
000000 c7 8e 0e be af 38 2d 3d bf c7 87 3d ae 6b f4 3c
       -0.13921653 0.042290386 0.066298954 0.029836502
000010 1b 3e 67 3d bd 2d b2 3c 50 64 00 3e b6 8b 09 3d
       0.056455713 0.021750325 0.12538266 0.033580504
000020 a3 37 77 bd cd bf 10 3c
       -0.060355794 0.008834791
