DeepLearningDemo/models/jingxin_7.pth (torch, 587999 bytes, 10 tensors)

weight f4 [32, 3, 5, 5]
000000 8d 75 f6 3c 9b 2c a1 3d 20 e9 d7 3c 6d ba 1c 3e
       0.03008535 0.07869836 0.02635628 0.15305491
000010 71 4a 0a 3e 58 0d 59 3d 71 22 49 bd 02 5b 1c bd
       0.1350496 0.05299124 -0.04910511 -0.03817273
000020 14 2c b5 bd 46 f7 80 bd d7 9f 2a bd 02 eb 6f 3d
       -0.08846298 -0.06297164 -0.04165634 0.05857373
000030 77 0e cd bd 5f 1a 2f bc 2f 49 11 be 37 da 2e be
       -0.100125246 -0.01068744 -0.14188074 -0.1707543
000040 8d 97 45 be af a4 3d bd ad a1 f3 bd 44 5b f7 3c
       -0.19296093 -0.046299633 -0.118960716 0.030194886
000050 89 44 0c be 48 e9 2f be cd 9f 60 be 97 e5 21 be
       -0.13698019 -0.17178833 -0.21935959 -0.15810238
000060 25 45 08 be 21 ff 01 3e 74 1d 88 bc ea ef 1f 3e
       -0.13307627 0.1269498 -0.016615607 0.15618864
000070 da db a8 3b 5e 10 60 3b 18 f5 fe 3d fc 8d f3 3d
       0.0051531615 0.0034189443 0.12449092 0.11892316
000080 8e e8 04 ba 5a 7f d0 3c 5a fe 91 bd c0 03 87 bc
       -0.0005070054 0.025451351 -0.07128592 -0.01648128
000090 e9 0b 0c bc 7d 19 bf bd a6 04 a1 bd a4 36 fa 3a
       -0.0085477615 -0.093310334 -0.07862215 0.001908977
0000a0 dd b3 f8 bd ad 8d 25 be 38 2f 0b be 16 fd 4b bc
       -0.12143681 -0.16167326 -0.13592231 -0.012450477
0000b0 bf 59 78 bd 91 eb 35 bd cc c7 cf bd d4 cc ad bd
       -0.060632464 -0.044414107 -0.1014553 -0.084863335
0000c0 0d 19 35 be fe 8f 0d be dd 90 1d 3d 18 d8 39 3e
       -0.17685337 -0.1382446 0.03846823 0.1814884
0000d0 fb 15 12 3e 79 dd 82 3d 0f 62 58 3d 81 a1 37 3e
       0.14266197 0.06389899 0.05282789 0.17932703
0000e0 3b 5c 40 3d 94 2b 01 3e c1 9c 0b 3e 36 a3 f8 3c
       0.046962958 0.1261428 0.13634016 0.030351263
0000f0 12 45 f7 3c c9 bc 26 3d 2e 2d 0e 3e 69 d8 e9 3b
       0.030184302 0.040707383 0.13884422 0.007136394
000100 9c c8 0d 3e 00 9f 2e bd b3 ab 5c bb 41 06 05 3d
       0.13846058 -0.042632103 -0.0033671677 0.032476667
000110 25 59 32 3c a6 73 d2 3d ee 03 d7 3d 32 77 18 3c
       0.0108855115 0.102759644 0.104987964 0.009305762
000120 5f a9 22 3d ce 38 cc 3d 6d 49 da 3d 32 91 08 3e
       0.039712306 0.09971772 0.10658536 0.13336638
000130 81 3e 32 3e f7 d1 32 3e a9 4e d8 3d d8 79 a4 b9
       0.17406656 0.17462908 0.10561878 -0.00031371298
000140 e4 58 2b 3e 5f ca 16 3e 2a ec 2e 3e 81 a5 a4 3d
       0.16733128 0.14725636 0.17082277 0.0803938
000150 0e 86 24 3d db cc 28 3e bd b5 0c 3e e5 6b 81 3d
       0.040166907 0.16484396 0.13741203 0.063194074
000160 99 d9 ab 3d 0c ee d3 3b dd 92 e8 3c 27 ab ce 3d
       0.08391113 0.0064675864 0.028390342 0.100912385
000170 5c f6 4c 3d a5 dd 2f 3d 25 c5 67 3d 10 c2 7e 3d
       0.050039634 0.042935986 0.056584496 0.06219679
000180 55 de a9 3d 54 7b 40 bd 84 59 d7 bd 92 a1 b6 3b
       0.082943596 -0.046992615 -0.105151206 0.00557346
000190 1f af 32 bd 44 aa b8 3b 32 86 a8 bb 6e 49 14 bc
       -0.04362404 0.0056355316 -0.0051429505 -0.00905071
0001a0 76 77 4a 3d 1d 5a 2e bc 9e 91 d3 3d 61 96 a7 3d
       0.049430333 -0.010641602 0.10330509 0.081829794
0001b0 9a 39 b2 bc a7 dd 1b be d5 be 93 3d b2 0d 63 3d
       -0.021755982 -0.15221272 0.07214133 0.055432983
0001c0 6e 53 fa bd 0c a1 b4 bd 5b db a6 bd e8 96 4a 3d
       -0.12222944 -0.0881978 -0.081473075 0.04946032
0001d0 48 cd c3 bd fa fa ae 3d ba d9 f2 bc 6f 96 36 be
       -0.09560639 0.08543964 -0.029644836 -0.17830823
0001e0 92 6e 77 bd 0c d3 11 be dc 8e 30 be cd b4 00 be
       -0.060408182 -0.14240664 -0.17241997 -0.1256897
0001f0 5d 07 38 be fd 13 c2 3d a6 be 01 3e 26 1d 4e 3d
       -0.17971559 0.09476469 0.12670383 0.050320767
000200 25 04 b3 bd 56 c3 22 be f2 67 79 bc 9b bb 30 3d
       -0.08741025 -0.15894827 -0.015222536 0.043147665
000210 bc e4 c5 bd cc f0 9a bd 48 f0 1b be 21 90 52 3d
       -0.09662768 -0.075654596 -0.15228379 0.051406983
000220 2f 08 7d bc 52 25 dd 3c aa 89 14 be f7 23 1e be
       -0.015443846 0.026995335 -0.1450564 -0.15443407
000230 23 d4 01 3e c9 14 f7 3d aa c4 b2 3c 54 77 ae bd
       0.1267858 0.12064511 0.021822292 -0.08518854
000240 9a 61 7a bd 50 69 cd bd d9 52 66 3d ce 06 b6 3c
       -0.061128236 -0.100298524 0.056231353 0.022220042
000250 7c 9f 87 b9 bc 0f c8 bd 64 1f ea 3c 50 aa 8d bd
       -0.00025868032 -0.09768626 0.028579421 -0.0691725
000260 9d e9 ff 3c 7b c7 a1 3c bc 87 f3 bd 5a ec d2 bc
       0.031239325 0.01974844 -0.11891124 -0.025747467
000270 bc 9d b5 3c 7d fe cc bc 25 e3 da 3c c4 bf f8 bd
       0.02216994 -0.025023693 0.02671964 -0.121459514
000280 5c 93 30 3d f5 6d cd 3d 89 9d 88 3d 11 16 90 bc
       0.043109283 0.10030738 0.066706724 -0.017588647
000290 37 c5 a4 3d c0 af 16 3e 12 53 88 3d 07 35 02 3e
       0.08045428 0.14715481 0.066564694 0.12715541
0002a0 4a b1 ca 3d fc e1 13 bd 95 c4 36 3d d4 71 a3 3c
       0.098970965 -0.036104187 0.04462107 0.019951738
0002b0 0b 84 89 3d c4 4b a9 bd 23 b1 0f bd b3 bd 9f ba
       0.06714638 -0.08266404 -0.03508104 -0.0012187272
0002c0 d1 0e cf 3d b2 60 ab ba 23 8d 6a bc 69 d3 b1 bc
       0.10110248 -0.0013075082 -0.014315876 -0.021707254
0002d0 0a 7e 69 bd e6 87 fa 3c 2b 1e cb bd 0d 00 99 bd
       -0.057004966 0.03058238 -0.099178635 -0.07470713
0002e0 5c e8 cb bb dd 1c 1a 3d 24 df 30 3d 7e 29 9b bd
       -0.0062227678 0.037625182 0.043181553 -0.075762734
0002f0 59 99 52 bd 3a cf 0c be 0f 75 e5 bd 9e 56 bc bd
       -0.051415775 -0.13750926 -0.11203968 -0.091962084
000300 61 96 0e 3d eb 7d f3 bd 9c 1a 6c 3d fe 5b 2b be
       0.03481138 -0.11889251 0.057642564 -0.16734311
000310 53 9e 16 be bf 72 32 be d1 e5 f0 bd 77 82 f7 bc
       -0.14708833 -0.17426585 -0.11762584 -0.030213578
000320 6e ac 2a 3e da 47 25 3e 8d 2a e3 3d 02 8a c7 3d
       0.16667339 0.1614069 0.110921 0.0974312
000330 6d 3c 74 3d d7 dd aa 3d de 5d 51 3d 2d a3 02 bd
       0.05962794 0.08343094 0.05111491 -0.031893898
000340 95 12 23 3c 9a 14 b6 3d e2 b7 5d bd 0d a0 a2 3d
       0.009953161 0.08890648 -0.054130442 0.079406835
000350 1d 24 06 3e 86 7b 1c 3e 4b 2b 50 3d 80 f2 bf bb
       0.13099714 0.15281495 0.050822537 -0.0058577657
000360 4e e1 3d bd f4 2a 10 bc 67 2d 60 bd d6 b2 9f 3d
       -0.046357445 -0.008799303 -0.0547308 0.07797782
000370 b4 35 67 bd a0 fd 62 3c 6d 36 c6 3d f6 0b 9a 3d
       -0.0564477 0.013854414 0.0967835 0.075218126
000380 e0 23 ab bd 99 d5 6d bc 12 40 cf bd 37 03 26 be
       -0.08356452 -0.014516258 -0.10119642 -0.16212164
000390 89 74 18 be 5a b8 57 3d 5c ed e3 bd 2b 0a d9 bc
       -0.14888205 0.052666046 -0.11129257 -0.026494106
0003a0 6f d3 8c 3c c0 29 67 bd 03 22 b1 3d 80 5c c5 3d
       0.017190663 -0.0564363 0.08649065 0.096367836
0003b0 28 1f a2 3c 25 ca 91 3d 34 58 02 3e 71 06 0f 3e
       0.019790247 0.07118634 0.1272896 0.13967301
0003c0 f9 17 ce 3d 43 7e d0 3c d9 08 80 3d 53 80 5a 3d
       0.10063166 0.025450831 0.062516876 0.053345036
0003d0 1e 93 22 bd 56 d9 cb bd 3b a7 24 3c b4 64 c5 bd
       -0.039691083 -0.09953563 0.0100496365 -0.09638348
0003e0 95 d4 af bc 32 41 9c 3b 13 c3 1b be 08 84 15 3d
       -0.021463672 0.004768514 -0.15211134 0.036502868
0003f0 26 1d 0c be bf fe 09 be 77 4d bf bd fa 3a 86 bd
       -0.13682994 -0.13476084 -0.09340947 -0.06554218

bias f4 [32]
000000 37 cc ab bd 58 55 81 be 67 cd 84 be f3 87 16 3d
       -0.0838856 -0.25260425 -0.2593796 0.036750745
000010 07 ec 32 3d 2d 17 7e be e8 ca 3d 3e c3 bd 9c 3d
       0.043682124 -0.24813528 0.18534434 0.07653382
000020 32 05 04 3d aa 83 01 bd 86 3f 9b be a1 89 dc bd
       0.032231517 -0.031619705 -0.30321902 -0.10768438
000030 eb 5a d5 bd aa 87 47 be a7 68 de bd b0 65 b2 3d
       -0.10417732 -0.19485345 -0.108598046 0.087108016
000040 60 3f 8d 3e 04 6b 93 bd df 54 00 bd d8 f3 2c be
       0.27587414 -0.07198146 -0.03133094 -0.16889894
000050 52 4d 6c be 0a e7 03 ba 2d 51 0e bd 27 4b 22 3e
       -0.2307637 -0.0005031681 -0.034745384 0.15848981
000060 d0 43 be 3d 6a c9 11 be e8 c1 69 3e 7e be 72 bd
       0.09290278 -0.1423699 0.22827876 -0.0592637
000070 35 42 9b bc 30 69 d8 bd 2c e8 5a 3e ae 08 76 be
       -0.018952468 -0.10566938 0.21377629 -0.24026749

weight f4 [32, 32, 5, 5]
000000 04 1d 0a 3a 76 cb c4 ba 7a a3 6f 3d 17 b1 12 3c
       0.0005268606 -0.0015014249 0.058505513 0.008953354
000010 1c 32 33 bc 4f 66 11 3d 2c db 5d 3c 95 b1 cc 3c
       -0.01093724 0.03549796 0.013541024 0.024987021
000020 71 d1 43 3a e8 79 32 3a f6 c3 2b bd 64 ec 6d bd
       0.0007469869 0.00068083266 -0.04193493 -0.058086768
000030 86 29 36 bd f2 bd 5b bd 4f f4 21 bc d3 0b fb 3c
       -0.044473194 -0.053647943 -0.009884908 0.030645287
000040 ee 59 30 3d a6 90 78 3d 23 fb 61 3c bf 8c 99 bc
       0.043054514 0.060684822 0.013792786 -0.01874387
000050 b6 ef b4 bc 07 4e 06 3d 00 fb a9 bc c5 b7 26 3d
       -0.02208696 0.032789256 -0.020749569 0.0407026
000060 a9 07 2c 3c 2b e2 0a bd c8 ed e2 3c d8 15 a4 3c
       0.010499873 -0.033907097 0.027701274 0.020029947
000070 8d 59 88 bc ab ea a7 3c 4f 99 08 3d d4 97 9d 3b
       -0.016644264 0.02049764 0.03334933 0.004809359
000080 f6 cf 4e bc f4 02 b1 bb e8 5b c9 bc 6c fb fa bc
       -0.012622824 -0.0054019634 -0.024579957 -0.030637465
000090 40 f8 02 3c c2 5c cf 3c be 13 09 bd 2b 86 0d bd
       0.007993758 0.025312785 -0.033466093 -0.03455178
0000a0 c1 ee 26 3d 91 e8 bd 3c d7 e7 7a bb 6c c7 c4 3c
       0.040755037 0.023182185 -0.003828516 0.024020873
0000b0 0f 34 04 3d fc a8 ee 3c e1 41 a3 bc 49 74 a2 3c
       0.03227621 0.029133312 -0.019928874 0.01983084
0000c0 49 47 ad 3b cb f6 2f 3b c3 67 97 3c b7 91 89 39
       0.005288039 0.002684998 0.018482095 0.00026239242
0000d0 1e ff 0d 3c 83 08 d5 3c e6 6b 7c 3c df b8 49 bb
       0.008666782 0.026005035 0.015406584 -0.0030780358
0000e0 8a a2 1d bc 6a d9 91 3c 10 44 00 3d 47 98 0f 3d
       -0.009621272 0.017803866 0.03131491 0.035057332
0000f0 4d b4 a7 3c d0 7d bf bc 5b 94 33 bc 50 58 ae bc
       0.020471716 -0.023375422 -0.010960664 -0.021282345
000100 7a 9f d8 3b d3 a5 41 bc 42 cf b1 bc b4 e4 86 bc
       0.006610808 -0.011819321 -0.021705274 -0.016466476
000110 09 c3 bf 3c 48 58 d4 bc f0 bd 40 bc f5 84 b3 3c
       0.02340843 -0.025921002 -0.011764035 0.021913985
000120 1c 1b 57 bb 08 9d 68 ba 31 26 e5 bc 06 60 19 3d
       -0.0032822555 -0.0008873497 -0.027972313 0.03744509
000130 ae bb 53 3c af 5a 0d 3c 50 62 12 3d cc 78 14 3c
       0.012923164 0.008627578 0.03573829 0.009062003
000140 5a a6 20 3c f2 0b fd 3c a0 98 49 bc d9 5c ad 3c
       0.009805286 0.030889485 -0.012304455 0.021162437
000150 7a e3 0f bd 19 6e 38 3d 96 db 3c 3c 94 d9 68 3d
       -0.035129048 0.045026872 0.011526963 0.056848124
000160 71 1e 2a 3d d6 f5 7e bc 05 bb 1b 3c a4 8b eb 3c
       0.041532937 -0.015561542 0.009505038 0.02875311
000170 e8 dd 99 3c 53 70 d7 3a de 86 63 3c d6 2f 11 bd
       0.018782571 0.0016436673 0.013887135 -0.03544601
000180 b9 f9 61 3c 3c 7e 9a bc 01 9d da bc 95 1a 3c bd
       0.013792449 -0.018859021 -0.026686193 -0.045923788
000190 64 6d 08 3c ea a7 c9 3c 75 45 35 3d 16 62 34 3d
       0.008326862 0.0246162 0.044255693 0.044038855
0001a0 8a 3c 91 bc a9 8a e2 3c fc 81 b4 3c e4 fe 43 bc
       -0.017729063 0.027654009 0.022034638 -0.011962626
0001b0 c8 91 24 3d 69 33 53 3d 41 f4 84 3c 59 fc 20 bc
       0.04017809 0.0515627 0.01622975 -0.009825789
0001c0 32 cf 99 3b 66 94 1c bd cc ad dc ba f0 16 1c 3d
       0.004693889 -0.03822746 -0.0016836463 0.038107812
0001d0 45 f3 8c 3c 91 08 15 bb 91 ea 72 bc 98 59 03 3c
       0.017205844 -0.0022740702 -0.014826433 0.008016966
0001e0 dd 19 b1 bc 98 93 11 3d 3a 5e 8b 3c d5 60 fc 3b
       -0.021618778 0.035541147 0.017012704 0.007701973
0001f0 a7 9e 78 bc 73 ba 31 3d cc 4f 8b 3c b9 f2 d1 bc
       -0.015174544 0.043390702 0.017005824 -0.025628434
000200 9c a7 9a 3c ee 57 85 bc d9 53 29 3c eb 1f b6 3c
       0.01887875 -0.01627728 0.010334932 0.022232017
000210 e5 71 d5 bc ee d2 b0 3c 49 07 1c 3c 55 64 9c 3c
       -0.026055286 0.021584954 0.009523221 0.01909081
000220 5b b1 07 3d 57 29 0d bd 3b c1 af bc 9d d3 20 bc
       0.033128124 -0.034463253 -0.021454444 -0.009816078
000230 68 89 26 3d 54 3c 0d 3d 98 48 57 3d ac 39 70 3c
       0.040658385 0.03448136 0.052559465 0.014662188
000240 39 53 0a 3d c5 4a c7 3c 5f 8a 41 bc cb 14 a0 3c
       0.033770774 0.024327645 -0.011812775 0.019541165
000250 16 e1 43 3c 1e a5 e6 3b 35 d3 b3 bb 09 40 13 3c
       0.01195552 0.0070387265 -0.0054878243 0.008987435
000260 5e bc 00 bc a0 64 88 bc 98 11 92 bc 6b 7b f5 bc
       -0.00785741 -0.016649544 -0.017830655 -0.029966077
000270 d8 76 76 3c d3 cb bb 3c ed a7 03 3c fc 7c 51 3c
       0.015042983 0.02292434 0.008035642 0.012786146
000280 9f b3 ba bc 6c ce 20 bd 5e 03 9b ba 3c 69 4c bd
       -0.022790728 -0.03925936 -0.0011826565 -0.049905047
000290 46 4b d8 bc bd a2 c6 3c 0f df be 3b 90 0f 4e 3d
       -0.02640308 0.024247522 0.0058249305 0.05030781
0002a0 0f c8 14 3c b7 c3 d9 bc 59 df c1 bc 48 3b 92 bc
       0.009080901 -0.026582582 -0.02366607 -0.017850533
0002b0 30 30 34 3c 06 54 7e 3b cb b6 fa bb 17 b2 8b 3c
       0.010997817 0.0038807406 -0.007651185 0.017052693
0002c0 7b 58 c4 3b ee ff 18 3d 60 2e 14 3d f5 04 00 3d
       0.005991993 0.03735345 0.03617704 0.031254727
0002d0 0f 8f 84 3c 21 05 10 3d 52 2e 8d bc 8d 72 4a bc
       0.016181497 0.03516114 -0.017234001 -0.012356413
0002e0 61 09 62 bc 0f 40 b9 3a d7 37 c1 bc f7 86 9e bc
       -0.013796181 0.0014133471 -0.023586197 -0.019351466
0002f0 86 ee 2e 3c f7 30 41 bc 4d e2 bd 3c ba ba f8 3c
       0.010676986 -0.011791459 0.023179198 0.030362476
000300 13 fc 99 bb 0e a5 ea bc 4e ac 53 3c f6 7b 2d bd
       -0.004699239 -0.028643157 0.012919499 -0.042354546
000310 66 28 96 3c 51 41 e2 3c da 52 2f bb df 8b f1 3c
       0.01832981 0.027619036 -0.0026752264 0.029485641
000320 98 94 f4 3a 56 12 3d 3c 01 ef 31 3b 53 d6 00 3d
       0.0018660007 0.011540016 0.0027150514 0.031454396
000330 f3 30 b1 3c a7 b2 5f 3d 4a d5 58 3d df 90 41 3d
       0.021629786 0.054613736 0.052937783 0.0472573
000340 0f 68 10 3d d2 74 08 3c bd 16 e6 3c 9b 08 b4 bb
       0.035255488 0.008328633 0.028087014 -0.00549419
000350 2e 70 6c 3c 29 55 54 bb c0 e6 eb 3c b6 9c 20 bd
       0.014431043 -0.0032399392 0.028796554 -0.03921195
000360 1d e1 4c 3c 88 7c 41 bc 56 ff dc bc e7 0c d1 bc
       0.012504843 -0.011809476 -0.026977222 -0.025518848
000370 01 8d 32 bb ee ec d5 3c 08 c6 5e 3c 67 c2 99 bc
       -0.002724469 0.026113953 0.013597019 -0.018769456
000380 93 33 f7 3c cb b9 51 3d 63 c5 37 3d d4 58 89 3b
       0.03017596 0.051202577 0.044865977 0.0041914973
000390 14 4b db bc 18 d0 c1 bc 39 2e 39 3d 5d 95 7b 3d
       -0.026769198 -0.023658797 0.045210097 0.06142174
0003a0 2f b2 50 3d 66 92 9e bb 5b fe b5 bc 1c 98 c5 bb
       0.05095118 -0.0048392294 -0.022216013 -0.0060300957
0003b0 07 71 c3 bb 2c 62 20 3d bb a1 06 3d 25 26 6a 3d
       -0.0059644016 0.039156124 0.032869082 0.057165284
0003c0 ac 97 19 3c 64 75 3a bd c5 c5 ec bc 12 0c 2a bd
       0.00937454 -0.04552211 -0.028902898 -0.041515417
0003d0 d4 71 ac bb 9b 04 af bc 87 25 a9 3a 85 6f 90 3c
       -0.005262593 -0.0213645 0.0012904861 0.017631302
0003e0 b0 dc 12 bd 2f dd 54 3b 5c b1 77 bc 28 2f 5f 3c
       -0.035854995 0.0032480469 -0.015117969 0.013622083
0003f0 52 51 b6 bc ce f5 08 3d c7 ff b8 3c 31 43 6a bc
       -0.022255573 0.033437543 0.022582902 -0.014298246

bias f4 [32]
000000 45 ab d4 3b 43 d6 55 bc f2 7e 1b 3c 0d f1 bc bc
       0.0064901435 -0.013051572 0.009490715 -0.02306416
000010 0f 4c 6e 3c 40 20 90 bb fd c7 ca bd 22 6a a8 bd
       0.014544501 -0.0043983757 -0.09901426 -0.08223368
000020 ff 4d 27 3d b0 e6 c2 bc 08 93 8f bc 9a 32 89 3d
       0.040845867 -0.023791641 -0.017526165 0.066991046
000030 ec 0c b4 bd 4c 80 b2 3b 72 24 98 3d a9 8e 96 bc
       -0.08791527 0.005447423 0.074288264 -0.018378573
000040 56 81 b3 bc ef c6 c8 3c 35 20 6f 3d b2 ec a6 bd
       -0.021912258 0.024508921 0.058380324 -0.08150615
000050 58 d4 17 bb a4 a8 15 bd 60 08 f5 bc e8 ef da 3c
       -0.0023167338 -0.03653778 -0.02991122 0.026725724
000060 0c ba 0d 3d b4 58 13 3d 94 2e e6 bd 5d 9a 17 bd
       0.034601256 0.035973266 -0.11239353 -0.037012447
000070 d4 1b a3 bd c7 59 b2 3b f8 57 6a bd 65 6a 6e 3d
       -0.07964292 0.005442831 -0.0572128 0.058206934

weight f4 [64, 32, 5, 5]
000000 3c 28 98 3c 88 b7 57 3c 8f af cb 3c 19 a7 65 ba
       0.018573873 0.013166316 0.024863986 -0.0008760556
000010 b8 9a 7f bc 02 51 f9 b9 ea 5b d2 bc 55 f3 2a bc
       -0.015600853 -0.00047553336 -0.025678594 -0.010433991
000020 94 df 59 bb f1 b6 20 3d a0 86 be bc 8c e0 67 39
       -0.0033244835 0.039236967 -0.023257554 0.00022113527
000030 d7 4c e8 3b 68 52 d5 bb 88 7a f1 bc 82 0f 11 bc
       0.007089238 -0.0065100677 -0.029477373 -0.008853795
000040 bf 9e 23 bd ee 62 d0 bc cb 57 64 bc 62 13 9f bc
       -0.039946314 -0.025437798 -0.013936947 -0.019418422
000050 1b 0a c5 3b 24 35 66 bc e8 72 b9 bb b0 a1 8c bb
       0.0060131676 -0.014050756 -0.00565945 -0.0042917356
000060 91 6e c8 bc c4 30 10 bb 0f dd 17 bc e5 a6 65 bc
       -0.024466785 -0.0022001723 -0.009269013 -0.014016842
000070 5e 18 40 3c 02 02 d6 3b 31 5d 12 bc ce 44 c8 bc
       0.01172456 0.006531001 -0.008933351 -0.024446871
000080 9d ee 04 3d c9 d7 0a 3c 06 85 5f 3c b8 cd ba bc
       0.03245412 0.008474299 0.013642555 -0.022803172
000090 50 4c 26 3c 8e 2c 9f 3c ef b3 22 3d c4 31 97 bc
       0.01015003 0.019430425 0.03972238 -0.018456347
0000a0 94 87 e8 bc 61 9e a1 bb 3c d4 de bc 1c 3b 03 bd
       -0.028384961 -0.0049322103 -0.02720081 -0.032038793
0000b0 c8 37 72 bb 89 b5 57 bc 1f 06 d0 bc 71 53 97 3c
       -0.0036959518 -0.01316584 -0.025393544 0.018472405
0000c0 e1 99 f4 bc a7 ac 45 bc f0 40 01 bd b8 40 89 ba
       -0.029858531 -0.012065089 -0.03155607 -0.0010471558
0000d0 78 eb 0e 3b 9e bd aa 39 0b 95 07 bb 87 59 b0 3b
       0.002180783 0.00032566203 -0.0020688202 0.0053817662
0000e0 71 07 ab bc 2e 5c 2b bd dc 00 71 3c e3 83 f0 3c
       -0.020877572 -0.041835956 0.014709678 0.029359763
0000f0 92 a1 d7 bc cd 85 6b bb d3 a4 d4 bb aa 0e 3e bc
       -0.02632216 -0.0035937906 -0.006489375 -0.011600176
000100 2a 7a f4 bc ed d3 fc bc 5b 3e e1 bc f5 05 d8 3b
       -0.029843409 -0.030862773 -0.027495554 0.006592507
000110 b6 7a d2 bc 1c d0 59 bc 92 59 f8 bb aa 62 f9 3c
       -0.025693279 -0.013294246 -0.007579037 0.030442555
000120 d7 15 7c bc b6 1d f5 bb be f5 7a bc 72 35 2d 3c
       -0.015386066 -0.0074803485 -0.015317379 0.010571824
000130 77 1d e0 3b f4 9d 42 3d 9b 54 76 3d 35 bf 66 3b
       0.00683945 0.047513917 0.06013928 0.0035209183
000140 92 90 2a bd aa 9a fd bc e4 b1 85 bc 9a b6 45 3d
       -0.04164178 -0.030957539 -0.016320176 0.048269846
000150 38 0e 69 3d 3e e4 81 3a d2 7a 96 3c d6 23 07 bd
       0.056898326 0.000990994 0.018369112 -0.03299316
000160 54 9c 14 bd e6 89 97 3b bf 8a 85 3b 41 56 46 bd
       -0.0362819 0.004624593 0.0040753777 -0.048422102
000170 bd 42 09 bd d3 69 39 bd 10 43 43 bc 81 a0 10 bb
       -0.033510912 -0.045266937 -0.011917844 -0.0022068324
000180 4d 06 67 bb f0 21 ed bc d7 cf 1a bd 9b 5f 26 3d
       -0.0035251558 -0.028946847 -0.037795868 0.04061852
000190 ca 62 22 bb c4 91 17 bc 7b 21 3f bc 0a 62 6b 3c
       -0.002477812 -0.009251062 -0.011665697 0.014366636
0001a0 7d f0 ff 3b 7e 58 19 3d 7e d3 80 bc b9 97 0a 3d
       0.007810651 0.03743791 -0.015725847 0.0338361
0001b0 2b c7 36 bc 5c 03 eb 3c 24 4e af 3c 6d 24 3a 3c
       -0.011155884 0.028688125 0.021399565 0.011361224
0001c0 1f da 80 bc ab 53 ce 3b c5 0d 94 bc ee 64 5c bc
       -0.015729008 0.006296595 -0.018072972 -0.013451798
0001d0 d4 8c 73 bc b2 64 86 bc b6 54 e0 bc 6c 48 17 ba
       -0.014865119 -0.016405437 -0.027384143 -0.00057709846
0001e0 53 fc 14 3c 6a 15 a3 bb 9a 71 c6 bc 1a df 7d 3b
       0.009093362 -0.004976918 -0.024224091 0.0038737715
0001f0 5c 36 56 b9 1c 5f e1 bc 46 e0 fb bc 5a df 15 bb
       -0.00020428881 -0.027511172 -0.03074659 -0.0022868724
000200 16 44 66 3d a1 16 00 3c 0c 8a 7c 3d 8d f1 ed 3c
       0.056217276 0.007817895 0.06165509 0.029045844
000210 cc 06 91 3a cd 4d 2f 3d d0 02 85 3c d0 ec 53 3d
       0.0011064648 0.042798806 0.016236693 0.051739514
000220 16 e9 55 3c f9 c7 4f bb 4b 93 20 bc f9 0e 14 3d
       0.01305606 -0.0031704886 -0.009800742 0.03614709
000230 7a 5e 4e 3d 0c 95 11 3d 3f 9e b6 3c 2e fe 8c bc
       0.05038307 0.035542533 0.022292254 -0.017211046
000240 d1 12 9e 3c 4a 17 26 3d 6d 46 4e 3d a7 69 46 3c
       0.019296082 0.040549554 0.050360132 0.01211015
000250 0a 29 5a 3c 46 a9 5c 3d da 40 35 3c 85 58 a0 3c
       0.013315449 0.05387237 0.011062825 0.01957346
000260 c3 01 13 3d 7e cb 1b bd 30 fc 8c bc 47 f9 f5 3c
       0.035890352 -0.038035862 -0.017210096 0.030026091
000270 6d 65 5f 3d 02 d6 80 3d 36 3d 05 bd bc ce 4a bc
       0.054540087 0.06290819 -0.03252908 -0.012378391
000280 fa 67 bb 3c 0f 9d 91 3c 39 5a 40 3d c8 86 32 3c
       0.022876728 0.017775087 0.046961043 0.010896392
000290 53 f0 c7 bc 8e 05 c1 bc c6 7b 1e 3d 83 60 05 3d
       -0.024406588 -0.023562219 0.03869226 0.032562744
0002a0 de e9 d0 3c bd eb 04 bc 88 e3 2b bd fe 36 aa bc
       0.025502142 -0.008112845 -0.041965038 -0.020778175
0002b0 5d d3 40 3d 7b f9 5d 3c 26 a9 0b bd 75 e6 d4 bc
       0.04707657 0.01354825 -0.03409686 -0.025988797
0002c0 11 93 95 bb 45 8f 06 3d 50 0c a8 3c a0 1f 1e bd
       -0.004564651 0.032851476 0.020513684 -0.03860438
0002d0 41 19 e8 bc c2 cf ad bc ab 20 f5 3c ce 99 d7 bb
       -0.028332355 -0.02121723 0.029922804 -0.0065796142
0002e0 8a f2 b3 3c 6f ca e2 bc ce 4f a3 3c 06 8c 8f 3a
       0.021966238 -0.027684418 0.019935515 0.0010951764
0002f0 1b 4d b3 3c 7a 53 0b 3d 8e 24 a7 3c 4b fd f1 3b
       0.021887353 0.034015156 0.020403173 0.007384931
000300 87 35 6d 3b 97 26 0f bc 44 cc dd 3c 74 c1 d4 bc
       0.0036195235 -0.008737228 0.02707494 -0.025971152
000310 01 57 24 3c d0 24 c8 3c a4 d1 e7 bb b9 24 d1 3c
       0.010030509 0.024431616 -0.0070745517 0.025530206
000320 10 22 53 3c 0f d4 a7 3c 27 f1 29 bd 47 0b 0a bd
       0.012886539 0.02048686 -0.041489746 -0.03370216
000330 6d b8 da 3c 65 57 a8 3c 8c ff 37 3d 0e c6 1f bc
       0.02669927 0.020549485 0.044921443 -0.00975181
000340 aa ae c4 bb f9 f0 84 3b 5b e7 69 bb 1d 7e 16 bb
       -0.006002267 0.0040570465 -0.0035690877 -0.0022963353
000350 f6 d6 11 3d bc 36 ec 3b 61 0b 87 3c 92 e8 91 bc
       0.035605393 0.0072086733 0.016484918 -0.017811093
000360 31 3c df ba 67 22 01 bc e2 0f 0e bd fb a3 39 3c
       -0.0017031488 -0.007881737 -0.034683116 0.0113306
000370 53 b2 ba bc 12 05 1c bc 5e 52 17 3d c0 6c 9a bc
       -0.02279011 -0.009522693 0.036943786 -0.018850684
000380 e6 a0 84 3b 6b a7 02 bb d9 3d c0 39 49 e1 82 3b
       0.004047501 -0.0019936215 0.00036667174 0.0039941412
000390 6d d1 7e 3d 49 6f cc bc 29 89 96 3c 7d 45 1c bc
       0.062211443 -0.024955409 0.01837595 -0.009538052
0003a0 34 a5 26 3c 7f c5 a8 3c b3 c3 2c 3d dc 27 08 bd
       0.010171223 0.020601986 0.04217882 -0.033241138
0003b0 3a b3 11 bd ac 28 70 3a f8 63 94 3c 77 ff 07 3c
       -0.035571314 0.0009161334 0.018114075 0.008300654
0003c0 2b ef 39 bd db 7f 8c bc 9f 72 35 bd 14 ee 33 3a
       -0.045394104 -0.01715081 -0.044298764 0.00068637845
0003d0 2d 0c 80 3c 2d 74 00 bc 05 90 09 bd 48 01 5e 3c
       0.015630806 -0.007840198 -0.033584613 0.01355011
0003e0 8a 51 d7 3c 7f 6a ed 3c f7 e7 e2 bc 4c 51 4b bb
       0.026283998 0.028981445 -0.0276985 -0.0031023799
0003f0 f3 2b d4 3c 31 15 a7 3c d0 35 81 ba 9d 59 4a 3b
       0.025899863 0.020395847 -0.0009857956 0.0030876168

bias f4 [64]
000000 a8 b1 f6 bb 7b be 3f bb 1b c7 43 bc 52 37 55 3b
       -0.0075285025 -0.0029257822 -0.011949326 0.0032534194
000010 fe 67 01 3d 1e 6b 1a 3c 76 81 b2 3c 0c db 42 bd
       0.031593315 0.009424953 0.021790247 -0.04757218
000020 94 d7 e3 bc d8 41 f5 bb 2d 5b 36 bd a3 1c 02 3d
       -0.027812757 -0.007484656 -0.044520546 0.03176559
000030 31 5e 3a bd 1f 35 41 3d 0d 0e c4 3c 24 48 64 bd
       -0.045499984 0.0471698 0.023932481 -0.05573286
000040 5c 7f c2 bc 93 9c af bd e4 3a 95 bc 6a 05 22 bd
       -0.02374237 -0.08574786 -0.018216558 -0.039555945
000050 c2 c2 b8 3b 09 0b 27 3d 59 74 85 bc 06 84 c9 bc
       0.0056384513 0.04078201 -0.01629083 -0.024599086
000060 e9 40 8b bd 9c 65 25 ba 0e 04 ca 3c 73 93 8c bb
       -0.0679949 -0.00063093915 0.024660137 -0.0042900383
000070 8c b2 1d 3d df 30 6b 3c 0b ef b0 ba 2f c4 1f bd
       0.038500354 0.0143549135 -0.0013498975 -0.039005455
000080 36 cc 0d bb 26 2c 19 bd 0a 8c 25 bd 0f de 2c bd
       -0.0021636612 -0.03739562 -0.040416755 -0.04220396
000090 ba c8 2d bd 49 d5 19 bd 28 3f f3 3b 1d 65 34 bd
       -0.042427756 -0.03755692 0.0074233003 -0.04404174
0000a0 c2 d9 c3 bc 5a e1 ec bc 88 52 4e bd 20 40 99 bc
       -0.023907546 -0.02891605 -0.050371677 -0.018707335
0000b0 10 ee 13 bd 77 19 60 bd 84 e0 f4 bc ba 80 9d bc
       -0.036115706 -0.054711785 -0.029892214 -0.01922642
0000c0 04 12 eb bc de f1 20 3d b3 0e 1e bc b7 39 0e 3d
       -0.028695114 0.039293163 -0.009647059 0.03472301
0000d0 54 e4 22 bd f7 78 20 3d 5a d0 17 bb 21 6f 77 3d
       -0.039768532 0.03917786 -0.0023164959 0.060408715
0000e0 45 08 7a bd e4 da ea bb 65 c8 12 3c f7 c6 e7 3c
       -0.061043043 -0.007167207 0.008958911 0.028293116
0000f0 63 6e 9e bb e6 bc 8f bd 29 ce d6 b9 a5 41 0c 3c
       -0.0048349365 -0.070184514 -0.00040970862 0.008560573

weight f4 [64, 1024]
000000 81 0f de bc cf 2e a4 3c e8 d0 75 3a ac 00 b5 bc
       -0.027107002 0.020041851 0.0009377138 -0.022095047
000010 e2 03 10 3d e5 25 0a 3c 7e 4a fc bb 37 25 39 bc
       0.035159953 0.008431886 -0.00769931 -0.011300377
000020 0f fe e9 bc 4c e1 43 bd 17 32 29 3d 5c 97 a8 3b
       -0.028563527 -0.04782228 0.041307535 0.0051449966
000030 a8 33 19 3d 72 6a d6 bb 2d a0 ce 3b 20 cd 2b ba
       0.03740278 -0.006543451 0.0063057155 -0.00065536983
000040 38 7c ba 3c e0 68 85 bc 86 ea 13 bd 69 b9 f6 3c
       0.02276431 -0.01628536 -0.03611233 0.030117707
000050 56 10 d3 bc cd 7b e0 bc d5 00 9a bb b3 25 44 3c
       -0.025764626 -0.027402783 -0.004699806 0.011971879
000060 10 50 01 3d d9 2e 52 bc 8e 01 ac bc aa 6e e0 3c
       0.031570494 -0.012828552 -0.020996835 0.027396519
000070 52 b8 b1 3c 10 b9 15 3d 98 e8 f7 3c e0 65 8f bc
       0.021694336 0.036553442 0.030262277 -0.017504632
000080 25 5c 97 bc 1e f0 03 3d 6b 80 e0 bc 03 20 bc 3c
       -0.018476555 0.032211415 -0.027404984 0.022964483
000090 27 78 1a bc b9 20 a7 3c 65 7e 5f bc 7b f9 82 bc
       -0.009428061 0.020401346 -0.013640975 -0.015988102
0000a0 7b 23 95 3c 13 55 dd bc db 46 4b bc 95 d1 f3 3c
       0.018205395 -0.027018106 -0.01240703 0.029763022
0000b0 7d 08 14 bd d2 05 3e 3c eb 93 16 3d d9 4e 66 3c
       -0.036140908 0.011598067 0.03676216 0.014056885
0000c0 30 26 f4 3b c7 09 ed bc de 39 73 3c b6 a1 6b bc
       0.0074508414 -0.028935326 0.01484534 -0.014381817
0000d0 db e2 f5 3c e9 84 c6 bc 7c de f9 3c c3 8b be 3c
       0.0300154 -0.024233298 0.030501597 0.023260003
0000e0 46 a9 02 3d 32 e5 b2 bc 6e 1b 40 3a 0a 73 2f 3c
       0.031899713 -0.021837804 0.0007328306 0.01070858
0000f0 7f 82 6f 3c 6e f7 05 bd 88 3e 83 3c ec 9d 0b bd
       0.014618515 -0.03270667 0.016021028 -0.034086153
000100 14 23 bb bb aa d8 39 3b 19 0f f4 3c c7 8d b3 bb
       -0.0057109687 0.0028357902 0.029792355 -0.0054795477
000110 c4 00 07 3c 3e b9 fd bb 8a 9f 41 3b 60 90 4b bc
       0.008239929 -0.00774303 0.0029544556 -0.012424558
000120 d9 e8 65 3c 5b f2 f8 3c 43 e7 a6 bc 49 1a 1b bd
       0.014032566 0.030389002 -0.020373946 -0.037866864
000130 08 45 8d bb 91 e3 ac bc 5b 17 30 3c 4d 7c 88 3b
       -0.0043112077 -0.021104606 0.010747756 0.0041652084
000140 c8 7d 70 bc 65 08 d0 3c 5c 9d 26 bc 4f 2b b3 3c
       -0.014678426 0.025394628 -0.010169353 0.021871237
000150 65 1a 9a bc 06 5d 81 3c 22 27 c2 bc 69 e2 22 3d
       -0.018811414 0.015791427 -0.0237003 0.039766703
000160 ec c4 d1 3b bd 58 a4 3c 9c 6b 00 3c 33 c4 1a 3d
       0.0064016487 0.020061845 0.007838156 0.037784766
000170 75 e3 34 3c 79 49 3a 3c 14 d9 e5 3c 7b 46 72 3c
       0.011040558 0.011370056 0.028057612 0.014787312
000180 62 2b 2a 3d cd 55 9d 3c c6 6c 37 3b 4f e2 07 bc
       0.04154528 0.019205952 0.0027988418 -0.008293702
000190 96 88 79 3c ed 15 05 3d fc 0c 4f bc 93 9c 44 bc
       0.0152303185 0.032491613 -0.012637373 -0.012000221
0001a0 37 b6 c1 3c 78 f7 02 3c 5d cf b4 bc c8 e6 a8 3b
       0.023646457 0.007993571 -0.022071535 0.0051544644
0001b0 dc b4 7d 3c d6 cb c5 3b d3 00 91 bc 2c 3b 04 3d
       0.015485015 0.006036262 -0.017700588 0.032282993
0001c0 16 6b 3b 3c 92 8d 8f bc 98 a0 1d bd 5e 3f 3e 3c
       0.0114391055 -0.01752356 -0.038483232 0.011611788
0001d0 27 b5 d0 3c 15 a2 db bc ba 68 2d bd b0 7a 6d bc
       0.025477005 -0.026810685 -0.042336203 -0.014494583
0001e0 9d 46 96 3c b8 d9 44 3d b6 61 66 3b 75 02 6a 3c
       0.018344218 0.048059195 0.0035153455 0.014282812
0001f0 69 df 65 bc 69 c6 2d 3c c1 4a c0 bc c9 76 a4 bc
       -0.014030316 0.010606387 -0.023473145 -0.020076172
000200 4c 3d cc 3c 9d 9d b8 3b c1 83 72 bc d0 a4 0e 3c
       0.024931572 0.0056340233 -0.01480192 0.008706287
000210 9a 8a d6 bc fe 97 2e 3b 08 00 18 3c ea 56 de bc
       -0.026189137 0.0026640887 0.009277351 -0.027141053
000220 2a 28 63 bb 01 94 fb bc 5d ed ed bc 8d 1f 77 bc
       -0.003466139 -0.030710222 -0.029043848 -0.015083206
000230 c1 b7 14 bd b5 fd 4f bc d2 15 08 bd f4 84 96 3c
       -0.036308054 -0.012694766 -0.033223934 0.018373944
000240 b2 42 69 bc 5e 81 08 bc e0 d4 a5 3c 06 d2 84 bc
       -0.014237093 -0.008331625 0.020243108 -0.016213428
000250 58 65 7e 3b e9 1f 76 3b eb 05 eb bc 06 ec 85 3c
       0.003881773 0.003755564 -0.028689345 0.016347896
000260 97 2a 30 3d e4 8e 15 3d 99 02 27 3c 6b 1d f0 bb
       0.043009367 0.036513224 0.01019349 -0.0073277256
000270 6a b0 88 bc 28 fc 17 3a 50 5e 4f 3b 76 7f 5e 3d
       -0.016685683 0.0005797767 0.0031641908 0.054320775
000280 99 e6 ee 3b 79 a1 a9 bc 8a bb 5f bb 26 c6 e2 bc
       0.007290673 -0.020706879 -0.0034138882 -0.027682375
000290 61 ae dd bc 9d fa bf bb 58 58 e1 bc a7 9d b3 3b
       -0.02706069 -0.005858733 -0.027507946 0.00548144
0002a0 7d 72 16 3c 00 f6 bf 38 b8 b5 4c bd 71 e4 d3 bc
       0.00918257 9.153411e-05 -0.049977988 -0.025865765
0002b0 0f 78 0b 3c ce 21 2f 3c 77 e7 d1 bb 9a 01 c0 bc
       0.008512511 0.010689212 -0.0064057666 -0.023438264
0002c0 f7 42 b8 bc 9a c0 de ba 6c 1b 40 bc 90 7a d3 3b
       -0.022492869 -0.0016994656 -0.011725288 0.0064538196
0002d0 ad 92 ca bc 99 88 26 ba 80 80 df 3c d8 3b 58 3b
       -0.024728144 -0.0006352752 0.027282953 0.0032994654
0002e0 c0 2f c2 3c eb f1 01 bc 91 3f d6 3c 0a 0b fe 3b
       0.02370441 -0.007931213 0.026153358 0.007752781
0002f0 d9 9c ff 3b d3 f8 59 bb 0d 92 de 3a 4f 59 dc 3c
       0.00780068 -0.0033259883 0.0016980782 0.026898054
000300 cf b5 b3 3c 85 a0 00 3d fb 80 b9 bc bd 1b 7b bc
       0.021937279 0.031403083 -0.02264451 -0.015326438
000310 41 34 aa bc c9 41 40 3c 6a 79 45 bd 27 39 0d bc
       -0.02077687 0.011734434 -0.048211493 -0.008619583
000320 ab de ee 3b d8 26 91 3b 13 96 5a bc e0 7c b5 3c
       0.0072897277 0.0044296794 -0.013341445 0.022154272
000330 b5 8f eb bc 5a 9f 26 3c ce 0a 04 3d 00 81 8c bc
       -0.028755048 0.010169828 0.032236867 -0.017151356
000340 16 28 e5 bc c9 09 f3 3b 24 83 94 bc bf cd c5 3c
       -0.027973216 0.007416938 -0.018128939 0.024145959
000350 f3 bd 09 bd 02 0d ba 3c 94 c8 2e 3a 88 d5 9f bc
       -0.033628415 0.02271128 0.0006667462 -0.019511
000360 bd 85 a0 bc 88 c1 d2 bc e0 ce 86 3c 82 7c bc 3c
       -0.019595021 -0.025727049 0.016456068 0.023008589
000370 d7 4d db 3a 51 2f 87 3c c4 bf d1 3c 16 80 36 3d
       0.0016731572 0.016502054 0.025604136 0.044555746
000380 c0 ae ee bb ec 7f ae bc 1f bc 68 3b b0 af ca bc
       -0.0072840154 -0.021301232 0.003551252 -0.024741977
000390 ca 63 c7 bb fd 4e be 3c c6 23 7b bc a0 35 7e 3b
       -0.006084894 0.023231024 -0.015328353 0.0038789287
0003a0 b6 88 97 3c 06 aa 8b bc c7 d2 81 3c 00 36 91 3c
       0.018497806 -0.017048847 0.015847577 0.017725945
0003b0 6e 7f 40 bc 80 77 d4 3b 6f 58 84 3b 82 e5 a2 3c
       -0.011749132 0.006483972 0.0040388624 0.019884828
0003c0 c1 3e 90 3b bb b0 ce bc 72 14 15 bd 1a 2d bd 3b
       0.004402012 -0.025230756 -0.03639645 0.005773199
0003d0 ad 42 01 bd 14 31 d0 bc 68 79 e7 bc 65 d8 6b bc
       -0.031557728 -0.025414027 -0.028256133 -0.014394854
0003e0 aa 96 25 bd cb ed 78 3c 1b 19 83 bc c5 55 f1 bc
       -0.040426888 0.015193413 -0.016003182 -0.029459843
0003f0 1c 3f e7 ba 60 b8 a1 bc 7c 62 54 b9 e2 8c f2 bb
       -0.001764271 -0.019741237 -0.00020254584 -0.0074020484

bias f4 [64]
000000 46 1f 2c bc 1d 5a c3 3c d0 38 a0 bc f2 76 6d 3c
       -0.010505503 0.02384668 -0.01955834 0.014493691
000010 a4 3d 5a 3c e7 70 a2 bc c8 c7 c5 3c 19 79 68 3d
       0.01332036 -0.019829227 0.024143115 0.056756113
000020 bf 35 93 3c 3d ab 3a bc b7 60 5d bd 29 32 fe 3b
       0.017969964 -0.011393365 -0.054047313 0.0077574444
000030 bd c7 5b bc 57 8e bc 3c b8 10 2a 3c 77 0f ae bb
       -0.013414321 0.023017092 0.010379963 -0.005311902
000040 32 dc 9e bb 07 2c 34 bb 22 71 af bc 60 e6 2c bd
       -0.0048480267 -0.0027492063 -0.02141625 -0.04221189
000050 c8 22 b2 3c 8c 2d f2 bb 71 d6 41 3d f8 76 5f bc
       0.0217451 -0.0073906835 0.047323648 -0.013639204
000060 f2 bb 8d bb 41 98 6e 3c f6 87 89 bc 34 5d 83 bc
       -0.0043253833 0.014562667 -0.016788464 -0.016035654
000070 8d 08 ae 3c 07 44 fb 3b f4 ef f1 bc 64 cd bf bc
       0.021244312 0.0076680216 -0.029533364 -0.023413368
000080 b0 5d 37 3d d4 f3 47 39 7c b9 13 bd d6 20 29 3d
       0.04476708 0.00019068952 -0.036065564 0.04129108
000090 45 86 23 3c ef 35 50 bc 05 7c 20 bd 76 38 18 bd
       0.009980743 -0.012708171 -0.039180774 -0.03716322
0000a0 41 41 e6 3c 7d 75 78 ba 50 d1 b2 3c 2d fb 0e 3c
       0.028107287 -0.00094779563 0.021828324 0.008726877
0000b0 1e f5 9e 3c 20 09 cb bc 1f 28 02 3d 59 df 29 bb
       0.01940399 -0.024784625 0.031776544 -0.002592048
0000c0 f4 d3 9c bc 47 41 3b 3b 6a 32 53 3d 34 4b ab bc
       -0.019144036 0.0028572844 0.05156175 -0.020909883
0000d0 8d d0 30 3d ce 7c 7a bd 55 7d 8e bc 6a 42 26 bd
       0.04316764 -0.06115418 -0.017393747 -0.04059068
0000e0 10 ef c6 3c 28 6c 51 bd 2b 91 03 3d 0c 1f 10 3d
       0.024283916 -0.051128536 0.032120865 0.03518586
0000f0 4f 05 b4 bc 6b 2d 57 bc cf 7e 8d 3c 3b a9 ba bc
       -0.021975188 -0.013133387 0.017272381 -0.022785774

weight f4 [10, 64]
000000 f8 e1 e7 bd e8 96 07 be 97 2d 1d 3d e9 0e 93 bb
       -0.11322397 -0.1324116 0.038373556 -0.0044878614
000010 11 7e 84 bd db 4e bd bd d0 62 ce 3d 0d a6 7e be
       -0.06469358 -0.09243556 0.10077441 -0.24868031
000020 97 86 4a 3e 56 fb c1 bb 33 dc c0 3d 5e c0 ed bd
       0.19777904 -0.005919854 0.09417 -0.11608957
000030 ec e9 80 bd 01 fd 9c bd 80 55 cb bd 84 21 8b 3d
       -0.06294617 -0.07665444 -0.09928417 0.06793502
000040 be 4f 2d 3e e0 3c 75 3b 42 ce 33 be 7c 57 52 3e
       0.1692495 0.0037420318 -0.1755915 0.20541185
000050 bd af 86 3d b0 d8 24 3e 3b ec ad bd 42 93 fc 3d
       0.06576488 0.16098285 -0.08492323 0.12332775
000060 44 bd 3f 3d 8a 4b 21 bd f9 cb 1a be 81 69 fa 3d
       0.046811357 -0.03937868 -0.15116872 0.122271545
000070 6a e9 9c 3d 50 72 8a 3d 01 a9 13 be ee 66 41 3e
       0.07661708 0.06760085 -0.14419939 0.18886921
000080 a5 a3 03 be 80 44 ab 3d 71 37 8d 3d 4f 97 14 be
       -0.12855394 0.08362675 0.0689534 -0.14510845
000090 4d cc 6b bd 42 bc ff 3d 20 06 31 3e 5a f8 12 3e
       -0.057567883 0.12487079 0.17287493 0.14352551
0000a0 8c 5b 28 3c a4 81 36 3d 09 3c 22 be 2c 7e 45 3e
       0.010275733 0.04455723 -0.15843214 0.19286412
0000b0 ee 56 1e bd 91 df c8 3d 40 31 17 be f3 91 48 3e
       -0.03865712 0.09808267 -0.14764881 0.19586925
0000c0 c5 30 1d 3e 44 38 15 3e b4 cc 23 bd 10 ca f3 3c
       0.15350635 0.14572245 -0.039990142 0.029759437
0000d0 33 7b 42 bd a3 74 0b 3e a3 76 f9 3d 95 e6 1c 3e
       -0.047480773 0.13618712 0.12180831 0.15322335
0000e0 45 34 6c bb fa 09 a2 3d b7 d8 0f bd 15 99 11 be
       -0.0036041897 0.07912059 -0.035118785 -0.14218552
0000f0 67 7d 01 3e bf 4a f1 3d ee e1 1e 3e 4f 0b 24 3e
       0.12645493 0.11781835 0.15515873 0.16019939
000100 ea e9 bd bd ed 2e 03 be 4e 47 a2 be e4 d6 84 bd
       -0.09273131 -0.1281087 -0.31695026 -0.064863
000110 1a a4 6e bd 66 41 3f 3d fa 51 37 3e ac a1 f0 3d
       -0.05826197 0.04669323 0.17902365 0.117495865
000120 e8 a3 72 3a 01 e8 8e bd f9 f6 2d 3e 01 7a 8a 3e
       0.00092559913 -0.06977845 0.16988744 0.27046207
000130 ff 73 9f bd ae f7 ae be 00 5d 5a 3e b2 c7 dc bd
       -0.077857964 -0.3417334 0.21324539 -0.10780276
000140 64 22 c5 bd 8e 0b 49 3e b3 e9 34 be 97 8a 5e bd
       -0.096257 0.19633314 -0.17667274 -0.05433139
000150 62 10 df 3d d1 92 40 be d3 81 93 bd 4c 75 25 be
       0.10891797 -0.18806006 -0.072024964 -0.16158026
000160 c9 87 35 bc ae 48 8a bc b6 62 a8 bd 2f ae 8f bc
       -0.011079737 -0.01688036 -0.082219526 -0.017539112
000170 4f 8e 0c 3d 31 80 44 bd a6 c5 c2 bd b3 5c 97 3d
       0.034315404 -0.047973815 -0.09510355 0.07390728
000180 7e 12 84 bd 6a 22 80 3e d5 d1 b0 3c a3 f8 fc bd
       -0.064488396 0.25026256 0.02158443 -0.12352111
000190 7a 07 21 bd 61 b7 1e be 01 bb 37 be c7 80 dd bd
       -0.03931377 -0.15499641 -0.1794243 -0.10815578
0001a0 18 65 a8 bd 9f 9f 7e be 04 20 16 be f0 d1 96 bd
       -0.08222407 -0.24865578 -0.1466065 -0.07364261
0001b0 de 5c 22 be cf dd db bd 11 f8 48 be e6 cd 19 3e
       -0.15855739 -0.10735666 -0.1962588 0.1501995
0001c0 37 ab 76 3d f1 d9 17 be e9 ff 1b 3d d7 0f 10 be
       0.060221877 -0.14829232 0.03808585 -0.14068542
0001d0 92 28 86 3e c0 33 de 3d 30 fd 10 be 46 93 08 bd
       0.26202828 0.10849714 -0.14159083 -0.033343576
0001e0 af 15 1e 3e 91 86 82 bd 6d 09 e9 3d 05 e0 96 bd
       0.15437959 -0.06373323 0.11378751 -0.07366947
0001f0 a5 c9 2b be bf 38 f5 3c f3 4a 7d bd d5 80 eb bd
       -0.1677614 0.029934285 -0.061839055 -0.11499182
000200 fb 5a a5 bd 1a 03 4f 3e 27 67 35 3e 34 9e 25 bd
       -0.08073994 0.20216027 0.17715131 -0.040434077
000210 37 fa 33 3e 5f 3e 0f be 66 ad 8c bc 49 32 c6 bc
       0.17575918 -0.13988636 -0.017172527 -0.0241939
000220 06 94 86 bd b6 17 9a 3d 50 a5 02 be 55 0a ae bd
       -0.06571202 0.07524054 -0.12758374 -0.084980644
000230 02 72 1d 3e 50 2c a7 39 f2 70 5a bc 55 ca 65 bc
       0.15375522 0.00031885738 -0.013332592 -0.0140252905
000240 50 2a 34 3e 2f ff 9d 3d 07 56 f0 bd 1f 34 e4 3d
       0.17594266 0.07714688 -0.117351584 0.11142754
000250 66 40 bd 3d 19 52 3b 3e ec 2e e5 3b b0 83 25 be
       0.09240799 0.18293037 0.006994119 -0.16163516
000260 46 e1 44 bd 25 9b 81 3d 96 77 4b 3e 9d 7c 93 bc
       -0.0480664 0.063284196 0.19869837 -0.018003756
000270 bd 7a 48 3e c6 b4 73 bc 33 8b 23 3c a3 fe 08 3e
       0.19578071 -0.014874643 0.009981918 0.13378386
000280 d8 06 8e 3c 2b 42 c9 3d 09 f1 3e bc 1a 02 2b be
       0.017337248 0.09827074 -0.011654147 -0.1670002
000290 ea 31 f1 bd 18 28 29 bc 2a e0 c4 3d e5 f5 aa 3c
       -0.117770985 -0.0103245005 0.096130684 0.020869205
0002a0 12 ee 64 bc a8 31 d2 3d 9e 89 0e bd 54 28 c5 3d
       -0.013972776 0.102633774 -0.03479921 0.096268326
0002b0 7c 44 cf 3d fd 68 ed bc de dd fd 3d 3c 72 c9 bd
       0.10120484 -0.028980726 0.123958334 -0.098362416
0002c0 ce 23 03 3e d9 81 5b 3e b7 3f df 3c 88 68 67 3d
       0.12806627 0.21436252 0.027252061 0.056496173
0002d0 29 31 5c 3d bb b2 30 3e b9 ff 0c be 59 25 00 3e
       0.05375782 0.1725568 -0.13769425 0.12514247
0002e0 3b f5 5b be 9c 7c 6a 3c 57 13 c6 3d 63 0d b7 3d
       -0.21480267 0.014311936 0.096716575 0.089381
0002f0 ec c8 c3 bd 8d 08 0e be c0 7a 2f be 9e 8e 20 3e
       -0.09559807 -0.1387045 -0.17136669 0.15679404
000300 46 63 9a 3d d3 39 24 3d 46 b5 45 3e e7 75 95 bd
       0.07538466 0.040094208 0.19307432 -0.07297879
000310 a0 47 b0 3d 84 9f f7 bb 20 f9 b6 3d 40 47 c4 bd
       0.086074114 -0.0075568575 0.089342356 -0.09583902
000320 0d 27 b0 bd 88 1a 6f bd 87 5e d7 bd 8a ee f7 3d
       -0.08601198 -0.05837491 -0.105160765 0.121060446
000330 6e 9a 15 be ed 70 d1 3d d3 5e 07 be ea fe ce bd
       -0.14609692 0.10226617 -0.13219766 -0.10107215
000340 a2 f2 1d bc 1b 94 10 be 81 42 eb 3c 92 a0 8d bd
       -0.009640368 -0.14118998 0.028718235 -0.06915392
000350 a3 80 14 3e 1a 99 ec 3d 14 66 dd 39 6f 05 b9 bd
       0.14502196 0.11552639 0.0004222846 -0.090342395
000360 e5 58 11 be 05 b8 fd bd 7b 1d c3 bd 0a 22 55 3c
       -0.14194067 -0.123886146 -0.09527107 0.013008604
000370 79 4e b6 3d d8 7a 95 3d c8 5a 21 3e 5b 36 95 3d
       0.08901686 0.07298821 0.15757287 0.07285758
000380 0c fe 10 be 57 f0 7f bc 14 e1 a8 3d 6a 33 c4 bd
       -0.14159411 -0.015621266 0.08246055 -0.09580119
000390 17 92 37 bd fa c3 bc 3d bc 57 34 3d 6f e5 f1 bd
       -0.044817057 0.09217067 0.044028983 -0.11811339
0003a0 df 97 d0 bd 3e de a3 3d b4 38 51 3e c0 34 1a bd
       -0.10185217 0.08001374 0.20431787 -0.037647963
0003b0 87 24 33 bd 97 48 01 be 03 c5 39 3e ce ab 04 bc
       -0.043736007 -0.12625347 0.1814156 -0.008097602
0003c0 8c 87 2e bd 28 2a cd bc 60 b9 a7 3d 15 f0 af 3d
       -0.042609736 -0.025044516 0.08189654 0.08590714
0003d0 46 1e 89 3d 50 7a 70 bd 22 b0 62 3d 6f b8 80 3c
       0.06695227 -0.058710396 0.055343755 0.015712945
0003e0 9b e6 98 bd ca d3 32 3e a1 4c 01 3d 69 57 60 bd
       -0.074658595 0.17463604 0.03156722 -0.05477086
0003f0 e5 49 30 3c c5 c4 38 be d8 7b a2 3c 86 ca 90 bd
       0.010759805 -0.18043812 0.019834444 -0.07069878

bias f4 [10]
000000 99 c1 31 bd e1 e0 24 bd 1a 8c 7e 3c fb de f4 bc
       -0.04339752 -0.040253524 0.0155363325 -0.029891482
000010 e7 6e 90 3d 9a 5c a2 bd 4f 62 3f 3d 3e 51 fc 3c
       0.07052403 -0.079278186 0.046724614 0.030800458
000020 b2 46 10 3d 38 f0 0e 3c
       0.03522367 0.008724265
