DeepLearningDemo/models/jingxin_2.pth (torch, 587999 bytes, 10 tensors)

weight f4 [32, 3, 5, 5]
0.0075310934 0.0409203 -0.0071902256 0.120495096 0.10401985 0.044757247 -0.058482967 -0.037683684
-0.08603 -0.06459247 -0.029681494 0.08645136 -0.056794144 0.018343 -0.12368275 -0.14051533
-0.146904 0.019945612 -0.077617235 0.05266686 -0.10142288 -0.12868813 -0.15794499 -0.11429845
-0.10598954 0.0970484 -0.064349025 0.111696586 -0.033867203 -0.033361845 0.09258795 0.08347052
-0.027436081 0.0033369265 -0.095724046 -0.034707155 -0.013471379 -0.085453786 -0.08406696 -0.013974077
-0.12306811 -0.14984725 -0.10662094 -0.006608661 -0.07214866 -0.043065492 -0.09426482 -0.06215756
-0.16878532 -0.14405662 0.019333446 0.14212595 0.102259286 0.034798283 0.029271474 0.14852437
0.0069880933 0.0881321 0.109237686 0.0065489407 0.0013207783 0.01839736 0.12242178 -0.015716897
0.11156012 -0.05343722 -0.0067901714 0.040207867 0.0016961257 0.08183267 0.09819034 0.0035633338
0.043921493 0.093957275 0.09151929 0.12046707 0.13333587 0.14120331 0.09558815 0.013625027
0.13995092 0.096715026 0.13529626 0.07637812 0.059190296 0.13002682 0.08463677 0.02773561
0.08420391 0.029603321 -0.010348064 0.049721356 0.020202458 0.047186308 0.07694913 0.04316077
0.058225162 -0.050184388 -0.080577426 0.037251525 -0.031874884 -0.00568273 -0.002470633 0.022115787
0.10552918 0.0014287843 0.098522976 0.09946612 0.03189617 -0.07599949 0.08219672 0.05555267
-0.09861729 -0.02625607 0.0018641762 0.05430634 -0.095749244 0.110056855 0.030115912 -0.10335176
-0.04577204 -0.1280157 -0.13553374 -0.062029283 -0.110012546 0.10072167 0.113262154 0.05326188
-0.055581823 -0.1036272 -0.008032866 0.03674825 -0.07872478 -0.023228196 -0.07877503 0.053045712
-0.022473097 0.043729823 -0.09130403 -0.07967644 0.11522668 0.10367733 0.028283175 -0.04466576
-0.004390337 -0.109753095 0.044013914 0.030696763 0.03483663 -0.053949118 0.02357698 -0.073463626
0.021619681 0.027437001 -0.09554375 -0.029055107 0.025806542 -0.03856706 0.03274356 -0.09381691
0.019215664 0.08926922 0.046774305 -0.028901419 0.08637329 0.119050026 0.04602581 0.116655454
0.08527148 -0.038982254 0.027697446 0.007872429 0.06529371 -0.091247804 -0.03886293 -0.012985948
0.08716319 -0.016310932 -0.009692438 -0.003960719 -0.05662622 0.036825534 -0.10655223 -0.062473215
0.023608176 0.03246912 0.05022235 -0.07821975 -0.047082435 -0.12029966 -0.10662094 -0.07946505
0.053575482 -0.1064325 0.07454645 -0.15385978 -0.12884514 -0.14971706 -0.10296994 -0.015305637
0.14579153 0.13225004 0.07990902 0.089767575 0.06388131 0.073094785 0.04042058 -0.05807083
0.006206322 0.101519756 -0.06837886 0.07112484 0.11062466 0.14134763 0.051046927 -0.01100007
-0.05048155 -0.0081523685 -0.057371393 0.07911143 -0.056593515 0.011985894 0.09979506 0.073078565
-0.08439739 0.028284146 -0.045569297 -0.10156499 -0.09738177 0.09221829 -0.07319624 -0.0002048621
0.032762796 -0.04979467 0.09472764 0.08686797 -0.009511833 0.032473773 0.08776426 0.12219959
0.09166409 0.0014265368 0.031574678 0.022664573 -0.049868412 -0.08169141 0.020227848 -0.08073762
-0.0017881009 0.030458134 -0.1254473 0.071906134 -0.09924158 -0.10352036 -0.07203961 -0.03913461
00000000: 64c7 f63b 0b9c 273d fc9b ebbb 22c6 f63d
00000010: 5c08 d53d 6053 373d d68b 6fbd 355a 1abd
00000020: 7f30 b0bd 0f49 84bd 9b26 f3bc 690d b13d
00000030: faa0 68bd 0f44 963c 624d fdbd 40e3 0fbe
00000040: 016e 16be fb64 a33c c9f5 9ebd 35b9 573d
00000050: cdb6 cfbd d2c6 03be 55bc 21be 4e15 eabd
00000060: 0b11 d9bd 50c1 c63d 6cc9 83bd 2ec1 e43d
00000070: 56b8 0abd 6ea6 08bd c09e bd3d 98f2 aa3d
00000080: a2c1 e0bc 56b0 5a3b f80a c4bd 1729 0ebd
00000090: 0fb7 5cbc 6502 afbd 4c2b acbd 87f3 64bc
000000a0: 220b fcbd 8f71 19be 145c dabd 778d d8bb
000000b0: adc2 93bd 7165 30bd ea0d c1bd ed98 7ebd
000000c0: 0fd6 2cbe 9483 13be 2d61 9e3c 7789 113e
000000d0: 516d d13d a588 0e3d bbca ef3c c616 183e
000000e0: 60fc e43b 9a7e b43d 02b8 df3d 7f98 d63b
000000f0: f71d ad3a 0fb6 963c 45b8 fa3d b9c0 80bc
00000100: a279 e43d fde0 5abd 1680 debb 01b1 243d
00000110: 8950 de3a e397 a73d 0418 c93d d286 693b
00000120: 06e7 333d ac6c c03d 776e bb3d 70b7 f63d
00000130: 3389 083e 9a97 103e b8c3 c33d 813b 5f3c
00000140: 4b4f 0f3e 8712 c63d 1a8b 0a3e 226c 9c3d
00000150: 8671 723d c025 053e 0b56 ad3d ca35 e33c
00000160: 1973 ac3d aa82 f23c ed8a 29bc 9fa8 4b3d
00000170: a07f a53c 6e46 413d 8197 9d3d 59c9 303d
00000180: 827d 6e3d 258e 4dbd c705 a5bd 0e95 183d
00000190: 3d8f 02bd 3236 babb 58ea 21bb 2b2c b53c
000001a0: af1f d83d 0c46 bb3a 6ac6 c93d e5b4 cb3d
000001b0: 8fa5 023d 9fa5 9bbd c156 a83d 328b 633d
000001c0: ddf7 c9bd f816 d7bc 6057 f43a 5370 5e3d
000001d0: 2e18 c4bd 7d65 e13d a5b5 f63c 16aa d3bd
000001e0: 767b 3bbd 8c16 03be 5bc9 0abe 6b12 7ebd
000001f0: 424e e1bd 2a47 ce3d fdf5 e73d 2129 5a3d
00000200: c4a9 63bd 7f3a d4bd 489c 03bc 5585 163d
00000210: 753a a1bd 0f49 bebc ce54 a1bd 7646 593d
00000220: 8019 b8bc 0b1e 333d 9bfd babd 672d a3bd
00000230: f7fb eb3d c854 d43d 1eb2 e73c 72f3 36bd
00000240: d1dc 8fbb 3bc6 e0bd ef47 343d c777 fb3c
00000250: dbb0 0e3d c0f9 5cbd 8324 c13c 1974 96bd
00000260: c21b b13c 90c3 e03c 71ac c3bd fa04 eebc
00000270: 3e68 d33c 7ef8 1dbd 1c1e 063d 1523 c0bd
00000280: 2b6a 9d3c c8d2 b63d 6a96 3f3d abc2 ecbc
00000290: 7be4 b03d 80d0 f33d 8f85 3c3d 0ee9 ee3d
000002a0: d0a2 ae3d dbab 1fbd c1e5 e23c 5cfb 003c
000002b0: b5b8 853d 21e0 babd bc2e 1fbd 03c3 54bc
000002c0: 9d82 b23d 819e 85bc 08cd 1ebc ebc8 81bb
000002d0: e5f0 67bd 5fd6 163d 0e38 dabd eae3 7fbd
000002e0: ef65 c13c 57fe 043d f3b5 4d3d ad31 a0bd
000002f0: 83d9 40bd ab5f f6bd 145c dabd 92be a2bd
00000300: f771 5b3d 48f9 d9bd cfab 983d 6b8d 1dbe
00000310: fbef 03be 6e4f 19be e7e1 d2bd 7fc4 7abc
00000320: 604a 153e 8e6c 073e 57a7 a33d 10d8 b73d
00000330: 34d4 823d b8b2 953d 0d90 253d aedb 6dbd
00000340: 675e cb3b 97e9 cf3d 370a 8cbd e6a9 913d
00000350: 2f8f e23d 6fbd 103e 9516 513d a339 34bc
00000360: bec5 4ebd 8391 05bc 44fe 6abd 2c05 a23d
00000370: 9ace 67bd 7c60 443c 5a61 cc3d 37aa 953d
00000380: 8ad8 acbd 27b4 e73c dfa6 3abd 4e01 d0bd
00000390: 1870 c7bd f1dc bc3d e9e7 95bd 40d0 56b9
000003a0: 4832 063d 7ff5 4bbd 9100 c23d d6e7 b13d
000003b0: 85d7 1bbc 3803 053d c0bd b33d c743 fa3d
000003c0: 62ba bb3d a2fa ba3a 7354 013d 0eab b93c
000003d0: d242 4cbd d34d a7bd dfb4 a53c c459 a5bd
000003e0: b65e eaba 5683 f93c 4275 00be 8643 933d
000003f0: 2b3f cbbd 7c02 d4bd 8189 93bd 9d4b 20bd

bias f4 [32]
-0.11789717 -0.14266665 -0.19383447 0.0763829 -0.018126953 -0.18657018 0.12916923 0.060661957
-0.018290678 -0.044802815 -0.20258506 -0.032551575 -0.118301325 -0.1368239 -0.06696429 0.03836007
0.13981867 -0.09107595 0.006183879 -0.10682443 -0.12783988 0.028851446 -0.031570848 0.06940641
0.08221702 -0.0992402 0.18541506 -0.05157092 0.024767488 -0.06425176 0.13978112 -0.19408204
00000000: 1274 f1bd 3517 12be 8b7c 46be a36e 9c3d
00000010: fa7e 94bc 410c 3fbe f044 043e ac78 783d
00000020: 55d6 95bc 2883 37bd 7572 4fbe cd54 05bd
00000030: f747 f2bd 901b 0cbe 9324 89bd 731f 1d3d
00000040: a02c 0f3e 0786 babd 23a2 ca3b c4c6 dabd
00000050: 75e8 02be de59 ec3c 6f50 01bd f324 8e3d
00000060: 6661 a83d 723e cbbd 72dd 3d3e 073c 53bd
00000070: 30e5 ca3c 6d96 83bd c822 0f3e 71bd 46be

weight f4 [32, 32, 5, 5]
-0.0035951254 -0.01133589 0.04848041 0.005970387 -0.009013814 0.03318095 0.014420915 0.026799174
-0.0072113075 -0.015982496 -0.034106024 -0.04008943 -0.018687822 -0.02759199 0.0013518954 0.01621844
0.022402583 0.041287184 0.0023852293 -0.022662668 -0.02247119 0.033778977 -0.024456123 0.034617793
0.0035850345 -0.03347326 0.029131362 0.026401129 -0.013277772 0.031043055 0.034122944 0.0126170255
-0.0004543814 -0.0034967072 -0.020120967 -0.024101216 0.01654885 0.035370443 -0.028627893 -0.021750465
0.034128696 0.013138466 -0.018832454 0.0039720614 0.024665518 0.034393642 -0.010421435 0.027009789
0.0040618875 0.0077084596 0.015993748 -0.0009573484 0.008529849 0.025980053 0.015626632 -0.001731889
-0.004843556 0.025714459 0.035689488 0.034879617 0.024984661 -0.015989002 -0.0009171006 -0.009632401
0.01853762 -0.009620878 -0.021581888 -0.020205868 0.019008053 -0.026360977 -0.0032476515 0.034010388
0.0068760226 0.0055447523 -0.024112556 0.029556263 0.00612057 -0.000500033 0.022846477 -0.003254525
0.014883352 0.0360402 -0.008065234 0.028193451 -0.032480665 0.026933925 -0.011599486 0.033282194
0.026499033 -0.019697435 0.006435264 0.024715664 0.006611479 -0.01231773 0.0010650066 -0.024494294
0.028367708 0.00058982946 -0.0060672336 -0.03252701 0.0074393987 0.019678459 0.0416763 0.046078883
-0.015488566 0.0221433 0.01772223 -0.015982429 0.03212421 0.04042599 0.023452913 0.0021397443
0.019854886 -0.029952599 -0.0018180197 0.028576098 0.003881373 -0.009338407 -0.019875 0.0039528874
-0.025675302 0.029280487 0.009578207 0.00070300594 -0.018408243 0.03483435 0.010396481 -0.03078446
0.01583428 -0.019218065 0.0056269793 0.020259313 -0.026721155 0.020796087 0.005052966 0.021430846
0.036637068 -0.029927995 -0.012747249 -0.0021424436 0.03738129 0.02955235 0.04451691 0.009190006
0.032198507 0.027751772 -0.006290398 0.023203759 0.015787568 0.009391241 -0.0072225514 0.0021004884
-0.018316804 -0.02229393 -0.017700303 -0.029602736 0.015034442 0.022251373 0.003360319 0.0026770188
-0.023094751 -0.033632137 0.010130047 -0.03465574 -0.02001714 0.016265579 -0.009985159 0.03490055
0.0016501431 -0.027762612 -0.019960431 -0.01659627 0.008817252 0.0007627262 -0.008696959 0.01928293
0.0032691902 0.03361566 0.03947482 0.03464538 0.013012647 0.034375936 -0.016520483 -0.013679038
-0.020759204 0.008156148 -0.012453163 -0.004549592 0.02750031 -0.0026105 0.019072255 0.022162938
-0.010636443 -0.029420782 0.014496928 -0.037082184 0.02325332 0.03080742 0.00064051896 0.03377461
-0.0077650286 0.005261105 -0.0015539413 0.030738357 0.020876054 0.037455734 0.024969451 0.013372393
0.0043038465 -0.01012215 0.022914486 -0.0131690465 0.003282091 -0.028240755 -0.00063398463 -0.043250028
0.014855422 -0.003556493 -0.017183485 -0.02254979 -0.013002837 0.011134185 -0.0005965636 -0.02995141
0.025739972 0.042736605 0.040172104 0.002857372 -0.02956496 -0.028987119 0.03845901 0.047733065
0.034298714 -0.020180982 -0.024368104 -0.004209755 -0.0111312615 0.028511243 0.010126555 0.03694209
0.016561836 -0.03279091 -0.013806961 -0.036889587 -0.0075380336 -0.020754639 0.0009824508 0.0203462
-0.033868104 0.008443598 -0.020416135 0.011343884 -0.024929015 0.033127926 0.024943037 -0.018869521
00000000: 329c 6bbb 2bba 39bc 6593 463d 3ca3 c33b
00000010: adae 13bc bfe8 073d b445 6c3c f189 db3c
00000020: d54c ecbb b9ed 82bc c2b2 0bbd d034 24bd
00000030: 3417 99bc 9908 e2bc 1532 b13a 89dc 843c
00000040: 9f85 b73c c01c 293d 8251 1c3b 0fa7 b9bc
00000050: 8015 b8bc d35b 0a3d 3558 c8bc 63cb 0d3d
00000060: e6f2 6a3b 421b 09bd e5a4 ee3c 2e47 d83c
00000070: 038b 59bc 014e fe3c 80c4 0b3d a4b7 4e3c
00000080: 0a3a eeb9 0329 65bb bad4 a4bc ea6f c5bc
00000090: 7491 873c 99e0 103d 0b85 eabc 082e b2bc
000000a0: 88ca 0b3d b842 573c 8546 9abc 1128 823b
000000b0: 570f ca3c 59e0 0c3d abbe 2abc a243 dd3c
000000c0: 9519 853b 3f97 fc3b 5205 833c 90f6 7aba
000000d0: c8c0 0b3c 1fd4 d43c 6c03 803c 8d00 e3ba
000000e0: b1b6 9ebb 21a7 d23c 242f 123d eedd 0e3d
000000f0: a2ac cc3c 5efb 82bc 9469 70ba 38d1 1dbc
00000100: 35dc 973c e3a0 1dbc 80cc b0bc c786 a5bc
00000110: c7b6 9b3c faf2 d7bc 8dd6 54bb 7a4e 0b3d
00000120: 4250 e13b c1b0 b53b b287 c5bc fa1f f23c
00000130: 108f c83b a614 03ba 8928 bb3c de49 55bb
00000140: 4ed9 733c e49e 133d 0b24 04bc f4f5 e63c
00000150: 720a 05bd 89a4 dc3c c50b 3ebc e952 083d
00000160: 8014 d93c 845c a1bc e8de d23b 8178 ca3c
00000170: 1ba5 d83b 4ed0 49bc b197 8b3a 42a8 c8bc
00000180: 6563 e83c c99e 1a3a a5cf c6bb 0b3b 05bd
00000190: 33c6 f33b b834 a13c c5b4 2a3d 36bd 3c3d
000001a0: c1c3 7dbc de65 b53c 362e 913c 95ed 82bc
000001b0: ad94 033d b995 253d 5320 c03c f43a 0c3b
000001c0: b7a6 a23c 275f f5bc 9e4a eeba 6c18 ea3c
000001d0: a25e 7e3b 1e00 19bc e5d0 a2bc 3987 813b
000001e0: 0355 d2bc a2dd ef3c e9ed 1c3c ee49 383a
000001f0: e2cc 96bc 77ae 0e3d 0056 2a3c b12f fcbc
00000200: e4b6 813c 346f 9dbc 8662 b83b dcf6 a53c
00000210: 53e6 dabc 8e5c aa3c 5a93 a53b be8f af3c
00000220: c010 163d 8e2b f5bc d6d9 50bc 3d68 0cbb
00000230: 201d 193d c517 f23c 5d57 363d ae91 163c
00000240: 95e2 033d af57 e33c af1f cebb cf15 be3c
00000250: ee54 813c b8dd 193c 27ab ecbb 59a8 093b
00000260: 1f0d 96bc c3a1 b6bc 3a00 91bc 7081 f2bc
00000270: 0553 763c 8348 b63c cc38 5c3b ec70 2f3b
00000280: 3431 bdbc dac1 09bd 7ff8 253c 2df3 0dbd
00000290: fcfa a3bc 643f 853c cb98 23bc e1f3 0e3d
000002a0: 9d49 d83a 6b6e e3bc 0f84 a3bc e7f4 87bc
000002b0: 3c76 103c b0f1 473a b17d 0ebc 3cf7 9d3c
000002c0: e93f 563b 93b0 093d 59b0 213d 50e8 0d3d
000002d0: ff32 553c c8cd 0c3d f755 87bc 0b1e 60bc
000002e0: 350f aabc 5da1 053c 5a08 4cbc be14 95bb
000002f0: 5548 e13c ec14 2bbb 6b3d 9c3c 0d8f b53c
00000300: 7a44 2ebc da03 f1bc 8684 6d3c 7de3 17bd
00000310: bf7d be3c d85f fc3c 80e8 273a 3f57 0a3d
00000320: c871 febb 5965 ac3b 9ead cbba 02cf fb3c
00000330: 4204 ab3c 2f6b 193d bc8c cc3c e217 5b3c
00000340: 4807 8d3b 60d7 25bc 29b7 bb3c fcc2 57bc
00000350: 5a18 573b 2859 e7bc fd31 26ba f126 31bd
00000360: 2864 733c 0d14 69bb 61c4 8cbc 56ba b8bc
00000370: da09 55bc 286c 363c b562 1cba a95c f5bc
00000380: a2dc d23c 940c 2f3d 818b 243d bf42 3b3b
00000390: 3732 f2bc 6576 edbc 3287 1d3d bf83 433d
000003a0: cf7c 0c3d 9652 a5bc 9e9f c7bc fcf1 89bb
000003b0: e55f 36bc 6990 e93c dae9 253c 9750 173d
000003c0: b0ac 873c c34f 06bd 9736 62bc 8919 17bd
000003d0: 9c01 f7bb a205 aabc 94c5 803a 13ad a63c
000003e0: 48b9 0abd 0457 0a3c bd3f a7bc b3db 393c
000003f0: ef37 ccbc 26b1 073d 5755 cc3c 4194 9abc

bias f4 [32]
0.010489556 -0.008202441 0.05343075 -0.020156682 0.021218963 -0.009554416 -0.05129359 -0.05500656
0.029655783 -0.007786538 0.003373507 0.058310263 -0.044580366 0.0130807115 0.06866286 -0.0072405045
-0.00860776 0.041653942 0.04467475 -0.055288482 0.0016523901 -0.030566357 -0.02535002 0.020166421
0.04955105 -0.003653191 -0.06496692 -0.008905512 -0.054333247 0.020066697 -0.024515348 0.06147384
00000000: 63dc 2b3c 8863 06bc 34da 5a3d a01f a5bc
00000010: 64d3 ad3c 208a 1cbc 3a19 52bd 8f4e 61bd
00000020: aff0 f23c 3726 ffbb 0e16 5d3b bed6 6e3d
00000030: e799 36bd 7b50 563c 1d9f 8c3d c141 edbb
00000040: 9007 0dbc 539d 2a3d dffc 363d 2d76 62bd
00000050: 0395 d83a 4c66 fabc d8aa cfbc 0d34 a53c
00000060: 0bf6 4a3d 606a 6fbb 600d 85bd 6de8 11bc
00000070: 8a8c 5ebd ea62 a43c 69d4 c8bc fecb 7b3d

weight f4 [64, 32, 5, 5]
0.02678588 0.010589336 0.011794565 -0.0042838366 -0.0020175404 0.004914917 -0.023254588 -0.022146866
-0.028842267 0.024956817 -0.016238036 0.010104552 0.015128905 -0.0014563584 -0.023310348 0.0025229002
-0.021557193 -0.008253997 -0.0024917403 -0.010599369 0.012563458 -0.006465457 -0.00454743 -0.0080836145
-0.027678408 -0.0048804707 -0.004294089 -0.0025079467 0.032055322 0.021316316 -0.011230172 -0.03156323
0.030420916 0.012245343 0.015496906 -0.010800054 0.014497659 0.008975948 0.028297586 -0.020545827
-0.026196912 -0.0009398725 -0.02781963 -0.033655412 -0.004063994 -0.015459115 -0.020717049 0.019684428
-0.033572182 -0.0116922865 -0.029496646 -0.0073284106 0.0007409416 -0.007432924 -0.009069332 0.012407438
-0.024068784 -0.036524307 0.01603876 0.029776882 -0.026819438 -0.011476697 -0.0032217065 -0.0038218866
-0.022209402 -0.030347401 -0.03263374 0.016056929 -0.0116506405 -0.004566267 -0.00038773174 0.026445745
-0.014057345 -0.0021513063 -0.012077824 0.0159829 0.01048498 0.023200184 0.031876676 0.007000392
-0.032473966 -0.022262078 -0.028789151 0.012673254 0.034535576 -0.006678477 0.021204727 -0.024110345
-0.03143973 -0.0006991814 0.018164452 -0.034799453 -0.020135514 -0.033546433 -0.0070032785 0.0105092935
0.0077225952 -0.02797708 -0.03459557 0.0330114 -0.01839357 -0.02318905 -0.017357286 0.018531904
0.0055743405 0.024788395 -0.0291328 0.02655954 -0.013906533 0.024904389 0.025479833 0.0052950853
-0.024373934 -3.990745e-05 -0.023666857 -0.020054298 -0.021967504 -0.020290066 -0.026717657 -0.0031291582
0.008299676 -0.0053368774 -0.016960712 0.01456089 0.0107209375 -0.02370444 -0.012505311 -0.020765241
0.04185592 0.023451045 0.046005346 0.02912544 -0.005639603 0.028720465 0.0152988825 0.04347936
0.014464174 0.0016918797 -0.022660568 0.015128308 0.0384029 0.029250048 0.017458813 -0.024148492
-0.00231904 0.035208147 0.032789726 0.0014466059 0.009976319 0.033861917 0.023998128 0.014006553
0.047529723 -0.00043505308 -0.0075983736 0.03903315 0.04090698 0.04554789 -0.018629642 -0.002518054
0.019966336 0.0006217292 0.016657367 0.01082688 -0.018952483 -0.025569472 0.03608004 0.014375129
0.023650356 -0.0017396164 -0.04253813 -0.012201802 0.039234944 0.0049067945 -0.025009027 -0.017926777
0.008514387 0.025792805 0.019342149 -0.031119432 -0.028715968 -0.014638928 0.02464011 -0.012672759
0.02031289 -0.026847865 0.024855986 -0.0009659272 0.015937459 0.028726915 0.017653018 0.008212302
-0.0003540397 -0.015920065 0.019568052 -0.030688437 0.00779408 0.020978747 -0.012041234 0.018573789
0.009013725 0.013114319 -0.020936154 -0.030091275 0.011725559 0.015828116 0.0319805 -0.010185638
-0.0005505398 0.0065882145 -0.011787231 -0.01666362 0.026171293 0.017909791 0.025008837 -0.021603467
0.0010908187 -0.0061856424 -0.028509906 0.018719323 -0.02333441 -0.002217777 0.027178662 -0.028022673
0.008541085 0.0063476255 0.002708383 -0.030055633 0.041403525 -0.017755419 0.02773595 0.0012528514
-0.013064947 -0.014244504 0.025298595 -0.026809039 -0.02310589 -0.00043873355 0.0019352736 0.00043647605
-0.038290586 -0.0059072757 -0.038706455 -0.007523538 0.015289469 -0.0035362442 -0.02726903 0.014260723
0.019514984 0.021162732 -0.025429664 0.0028219135 0.014629822 0.009803754 -0.0015380122 0.0025781493
00000000: 106e db3c e57e 2d3c fe3d 413c 6d5f 8cbb
00000010: b638 04bb 500d a13b 6880 bebc 586d b5bc
00000020: 9e46 ecbc 3d72 cc3c a105 85bc 908d 253c
00000030: 3adf 773c 47e3 beba 58f5 bebc 3e57 253b
00000040: b698 b0bc c63b 07bc 774c 23bb faa8 2dbc
00000050: f6d6 4d3c 2fdc d3bb 9c02 95bb 2371 04bc
00000060: d4bd e2bc 5bec 9fbb 6eb5 8cbb 5d5c 24bb
00000070: 714c 033d 8e9f ae3c c1fe 37bc 7248 01bd
00000080: 4935 f93c b1a0 483c bce6 7d3c b6f2 30bc
00000090: 9787 6d3c db0f 133c 57d0 e73c b94f a8bc
000000a0: e89a d6bc c761 76ba fee5 e3bc 42da 09bd
000000b0: 412b 85bb 3a48 7dbc cdb6 a9bc 3d41 a13c
000000c0: fc82 09bd 0191 3fbc f3a2 f1bc 2a23 f0bb
000000d0: c03b 423a e38f f3bb 8997 14bc 9148 4b3c
000000e0: e62b c5bc 839a 15bd b863 833c a6ee f33c
000000f0: 70b4 dbbc c208 3cbc 4423 53bb 9e78 7abb
00000100: 7ef0 b5bc 1d9b f8bc f5aa 05bd d289 833c
00000110: 54e2 3ebc a0a0 95bb 7948 cbb9 bfa4 d83c
00000120: c750 66bc eefc 0cbb 11e2 45bc 92ee 823c
00000130: 32c9 2b3c 500e be3c 1e91 023d 8b63 e53b
00000140: 6c03 05bd f65e b6bc 3ad7 ebbc 7ba3 4f3c
00000150: 2d75 0d3d 20d7 dabb 89b5 ad3c 0f83 c5bc
00000160: f2c6 00bd 4549 37ba 9ecd 943c df89 0ebd
00000170: 3cf3 a4bc fc67 09bd c27b e5bb 2c2f 2c3c
00000180: d30d fd3b 3030 e5bc 16b4 0dbd f636 073d
00000190: 1dae 96bc f6f6 bdbc de30 8ebc 38d0 973c
000001a0: f5a8 b63b 0811 cb3c e9a7 eebc 6493 d93c
000001b0: 3ad8 63bc 4a04 cc3c 15bb d03c 6582 ad3b
000001c0: d8ab c7bc 4c62 27b8 ffe0 c1bc e948 a4bc
000001d0: 32f5 b3bc 5a37 a6bc fdde dabc 9012 4dbb
000001e0: 5dfb 073c f9e0 aebb 31f1 8abc cd90 6e3c
000001f0: dfa6 2f3c d02f c2bc 13e3 4cbc de1b aabc
00000200: 1d71 2b3d 681c c03c 1a70 3c3d 7a98 ee3c
00000210: 6bcc b8bb 2e47 eb3c 2aa8 7a3c 6a17 323d
00000220: 25fb 6c3c 10c2 dd3a a8a2 b9bc b9dc 773c
00000230: 5c4c 1d3d cc9d ef3c c905 8f3c 0fd3 c5bc
00000240: 09fb 17bb 6b36 103d 854e 063d 0a9c bd3a
00000250: b773 233c cbb2 0a3d b997 c43c be7b 653c
00000260: 87ae 423d d617 e4b9 c7fb f8bb 39e1 1f3d
00000270: 148e 273d 6d90 3a3d 319d 98bc f005 25bb
00000280: 7190 a33c 8afb 223a 0875 883c 3a63 313c
00000290: 3d42 9bbc 1277 d1bc aac8 133d a985 6b3c
000002a0: 64be c13c d703 e4ba 763c 2ebd 11ea 47bc
000002b0: d2b4 203d 2dc9 a03b bbdf ccbc 2ddb 92bc
000002c0: ed7f 0b3c 6f4b d33c 6d73 9e3c 2eee febc
000002d0: c03d ebbc 1dd8 6fbc 0eda c93c 67a1 4fbc
000002e0: 3867 a63c 0ef0 dbbc c89e cb3c 4736 7dba
000002f0: 468f 823c b554 eb3c 109d 903c e48c 063c
00000300: 679e b9b9 cc6a 82bc 2e4d a03c 5166 fbbc
00000310: 7b65 ff3b 9fdb ab3c 9948 45bc 0f28 983c
00000320: 4eae 133c 71dd 563c 4c82 abbc fa81 f6bc
00000330: 8f1c 403c f7a9 813c fcfd 023d aae1 26bc
00000340: 1a52 10ba f3e1 d73b 3b1f 41bc 2582 88bc
00000350: 2e65 d63c 8eb7 923c 55df cc3c c1f9 b0bc
00000360: cdf9 8e3a eeb0 cabb 9b8d e9bc 4459 993c
00000370: ce27 bfbc 2058 11bb c9a5 de3c ce8f e5bc
00000380: e8ef 0b3c beff cf3b 207f 313b 3b37 f6bc
00000390: be96 293d d073 91bc 8136 e33c b836 a43a
000003a0: 5c0e 56bc c861 69bc 003f cf3c a19e dbbc
000003b0: 9048 bdbc d205 e6b9 02a9 fd3a d3d6 e439
000003c0: 97d6 1cbd d291 c1bb a98a 1ebd 0388 f6bb
000003d0: ae80 7a3c 55c0 67bb 4d63 dfbc cfa5 693c
000003e0: e3dd 9f3c 775d ad3c df51 d0bc daef 383b
000003f0: ecb1 6f3c ed9f 203c 2097 c9ba 2bf6 283b

bias f4 [64]
0.0068010953 0.015557691 -0.007347668 0.008718959 0.055228114 0.013033426 0.012586163 -0.034103118
-0.027194656 0.0006130254 -0.018501867 0.027363036 -0.03108549 0.035115257 0.032615423 -0.020608377
0.0075213686 -0.04609778 0.018545883 -0.022029746 0.040823862 0.033039905 -0.01254365 -0.020630028
-0.042792447 0.036301438 0.029327154 0.01265262 0.035795595 0.010826052 0.018057156 -0.02073885
0.0009274223 -0.02041255 -0.026285164 -0.021783529 -0.018542526 -0.011105485 0.02152189 -0.029734492
0.02187779 -0.02544977 -0.03258929 -0.00837508 -0.005472029 -0.03746834 -0.0086079985 -0.0022050713
-0.017391214 0.030986179 -0.0062878975 0.045148067 -0.026063852 0.030939732 0.021381654 0.053777266
-0.046322048 0.014603578 0.01604086 0.049179543 0.0030414155 -0.037506945 0.0031174824 0.030816406
00000000: b9db de3b b0e5 7e3c b5c4 f0bb f7d9 0e3c
00000010: e036 623d 278a 553c 3236 4e3c b6af 0bbd
00000020: 54c7 debc 70b3 203a 3a91 97bc 7228 e03c
00000030: ffa6 febc 04d5 0f3d c097 053d e6d2 a8bc
00000040: d075 f63b 07d1 3cbd 89ed 973c ba77 b4bc
00000050: ec36 273d da54 073d e283 4dbc 4e00 a9bc
00000060: 2247 2fbd d1b0 143d 803f f03c ef4c 4f3c
00000070: 679e 123d c15f 313c 9aec 933c 85e4 a9bc
00000080: 421e 733a 3838 a7bc fc53 d7bc 5f73 b2bc
00000090: 7fe6 97bc c8f3 35bc ad4e b03c c095 f3bc
000000a0: 0d39 b33c 097c d0bc 597c 05bd a237 09bc
000000b0: b54e b3bb 6778 19bd 9008 0dbc f582 10bb
000000c0: 0578 8ebc bad6 fd3c b50a cebb 2eed 383d
000000d0: dc83 d5bc 5275 fd3c 9428 af3c 8d45 5c3d
000000e0: 30bc 3dbd d843 6f3c 1f68 833c 7d70 493d
000000f0: 7c52 473b e2a0 19bd ad4e 4c3b b072 fc3c

weight f4 [64, 1024]
-0.026884984 0.028346628 0.00010339171 -0.021387879 0.035418082 0.020594927 -0.0160246 -0.023156613
-0.03589128 -0.03464304 0.019906495 -0.026175277 0.020061085 -0.014548259 0.016040217 -0.01691913
0.021296343 -0.008268346 -0.028023683 0.024978528 -0.017221088 -0.008213114 0.013139514 0.018801758
0.029930016 -0.0062071066 -0.018837072 0.021633342 0.012608478 0.016733894 0.02037224 -0.016932143
-0.02129875 0.028236337 -0.027188076 0.017034555 -0.019052392 0.0142174335 -0.010967597 -0.009793007
0.016077884 -0.033805102 -0.021377143 0.021445675 -0.019027224 0.021826122 0.03627444 0.023637585
0.012157999 -0.030394632 0.012994978 -0.014477945 0.03300531 -0.023228005 0.027777405 0.010963429
0.025702294 -0.024307108 0.0021900912 0.0036759381 0.013293708 -0.026054136 0.020181943 -0.03504409
-0.005004535 0.0040600006 0.03167333 0.0019587541 0.015680932 -0.005934046 0.014187862 -0.006052154
0.020482935 0.021349702 -0.013678679 -0.034168243 0.00880773 -0.029585466 0.008482786 0.007125406
-0.01218248 0.02618103 -0.01846388 0.021875255 -0.01298588 0.025438441 -0.022933342 0.03829383
0.022229929 0.021360844 0.004521882 0.036034163 0.013721728 0.007466388 0.026418764 0.019671546
0.03459374 0.012463335 0.017372552 -0.004946695 -0.0046320525 0.02482515 -0.013060554 -0.0060987156
0.008998535 0.012267556 -0.025237354 0.001488786 0.007297403 -0.014345583 -0.023786826 0.021221314
0.010076086 -0.010600169 -0.028361205 0.008151403 0.020887488 -0.02694971 -0.049722925 -0.021907384
0.011146526 0.039999485 0.013989288 0.021039108 -0.017525068 0.009093984 -0.019592764 -0.02374248
0.0313232 0.0022008084 -0.013742747 0.017295307 -0.029678972 0.012434205 0.020392796 -0.023081414
0.0025840728 -0.023750227 -0.018513719 0.0010143162 -0.029612498 -0.015017594 -0.03280071 0.021967575
-0.019418413 -0.005631233 0.032390956 -0.028711524 -0.011479035 0.004429179 -0.022279331 0.024166396
0.022930492 0.02040629 0.013218172 -0.00971936 -0.022528183 -0.009702011 0.00022343235 0.03969085
0.008430826 -0.029786449 -0.0029134469 -0.029086798 -0.03285932 -0.005376235 -0.030371187 0.008868364
0.010844564 0.0015528698 -0.03607186 -0.013599839 0.010592059 0.009725565 -0.0024759863 -0.010987325
-0.022820659 -0.011613043 -0.017105764 0.009426821 -0.023448208 0.00017065842 0.028856544 -0.00993679
0.020891732 -0.025201822 0.0129646165 0.003322289 0.011206782 -0.010454575 -0.0023286617 0.025875421
0.024692548 0.032476258 -0.024160372 -0.013861751 -0.017778806 0.0032168876 -0.033611752 0.0039356225
0.0021781633 0.004767906 -0.012809729 0.020791499 -0.025977 0.007658538 0.02686106 -0.016953625
-0.024011834 0.007774127 -0.01478653 0.023350615 -0.028817842 0.016037833 0.012460678 -0.014993298
-0.019620605 -0.023696518 0.025606101 0.013219824 0.014902598 0.0073459214 0.021202892 0.031120729
-0.012324465 -0.015711214 0.013566781 -0.024114726 -0.0128385415 0.030894184 -0.010782965 -0.006611439
0.006930957 -0.028057018 -0.0049148663 0.005252264 -0.021859305 0.011254586 -0.0002664912 0.015200882
0.004934803 -0.022752127 -0.029795956 0.011656746 -0.03430049 -0.019723374 -0.024783123 -0.009398641
-0.03364293 0.017168209 -0.019566426 -0.02070726 -0.0007213503 -0.019349366 -0.0030301532 -0.003199699
00000000: e63d dcbc 3037 e83c 00d4 d838 a235 afbc
00000010: 8d12 113d b1b6 a83c 0646 83bc f0b2 bdbc
00000020: bc02 13bd dce5 0dbd f212 a33c 896d d6bc
00000030: 2557 a43c d25b 6ebc c666 833c fd99 8abc
00000040: ab75 ae3c f577 07bc ec91 e5bc c59f cc3c
00000050: 3d13 8dbc 4c90 06bc 1e47 573c 2506 9a3c
00000060: cb2f f53c fc64 cbbb 3450 9abc 6838 b13c
00000070: ca93 4e3c 8515 893c afe3 a63c 47b5 8abc
00000080: b77a aebc e44f e73c 87b9 debc 0d8c 8b3c
00000090: c313 9cbc 3df0 683c 70b1 33bc d972 20bc
000000a0: c4b5 833c 3877 0abd 1e1f afbc d7ae af3c
000000b0: fbde 9bbc b2cc b23c 8294 143d 9ca3 c13c
000000c0: 5832 473c 2afe f8bc e3e8 543c e734 6dbc
000000d0: 9330 073d a848 bebc 718d e33c f49f 333c
000000e0: 9e8d d23c b31f c7bc a287 0f3b 02e8 703b
000000f0: dacd 593c 7c6f d5bc 9a54 a53c 648a 0fbd
00000100: 15fd a3bb c109 853b e5bb 013d 715e 003b
00000110: 4c75 803c 6372 c2bb 3574 683c 2651 c6bb
00000120: d4cb a73c 92e5 ae3c 8a1c 60bc 00f4 0bbd
00000130: 4c4e 103c 385d f2bc 62fb 0a3c 3d7c e93b
00000140: 0699 47bc 9979 d63c 9041 97bc bc33 b33c
00000150: bac2 54bc 4764 d03c b4de bbbc fed9 1c3d
00000160: 8a1b b63c f0fc ae3c 4c2c 943b 8f98 133d
00000170: 19d1 603c 9aa8 f43b 2a6c d83c 3926 a13c
00000180: 2ab2 0d3d 0433 4c3c e250 8e3c e317 a2bb
00000190: 79c8 97bb 1d5e cb3c effb 55bc bcd7 c7bb
000001a0: 976e 133c dcfd 483c 91be cebc 5e23 c33a
000001b0: 0e1f ef3b bc09 6bbc 97dc c2bc 52d8 ad3c
000001c0: 2b16 253c 55ac 2dbc c255 e8bc 768d 053c
000001d0: 3d1c ab3c a3c5 dcbc 44aa 4bbd 1d77 b3bc
000001e0: eb9f 363c 80d6 233d 5433 653c 355a ac3c
000001f0: bb90 8fbc effe 143c 0181 a0bc 977f c2bc
00000200: c14c 003d 703b 103b 4229 61bc e3ae 8d3c
00000210: 5121 f3bc d6b8 4b3c cb0e a73c 3c15 bdbc
00000220: 8c59 293b d68f c2bc 15aa 97bc cef2 843a
00000230: e995 f2bc 5b0c 76bc 0a5a 06bd 58f5 b33c
00000240: 5d13 9fbc 3586 b8bb 61ac 043d 6e34 ebbc
00000250: 9012 3cbc a522 913b 2583 b6bc 9bf8 c53c
00000260: bad8 bb3c 182b a73c 0891 583c f33d 1fbc
00000270: 068d b8bc 2ff5 1ebc 2a49 6a39 df92 223d
00000280: 7221 0a3c b602 f4bc 87ef 3ebb 7047 eebc
00000290: 7f97 06bd 212b b0bb ffcc f8bc 9d4c 113c
000002a0: 66ad 313c aa89 cb3a 16c0 13bd dcd1 5ebc
000002b0: 518a 2d3c fa57 1f3c 2844 22bb 2e04 34bc
000002c0: 64f2 babc a244 3ebc 6321 8cbc f472 1a3c
000002d0: 7516 c0bc c5f2 3239 8f64 ec3c ebcd 22bc
000002e0: 2325 ab3c 0d74 cebc 8b69 543c c3ba 593b
000002f0: a79c 373c aa49 2bbc 769c 18bb b1f8 d33c
00000300: 0748 ca3c d305 053d f9eb c5bc 661c 63bc
00000310: dca4 91bc 6bd2 523b 7aac 09bd 65f6 803b
00000320: 84bf 0e3b 183c 9c3b e6df 51bc ef52 aa3c
00000330: b8cd d4bc 79f4 fa3b ba0b dc3c 54e2 8abc
00000340: 77b4 c4bc 1bbe fe3b 3443 72bc ca49 bf3c
00000350: 6513 ecbc c661 833c df27 4c3c 73a6 75bc
00000360: 64bb a0bc 331f c2bc e3c3 d13c f697 583c
00000370: 072a 743c 0eb6 f03b b0b1 ad3c e6f0 fe3c
00000380: 8eec 49bc ceb4 80bc 3447 5e3c 3f8c c5bc
00000390: bf58 52bc cd15 fd3c 09ab 30bc c5a4 d8bb
000003a0: 151d e33b d5d7 e5bc e30c a1bb 2f1b ac3b
000003b0: 4912 b3bc 2865 383c d8b7 8bb9 1f0d 793c
000003c0: 21b4 a13b ab62 babc a616 f4bc f0fb 3e3c
000003d0: ac7e 0cbd ea92 a1bc fa05 cbbc c2fc 19bc
000003e0: 2bcd 09bd 58a4 8c3c c549 a0bc 46a2 a9bc
000003f0: 0019 3dba 9082 9ebc 8995 46bb 0bb2 51bb

bias f4 [64]
-0.026322031 0.01903425 -0.014513507 0.009941818 0.006790916 -0.025175214 0.03453656 0.048307005
0.023083532 -0.011203491 -0.038388446 -0.00045807072 0.002596747 0.01687081 0.018191868 0.0042391135
-0.0036755153 0.005965064 -0.033881444 -0.04005615 0.016512953 -0.00850733 0.02857749 -0.023017386
-0.0056773634 0.01979981 -0.005524948 -0.008840973 0.027236916 -0.0031632415 -0.025967214 -0.0119000655
0.037756503 0.009203986 -0.034094237 0.026375394 -0.0079524815 -0.011441901 -0.027146071 -0.03834559
0.017236333 -0.011974656 -0.0037927215 0.012079692 0.013598673 -0.028985979 0.00045071973 0.00027794536
-0.0085882535 0.01481745 0.042142022 -0.013637997 0.032419443 -0.037884627 -0.033617835 -0.02998625
0.02134479 -0.042866852 0.030331356 0.027967246 -0.022357784 -0.016071428 -0.002356015 -0.016733779
00000000: 4da1 d7bc b7ed 9b3c 0fca 6dbc 02e3 223c
00000010: 5586 de3b 403c cebc 3576 0d3d 91dd 453d
00000020: ad19 bd3c d98e 37bc 343d 1dbd 3629 f0b9
00000030: 2f2e 2a3b a734 8a3c 1d07 953c 43e8 8a3b
00000040: eae0 70bb 9576 c33b 45c7 0abd eb11 24bd
00000050: 2c46 873c 5462 0bbc 571b ea3c f58e bcbc
00000060: 2d09 babb 3633 a23c 9f0a b5bb bad9 10bc
00000070: f41f df3c 634e 4fbb 32b9 d4bc 7ef8 42bc
00000080: 90a6 1a3d 51cc 163c 66a6 0bbd 3611 d83c
00000090: 204b 02bc d076 3bbc 7061 debc 4410 1dbd
000000a0: 3633 8d3c 5931 44bc 4f8f 78bb e7e9 453c
000000b0: f8cc 5e3c 0174 edbc 944e ec39 32b9 9139
000000c0: bfb5 0cbc e4c4 723c 1d9d 2c3d e871 5fbc
000000d0: 40ca 043d e92c 1bbd dbb2 09bd b9a5 f5bc
000000e0: 45db ae3c 2795 2fbd 7779 f83c 911b e53c
000000f0: ac27 b7bc 3aa8 83bc 5f67 1abb 4715 89bc

weight f4 [10, 64]
-0.069874145 -0.10596662 0.04654231 -0.012449566 -0.06915109 -0.039970525 0.059155293 -0.17275228
0.13485436 0.011691347 0.08011252 -0.09624338 -0.031275462 -0.040466025 -0.089720696 0.049869414
0.10411494 -0.0048983097 -0.10981575 0.16208988 0.057510808 0.15462069 -0.06996741 0.12519598
0.052696 -0.033845257 -0.12419944 0.09137422 0.046261776 0.07287848 -0.12786743 0.1064227
-0.10094486 0.021176742 0.055588778 -0.1095085 -0.015075702 0.09277825 0.12910704 0.1364574
0.0015824632 0.03081425 -0.08945554 0.14703389 -0.029352807 0.08634796 -0.10651619 0.16520189
0.13854323 0.11763235 -0.034100406 0.035824444 -0.052059337 0.090338014 0.09711084 0.12584351
0.028981537 0.05881589 -0.010661561 -0.10640298 0.089356385 0.099163346 0.10858975 0.13134587
-0.06384102 -0.08596404 -0.18865626 -0.050056774 -0.045749426 0.0056059784 0.14218096 0.088862345
-0.0044146082 -0.05025044 0.12484878 0.18135099 -0.067818396 -0.20679389 0.13512576 -0.09503857
-0.07431479 0.13116705 -0.13516667 -0.069025874 0.08120327 -0.11119902 -0.04966412 -0.13279723
-0.018123513 -0.020293929 -0.05609508 -0.0042742225 0.02036176 -0.016650446 -0.033135414 0.057036392
-0.07256482 0.16108933 -0.006899354 -0.112922154 -0.055209618 -0.108666055 -0.124181055 -0.076934755
-0.08561771 -0.17166972 -0.07352488 -0.04402378 -0.11818361 -0.11824725 -0.15419763 0.08799044
0.060200643 -0.085321605 0.030797763 -0.09062112 0.16337363 0.10924969 -0.12799828 0.0007471843
0.09957753 -0.049181435 0.09608349 -0.040113274 -0.12901917 -0.0014982349 -0.08121471 -0.085576996
-0.081181295 0.15365113 0.11516377 -0.030031195 0.14292341 -0.10133312 0.007892988 0.007301664
-0.03539152 0.07337107 -0.10468139 -0.04716917 0.108509526 -0.016928513 -0.010819389 -0.030086156
0.13905212 0.086029775 -0.10851473 0.10800735 0.08674014 0.15553887 0.01170446 -0.13565506
-0.049776312 0.053746272 0.11668337 -0.010193011 0.14157397 -0.017186519 -0.012299337 0.12218048
0.019577675 0.082861796 -0.0025714864 -0.14517866 -0.08774384 -0.022028921 0.056114275 0.042874254
-0.019470856 0.10191263 -0.056454785 0.08281859 0.114511386 -0.015319862 0.0914186 -0.049847763
0.10808518 0.17344621 0.037418798 0.02721305 0.06281713 0.15691945 -0.14512812 0.09814027
-0.1530329 -0.01972288 0.09142585 0.07679196 -0.09298156 -0.108406365 -0.1240424 0.12046259
0.0745582 0.02381793 0.16830906 -0.09912461 0.07059821 0.0071259267 0.11446597 -0.072162405
-0.082934275 -0.058585223 -0.06554882 0.10834032 -0.10925511 0.06728614 -0.12599774 -0.06454349
-0.028526807 -0.12488795 0.010622454 -0.090872996 0.1088964 0.09785009 -0.024018899 -0.0956789
-0.12158089 -0.100251846 -0.057904363 0.011299404 0.08091976 0.07852819 0.14677858 0.08658905
-0.12746711 0.00607794 0.06779553 -0.10786184 -0.040373787 0.11050087 0.034845162 -0.1356224
-0.11299097 0.069037504 0.185413 -0.03913263 -0.033741582 -0.11491113 0.14545156 -0.003561441
-0.023000902 -0.024514668 0.06769354 0.094972 0.08381733 -0.053101476 0.02509866 0.02247461
-0.073170744 0.12950306 0.029462585 -0.055900138 -0.00630006 -0.17153016 -0.0008719505 -0.070658475
00000000: 2d1a 8fbd 0705 d9bd 26a3 3e3d 44f9 4bbc
00000010: 169f 8dbd 22b8 23bd d24c 723d f9e5 30be
00000020: 4317 0a3e 108d 3f3c 0812 a43d 401b c5bd
00000030: b31a 00bd b4bf 25bd 7cbf b7bd df43 4c3d
00000040: 373a d53d 0082 a0bb 14e7 e0bd e4fa 253e
00000050: 7490 6b3d e354 1e3e 134b 8fbd 6033 003e
00000060: c3d7 573d 53a1 0abd 475c febd 6822 bb3d
00000070: fd7c 3d3d 5041 953d aeef 02be 25f4 d93d
00000080: 2ebc cebd d97a ad3c 0fb1 633d fe45 e0bd
00000090: 1400 77bc 8602 be3d a334 043e 7dbb 0b3e
000000a0: a76a cf3a 2b6e fc3c 7734 b7bd 0d90 163e
000000b0: 4c75 f0bc 33d7 b03d 2925 dabd af2a 293e
000000c0: 47de 0d3e 3be9 f03d deac 0bbd a7bc 123d
000000d0: 2c3c 55bd 2303 b93d 0ce2 c63d 1fdd 003e
000000e0: b06a ed3c eee8 703d d4ad 2ebc cee9 d9bd
000000f0: 7b00 b73d 2716 cb3d 4e64 de3d 887f 063e
00000100: 15bf 82bd ea0d b0bd 1b2f 41be 5508 4dbd
00000110: c063 3bbd 5bb2 b73b e397 113e 76fd b53d
00000120: 6ba8 90bb 68d3 4dbd b8b0 ff3d 13b4 393e
00000130: 5fe4 8abd c7c1 53be 685e 0a3e 95a3 c2bd
00000140: 5a32 98bd a850 063e 2269 0abe 705d 8dbd
00000150: e64d a63d 50bc e3bd 9b6c 4bbd fffb 07be
00000160: c377 94bc 743f a6bc f4c3 65bd c70e 8cbb
00000170: b5cd a63c 8466 88bc 00b9 07bd fe9e 693d
00000180: dd9c 94bd 9af4 243e fa13 e2bb bb43 e7bd
00000190: 7b23 62bd 4f8c debd a352 febd f88f 9dbd
000001a0: 5758 afbd 30ca 2fbe 3694 96bd 4752 34bd
000001b0: 400a f2bd 9d2b f2bd fce5 1dbe 5534 b43d
000001c0: f394 763d 18bd aebd 974b fc3c 9197 b9bd
000001d0: 6b4b 273e 4dbe df3d fb11 03be b1de 433a
000001e0: 4eef cb3d 7972 49bd 6cc7 c43d d14d 24bd
000001f0: 9a1d 04be 6c60 c4ba e653 a6bd fe42 afbd
00000200: 6142 a6bd b956 1d3e fcda eb3d fb03 f6bc
00000210: 845a 123e bd87 cfbd 9751 013c cc42 ef3b
00000220: b3f6 10bd 9243 963d 3263 d6bd 7634 41bd
00000230: 3e3a de3d aaad 8abc ce43 31bc 3e77 f6bc
00000240: ae63 0e3e 6130 b03d f93c debd f532 dd3d
00000250: d1a4 b13d 9545 1f3e 10c4 3f3c 29e9 0abe
00000260: 3fe2 4bbd 0d25 5c3d b1f7 ee3d 9600 27bc
00000270: c4f8 103e beca 8cbc 2983 49bc c239 fa3d
00000280: 5c61 a03c 72b3 a93d 6286 28bb b7a9 14be
00000290: 0bb3 b3bd ff75 b4bc 15d8 653d ea9c 2f3d
000002a0: 5881 9fbc 92b7 d03d 223d 67bd cb9c a93d
000002b0: f284 ea3d 2900 7bbc ad39 bb3d 2b2d 4cbd
000002c0: c35b dd3d e29b 313e 7444 193d e7ed de3c
000002d0: 44a6 803d 7eaf 203e 779c 14be c4fd c83d
000002e0: a8b4 1cbe e191 a1bc 7a3d bb3d 1a45 9d3d
000002f0: 1e6d bebd 2804 debd f109 febd 17b5 f63d
00000300: f8b1 983d d21d c33c 3659 2c3e d801 cbbd
00000310: cb95 903d 9b80 e93b 226d ea3d e2c9 93bd
00000320: 72d9 a9bd 0ff7 6fbd 763e 86bd 88e1 dd3d
00000330: 25c1 dfbd 51cd 893d 8d05 01be 612f 84bd
00000340: 0db1 e9bc 41c5 ffbd cd09 2e3c 9f1b babd
00000350: 1305 df3d a165 c83d 48c3 c4bc 4df3 c3bd
00000360: 67ff f8bd d750 cdbd 202d 6dbd 2321 393c
00000370: 42b9 a53d 63d3 a03d 204d 163e 9a55 b13d
00000380: bd86 02be 7529 c73b 62d8 8a3d abe6 dcbd
00000390: fc5e 25bd 484e e23d cdb9 0e3d 99e0 0abe
000003a0: cf67 e7bd 8963 8d3d e8dc 3d3e 8949 20bd
000003b0: 9d34 0abd 8756 ebbd 41f1 143e 1167 69bb
000003c0: 636c bcbc fcd2 c8bc e9a2 8a3d ae80 c23d
000003d0: 6ca8 ab3d ef80 59bd b49b cd3c ac1c b83c
000003e0: 8bda 95bd 739c 043e 855b f13c 8bf7 64bd
000003f0: bc70 cebb 9aa5 2fbe 9c93 64ba 64b5 90bd

bias f4 [10]
-0.002994982 -0.017331162 0.061999217 -0.063804775 0.012695538 -0.063656434 0.015277796 0.03792048
0.0006255354 0.033981312
00000000: 7647 44bb 15fa 8dbc e4f2 7d3d 14ac 82bd
00000010: f200 503c 4e5e 82bd b94f 7a3c 8152 1b3d
00000020: f8fa 233a fd2f 0b3d
