DeepLearningDemo/models/jingxin_5.pth (torch, 588127 bytes, 10 tensors)

weight f4 [32, 3, 5, 5]
00000000: 0e0e 19bc 9fc5 d03d f697 75bd d735 c4bd
00000010: 8f84 b83c df27 57bd b39f cdbd 6a2c 913d
00000020: 36e6 9c3d baf8 0a3d 33d8 653d 97ef ff3d
00000030: ea19 233e 61b1 ab3d e2b0 813c c3d8 f43c
00000040: c526 67bd 7b71 afbd 1ba9 363c b039 bfbd
00000050: 46f7 41bd 5a22 0e3d cfcd d7bd cbe8 e43d
00000060: d71c d1bd d148 853d 70db ba3d e017 a0bd
00000070: a04a bcbd e50b 5cbd 5ebf 8fbc 7d98 bebd
00000080: e232 ea3d fcdd 24bd d3c1 643d baf6 98bc
00000090: b22f b3bd 2261 fd3c 9b1f 123e c227 f73c
000000a0: c383 df3d 0aec 893b f5f8 9ebd 0846 483d
000000b0: 4319 993d 3ba2 edbd a345 01be 1c5c 013c
000000c0: d909 78bc a01b 113d 1aeb 51bd 3add d3bc
000000d0: 9633 0abd fd10 bebd 8618 e3bd c938 9f3c
000000e0: acfd fabd 0fc9 6f3d d3e4 87bc 9e05 c53d
000000f0: f891 1e3d b047 8ebd 7a39 023e 0834 2e3d
00000100: f1d1 f23c 57b7 e3bc 110e 403b 26ab c5bd
00000110: 4de5 7bbd 0cbf b83b a608 8d3d 29fe 1abd
00000120: 35af d73d 2117 c63d 782b 71bd f9ff d8bd
00000130: fbd3 96bd efa9 633c edc8 c7bb 0eb3 2b3c
00000140: e703 ba3d 3858 66bd b1b6 233b 1751 99bd
00000150: d5d7 993c 315a bc3b cec6 0fbe ae94 75bc
00000160: c41b d2bd 7cae 87bd 3709 0f3d be86 fe3b
00000170: c730 da3d 1c33 eb3d 2655 9fbd 1f53 4fbc
00000180: b682 0a3d 03e3 90bd 0034 f13d 406a 403d
00000190: b716 f5bd 59b4 00bd 4008 e8bd 505c 55bd
000001a0: 4762 c93d afb1 683d 53b4 a5bc 0373 e13d
000001b0: 36ab 3bbd 0f25 05be 17c3 433c 9fd1 c73c
000001c0: aac8 3bbc c1a3 f3bd 2f3c 2ebd c9c9 e03c
000001d0: d080 003e b849 82bd 94cc 393d fc4a c03d
000001e0: 46fb ce3d 9016 21bd 8191 0bbb b127 fa3c
000001f0: f408 a43c 80f0 c13d 9ca6 7c3d c9f6 b03d
00000200: 38ae d83d 0477 a1bd 3ee7 cc3d a20a a83d
00000210: 8de1 31bd e71e d73b 12df 9fbc a0fc adbd
00000220: 6ae9 c63d 437b 7fbd c7f1 85bd 7862 b13d
00000230: b06b 54bc 6529 98bc e0e7 a83c 1d1c 1a3d
00000240: d080 0d3d 007b ce3d 5d45 b83c 6624 cb3d
00000250: 6034 223d ed6e d9bc 4787 a5bc 2222 c93c
00000260: 9795 333c 8545 213e b96e 5a3e f3b1 b53c
00000270: f022 42bd 0313 9e3d cf89 12bd b392 e1bc
00000280: 2d2c 8b3d 3538 5d3c 7692 8e3d 5e75 b5bd
00000290: c6ad 46bd f3fb c23c d363 b3bc 8894 dcbc
000002a0: a05f e23c c185 c2bd c7d9 613d 896e 28bd
000002b0: f35e 5cbd a258 6a3d 3d2c b53d e581 b33d
000002c0: 25e2 29be 87ad d9bd a1b9 04be 07cd d63d
000002d0: 7f12 d3bd 2638 f7bd e758 3abe 04ae 09be
000002e0: 6bb9 ce3d b8cb f6bc e828 40be a2cc a2bd
000002f0: dd73 a6bd 7a01 b2bd 5781 19be f25f 66bd
00000300: 84ba 463d 9b35 b5bd c13a 0abe fd68 ebbc
00000310: 19bc fabd 715e af3a 1123 b43d c3af 343d
00000320: f071 953d d36c e8bd 7289 e3bd e9fb 8a3b
00000330: 61d0 0d3e 8e47 263d 5c5f 6d3c f306 08be
00000340: e516 603d 8934 ec3d 8199 13bd 9bae 0abe
00000350: 65fa 6b3d 6e5b f0bd 9eda a2bc a60b acbd
00000360: d41b 11be 867a cebc 34a4 653d 0026 d5bd
00000370: 4184 8ebc e26e d2bc f488 3cbd e18f 8abc
00000380: 16db d73d 44e5 fd3a dddc c33d 8209 babd
00000390: b6cc d2bd e15e 493c 9e7c 1bbd 6923 103d
000003a0: 958c d2bc 8fb2 cabd 4c7b c33d c5cc b73d
000003b0: cacc 8abc 4f57 0cbd d452 7c3c fa1f d6bd
000003c0: 4cdf 80bd eaa7 05be 6c77 c6bb b4be cbbc
000003d0: 9b22 41bd 6be3 d6bd 5699 d83d 2d3e 9d3d
000003e0: e2c0 c93d 5d1a 063e f9ba 05bd f64d be3d
000003f0: cfbf 8fbc 3046 c4bc 66a7 983d e567 ca3c
-0.00934173 0.10193943 -0.059959374 -0.09580582 0.022524146 -0.05252826 -0.10040226 0.070885494
0.07661097 0.03392861 0.056114387 0.1249687 0.15927854 0.08383442 0.015831415 0.029888516
-0.056433458 -0.085665666 0.011148716 -0.09337175 -0.04735496 0.03470073 -0.10537302 0.11177214
-0.10210579 0.06508029 0.09123886 -0.07817054 -0.09193921 -0.05372228 -0.017547306 -0.093064286
0.114354864 -0.040250763 0.055848908 -0.018672336 -0.087493315 0.030930106 0.14269869 0.030170325
0.109138034 0.0042090463 -0.077623285 0.048894912 0.074755214 -0.11603209 -0.1262422 0.007895496
-0.015139067 0.035426736 -0.0512496 -0.025862325 -0.033740602 -0.09280584 -0.11088662 0.019436257
-0.12255415 0.058541354 -0.016588604 0.09620212 0.038713425 -0.06947267 0.12717238 0.04253009
0.029641123 -0.027797384 0.002930526 -0.096517846 -0.061497975 0.005638009 0.06886415 -0.037840042
0.10531465 0.0967238 -0.058879346 -0.10595698 -0.07364651 0.013895496 -0.0060969503 0.010479702
0.090827756 -0.056236476 0.0024980719 -0.0748617 0.018779675 0.0057480563 -0.14040682 -0.014989061
-0.10259202 -0.06625077 0.034920897 0.0077675274 0.10653835 0.11484358 -0.07779913 -0.012654095
0.033816062 -0.07074549 0.11777496 0.046976328 -0.11967223 -0.031421993 -0.113296986 -0.05208999
0.09833198 0.056810077 -0.020227587 0.11008265 -0.045817576 -0.13002418 0.0119483685 0.024391947
-0.011461416 -0.11896468 -0.042537864 0.027439969 0.12549138 -0.06361717 0.045361117 0.09389302
0.1010652 -0.039328158 -0.0021296444 0.030536504 0.0200238 0.094697 0.06168233 0.086408205
0.105801046 -0.078840286 0.100050434 0.08205153 -0.043427993 0.006564963 -0.019515548 -0.0849545
0.09712489 -0.06237341 -0.06540256 0.086613595 -0.012965128 -0.018574426 0.02061838 0.037624467
0.034546673 0.10082054 0.022494012 0.09919052 0.03960073 -0.026542151 -0.020206107 0.024552409
0.010960958 0.15749176 0.213313 0.02217958 -0.0473966 0.0771847 -0.035775956 -0.027535772
0.06795535 0.01350217 0.06961529 -0.08860277 -0.048505567 0.02380178 -0.021898186 -0.026926294
0.027633488 -0.09498168 0.05513933 -0.04112104 -0.053801488 0.057213433 0.088463284 0.0876501
-0.16590174 -0.10628801 -0.12961437 0.104883246 -0.10306262 -0.12071256 -0.18197976 -0.13445288
0.100939594 -0.030126438 -0.18765604 -0.07949187 -0.08127568 -0.08691688 -0.14990745 -0.056243844
0.04851772 -0.08848115 -0.13498975 -0.028736586 -0.12242908 0.0013379586 0.08795751 0.044112932
0.072971225 -0.113488816 -0.111102 0.004241456 0.13849021 0.040595584 0.0144880675 -0.13283901
0.054709334 0.11533458 -0.036035065 -0.13543169 0.05761184 -0.11736189 -0.019879635 -0.08400659
-0.14170772 -0.025204908 0.0560648 -0.104076385 -0.017397048 -0.025687639 -0.046029046 -0.01691431
0.10539834 0.0019370695 0.09563611 -0.09083845 -0.10292952 0.012290687 -0.03796064 0.03519002
-0.0257018 -0.098973386 0.095450014 0.089746036 -0.016943354 -0.03426295 0.015400607 -0.10455318
-0.062925905 -0.13052335 -0.0060567167 -0.024871208 -0.047152143 -0.10492595 0.105761215 0.07677875
0.098512426 0.13095994 -0.032649014 0.092922136 -0.017547516 -0.02395925 0.07453804 0.024707744

bias f4 [32]
00000000: f4f8 153d 9bfd 65be 3d77 9c3d 69ce 9ebd
00000010: fecd 323e 17f1 5b3e 65e9 893e fd4a 85be
00000020: 1068 91bd 69bc 32be 52a1 56bc cc47 abbd
00000030: fc6d 79bd 23b3 43bd d126 39bd ecd4 373e
00000040: 9f4c d1bc e4ec f8bd b0fd 37be 5ebb 7dbe
00000050: 20d3 7a3e 1d61 48be a484 05be a37e 8e3d
00000060: e22d 373a dd83 dfbd 403e 5d3d e0a4 f13b
00000070: 9f08 8e3e 8bd6 00b8 2e47 11be 542c e7bd
0.036614373 -0.22460024 0.076399304 -0.07754213 0.17461392 0.21478687 0.26935878 -0.26033774
-0.070999265 -0.17454685 -0.013099985 -0.083633035 -0.060895905 -0.04777826 -0.045203034 0.17952317
-0.025549231 -0.12154558 -0.17967868 -0.24778506 0.244946 -0.19568296 -0.1303888 0.06957748
0.0006987733 -0.10913823 0.054014444 0.007374391 0.27740952 -3.0717387e-05 -0.14187309 -0.11287752

weight f4 [32, 32, 5, 5]
00000000: 6d87 e33c 1315 90bc 19c3 a13c 9c5f 12bd
00000010: 0922 673c f87b 623c c8ec e53c 4f75 363c
00000020: 21ac 923c f80c 11bd fd23 dbbc 0986 0dbd
00000030: 0bd6 eabc 94db 0f3c aa9f 05bd 4d06 bfbb
00000040: f5fd babc 17b1 c63c 01f8 863c 7b48 70bb
00000050: 6cdf 0abc 26e6 8bbb 16a1 e4bc 3fed 833c
00000060: 3fa3 06bd 6a9f b2bc 3fd8 18bd d4e4 583c
00000070: 5a6d 093d 6a11 e7bc 9386 97bc 6340 903b
00000080: 7d73 133d 41ab b4bc 0dad a7bc 6b8e 213c
00000090: f2ac b73b 05a9 54bc b2d1 133d 944d 973c
000000a0: baba a43b 879d d13c f999 12bc e5f0 7bbc
000000b0: fc96 153d b6b5 a63c ca2a d83c e86b c53c
000000c0: a1b7 a93c 007c d83b d89b b73c ab59 03bc
000000d0: c35b f73c 1c51 cc3c 04d9 8dba 0a60 1dbb
000000e0: 028d e6ba 51d9 2d3c dc4e 25bd 23fa e9ba
000000f0: 5c76 8e3b d5e7 dbbb 6425 83bb e939 3ebd
00000100: f9a8 0bbd c28c 5b3c f5ad 9cbc 3950 ffbb
00000110: 182e 46bd 49d9 fdbc 0144 c53b e278 e4bc
00000120: 942c 32bd a4f0 b4bc 0f5a aa3c 48df b23c
00000130: b436 f53c 2452 aebc f5b9 d13c c312 b33c
00000140: 0ed3 2cbb bcf7 22bc e1c7 d3bc 5b99 be3c
00000150: f256 16bc bf9c 253d ec5b f0bc 6f4c 043d
00000160: 679e 05bd 9777 c0bb 3cd7 b43b a3e4 0e3d
00000170: 303e fbbc 1a4c 6a3c 2ece ee3c 65c7 fdbc
00000180: 91ac afba 7bd3 37bc 7062 793c b5fa e43c
00000190: 83df 123d 7c44 1a3d ed64 0cbd 2091 1d3c
000001a0: 166d 073d dd04 2b3c 2513 08bc 9f99 02bd
000001b0: 8493 a4bb 7376 8bbc 9550 c0bc 7095 333c
000001c0: 4ab8 14bc 876a 2dbd 6ea7 4cbb c3cf b3bc
000001d0: 324f f7bc 0b9c c0bc 62f3 eab9 67f8 d33c
000001e0: ccb8 16bd 4dda 03bd 9a71 8bba 0f44 e13a
000001f0: 2f7f 85bc 2692 ae3c ed3f e63b 23ef d3bb
00000200: 810c dcbc 7be9 fb3a dfa7 aa3c 679e 51bc
00000210: 88f9 46bc d68c 91bc 78c7 083d 35fc 243d
00000220: dd2a ad3c 2448 6fbb a6fe 3abb 5335 fcbc
00000230: 4314 a13c da4f 24bd e048 51bc 9ba9 1ebd
00000240: a404 bbbc 344b bbbc 3434 14bd cbca 30bd
00000250: 0ca4 2cbd 85ea c5ba 74eb 523d 4920 113d
00000260: ffe1 b63c f506 11ba 8236 5c3c 907d 943c
00000270: 5587 283c f10d 6fbc 1387 2bbd ed4e 19bb
00000280: 3b58 ac3c 2a07 853c e4d3 39bc 509d fe3b
00000290: c138 c93b 1efd 00bd 1154 963c 66f5 13bd
000002a0: e6de 5bbd 6d59 c6bb 05ad 09bd aede 8e3c
000002b0: 5c97 27bd 59d2 f6bc 33ff c73c 3f34 04bd
000002c0: d3fd adbc 08b4 e7bc b231 6a3c 6209 28bc
000002d0: 298c 5abc 4b3c b63a 9252 b3bc a1d3 a93b
000002e0: 89f7 8e3c c284 3ebd c5a9 bbbc 5cbc 993c
000002f0: 847d 0bbd f6f5 c0bc 4284 2fbd 23bc 35bd
00000300: e586 9c3c 86ad 6f3c fc43 9b3c 3ac3 ecbc
00000310: dc93 61bc 7f81 87bc 03b5 9c3c 673e e6bc
00000320: c5ae ff3c 0e1f 513b 4335 143c 533c cebc
00000330: dbc0 b3bc 579c 683c fa5a a63c 3c7c 613b
00000340: 5d67 cc3c 1e40 813c 4515 e9bb 2cb7 8bbc
00000350: 16c4 a93c b596 a0bb 8e3d e4bb 4471 8f3c
00000360: b4a8 54bc ea11 d4bc 0a88 a53b ff04 d03c
00000370: 7268 1f3c e9d5 86bc 3a22 6ebb c8c4 66bc
00000380: 0c20 773c ae71 e5bb 4d91 8e3c 2fea 01bc
00000390: 4604 50bc d8e3 8d3b 2adf f7bb b8b2 523c
000003a0: 181f 453c da0f adba 9af6 c6bc 8805 2bbc
000003b0: 4d9f aebc 716b a8bb 82ee 1d3d 0906 c6bc
000003c0: 5a31 bcbc 3897 1e3d 1b8b b5bc 402f 113d
000003d0: 59f4 aebc 0fad 193d 412c 1f3d 8990 c6bc
000003e0: e197 ed3c 6d1f 023d 5c74 48bc c0b3 16bc
000003f0: 1bc6 963b 6506 f43b c28d 0fbc 1a48 61bb
0.027774537 -0.017588174 0.01974635 -0.03573571 0.014107236 0.013823502 0.028067008 0.011136367
0.017904343 -0.03541276 -0.026750559 -0.034551654 -0.028666517 0.008780379 -0.03262297 -0.0058296085
-0.022826174 0.024254365 0.01647568 -0.0036664295 -0.0084761195 -0.004269379 -0.027908843 0.016104339
-0.032870527 -0.02180453 -0.037315603 0.013238151 0.03355155 -0.028206546 -0.018496787 0.0044022067
0.03599881 -0.022054316 -0.02046826 0.009860615 0.0056053335 -0.0129797505 0.036088653 0.01846961
0.0050271424 0.02558781 -0.008947843 -0.015377258 0.036520943 0.020350318 0.02638759 0.024099305
0.020717444 0.006606579 0.02241318 -0.008016984 0.030195123 0.02494102 -0.0010822122 -0.0024013543
-0.0017589631 0.010610894 -0.04035841 -0.0017851036 0.0043476056 -0.006710986 -0.00400226 -0.046441946
-0.03409669 0.0134002585 -0.019125918 -0.0077915457 -0.048383802 -0.030987399 0.0060200696 -0.027889673
-0.043499544 -0.022087403 0.020794896 0.021834984 0.029933311 -0.021279402 0.025601367 0.021859532
-0.0026370916 -0.00994676 -0.025852146 0.023266485 -0.009176003 0.040432688 -0.029340707 0.032299455
-0.032621767 -0.005873631 0.005518822 0.034886014 -0.030669302 0.014300371 0.029151049 -0.030978868
-0.0013402869 -0.0112198545 0.015221223 0.027951578 0.03585769 0.037662968 -0.034275938 0.00961712
0.033063017 0.010438171 -0.008305346 -0.031884786 -0.005022468 -0.017024254 -0.023475925 0.010960922
-0.009077141 -0.04233792 -0.0031227726 -0.021949654 -0.03018913 -0.023511907 -0.00044813292 0.025875283
-0.03679733 -0.03219061 -0.0010638714 0.0017186421 -0.016295997 0.021309923 0.0070266635 -0.0064677163
-0.026861431 0.0019219363 0.020832 -0.012794114 -0.012144454 -0.017767351 0.033393353 0.040279586
0.021138603 -0.0036511505 -0.002853313 -0.030787146 0.019662982 -0.040115215 -0.012773722 -0.038735967
-0.022829361 -0.022863008 -0.036182597 -0.04316215 -0.042148635 -0.00150998 0.051494077 0.03543118
0.02232456 -0.0005532348 0.01344073 0.01812628 0.010286172 -0.014590726 -0.041876864 -0.002339299
0.021038165 0.016238768 -0.011342023 0.007770218 0.006140799 -0.03149139 0.018350633 -0.036122702
-0.05367937 -0.006053141 -0.03361227 0.017440166 -0.040915832 -0.030129598 0.02441368 -0.03227639
-0.021239197 -0.028284088 0.014294075 -0.010256143 -0.013339081 0.0013903467 -0.021889959 0.005182699
0.017452018 -0.046513326 -0.0229081 0.018766575 -0.034055248 -0.023554783 -0.04285074 -0.044368874
0.019107291 0.014628774 0.018953316 -0.028901685 -0.013768163 -0.01654124 0.019129282 -0.028105928
0.031211266 0.003190938 0.009045902 -0.02517525 -0.021942547 0.014197431 0.020307053 0.0034406325
0.024951631 0.015777644 -0.007113131 -0.017055117 0.020723384 -0.004900778 -0.0069653457 0.017510064
-0.012979675 -0.025887448 0.0050516175 0.025393007 0.009729492 -0.016459422 -0.0036336319 -0.014085002
0.015083324 -0.007002077 0.01740327 -0.007929369 -0.012696331 0.0043301396 -0.007564445 0.012859993
0.012031339 -0.0013203577 -0.02428751 -0.0104383305 -0.021316195 -0.005139761 0.038557537 -0.0241728
-0.022972751 0.038718432 -0.022161057 0.03544545 -0.021356748 0.037518557 0.038860563 -0.024238842
0.029003086 0.03176825 -0.0122347735 -0.009198129 0.0046012527 0.0074470514 -0.008761825 -0.0034375251

bias f4 [32]
00000000: 7176 dabc 5902 343d e21f 91bd 02ea 21bd
00000010: 2495 e8bc 23ae bebc 8e33 a0bc 41ed afbc
00000020: f219 7ebd 25a8 e7bd f3cc 50bd cf3a 053d
00000030: bc75 823c 6c78 4abd c504 c33c 4509 c0bd
00000040: b9a7 35bd e1d3 08bd 1c77 0cbd 2168 aa3d
00000050: c09e f3bc 652e 58bc 56bc 8e3b 8609 80bd
00000060: a4f0 8c3c f2ce 74bd dedc 0cbd 0f81 8d3c
00000070: a689 0f3d 364b ea3c b4f3 e9bc bd0e 85bd
-0.026667805 0.04394755 -0.07086159 -0.039529808 -0.028391428 -0.023276394 -0.019555833 -0.021475436
-0.062036462 -0.11311368 -0.050976705 0.032526787 0.01592528 -0.04943125 0.023805985 -0.09376768
-0.044349406 -0.03340519 -0.03429328 0.08320642 -0.029738784 -0.013194655 0.0043559475 -0.062518165
0.01720459 -0.05976767 -0.034390323 0.017273454 0.03504338 0.028600316 -0.02855859 -0.06496952

weight f4 [64, 32, 5, 5]
00000000: 35d3 313c 6fdd 013c 1f14 31bd f15f 1abd
00000010: cdbc 0dbd 0ead 8fbc 6dc9 ee3b bf14 053d
00000020: 2296 3cbc c434 993c af07 2abc 3806 d83c
00000030: 61e5 96bc 25e3 ca3c 873c e53c 7621 c0b9
00000040: da0c 083d 2692 833c b09d a038 8c39 d73c
00000050: 6754 113d 36bc c73b 5e6e b5bc d4e0 f7bc
00000060: cf90 ab3c ff0f 26bc 8ebd 523c 59a8 1d39
00000070: 22d7 a93c 1b2b e7bb 1613 6ebc bbdc a93c
00000080: 5e66 8abc e71e ff3b dd43 65bc 297e fb3c
00000090: 5ca7 033d 8b0b 6cbc fa06 d6bc 1039 a639
000000a0: d811 d63c 1ed2 433c 1831 323a 8d40 74bc
000000b0: 7a5d 0a3c b733 663b b72c c3bc 2501 973b
000000c0: f730 cabc edcd 82bc f8fe c4bc 3e9f 90bc
000000d0: f490 663b 8af4 a73a 97d7 1bbd c7e3 b6bc
000000e0: 3eb5 d6bc 4355 903c c5a6 673c d536 71bc
000000f0: 3198 99bc e582 1bbc b6c8 80bc c9d7 ca3a
00000100: 4ad0 063d 6a7e 0b3a e46d 153d 871c f43c
00000110: 8262 2b3d c96c 5f3c c558 653c 3e4b 373c
00000120: a9d0 e63c 0f1c a5bc 4baf f4bc 31a0 37bd
00000130: aeb8 7f3c 213b 0b3c a492 03bd df64 42bd
00000140: 656c b4bb a75c 6dbc fa29 433b d8ee 253c
00000150: 287f babb c55f e4b9 d7a1 88bb 9fa3 4f3c
00000160: 3fdf b1bc 41ec 353d a8be 413d bd31 943c
00000170: f133 52ba fa2b ffbc ab0e 73bc 5ea4 03bd
00000180: 99c2 d83b 5e24 4cbd 4247 393c f74a 36bd
00000190: 3de8 cebc 55ef 92bc 51d1 fd3c 1056 0ebd
000001a0: 0b94 26bd 6ea6 8dbc 15f2 0f3d a227 1b3d
000001b0: 4f1f 123d 29f2 32bc d3bf 0d3d 480a 233d
000001c0: babe 683b 62ff 893c 58fa f13c 9fc8 3a39
000001d0: 64df b13c 9d1d 0fbb f47d fcbc f5ad 1ebc
000001e0: 2957 c23b ef40 063c cbb6 fcbc 8816 3ebc
000001f0: 3a1e 7f3b ac74 14bd 5773 9abc 3582 05bd
00000200: bd94 f73b d296 153d 6c70 a33c 9751 ca3c
00000210: f1be 003c 0a0c 57bc 22e7 3b3a 9126 763c
00000220: 4f5b 89bc 9624 9abc 678e 0dbd de0d fa3a
00000230: 55d3 bcbc b1c2 113c 1a88 183d d2e9 1c3d
00000240: bc0b c43c 019b 743c 00d3 1c3d 3e2f f63c
00000250: 532b 7b39 be20 e13c c940 263b b3e2 b6bc
00000260: 36f6 123c 8210 fc3c 0a3d afb9 3264 df3c
00000270: a003 11bc a935 f0bc add5 003d 84ad c9bc
00000280: 1a0f 803c 17af 49bc 1e0a 433c c190 113c
00000290: 2b00 443c 9a80 97bc 9033 d03b b176 6c3c
000002a0: 24a5 e6bc 697f 1ebb 9cbb c33c 70ba 3f3d
000002b0: e472 8bbb b910 113d b7ce 093d 2d04 36bc
000002c0: d570 553c ad5e 28bd 93ae 25bd 11cb 29bc
000002d0: a804 b03c 6b1b a1bc 744d 7f3c b3cd 9e3c
000002e0: c970 073d 5858 e53a cf64 f43c 98e2 1f3d
000002f0: 6336 1b3d 7140 0e3d e54d 3e3d 6c16 2e3d
00000300: 841d 093b d717 84bc ba19 33bc 9588 cbba
00000310: 1704 0dbd e15e 96bc 77cf 05bc b124 263d
00000320: 39c0 053c 7c9f 10bc 3f4b cfbb 0b2c 01bd
00000330: b4c7 da3c e6a2 713c f096 70bc fef2 0c3b
00000340: 0284 a5bc cfdc 04bd f861 08bd 763b ebba
00000350: f899 db3c 5e1d 09bc b003 003d f35d 083d
00000360: 83b7 5ebc 6fda 85bc bb9b dbbc c173 0ebb
00000370: 9d5d c73c afae c4bb fd08 97bc a35d 893c
00000380: ad40 edbc 42ec db3b 54db edbc cbff 0abd
00000390: af37 f33b 16b7 1fbd 6c28 ed3c f89e fe3b
000003a0: c62d 2dbd b57f bdbc 061c bfbb f4df 8fbc
000003b0: 45c5 12bd 91bd 06bc fae9 d53c 68a9 be3c
000003c0: faa1 72bb 87a4 5b3c c2e6 533d e1a1 433d
000003d0: 7b3b a83b fc58 0c3c be93 babc 0a3a 08bd
000003e0: 99fd 1cbd 9c9c 2ebd dbf2 2bbc d3b3 b13b
000003f0: 9f70 42bc a0ce 943c 5c79 cebc 8491 083d
0.010853578 0.007926329 -0.04323208 -0.037689153 -0.034603883 -0.017538574 0.0072871954 0.03249049
-0.011510404 0.018701918 -0.0103778085 0.026370153 -0.018419923 0.024766514 0.027982963 -0.00036646024
0.03321538 0.0160609 7.658766e-05 0.026272558 0.035480883 0.0060954345 -0.022147354 -0.030258574
0.020943074 -0.01013565 0.012862576 0.00015035401 0.020732466 -0.007054699 -0.014530918 0.020735135
-0.016894516 0.0077856663 -0.013993231 0.030699806 0.03214203 -0.014407049 -0.026126374 0.00031704502
0.026131555 0.011951951 0.00067974767 -0.014907968 0.008445138 0.003512604 -0.023825033 0.0046082907
-0.024681551 -0.015967334 -0.02404736 -0.017654058 0.0035181614 0.0012813967 -0.0380474 -0.02232541
-0.02620947 0.017618781 0.014138882 -0.014722546 -0.018749328 -0.009491657 -0.015720706 0.0015475686
0.032913484 0.00053212664 0.036481753 0.02979876 0.04184199 0.013636776 0.013998215 0.011187373
0.028175669 -0.020154981 -0.029868742 -0.044830505 0.015607996 0.008497984 -0.03212227 -0.04745948
-0.0055060857 -0.014487422 0.0029779659 0.010127746 -0.0056914277 -0.00043558903 -0.0041696834 0.012673288
-0.021712897 0.044414762 0.047300965 0.018090123 -0.0008018604 -0.0311489 -0.01483504 -0.032139175
0.0066149947 -0.04983937 0.011308493 -0.044505086 -0.025257224 -0.017936388 0.030983599 -0.034750044
-0.04066853 -0.017291274 0.035142977 0.037879594 0.03567439 -0.010921993 0.034606766 0.039804727
0.0035514073 0.016845409 0.029538319 0.0001781308 0.021712966 -0.002183772 -0.030821778 -0.009685029
0.0059308005 0.008194192 -0.030848881 -0.011602052 0.0038927929 -0.03624408 -0.018853826 -0.03259488
0.007555573 0.036520787 0.019951068 0.024697108 0.007858024 -0.013125429 0.00071679254 0.015023843
-0.016767172 -0.018816274 -0.034559634 0.0019077619 -0.02304999 0.008896516 0.03723917 0.038308926
0.023931377 0.014929534 0.038287163 0.030051824 0.00023953365 0.027481433 0.0025368205 -0.022324895
0.008969834 0.03076959 -0.0003342408 0.027269457 -0.008850962 -0.029322462 0.031453777 -0.024618872
0.015632201 -0.012309811 0.011904268 0.00888461 0.011962931 -0.01849394 0.006353803 0.014432595
-0.028154917 -0.002418483 0.02389317 0.04680866 -0.0042556394 0.03541634 0.033644404 -0.011109394
0.0130273895 -0.041105915 -0.04044969 -0.010363356 0.021486595 -0.019666394 0.015582431 0.019385194
0.033066545 0.0017497642 0.029833226 0.039034456 0.037893664 0.034729425 0.046461005 0.042501852
0.0020922134 -0.016124649 -0.010931427 -0.0015528376 -0.03442773 -0.018355789 -0.008167139 0.040562335
0.008163505 -0.008827087 -0.0063261087 -0.031536143 0.026706554 0.014748311 -0.014684424 0.002150714
-0.020204548 -0.032437142 -0.033296555 -0.0017946798 0.026806816 -0.008368818 0.031253517 0.033292722
-0.013593557 -0.016339509 -0.026807657 -0.0021736475 0.02433663 -0.006002269 -0.018436903 0.016768282
-0.028961504 0.0067115137 -0.029035248 -0.03393535 0.0074224095 -0.038992964 0.028949939 0.0077704154
-0.04227998 -0.023132185 -0.005832198 -0.017562844 -0.035832662 -0.008223907 0.026112545 0.023274139
-0.0037022815 0.013405926 0.05173374 0.0477618 0.0051340437 0.008566137 -0.022775527 -0.033258475
-0.038327787 -0.042629823 -0.010494913 0.005423048 -0.011867671 0.018164933 -0.025204353 0.0333419

bias f4 [64]
00000000: 58f0 4cbb 3fea 62bd f330 593b 2e63 14bd
00000010: 2bcd 213d 1be0 863c 32da 41bd 6415 0dbd
00000020: 58a3 b0b9 bd2c b6bc f397 e33c d7f9 853c
00000030: c957 323d 6dac 82bc 6bbc 46bc 995e 583b
00000040: 7440 e73b 3b55 d4bc 4584 5c3b 9ad6 28bd
00000050: d875 ddba 8930 05bd 4d2f 1bbd 3dcd c4bb
00000060: 1173 ca3c e083 8f3b 858e e0bb 56b8 7bbc
00000070: 7ac4 2c3b 70c3 823c 94ff ffbc 3725 28bd
00000080: ec17 a13c 93fc 8bbb 7d1b 443a 0f88 0a3d
00000090: a707 f23c f761 85bb 00a3 153d 84d0 b83c
000000a0: e415 e53c c078 2cbc de15 46bd 4b70 0fbb
000000b0: 87b2 913c 4e11 ee3c aa57 fd3c 77af fa3c
000000c0: 2104 243d 754f 01bd 7c40 f6bc c0cb 5c3b
000000d0: 66bb 12bd c2ad bfbc 62b0 95bd 9eef cebb
000000e0: 9897 f0bc fb97 27bd 0c54 1cbc 1cb4 b43c
000000f0: 88fc 11bc 51a7 92ba 3e75 92bc a9c1 9a3b
-0.0031271186 -0.055399176 0.0033140748 -0.036227398 0.039502304 0.016464284 -0.047327228 -0.034444228
-0.00033691037 -0.02223813 0.027782416 0.016354484 0.04354075 -0.01595136 -0.012129883 0.003301537
0.007057244 -0.025919547 0.0033648175 -0.041220285 -0.0016896082 -0.03251699 -0.037886906 -0.0060059116
0.024713071 0.0043797344 -0.006852927 -0.015363773 0.0026362226 0.015962332 -0.031249799 -0.041051116
0.019664727 -0.0042720526 0.0007480903 0.03382116 0.029544665 -0.004070516 0.036532402 0.022560365
0.02796454 -0.010526836 -0.048360698 -0.0021887 0.017785324 0.029060986 0.03092559 0.030601246
0.040043 -0.031569917 -0.030060045 0.003369078 -0.03582325 -0.023398284 -0.07309033 -0.0063151857
-0.02936916 -0.040916424 -0.009541523 0.02205854 -0.008910306 -0.001118878 -0.017878171 0.004722793

weight f4 [64, 1024]
00000000: 248f 283c 613d c3bb f2e4 e63c 4726 88bc
00000010: 1c92 243b 5296 f43c d1d4 9dbb 768a 233c
00000020: 6dbc b8bc c34d 66bc e420 8a3c b1c4 ef3c
00000030: 413e 14bc 5f31 28bc 8173 b8bc af6d a23c
00000040: 1964 fbbc 6cfb c6bb 5a7b c3bb 21ee a03c
00000050: 6e41 8fbc cf14 d8bc 04c4 15bc 07f9 ddbc
00000060: a193 22bd f5ac 823c ccd7 b7bc 51f7 3e3b
00000070: 0bbf 00bd 0e32 a2ba 293c e33c 5d89 78bc
00000080: cc7c 303a e03d 053c 6b06 833b 8e06 84bc
00000090: 94aa 093b 092d d5bc 8a53 acbc c9dc 81bc
000000a0: 25a2 b23c 0e9b f6ba beff be39 9a73 debc
000000b0: 984a e1bb 2388 c63a 345a 01bd 1aa9 cbbc
000000c0: 45b3 ba3c 3273 d23c 7921 5b3c e15b c2bc
000000d0: ce86 593c 70c6 ab3c 0c3e bebb 3de6 c73c
000000e0: 125d 7b3c 11f2 f2bc 1c23 9fbb 765f a73c
000000f0: f811 f53c 4e29 0bbd 1975 dc3c f297 803c
00000100: 8efb cbbc c55c 4c3b 680d a33b 7556 e33b
00000110: 4393 bf3c e862 4039 9482 36bb 5ee1 89bc
00000120: 742e 0cbd 512b 1d3c cd79 fcbc ad77 a33c
00000130: 0ce2 64bc 5ba0 633c b5f4 dbbc 7aae a8ba
00000140: 4cf8 ecbc 723d 943c 4847 c93c e800 d23c
00000150: 7ec3 d03c 24d7 dc3c b00f f5bc 12f8 6ebc
00000160: 96e7 113d 3e6a 9fbc 96bc 13bd 502a bb3c
00000170: 97a0 ca3c cd5c 00bd 8940 d1bc d89c 7b3c
00000180: 1007 dd3c 7747 bbbc 024c 813c 5804 70bc
00000190: 9680 cdbb 59d9 17bb 0f2b a339 7975 18bc
000001a0: 6814 93bc 4b70 d5bc b718 923c c476 893c
000001b0: 1e6b e33c f199 1b3c f797 04ba 3b83 903b
000001c0: df7d 92bc 45c9 b9bc d5c1 d63c 78e4 ccbb
000001d0: 0789 82bb 4339 bdbc 3653 92bc c93b 5c3c
000001e0: 00bf 8abc f094 d53b a94b 45bc 33db dd3b
000001f0: 9f95 283c abc6 083c 4709 9f3b 3ff6 5b3c
00000200: fe61 c8bc 5869 dc3b 9159 dbbc 1b63 0bbd
00000210: ed2d 4f3c 530d 9e3b d820 c53c d2f3 903c
00000220: d65a 17bd ef1e b0bc bbb1 f83b f867 fb3a
00000230: 3bc6 c1bc 481c 0abb c62f 26bb bca2 8bbb
00000240: 9c6b 49bc cfa3 ba3b 5153 c63c b674 a7bc
00000250: 406e 033d 99bd e93b ba94 96bc ba50 8b3c
00000260: 1816 213b d3a4 fdbc 6449 97bc f108 92bc
00000270: 2d29 6ebb dd69 d53b 8aae e9bc 325a df3c
00000280: 4d7d ad3a 202e e8bb a7af 173c 6120 cb3c
00000290: c78c ec3c 9b09 31bc ebc9 e2bc 800a 8c3a
000002a0: f4f3 a8bb 2439 d13c 3288 013d 8c9b 79bc
000002b0: 0776 83bc 2aac 25bb e7a1 84ba 0c00 13bc
000002c0: aace b8bc 2850 4abc f6f1 4b3c a0ce 013d
000002d0: 9280 c83c 3029 113b 9933 c5bc 869a d7bc
000002e0: 7afa 433a ec5b 09bd 4e85 06bd 1e4d 87bc
000002f0: 77d5 eabb bdd6 a1bc 6968 68bb e1a7 dcbc
00000300: c01d afbc 9853 e8bc 5d0c 263c 481a 9cbc
00000310: 2045 54bc 81a4 e23b 7a48 5cbc b58d dbbb
00000320: 659e e93c 2ae6 01bc 9d24 4c3d c511 86bc
00000330: 6fd8 7f3b 2103 9cbc 67a4 e53c ebef df3c
00000340: 7574 00bd a933 c43c c886 1b3b e9b7 0ebd
00000350: d332 27bd 0945 443c c40e 93bc 425e 233c
00000360: e71c 16bd c2c5 14bd 0605 9fbc 75b9 43bb
00000370: 182f 71ba 76d4 6ebc c543 40bc f002 9abc
00000380: 19de b1bb ed46 db3c f9e7 94ba 9269 f7bb
00000390: 8d25 aabb 1879 1fbd 43d6 bcbc 199d fdbc
000003a0: 72b3 993c 9eb1 2cbc 2cf4 23bb d0cb b03c
000003b0: 3c51 b23c 5446 8b3a 4e01 e3ba 566e 78bb
000003c0: a574 d03a 1c0a 5fbc 3a26 1b3c 5844 b73c
000003d0: f19d d13c a4e6 e7bc 6438 e1bc 5478 af3b
000003e0: 9e22 c23c 2e58 183c 1781 fdbb 3d94 5ebc
000003f0: 8502 d83c 1dc3 8abc 43fb d3bc 36df a7bb
0.010288034 -0.0059582447 0.028185342 -0.016619815 0.0025111502 0.029856835 -0.0048166295 0.009981742
-0.022550786 -0.014056626 0.016861387 0.029268594 -0.009048046 -0.010265677 -0.022516014 0.019827692
-0.030687379 -0.0060724523 -0.0059656324 0.019644799 -0.017487254 -0.02637711 -0.009140972 -0.027096285
-0.03969157 0.015951613 -0.022441767 0.0029139111 -0.031432193 -0.0012374537 0.027738648 -0.015169469
0.00067324634 0.008132428 0.003998568 -0.016116407 0.0021006214 -0.026022451 -0.021035928 -0.015852349
0.021805832 -0.001881452 0.00036430167 -0.027154732 -0.0068753473 0.0015146773 -0.031580165 -0.024860907
0.02279056 0.025689695 0.01337468 -0.023725452 0.013276769 0.020968646 -0.0058057364 0.024401778
0.015342014 -0.029656442 -0.0048564803 0.020431262 0.029915795 -0.033974938 0.026911305 0.015697453
-0.024900224 0.0031183225 0.0049759634 0.0069377967 0.02338565 0.00018347392 -0.0027848827 -0.016831096
-0.03422399 0.009592847 -0.030819798 0.019954527 -0.013969909 0.013893212 -0.026850084 -0.0012869381
-0.02892699 0.018095706 0.024570122 0.025635198 0.025483843 0.026958056 -0.029914707 -0.014585512
0.03562125 -0.01945984 -0.03606852 0.022847325 0.024734778 -0.0313385 -0.025543468 0.015357219
0.026980907 -0.022861226 0.015783314 -0.014649473 -0.006271432 -0.002317032 0.00031121864 -0.009305351
-0.017954066 -0.026054522 0.01783405 0.016780265 0.027761038 0.009497152 -0.0005058045 0.004410175
-0.017882286 -0.02267898 0.026215473 -0.0062528215 -0.00398362 -0.023098594 -0.017861944 0.013441988
-0.016936779 0.006517999 -0.012041965 0.0067705153 0.010289579 0.008348147 0.004853401 0.013425409
-0.024460789 0.006726425 -0.026776107 -0.03403006 0.012645227 0.0048233657 0.024063513 0.017694388
-0.036951862 -0.021499125 0.0075895465 0.0019180765 -0.023654094 -0.0021073986 -0.0025358065 -0.004261343
-0.0122937225 0.005695797 0.02420965 -0.020441394 0.032087564 0.0071331975 -0.018381465 0.017006267
0.002457982 -0.030962383 -0.018467613 -0.01782653 -0.003634046 0.006512864 -0.02852561 0.027264688
0.0013236195 -0.0070855767 0.009258187 0.024795713 0.028875722 -0.010805513 -0.027684173 0.0010684282
-0.0051560346 0.025539942 0.031624027 -0.015234839 -0.01604749 -0.002527962 -0.0010119051 -0.008972179
-0.022559483 -0.012348212 0.012447825 0.031691194 0.02447537 0.0022149794 -0.024072455 -0.0263188
0.00074759836 -0.03353493 -0.032841973 -0.016516265 -0.0071665603 -0.019755716 -0.0035462624 -0.02693552
-0.02137649 -0.028360173 0.010134784 -0.0190555 -0.012955934 0.006916583 -0.013445014 -0.0067002424
0.028517911 -0.007928411 0.049839605 -0.016365895 0.0039038917 -0.01904446 0.028032495 0.027336081
-0.031361062 0.023950415 0.002373146 -0.03484336 -0.040819954 0.01197935 -0.017951377 0.009971203
-0.036648657 -0.03632141 -0.019411575 -0.002986518 -0.0009200438 -0.014577022 -0.0117349075 -0.018800229
-0.0054280874 0.026767218 -0.0011360637 -0.0075504268 -0.0051924647 -0.038933843 -0.023051387 -0.030958699
0.018762324 -0.010540394 -0.0025017364 0.02158156 0.021767251 0.0010625818 -0.0017319114 -0.0037907562
0.0015903903 -0.01361325 0.009469563 0.022371456 0.025588008 -0.02830822 -0.02749271 0.0053549204
0.023698147 0.009298367 -0.007736336 -0.013585147 0.026368389 -0.01693874 -0.025876647 -0.0051230444

bias f4 [64]
00000000: 3746 d73c a8a3 e6bc 59ce 38bd b717 203c
00000010: c062 2b3d bf36 27bd e099 863a d9ba f63c
00000020: 1ee5 f53b 90ec 30bb a656 d4bc 8861 5c3c
00000030: 5891 843c 19db 4bbd 9a42 103d 6ff4 843a
00000040: 3093 f9ba 7fa9 863c ee6c 093d 5483 86bc
00000050: 537a acbc 6d75 c43c 85b2 81bc d037 ae3c
00000060: c1b4 3bbd 9634 c03b 9791 aa3c eba1 1d3c
00000070: 4f49 e63c 3c33 133c 977d 623d e1f3 c03c
00000080: 4bd7 e9bc ccc2 02bc 6a7c 533a aa48 533c
00000090: 6212 103c 4092 ddbc cc24 363b 60a3 503b
000000a0: 1946 573d f45e bf3c f0a5 b83c 4316 2c3d
000000b0: 4331 403c 08fa a2bc 918d 0ebd 914e 91ba
000000c0: 616f 8cbc 7238 483c ce3b 633b d5e9 a73c
000000d0: f8e5 2ebb 0165 9dbc 3cd0 4ebd 7ea2 373c
000000e0: 8075 fb3c 8258 9eba a61c e63b caaf d43c
000000f0: 1c3d d73a a6b2 2cbc 7f3a dfba 0942 153d
0.026278598 -0.02815421 -0.045118663 0.009771279 0.041842222 -0.040823694 0.0010269247 0.030118393
0.0075041195 -0.002699647 -0.025920223 0.013450988 0.016182587 -0.049769495 0.035219766 0.0010143648
-0.0019041058 0.016438244 0.03355115 -0.016420044 -0.021054422 0.023981774 -0.015832195 0.021266848
-0.045826677 0.0058656437 0.020821376 0.009621124 0.028111128 0.008984383 0.055295553 0.02355379
-0.028545042 -0.0079810135 0.00080675504 0.012895742 0.008793445 -0.027047276 0.0027792929 0.003183566
0.052557085 0.023360707 0.022540063 0.042013418 0.011730495 -0.019894615 -0.034802977 -0.0011086037
-0.017142953 0.012220489 0.0034673098 0.020497242 -0.0026687365 -0.019213201 -0.050491557 0.011208175
0.030695677 -0.0012080821 0.007022458 0.025962729 0.001642141 -0.01054064 -0.0017030983 0.03643993

weight f4 [10, 64]
00000000: c9c1 82bd b5b3 4fbd bb7e b63d 32f0 0ebe
00000010: 4728 1bbe efd5 543e 956e 173d c360 8cbd
00000020: 96dc 9d3d bf7d debd a90e 6b3d 5ef1 dc39
00000030: a80c c03a 88ed 123e 9f54 2e3d 9f4a c9bc
00000040: 3b84 d93c 2f30 f63c 9c7d d8bd 0ce6 cd3d
00000050: a9ac c5bd 4717 ad3b 1bf1 123e 666a f13c
00000060: 99e6 463e e237 6fbd e3a7 dcbd ca62 babd
00000070: f72d c3bd f312 10be 52d2 32be 11db 09be
00000080: 31a7 28bc 2db1 bf3d 0ae4 bd3d 8b35 3f3d
00000090: f53e 0dbe 3290 4abc 318c 6d3d 7a94 063d
000000a0: dbee 65bd e06b 223e 52bd 59bd a4a9 493b
000000b0: 781c 83bc 5439 013e 29ca 073e fdd0 cf3c
000000c0: 0f66 833d 529e 313e 0ad4 b3bb 47a7 fc3d
000000d0: c28f 303c 42c6 a83d 67aa b43d 4dc4 35be
000000e0: 42a0 683c d570 44be baf9 173e d4de 43bd
000000f0: cdbc 18be 39f2 25bd 3522 14bc ef88 01be
00000100: 007c ab3c 4095 07be 8b54 5b3e 5317 48be
00000110: 6102 50bd fea5 953c c2b2 823d fa27 18be
00000120: 9b4f e7bc bede 4c3d 001c 263e ec53 253e
00000130: 1189 06be 15d7 a6bd 1a61 95bd e6eb 543c
00000140: 3f22 13bd c835 043e f181 023c 7b6b 9f3d
00000150: a082 3e3e 63e1 2e3e 78d1 253e 4858 58be
00000160: 05aa d53d f1d4 14be f342 c03d 1b9b a1bc
00000170: 113f 6bbe a52d 8fbd 8925 01be 1d4b a4bd
00000180: 68be 56b9 dba8 bd3d ba3a c5bb ae94 dc3b
00000190: e637 983d 4c45 3cbe 054d 17be 6c3e 4b3e
000001a0: a38e cb3d 3d2a 1a3e 88e3 733d 27a3 4b3c
000001b0: db0a 46be 008f 09be cda8 883d db02 66be
000001c0: 502c 50be d4dd 3cbe 5aea fb3d 80f9 28be
000001d0: 9fdd 273c 9dce 20be b3e1 11bc 4a8e 843c
000001e0: 49be 313e 54f2 6fbe 683d 7bbe b2fb 28bd
000001f0: 3d1e e53d 0656 11be 71b8 4e3d fe3b 103e
00000200: d44b 17be 577e fcbd 07c1 3cbe 41bc 0e3e
00000210: 3985 7a3d bda4 363e 6574 093e 2f25 4d3d
00000220: 2bf9 393e a829 903d 8f16 2dbe 7e6c a43d
00000230: 2b66 e03d f826 55bc ce81 4dbd 0589 39be
00000240: 59eb 89bd 5269 113e 4b8e 903d e6fd 8abd
00000250: c33d 34bd ea0f 01be 1575 59bd cb32 d83d
00000260: 4ec7 a23d b7e6 0bbe 623f b0bd ae12 5abc
00000270: efe3 4c3c ac74 813d ac1f 133e ba6c 673d
00000280: c4eb 9c3d 823f af3d 72d4 92bd 5f63 d0bb
00000290: 9e05 c8bc f1b5 423e 50ec 013e 0f33 f1bc
000002a0: 0a72 84bd cf67 67bd 7204 763d 0718 c93d
000002b0: 0915 813d d3a9 06bd e1cd 0a3e f652 0f3c
000002c0: 68f3 85bd 804a 4e3c f49d c7bc 823d 8d3d
000002d0: 4bc8 18be 275b 88bd 49e7 a73d 5a77 e4bd
000002e0: 2b34 fa3d b4df 813d 0a88 f6bd 2010 b6bd
000002f0: 6f40 06bd cb89 ee3d 110e 82bd 7dba 65bc
00000300: fa49 8e3c e7ad cabd 0e3a 1ebe 6c2d 03be
00000310: 9e5c 6f3d ed6d 49bd 93c1 0fbd 237f b3bd
00000320: 58f7 063e 7fd9 c6bd c981 1e3d 36d0 f4bd
00000330: 830b 34bc ae40 a2bc 654c d8bc f1be 99bd
00000340: effe 973d ede7 81bd d174 243e 6162 1bbd
00000350: be65 853b 6d80 0ebe 0b17 1ebb 2cd1 0b3e
00000360: 3bea babc 3d6c e33b e72f bf3d 25c2 aebd
00000370: c2be 193e 79cd 063c ec34 f53d 22a5 203e
00000380: 741b 90bd 7274 8a3c 539b 46bc 2230 e63d
00000390: 3f51 df3d 3174 513d 6037 053e 57e7 76be
000003a0: f81a d93d a914 22be a440 f63b a2e2 0d3e
000003b0: 529f 32bd 22ee 1fbd e549 9e3d f0a6 3f3e
000003c0: 37ef 16bd 4f24 6ebc 6376 ccbd b157 34be
000003d0: 486a 933c f96a 8dbd 3daf c4bb eabd fe3d
000003e0: fcab 1abe 39a0 9cbd 4a60 293d 946f d03b
000003f0: b6c2 923d dbc1 8bbc a02c 503d 2851 733d
-0.06384618 -0.05070849 0.08910891 -0.13958815 -0.15152083 0.20784734 0.036970694 -0.06854393
0.07708089 -0.10863828 0.057387028 0.00042141502 0.0014652209 0.14348423 0.04256117 -0.024571715
0.02655231 0.030052273 -0.10570833 0.100536436 -0.09652073 0.005282316 0.14349787 0.02946968
0.19423904 -0.058402903 -0.10774209 -0.09100874 -0.095302515 -0.14069729 -0.17463043 -0.13462473
-0.010293768 0.093599655 0.092720106 0.046681922 -0.13793547 -0.01236348 0.057995025 0.032856442
-0.056135993 0.15861464 -0.053159066 0.003077128 -0.016004786 0.12619525 0.13260712 0.025368208
0.064159505 0.1734555 -0.0054879235 0.12336593 0.010776462 0.0824094 0.08821564 -0.17750664
0.014198365 -0.19183667 0.14841357 -0.047819927 -0.14915772 -0.040514205 -0.009041359 -0.12649892
0.020933151 -0.13240528 0.2141897 -0.19540147 -0.05078352 0.018267628 0.063817516 -0.14859
-0.028236201 0.05001711 0.16221619 0.16145295 -0.13138224 -0.081464924 -0.07293911 0.012995696
-0.03592133 0.12911141 0.007965551 0.07784172 0.18604517 0.17078166 0.16193187 -0.21127427
0.10432819 -0.14534356 0.093877696 -0.01972728 -0.22973277 -0.06991128 -0.12611975 -0.08022139
-0.00020479562 0.09260722 -0.0060189636 0.006731591 0.07432537 -0.1838581 -0.14775474 0.19848031
0.09939315 0.15055175 0.059543163 0.012429035 -0.19340079 -0.13433456 0.06672821 -0.22462027
-0.20329404 -0.18443996 0.123005584 -0.16501427 0.01024571 -0.15703817 -0.008903909 0.01618113
0.17357744 -0.23432285 -0.24535143 -0.04125566 0.11187408 -0.14192972 0.050468866 0.14085385
-0.1477502 -0.12328785 -0.18433009 0.13939 0.061162207 0.1783628 0.13423307 0.05008429
0.18161456 0.07039195 -0.16903137 0.08028506 0.10956987 -0.013009779 -0.05017262 -0.18118675
-0.06734342 0.14200333 0.0705839 -0.067867085 -0.044004213 -0.12603727 -0.053090174 0.10556563
0.079481706 -0.1366223 -0.08605839 -0.013310118 0.0125055155 0.063210815 0.1436755 0.056500174
0.07662156 0.08557035 -0.07169427 -0.006359502 -0.024416741 0.19014718 0.12687802 -0.029443292
-0.06467064 -0.056495484 0.060062833 0.09819036 0.0630284 -0.0328768 0.13555099 0.008747807
-0.06540567 0.012591004 -0.02436731 0.06896497 -0.14920156 -0.06658011 0.08198411 -0.11155577
0.122169815 0.06341496 -0.12037666 -0.08889794 -0.032776292 0.11647376 -0.06350339 -0.014021513
0.01736926 -0.098964505 -0.15451834 -0.12810296 0.058437936 -0.0491771 -0.035096716 -0.08764484
0.13180292 -0.09709453 0.03869799 -0.119537756 -0.010989073 -0.019806232 -0.026403615 -0.07507122
0.074216716 -0.063430645 0.16060187 -0.03793562 0.0040709665 -0.13916178 -0.0024122621 0.13654011
-0.022816768 0.0069403932 0.093353085 -0.08533124 0.15014175 0.008227699 0.11972985 0.15687993
-0.07036486 0.016901229 -0.012121993 0.11239649 0.10904168 0.0511362 0.13009405 -0.24111687
0.10600847 -0.15828194 0.00751503 0.13855985 -0.04360897 -0.03904546 0.07728938 0.18716025
-0.036849227 -0.014535024 -0.09983518 -0.17611577 0.017995015 -0.06905169 -0.0060023353 0.12438567
-0.1510467 -0.076477475 0.041351594 0.0063609574 0.071660444 -0.01706021 0.050823808 0.05940357

bias f4 [10]
00000000: 88c6 3dbe 65cf ab3c f451 473d 16d5 593d
00000010: cadf c03d 375f 87bb 90e0 283e 2030 a03c
00000020: 3778 0bbd bc18 e23b
-0.18532765 0.020972917 0.04866214 0.05318173 0.094176844 -0.0041312235 0.16491914 0.019554198
-0.034050193 0.006899921
