DeepLearningDemo/models/jingxin_8.pth (torch, 587999 bytes, 10 tensors)

weight f4 [32, 3, 5, 5]
0.032413024 0.08437843 0.032584373 0.15607375 0.1354564 0.05625893 -0.045690075 -0.036527865
-0.090708405 -0.06646493 -0.039901376 0.05695597 -0.104618885 -0.015531445 -0.14498632 -0.17302342
-0.19981101 -0.054728754 -0.12475262 0.027808487 -0.14002751 -0.17787984 -0.22600345 -0.16233192
-0.13449645 0.12873699 -0.010720592 0.16294621 0.00818454 0.0036791742 0.12959698 0.12499457
0.0042436863 0.026074922 -0.07232566 -0.011245971 -0.0056787897 -0.092695095 -0.078444675 0.0033619879
-0.120171055 -0.16392007 -0.13900691 -0.013137503 -0.05852611 -0.043912865 -0.10322638 -0.08644016
-0.17633963 -0.13555786 0.03796904 0.1856926 0.14791012 0.06482878 0.050238173 0.18289691
0.05268816 0.13102059 0.13648057 0.027765235 0.034904204 0.044506352 0.14097734 0.007999536
0.1393997 -0.041975714 -0.0048628906 0.030646952 0.010786332 0.10427265 0.1038933 0.0071091815
0.038029484 0.09975911 0.10781227 0.13038589 0.17702249 0.17583777 0.10489843 -0.0035340309
0.16790022 0.15341166 0.17299707 0.0782152 0.035057228 0.16800772 0.14475092 0.06576871
0.08049089 0.00032249722 0.031960912 0.10693197 0.051521167 0.03884663 0.051509324 0.0638094
0.085682124 -0.04800074 -0.10908305 0.0024586734 -0.04765581 0.0069321226 -0.0067107473 -0.013969648
0.04157117 -0.012999483 0.10552812 0.07879127 -0.030240716 -0.16369948 0.07154925 0.05756366
-0.12580761 -0.09831526 -0.09409311 0.049791593 -0.0941802 0.08182539 -0.039033502 -0.18844576
-0.06074109 -0.14261232 -0.17663753 -0.13265282 -0.18550916 0.093969084 0.1308526 0.05107688
-0.09027595 -0.16452546 -0.013860489 0.048536997 -0.09710796 -0.0815308 -0.1609438 0.05486867
-0.009492192 0.026934952 -0.1515931 -0.1634468 0.13208249 0.12698045 0.023010604 -0.08967535
-0.06642749 -0.09507212 0.061851997 0.023585793 -0.0017428313 -0.09800966 0.02895435 -0.06755714
0.03068608 0.015989112 -0.12448696 -0.026670124 0.023418432 -0.024330053 0.023265472 -0.12790394
0.045013603 0.104168445 0.07072615 -0.017724037 0.07822835 0.14921476 0.0706906 0.131826
0.100620516 -0.035328414 0.04527864 0.022208147 0.07086711 -0.080787785 -0.033615056 -0.0008258799
0.10347221 -0.0021290174 -0.018737517 -0.027506324 -0.05884639 0.03130823 -0.099903315 -0.079545714
-0.013341009 0.03674499 0.04458077 -0.07448153 -0.054020382 -0.1415101 -0.11467816 -0.092266984
0.03528768 -0.12105485 0.055656023 -0.17111279 -0.14919673 -0.17464493 -0.11940251 -0.031550705
0.16806565 0.16575724 0.112553865 0.09560543 0.056533147 0.08262709 0.05381944 -0.029969465
0.00810576 0.08482402 -0.054066926 0.08252829 0.13459846 0.15291905 0.049533267 -0.007327298
-0.044837844 -0.0063113123 -0.054763097 0.07800379 -0.058807418 0.013936688 0.09865165 0.07530605
-0.083383314 -0.01742357 -0.109826736 -0.17282932 -0.15676291 0.04731906 -0.11636373 -0.030911243
0.015111308 -0.055460542 0.086887114 0.09802576 0.024686087 0.07909883 0.13677119 0.14298023
0.10226427 0.02895299 0.06816819 0.06012006 -0.038368307 -0.10211561 0.0076984274 -0.100192614
-0.025257897 -0.0002724066 -0.15288652 0.030488871 -0.14456026 -0.14003322 -0.09634801 -0.068824865
00000000: 85c3 043d 99ce ac3d 3177 053d ccd1 1f3e
00000010: 15b5 0a3e c46f 663d 8425 3bbd 3e9e 15bd
00000020: 54c5 b9bd c41e 88bd a06f 23bd aa4a 693d
00000030: 6d42 d6bd 9a77 7ebc 4b77 14be 0d2d 31be
00000040: 429b 4cbe 422b 60bd 4d7e ffbd a0ce e33c
00000050: 5f63 0fbe 2226 36be 736d 67be 573a 26be
00000060: 70b9 09be a1d3 033e 6ca5 2fbc 5fdb 263e
00000070: 7318 063c 4d1e 713b 12b5 043e 27fd ff3d
00000080: 9f0e 8b3b 139b d53c 7a1f 94bd 0541 38bc
00000090: 2415 babb edd6 bdbd 9aa7 a0bd cc54 5c3b
000000a0: 3e1c f6bd aada 27be d457 0ebe ae3e 57bc
000000b0: 13b9 6fbd fadd 33bd 5a68 d3bd 8a07 b1bd
000000c0: 6092 34be aecf 0abe 6d85 1b3d 3326 3e3e
000000d0: c075 173e f4c4 843d 8bc6 4d3d 5449 3b3e
000000e0: 8acf 573d 432a 063e 90c1 0b3e eb73 e33c
000000f0: b6f7 0e3d 4b4c 363d 5d5c 103e 7c10 033c
00000100: ccbe 0e3e baee 2bbd e258 9fbb 510f fb3c
00000110: 28b9 303c e68c d53d 03c6 d43d 23f4 e83b
00000120: cec4 1b3d 814e cc3d aecc dc3d e183 053e
00000130: 6245 353e d10e 343e fdd4 d63d 339b 67bb
00000140: 09ee 2b3e f217 1d3e 2526 313e 4a2f a03d
00000150: 2b98 0f3d 370a 2c3e 9639 143e bfb1 863d
00000160: 68d8 a43d d814 a939 72e9 023d 26ff da3d
00000170: dc07 533d a51d 1f3d 71fb 523d 81ae 823d
00000180: 1c7a af3d 6d9c 44bd ef66 dfbd b221 213b
00000190: bd32 43bd dc26 e33b d4e5 dbbb f3e0 64bc
000001a0: 8846 2a3d c9fb 54bc 211f d83d 515d a13d
000001b0: 61bb f7bc d6a0 27be 6a88 923d dfc7 6b3d
000001c0: b6d3 00be 8359 c9bd e3b3 c0bd 45f2 4b3d
000001d0: 8ce1 c0bd 1294 a73d 98e1 1fbd edf7 40be
000001e0: a6cb 78bd f708 12be 78e0 34be 24d6 07be
000001f0: 1df6 3dbe dd72 c03d 39fe 053e fe35 513d
00000200: 99e2 b8bd 5d79 28be 1b17 63bc bbce 463d
00000210: 8ae0 c6bd 9ff9 a6bd 74ce 24be f8bd 603d
00000220: 2485 1bbc b0a6 dc3c 393b 1bbe 995e 27be
00000230: a240 073e 2a07 023e bc80 bc3c b6a7 b7bd
00000240: 230b 88bd 2cb5 c2bd 8558 7d3d fe36 c13c
00000250: b76f e4ba 4ab9 c8bd ac31 ed3c 665b 8abd
00000260: 6061 fb3c 99fb 823c 05f3 febd 4e7b dabc
00000270: 03d8 bf3c d24f c7bc 3b97 be3c 40f9 02be
00000280: 2f60 383d 4456 d53d dfd8 903d 0032 91bc
00000290: 2f36 a03d c1cb 183e 3cc6 903d 65fd 063e
000002a0: 2112 ce3d 87b4 10bd 1876 393d dced b53c
000002b0: c622 913d 1174 a5bd f1af 09bd dd7f 58ba
000002c0: 3de9 d33d fc86 0bbb 6c7f 99bc f154 e1bc
000002d0: ea08 71bd 0f3d 003d 1c9a ccbd dde8 a2bd
000002e0: 3f94 5abc ea81 163d 539a 363d c689 98bd
000002f0: 7a44 5dbd 06e8 10be 62dc eabd 79f6 bcbd
00000300: d089 103d 9beb f7bd 92f7 633d 3138 2fbe
00000310: 07c7 18be 1fd6 32be 4e89 f4bd 503b 01bd
00000320: 6719 2c3e 44bc 293e a482 e63d c8cc c33d
00000330: 4d8f 673d 6438 a93d c671 5c3d 8682 f5bc
00000340: 06ce 043c 37b8 ad3d 4875 5dbd 9804 a93d
00000350: 2ed4 093e d096 1c3e 65e3 4a3d d519 f0bb
00000360: e3a7 37bd 20cf cebb 454f 60bd 73c0 9f3d
00000370: 0ce0 70bd b556 643c e009 ca3d 0f3a 9a3d
00000380: dfc4 aabd e0bb 8ebc d7ec e0bd 2bfa 30be
00000390: 7586 20be a1d1 413d 1b50 eebd 9339 fdbc
000003a0: 6b95 773c 982a 63bd dff1 b13d bbc1 c83d
000003b0: 7a3a ca3c 91fe a13d bf0d 0c3e 6969 123e
000003c0: ee6f d13d d22e ed3c c49b 8b3d 7440 763d
000003d0: 1628 1dbd fd21 d1bd 1743 fc3b c931 cdbd
000003e0: a6e9 cebc ccd1 8eb9 498e 1cbe ccc3 f93c
000003f0: 9b07 14be de64 0fbe 1b52 c5bd 0df4 8cbd

bias f4 [32]
-0.076009214 -0.26579642 -0.26378694 0.033665635 0.046488725 -0.25320956 0.19384836 0.08160766
0.03506076 -0.0315461 -0.31085148 -0.11800523 -0.10350541 -0.19581506 -0.10854913 0.09181174
0.28192377 -0.07552111 -0.033075713 -0.17358294 -0.2413551 -0.0027103557 -0.035933908 0.16338304
0.09713092 -0.14382568 0.2296392 -0.05830616 -0.020149142 -0.110958464 0.22218047 -0.24476993
00000000: b8aa 9bbd 7816 88be 150f 87be fae4 093d
00000010: f66a 3e3d afa4 81be 2f80 463e eb21 a73d
00000020: df9b 0f3d 7c36 01bd ed27 9fbe baac f1bd
00000030: a5fa d3bd be83 48be 024f debd cb07 bc3d
00000040: 5058 903e d0aa 9abd 667a 07bd babf 31be
00000050: cb25 77be 39a0 31bb 6f2f 13bd e24d 273e
00000060: 93ec c63d 0a47 13be 8a26 6b3e 71d2 6ebd
00000070: d00f a5bc 313e e3bd 4783 633e f8a4 7abe

weight f4 [32, 32, 5, 5]
0.0009882299 -0.0005928895 0.05943761 0.009249624 -0.011505782 0.035850327 0.012804573 0.023653798
0.0013250677 0.0028630744 -0.042554718 -0.059766684 -0.047574315 -0.057407264 -0.011584661 0.03373004
0.047032192 0.065141335 0.01715919 -0.01732547 -0.021290667 0.03338724 -0.018938696 0.04351085
0.013404947 -0.03298543 0.028213747 0.0196292 -0.016980944 0.020847173 0.033217464 0.0030604973
-0.014168199 -0.0060074464 -0.024151495 -0.031280227 0.006048618 0.023988198 -0.03320178 -0.034779534
0.041451387 0.023464013 -0.002156438 0.02794617 0.03548392 0.028520428 -0.021180332 0.018353017
0.0068530417 0.0041119163 0.019324338 0.00093866774 0.0091752885 0.026607202 0.01644843 -0.0029749083
-0.010160855 0.016985089 0.03064375 0.035602804 0.020236466 -0.024290571 -0.011787082 -0.022248311
0.0052390653 -0.011748658 -0.0218568 -0.015795406 0.024703676 -0.025193963 -0.012706653 0.020314297
-0.0048706806 -0.0014755058 -0.028050562 0.03765101 0.01282177 0.008260937 0.036143143 0.009463032
0.00885624 0.029928913 -0.012937358 0.01972382 -0.036155377 0.048175514 0.015356587 0.061040666
0.044127073 -0.015262899 0.010669129 0.02964332 0.021572368 0.0048656967 0.017132383 -0.036308847
0.012222103 -0.021396728 -0.02991658 -0.04866521 0.008701956 0.024995044 0.044315275 0.04303173
-0.01847359 0.028557053 0.02135667 -0.012529716 0.040274803 0.05256571 0.015529589 -0.011644332
0.0026189652 -0.039150417 -0.0009764413 0.039117828 0.01888996 -0.0010233622 -0.013861008 0.009681322
-0.021774791 0.035526063 0.018387154 0.008864649 -0.013165269 0.044100933 0.017376006 -0.025297226
0.01905701 -0.01603919 0.010306976 0.02202766 -0.026543438 0.021038089 0.009613039 0.018393151
0.032321747 -0.03532434 -0.023293303 -0.011933443 0.041630488 0.035417095 0.054083653 0.015891794
0.03385484 0.024322184 -0.012083226 0.01947578 0.011827566 0.0067410707 -0.0054054135 0.009860577
-0.0069831396 -0.015655821 -0.017795168 -0.030128915 0.014899761 0.021889506 0.008298753 0.014148186
-0.022452397 -0.039610513 -0.0026268808 -0.052565616 -0.027563816 0.025931044 0.008610159 0.053543914
0.01130738 -0.025840076 -0.024195611 -0.018138306 0.011671235 0.0049568666 -0.0067144735 0.017358242
0.006965983 0.0379239 0.036196277 0.031180881 0.017069504 0.03520142 -0.017766982 -0.012341423
-0.012704925 0.0010342048 -0.024434615 -0.02068764 0.009252453 -0.0123350555 0.023949485 0.03194519
-0.003445445 -0.027553895 0.013226858 -0.043181546 0.017520722 0.0272936 -0.0027676986 0.029717794
0.0018753768 0.010530687 0.0027578694 0.030958708 0.020811543 0.056988105 0.056671415 0.05298588
0.04105503 0.011763932 0.028615544 -0.0039380305 0.015971793 0.0020063443 0.034545407 -0.03871034
0.013051565 -0.013025614 -0.028142596 -0.025609754 -0.0011461942 0.028589783 0.016597122 -0.016250858
0.031601526 0.052200947 0.04475748 0.0050312164 -0.026736531 -0.02323809 0.046905205 0.06325778
0.054664604 -0.00063579803 -0.020545851 -0.005758398 -0.0051342715 0.041182294 0.038106196 0.062478613
0.008804402 -0.046849363 -0.031389203 -0.04138499 -0.0035312441 -0.021417916 0.0014426555 0.017658327
-0.035650972 0.0032998456 -0.014621686 0.013673932 -0.022377001 0.03384363 0.022858575 -0.014134724
00000000: 7e87 813a 246c 1bba da74 733d bc8b 173c
00000010: bf82 3cbc cbd7 123d 46ca 513c 9cc5 c13c
00000020: e5ad ad3a 6ba2 3b3b db4d 2ebd e9cd 74bd
00000030: 49dd 42bd e123 6bbd 97cd 3dbc 8328 0a3d
00000040: d4a4 403d d268 853d 6e91 8c3c 25ee 8dbc
00000050: c469 aebc 0fc1 083d 5325 9bbc 6f38 323d
00000060: 6ca0 5b3c bb1b 07bd 8420 e73c 6bcd a03c
00000070: 9f1b 8bbc b1c7 aa3c 090f 083d a092 483b
00000080: bc21 68bc 1dda c4bb 5bd9 c5bc b21f 00bd
00000090: 7c33 c63b e682 c43c 97fe 07bd fc74 0ebd
000000a0: eec8 293d 9a37 c03c 0753 0dbb 5eef e43c
000000b0: 9657 113d aca3 e93c 6082 adbc 1159 963c
000000c0: 7b8f e03b 41bd 863b 134e 9e3c ed10 763a
000000d0: f353 163c 59f7 d93c dcbe 863c aef6 42bb
000000e0: b779 26bc 5024 8b3c 9a08 fb3c 3fd4 113d
000000f0: f2c6 a53c 05fd c6bc 9b1e 41bc 1742 b6bc
00000100: 77ac ab3b 717d 40bc 080d b3bc 5e65 81bc
00000110: 5d5f ca3c 9263 cebc 912f 50bc 2b6a a63c
00000120: 3b9a 9fbb c265 c1ba 4bca e5bc f237 1a3d
00000130: 6712 523c e258 073c d50a 143d d50a 1b3c
00000140: c319 113c 7b2d f53c 36f7 53bc d993 a13c
00000150: a917 14bd b053 453d 329a 7b3c c705 7a3d
00000160: 97be 343d 3d11 7abc 92cd 2e3c 8cd6 f23c
00000170: 89b8 b03c 6c70 9f3b 3659 8c3c 96b8 14bd
00000180: 373f 483c 3148 afbc 9e13 f5bc 2c55 47bd
00000190: a692 0e3c 68c2 cc3c ef83 353d 0a42 303d
000001a0: ed55 97bc 7bf0 e93c 2ff4 ae3c 7049 4dbc
000001b0: 31f7 243d 244f 573d d16f 7e3c dec7 3ebc
000001c0: f2a2 2b3b 305c 20bd def7 7fba 043a 203d
000001d0: 1ebf 9a3c 5622 86ba 4819 63bc 689e 1e3c
000001e0: 0c61 b2bc c783 113d a8a0 963c 083d 113c
000001f0: 24b3 57bc 2ea3 343d 2058 8e3c 213c cfbc
00000200: 721d 9c3c 9f64 83bc 97de 283c 5a73 b43c
00000210: a071 d9bc 1258 ac3c 0280 1d3c 3cad 963c
00000220: cf63 043d 41b0 10bd 99d1 bebc 7d84 43bc
00000230: bb84 2a3d 8411 113d d286 5d3d 822f 823c
00000240: 5fab 0a3d 513f c73c b9f8 45bc ac8b 9f3c
00000250: 68c8 413c 33e4 dc3b e51f b1bb 428e 213c
00000260: d2d2 e4bb a340 80bc 2cc7 91bc ead0 f6bc
00000270: 211e 743c 9f51 b33c 7ef7 073c cbcd 673c
00000280: 17ee b7bc a23e 22bd bf27 2cbb 0b4f 57bd
00000290: 83cd e1bc 576d d43c a011 0d3c dd50 5b3d
000002a0: 9742 393c 91ae d3bc e035 c6bc c996 94bc
000002b0: b538 3f3c 366d a23b 1605 dcbb df32 8e3c
000002c0: e742 e43b 1756 1b3d 8c42 143d 0c6f ff3c
000002d0: 58d5 8b3c 5d2f 103d 108c 91bc ae33 4abc
000002e0: 5128 50bc 288e 873a 1a2b c8bc 2079 a9bc
000002f0: 9a97 173c f918 4abc b631 c43c f6d8 023d
00000300: facc 61bb b5b8 e1bc 77b5 583c 22df 30bd
00000310: 9e87 8f3c d496 df3c 4762 35bb bb72 f33c
00000320: 34cf f53a e788 2c3c 5fbd 343b 1e9d fd3c
00000330: f87c aa3c 5c6c 693d 4920 683d b907 593d
00000340: 5229 283d 82bd 403c 256b ea3c 980a 81bb
00000350: 47d7 823c df7c 033b 7c7f 0d3d bc8e 1ebd
00000360: 3bd6 553c 6369 55bc 4d8b e6bc 8ccb d1bc
00000370: e53b 96ba 1f35 ea3c b0f6 873c 8520 85bc
00000380: 9a70 013d a9d0 553d 9f53 373d e7dc a43b
00000390: 9206 dbbc cf5d bebc ac1f 403d 4c8d 813d
000003a0: fee7 5f3d afab 26ba c64f a8bc f2b0 bcbb
000003b0: 643d a8bb c4ae 283d 3e15 1c3d 93e9 7f3d
000003c0: 5740 103c 1ee5 3fbd f791 00bd 4f83 29bd
000003d0: 726c 67bb a074 afbc 7c17 bd3a 32a8 903c
000003e0: c106 12bd 3942 583b cc8f 6fbc a108 603c
000003f0: f94f b7bc 9e9f 0a3d e841 bb3c 5495 67bc

bias f4 [32]
0.0062840236 -0.012411027 0.004895505 -0.028867183 0.0113548925 -0.012287562 -0.108693615 -0.08917206
0.041208785 -0.02900976 -0.028555738 0.06907264 -0.09302522 0.0006155921 0.070450895 -0.021574296
-0.02136697 0.018236373 0.06576352 -0.08295474 -0.006242966 -0.034808926 -0.03143547 0.026576217
0.035884086 0.040910125 -0.12241961 -0.041767403 -0.08058326 0.005742019 -0.06298816 0.051635712
00000000: 36ea cd3b 9f57 4bbc 796a a03b df7a ecbc
00000010: df09 3a3c c551 49bc c29a debd d79f b6bd
00000020: 8bca 283d e0a5 edbc b9ed e9bc f575 8d3d
00000030: 0284 bebd b05f 213a 8f48 903d 94bc b0bc
00000040: c909 afbc 7264 953c 06af 863d 2de4 a9bd
00000050: cb91 ccbb ce93 0ebd 7bc2 00bd 5eb6 d93c
00000060: 31fb 123d 6091 273d 22b7 fabd 4c14 2bbd
00000070: d608 a5bd 8c27 bc3b f0ff 80bd f87f 533d

weight f4 [64, 32, 5, 5]
0.017445004 0.015690612 0.028723527 -7.749963e-05 -0.017281167 -0.0005515396 -0.025760703 -0.007285431
0.0031882129 0.043637328 -0.024055095 -0.0013271703 0.0078030447 -0.005523595 -0.030515179 -0.009085482
-0.042602036 -0.027771803 -0.013997364 -0.019860452 0.006355999 -0.013564751 -0.004297142 -0.0028034032
-0.023462238 -0.0038044162 -0.011144046 -0.01530944 0.008897139 0.0048057344 -0.008859059 -0.022769023
0.03240425 0.008429268 0.012691378 -0.024263442 0.009126899 0.021428611 0.042053085 -0.019465204
-0.027984217 -0.0044548577 -0.026575224 -0.031903535 -0.0030249949 -0.011708857 -0.02634296 0.018137502
-0.028979117 -0.011985448 -0.031364392 0.0010942158 0.003313862 0.0016669343 -0.001702479 0.0068666763
-0.017188689 -0.039160013 0.017270159 0.030486714 -0.024561366 -0.0017772292 -0.0050413725 -0.010824275
-0.030215532 -0.029618395 -0.02539469 0.007291917 -0.025063388 -0.012773521 -0.007893637 0.03112548
-0.014548981 -0.006775549 -0.014802464 0.01226525 0.010934976 0.055970166 0.066416554 0.003582184
-0.04198111 -0.03156246 -0.01343167 0.054463163 0.06056411 0.0024643894 0.017175147 -0.033605725
-0.03571069 0.006844063 0.0058536194 -0.0482625 -0.03550931 -0.045335256 -0.011267665 -0.004148641
-0.0062114573 -0.02986659 -0.042402122 0.03802165 -0.0019229712 -0.009344499 -0.01188805 0.014092725
0.008527451 0.040270988 -0.012855688 0.03567604 -0.008189947 0.030760655 0.020845708 0.012682456
-0.01434557 0.0066117668 -0.019892942 -0.012472343 -0.012925444 -0.014556075 -0.027591856 -0.0010189161
0.010056374 -0.0038702972 -0.023679221 0.0041110627 -0.00063231913 -0.0323336 -0.033245232 0.0005343613
0.05514525 0.007428552 0.057243958 0.02876998 0.0014386784 0.04383367 0.016366042 0.05014686
0.012423732 -0.0048533487 -0.0067795194 0.036314458 0.05086835 0.036039818 0.0224068 -0.016654711
0.018567733 0.040779278 0.052668523 0.013458584 0.012422358 0.054925647 0.011528135 0.0198753
0.03461379 -0.03972485 -0.018419646 0.030061802 0.055692315 0.06378866 -0.03483179 -0.015394457
0.02223505 0.019249007 0.04964049 0.008310904 -0.024130248 -0.024132404 0.03776197 0.03228395
0.021988338 -0.008675431 -0.04325607 -0.023776805 0.044925958 0.014451452 -0.03498303 -0.028403908
-0.005553642 0.034778256 0.020326646 -0.038798157 -0.030289564 -0.022365497 0.03075656 -0.005859876
0.022478085 -0.028459292 0.019029373 0.0011422841 0.022916088 0.034900226 0.021293173 0.0069834213
0.003461715 -0.008228419 0.027233345 -0.024370255 0.010941262 0.024954528 -0.007002632 0.02608397
0.015817322 0.019864356 -0.044671547 -0.033160523 0.026226237 0.024340497 0.045263346 -0.009425756
-0.0066363094 0.0009105206 -0.0025020232 -0.0012454172 0.036106706 0.004414149 0.015811756 -0.01605621
-0.0037716548 -0.010121419 -0.035189733 0.0114234 -0.024838937 -0.013404234 0.036723398 -0.016610948
0.0038151594 -0.0035379094 0.0027653647 0.011720822 0.066167645 -0.02387385 0.014519648 -0.010610556
0.014374508 0.025414057 0.047145247 -0.034476437 -0.037432186 0.0025029557 0.020392206 0.010292806
-0.04632069 -0.019587114 -0.047008246 0.0014337647 0.015469508 -0.009588171 -0.03536845 0.012309718
0.023551142 0.029306713 -0.029111689 -0.0037521985 0.025796354 0.01848299 -0.0008603165 8.54495e-05
00000000: d3e8 8e3c 9989 803c 9a4d eb3c 4c87 a2b8
00000010: 3c91 8dbc 3295 10ba 1c08 d3bc a0ba eebb
00000020: 56f1 503b 0ebd 323d 310f c5bc 72f4 adba
00000030: afb0 ff3b 46ff b4bb f8fa f9bc 46db 14bc
00000040: 797f 2ebd b181 e3bc 3355 65bc 63b2 a2bc
00000050: fc45 d03b b03e 5ebc 0acf 8cbb 4db9 37bb
00000060: e133 c0bc 8353 79bb 8495 36bc 72d4 7abc
00000070: 4ec5 113c 6c79 9d3b 9625 11bc 1a86 babc
00000080: 52ba 043d ea1a 0a3c 7fef 4f3c 20c4 c6bc
00000090: fd88 153c 0e8b af3c db3f 2c3d 7e75 9fbc
000000a0: 283f e5bc 0efa 91bb 49b4 d9bc 48ad 02bd
000000b0: fe3e 46bb 81d6 3fbc 31cd d7bc 1995 943c
000000c0: 9d65 edbc 9d5e 44bc f377 00bd ca6b 8f3a
000000d0: 612d 593b 097d da3a b725 dfba db01 e13b
000000e0: 4bcf 8cbc 4066 20bd 267a 8d3c 46bf f93c
000000f0: eb34 c9bc ebf1 e8ba 1932 a5bb 4d58 31bc
00000100: 9086 f7bc 47a2 f2bc 8608 d0bc 09f1 ee3b
00000110: bc51 cdbc 0848 51bc 5054 01bc ddfa fe3c
00000120: d95e 6ebc 6d05 debb 0986 72bc 30f4 483c
00000130: 9d28 333c f940 653d 6705 883d 13c3 6a3b
00000140: 62f4 2bbd a347 01bd 8210 5cbc c414 5f3d
00000150: 1212 783d 9881 213b e5b2 8c3c 28a6 09bd
00000160: 5f45 12bd 2944 e03b b8cf bf3b e6ae 45bd
00000170: 3672 11bd 76b1 39bd 039c 38bc 53f1 87bb
00000180: 7b89 cbbb c7aa f4bc d9ad 2dbd 97bc 1b3d
00000190: 350c fcba ab19 19bc 18c6 42bc 2ce5 663c
000001a0: b9b6 0b3c 31f3 243d aaa0 52bc 0a21 123d
000001b0: 212f 06bc c5fd fb3c 9ec4 aa3c 13ca 4f3c
000001c0: ae09 6bbc 85a7 d83b 86f6 a2bc cc58 4cbc
000001d0: 3ec5 53bc 9b7c 6ebc 5108 e2bc 278d 85ba
000001e0: 7dc3 243c d0a4 7dbb edfa c1bc 18b6 863b
000001f0: 38c2 25ba 3d70 04bd 272c 08bd 6114 0c3a
00000200: fcdf 613d 366b f33b a478 6a3d 05af eb3c
00000210: 0992 bc3a ef8a 333d 1412 863c cb66 4d3d
00000220: e98c 4b3c d708 9fbb bb26 debb 78be 143d
00000230: 555b 503d 7d9e 133d 778e b73c 766f 88bc
00000240: 5c1b 983c 2c08 273d f3ba 573d 6581 5c3c
00000250: 2587 4b3c b7f9 603d 81e0 3c3c 86d1 a23c
00000260: 31c7 0d3d 86b6 22bd cce4 96bc 2b44 f63c
00000270: a01d 643d a1a3 823d c7ab 0ebd 0839 7cbc
00000280: 4826 b63c 18b0 9d3c d453 4b3d 752a 083c
00000290: ccac c5bc 52b1 c5bc 4cac 1a3d 2d3c 043d
000002a0: e320 b43c 6523 0ebc 472d 31bd 93c7 c2bc
000002b0: 4804 383d c8c5 6c3c 5e4a 0fbd 50af e8bc
000002c0: 53fb b5bb a573 0e3d 1184 a63c d1ea 1ebd
000002d0: d221 f8bc d937 b7bc 2ef5 fb3c 3404 c0bb
000002e0: f623 b83c 7623 e9bc 7de3 9b3c b2b8 953a
000002f0: 85ba bb3c 8af3 0e3d 056f ae3c 2fd5 e43b
00000300: f1dd 623b 7ed0 06bc 7718 df3c 21a4 c7bc
00000310: fb42 333c 706d cc3c 5676 e5bb 0dae d53c
00000320: 5493 813c 93ba a23c 83f9 36bd 54d3 07bd
00000330: 68d8 d63c b965 c73c 0f66 393d 7c6e 1abc
00000340: 6675 d9bb 01b0 6e3a fcf8 23bb 443d a3ba
00000350: a0e4 133d 91a4 903b a887 813c 5088 83bc
00000360: de2d 77bb 4fd4 25bc 1c23 10bd 3629 3b3c
00000370: 077b cbbc 6f9d 5bbc 466b 163d af13 88bc
00000380: c107 7a3b 45dc 67bb 1f3b 353b b108 403c
00000390: e782 873d 1893 c3bc d1e3 6d3c e6d7 2dbc
000003a0: 0e83 6b3c 2431 d03c 601b 413d 2a37 0dbd
000003b0: 7e52 19bd a108 243b 8e0d a73c 28a3 283c
000003c0: c4ba 3dbd 2875 a0bc b88b 40bd 29ed bb3a
000003d0: d273 7d3c b417 1dbc 82de 10bd b3ae 493c
000003e0: 53ee c03c a214 f03c a37b eebc 72e7 75bb
000003f0: e052 d33c a469 973c dd86 61ba 5a33 b338

bias f4 [64]
-0.013722986 -0.006678047 -0.012501947 0.0012092309 0.028529482 0.008620828 0.020927543 -0.049222566
-0.030047998 -0.011160385 -0.04748052 0.031689003 -0.047067273 0.046236046 0.020526774 -0.060495976
-0.028517224 -0.0919646 -0.02479362 -0.042045765 0.0014799032 0.039715994 -0.018031323 -0.025975827
-0.06994601 -0.006828404 0.023672935 -0.009471604 0.039070167 0.013180436 -0.0042904415 -0.04240809
-0.0068189315 -0.041642915 -0.040714595 -0.045784786 -0.048024092 -0.042026497 0.0047247866 -0.045486894
-0.031828247 -0.029636962 -0.05620613 -0.021114955 -0.041703574 -0.05710071 -0.033775304 -0.021982811
-0.029666737 0.039339833 -0.010849228 0.03225688 -0.041286603 0.03771509 -0.0053734314 0.06055859
-0.06472833 -0.010364801 0.0065877656 0.024108099 -0.006731175 -0.07400361 -0.003201293 0.006285119
00000000: 60d6 60bc 85d3 dabb f7d4 4cbc 0e7f 9e3a
00000010: a9b6 e93c 603e 0d3c 3d70 ab3c 9a9d 49bd
00000020: 3827 f6bc 0cda 36bc ef7a 42bd 54cc 013d
00000030: 9dc9 40bd 0262 3d3d c427 a83c a1ca 77bd
00000040: f49c e9bc f057 bcbd fd1b cbbc 2e38 2cbd
00000050: 50f9 c13a 3dad 223d 6db6 93bc 42cb d4bc
00000060: db3f 8fbd cec0 dfbb beed c13c c92e 1bbc
00000070: 0a08 203d c1f2 573c d596 8cbb 1bb4 2dbd
00000080: 5871 dfbb c391 2abd 59c4 26bd d488 3bbd
00000090: e9b4 44bd fa23 2cbd 62d2 9a3b 7750 3abd
000000a0: 565e 02bd 37c9 f2bc 6638 66bd 45f9 acbc
000000b0: 5ed1 2abd 6fe2 69bd f957 0abd 4c15 b4bc
000000c0: a807 f3bc ce22 213d f6c0 31bc ca1f 043d
000000d0: 241c 29bd 237b 1a3d 9c13 b0bb 490c 783d
000000e0: 4990 84bd 20d1 29bc 2fde d73b 597e c53c
000000f0: 3091 dcbb 348f 97bd c9cc 51bb 66f3 cd3b

weight f4 [64, 1024]
-0.027652232 0.019037364 0.0011340888 -0.02196209 0.036764648 0.0077787004 -0.008860176 -0.009927298
-0.028885141 -0.050216604 0.043515727 0.009481632 0.038207907 -0.0074585243 0.0049660513 0.001754491
0.024567245 -0.015703822 -0.036194686 0.032374747 -0.028537484 -0.03347839 -0.009514922 0.010573112
0.033161454 -0.012541627 -0.020056041 0.030033939 0.023969881 0.040415358 0.031703494 -0.017753405
-0.018519085 0.032408927 -0.027318653 0.024190744 -0.00798276 0.021410082 -0.012512758 -0.015039138
0.01867779 -0.025807006 -0.009814655 0.030817304 -0.038439065 0.010852434 0.036113877 0.011481251
0.0060298857 -0.029117882 0.014846471 -0.012796357 0.029723402 -0.024512604 0.02957522 0.025170151
0.032735433 -0.02115098 -0.0011620866 0.011303794 0.014235125 -0.034172483 0.015850289 -0.033885784
-0.004855252 0.0032301585 0.029781384 -0.0064837346 0.008251675 -0.008289346 0.0012315917 -0.0132719735
0.015299777 0.031846464 -0.021102453 -0.037846804 -0.0054910798 -0.020571448 0.009596678 0.0041975887
-0.015073752 0.024790658 -0.008422552 0.02252221 -0.017905505 0.014955339 -0.02337564 0.039748568
0.004732705 0.020213496 0.009350544 0.037739538 0.011885991 0.013434791 0.02940171 0.014351865
0.04095664 0.018387856 0.0016276765 -0.008248081 0.015414479 0.031057097 -0.0122500975 -0.013290835
0.024166735 0.006118561 -0.022620337 0.005067874 0.015336267 0.0067134053 -0.017730338 0.031961944
0.012429371 -0.017808018 -0.040458582 0.011793516 0.026506213 -0.02765309 -0.041844007 -0.015175382
0.021031125 0.04903096 0.0026358198 0.015269307 -0.01306995 0.011284666 -0.024766972 -0.018495923
0.02320812 0.0063913306 -0.015955778 0.0065401033 -0.025313279 0.00033829286 0.005661916 -0.02940798
-0.0052180025 -0.03261645 -0.030995138 -0.01859511 -0.0383723 -0.012306418 -0.03323764 0.018320946
-0.014780635 -0.008375382 0.019111872 -0.013695774 0.0039576422 0.0018351248 -0.029675918 0.015234428
0.04552016 0.039194245 0.010045325 -0.007069893 -0.016243342 0.003307554 0.0019488122 0.05329477
0.0071442556 -0.019117866 -0.0038459967 -0.02703989 -0.02564264 -0.0050683687 -0.025683846 0.005292204
0.010320346 -0.00029824843 -0.051669393 -0.027883315 0.008949262 0.01323487 -0.0061280085 -0.02517215
-0.023109432 -0.0007168927 -0.010462366 0.0055959066 -0.024174828 3.8797138e-05 0.028216707 0.005769579
0.025926216 -0.0027278345 0.029555418 0.0092165135 0.0072471444 -0.0027254503 0.0022208653 0.026842147
0.021704659 0.031087035 -0.022913022 -0.015290568 -0.020978937 0.012697621 -0.051069476 -0.009655791
0.0075619044 0.005103398 -0.01364194 0.023426097 -0.02958564 0.010240781 0.032819223 -0.016071096
-0.029124357 0.005565319 -0.019321347 0.024076628 -0.035633594 0.0205719 -0.00049338007 -0.019728705
-0.020569094 -0.028612727 0.014644298 0.024325574 -0.0017634971 0.014280265 0.025027562 0.044342592
-0.007887627 -0.023164941 0.0017392391 -0.025644125 -0.0059995186 0.021388648 -0.015550495 0.0057712495
0.019264832 -0.014242953 0.019505886 0.01797893 -0.011108527 0.005918098 0.0046103545 0.020365773
0.0033035146 -0.02703514 -0.036853574 0.0059935576 -0.030308053 -0.023342356 -0.027617633 -0.013604894
-0.040557694 0.015954038 -0.015814167 -0.031084614 -0.0017969712 -0.020612266 -0.0005188965 -0.008442708
00000000: ef86 e2bc 3ff4 9b3c b5a5 943a d7e9 b3bc
00000010: 8796 163d 78e4 fe3b 462a 11bc 1ba6 22bc
00000020: 88a0 ecbc edaf 4dbd 8c3d 323d d958 1b3c
00000030: e57f 1c3d a366 f4bb 42ba a23b f3f6 e53a
00000040: 3f41 c93c 4da5 80bc e140 14bd 629b 043d
00000050: 71c7 e9bc a320 09bd 7ae4 1bbc d93a 2d3c
00000060: 4ed4 073d 657b 4dbc 914c a4bc bc09 f63c
00000070: 7c5c c43c 938a 253d 86db 013d 976f 91bc
00000080: 56b5 97bc 39bf 043d 5ecb dfbc ab2b c63c
00000090: 1fca 02bc 3264 af3c 5002 4dbc b766 76bc
000000a0: 2a02 993c 3769 d3bc a6cd 20bc 9274 fc3c
000000b0: 4872 1dbd 68ce 313c 25ec 133d db1b 3c3c
000000c0: 5996 c53b a088 eebc 9d3e 733c d0a7 51bc
000000d0: 7e7e f33c a8ce c8bc bb47 f23c a231 ce3c
000000e0: 9715 063d d244 adbc 2851 98ba 8c33 393c
000000f0: 713a 693c 72f8 0bbd 77d8 813c d2cb 0abd
00000100: ce18 9fbb 11b1 533b 17f8 f33c 8275 d4bb
00000110: 0932 073c 09d0 07bc 5c6d a13a b172 59bc
00000120: eaab 7a3c 7071 023d 0ddf acbc 4005 1bbd
00000130: 84ee b3bb 7485 a8bc 633b 1d3c ed8b 893b
00000140: e6f7 76bc c715 cb3c befe 09bc 7f80 b83c
00000150: 91ae 92bc 3d07 753c 457e bfbc 65cf 223d
00000160: cf14 9b3b c696 a53c 0633 193c c694 1a3d
00000170: 76bd 423c 991d 5c3c dbdb f03c 1624 6b3c
00000180: 26c2 273d 21a2 963c c357 d53a f622 07bc
00000190: 038d 7c3c 746b fe3c a2b4 48bc cdc1 59bc
000001a0: 51f9 c53c 367e c83b 494e b9bc 6910 a63b
000001b0: f744 7b3c 20fc db3b 373f 91bc 87ea 023d
000001c0: 8fa4 4b3c 1fe2 91bc e6b7 25bd 9739 413c
000001d0: 8f23 d93c bc88 e2bc 9f64 2bbd 2aa2 78bc
000001e0: 7749 ac3c b0d4 483d b8bd 2c3b 1e2c 7a3c
000001f0: 5823 56bc 52e3 383c 1be4 cabc c384 97bc
00000200: f51e be3c 5e6e d13b b1b5 82bc 5d4e d63b
00000210: cb5d cfbc e65c b139 9887 b93b 01e9 f0bc
00000220: c7fb aabb d498 05bd 84e9 fdbc c654 98bc
00000230: 462c 1dbd dca0 49bc 3124 08bd cf15 963c
00000240: 7a2a 72bc e638 09bc 8090 9c3c 3d64 60bc
00000250: 1caf 813b 9288 f03a e91a f3bc d399 793c
00000260: 5973 3a3d 258a 203d 2695 243c 90aa e7bb
00000270: c210 85bc 8cc3 583b 496f ff3a 9e4b 5a3d
00000280: 5c1a ea3b 129d 9cbc 1e0d 7cbb c282 ddbc
00000290: 8410 d2bc 8f14 a6bb ee66 d2bc 3a6a ad3b
000002a0: ab16 293c 3a5e 9cb9 49a3 53bd 8d6b e4bc
000002b0: ed9f 123c 11d7 583c 76cd c8bb d335 cebc
000002c0: fe4f bdbc dbed 3bba 586a 2bbc de5d b73b
000002d0: 4a0a c6bc 1cba 2238 b926 e73c bd0e bd3b
000002e0: 3763 d43c 78c5 32bb 341e f23c dc00 173c
000002f0: 7479 ed3b 789d 32bb f08b 113b 10e4 db3c
00000300: f8cd b13c 3daa fe3c 17b4 bbbc 4a85 7abc
00000310: 05dc abbc af09 503c 3a2e 51bd 5333 1ebc
00000320: dac9 f73b 683a a73b 7282 5fbc 16e8 bf3c
00000330: 965d f2bc f3c8 273c 736d 063d 88a7 83bc
00000340: 3496 eebc 485d b63b cd47 9ebc 593c c53c
00000350: 88f4 11bd 6786 a83c 2d56 01ba 189e a1bc
00000360: 8480 a8bc 3d65 eabc a3ee 6f3c 6d46 c73c
00000370: 2525 e7ba c6f7 693c 9a06 cd3c 94a0 353d
00000380: 1b3b 01bc 67c4 bdbc 2ef7 e33a a113 d2bc
00000390: 9c97 c4bb 3f37 af3c 81c7 7ebc c01c bd3b
000003a0: 48d1 9d3c 465b 69bc cfca 9f3c 8d48 933c
000003b0: 8a00 36bc 9bec c13b 7512 973b 1fd6 a63c
000003c0: c77f 583b cc78 ddbc c6f3 16bd 9b65 c43b
000003d0: 9848 f8bc 7838 bfbc 603e e2bc 10e7 5ebc
000003e0: d31f 26bd 0bb2 823c b68c 81bc 29a5 febc
000003f0: 5988 ebba 0edb a8bc 8e06 08ba 4953 0abc

bias f4 [64]
-0.009667247 0.022786384 -0.021173678 0.015872506 0.013702876 -0.019456139 0.023960834 0.057466082
0.01887894 -0.012092132 -0.054732066 0.008284266 -0.014646099 0.023329861 0.008793668 -0.005751484
-0.00412813 -0.0036375138 -0.02134995 -0.041959986 0.022578076 -0.007403626 0.04943895 -0.011947755
-0.0031620231 0.014917797 -0.01792567 -0.015620482 0.020817118 0.00912544 -0.031400908 -0.023349548
0.045168098 0.0001427739 -0.037080165 0.043065105 0.012040252 -0.011729237 -0.0408774 -0.036963105
0.029828813 -0.00023307836 0.023191597 0.009813862 0.019715352 -0.023717256 0.03380077 -0.0025198797
-0.020085383 0.0020134284 0.052235123 -0.021724075 0.044538 -0.062496398 -0.015009309 -0.040667877
0.0243802 -0.053024914 0.03165055 0.035818316 -0.021406487 -0.012139749 0.020082414 -0.022725785
00000000: 5f63 1ebc 83aa ba3c 6c74 adbc 0f07 823c
00000010: 0782 603c 7b62 9fbc 8349 c43c 8e61 6b3d
00000020: 02a8 9a3c 141e 46bc bb2e 60bd bbba 073c
00000030: 31f6 6fbc 441e bf3c 5113 103c f276 bcbb
00000040: 4445 87bb 5b63 6ebb 17e6 aebc 3cde 2bbd
00000050: a8f5 b83c 1e9a f2bb 7f80 4a3d 84c0 43bc
00000060: f239 4fbb c769 743c dbd8 92bc 0ded 7fbc
00000070: a988 aa3c df82 153c 3d9e 00bd 8d47 bfbc
00000080: 2f02 393d 94b5 1539 5fe1 17bd 0965 303d
00000090: 7a44 453c fc2b 40bc 106f 27bd a066 17bd
000000a0: 8e5b f43c 7f66 74b9 4efc bd3c 52ca 203c
000000b0: 1782 a13c b14a c2bc ad72 0a3d 9124 25bb
000000c0: 1a8a a4bc b9f3 033b 7ff4 553d b0f6 b1bc
000000d0: 7a6d 363d 39fc 7fbd 9be9 75bc 5c93 26bd
000000e0: fcb8 c73c a730 59bd 02a4 013d 3ab6 123d
000000f0: a85c afbc cce5 46bc e083 a43c 6d2b babc

weight f4 [10, 64]
-0.11604061 -0.13587072 0.041155357 -0.0032841149 -0.0695836 -0.09800061 0.10388747 -0.25616813
0.20467305 -0.0046055275 0.0948384 -0.12146946 -0.066007964 -0.07474578 -0.09977528 0.072682016
0.17238604 0.0017420484 -0.180242 0.20481324 0.06429545 0.16159727 -0.08962709 0.12668628
0.04725927 -0.043146916 -0.1538633 0.12796248 0.07799976 0.067963645 -0.14275663 0.19454612
-0.13221548 0.08594981 0.07166542 -0.14778547 -0.062741295 0.12796952 0.17955156 0.14463855
0.009719151 0.04706903 -0.16551767 0.19687949 -0.039891273 0.09838226 -0.15468147 0.20177281
0.15131228 0.14693941 -0.040758632 0.029997677 -0.05123272 0.13775247 0.12389981 0.15800259
-0.0058568213 0.083976 -0.038845927 -0.14713767 0.12830116 0.121305585 0.1583684 0.16326
-0.0998861 -0.13611473 -0.32853797 -0.064639226 -0.055377986 0.053720955 0.19111122 0.12097966
0.0014051523 -0.07309414 0.17369778 0.27902853 -0.0773978 -0.3504988 0.2193841 -0.11874366
-0.10279165 0.19769672 -0.17792308 -0.056921057 0.11628161 -0.19742303 -0.07194676 -0.16950418
-0.0101267295 -0.016094975 -0.081404306 -0.017943937 0.033127826 -0.051685553 -0.096460424 0.0777371
-0.07096785 0.25898927 0.018207474 -0.12316838 -0.030314904 -0.16019198 -0.1930138 -0.11577495
-0.082166515 -0.25945717 -0.14764482 -0.0776127 -0.16153458 -0.11018939 -0.20205776 0.15643382
0.05661225 -0.15129663 0.040294506 -0.14203039 0.26666325 0.10875331 -0.14772482 -0.03617716
0.15780145 -0.06848691 0.118260376 -0.07358106 -0.17301776 0.026933903 -0.059280016 -0.11991474
-0.08304923 0.20709008 0.18470967 -0.039837778 0.18098451 -0.14832401 -0.020665137 -0.024803974
-0.07110639 0.07652517 -0.13108566 -0.09191842 0.16344906 -0.0009621213 -0.014067293 -0.010415634
0.18268712 0.07824432 -0.11980432 0.11595522 0.09342469 0.18756829 0.005856013 -0.16816075
-0.044037238 0.066404924 0.22047241 -0.020473683 0.20624223 -0.018754479 0.011084606 0.13541318
0.01942904 0.10243181 -0.0150507325 -0.16713136 -0.118509606 -0.011133034 0.10223797 0.019705221
-0.01035253 0.105314106 -0.034164667 0.099269256 0.09916897 -0.02935446 0.13065112 -0.10999159
0.13323353 0.22475971 0.025332637 0.059719384 0.053223837 0.17920102 -0.14100412 0.13253908
-0.22819908 0.013558647 0.09839702 0.09500921 -0.09641151 -0.14315073 -0.18084441 0.16544607
0.07733841 0.03890364 0.19285269 -0.069255985 0.08340861 -0.0059452113 0.08702119 -0.10105282
-0.08787033 -0.060442477 -0.11021727 0.12724644 -0.1556084 0.10795823 -0.13122804 -0.10518661
-0.011293719 -0.1437631 0.02996676 -0.06830226 0.15059768 0.11488957 0.0027378493 -0.08675286
-0.14512753 -0.13101438 -0.10542767 0.013927094 0.08894388 0.07434784 0.15991798 0.07061728
-0.14359479 -0.019650275 0.085124776 -0.09083827 -0.04476761 0.0911355 0.043294933 -0.11961054
-0.10269498 0.08215477 0.20928854 -0.038908157 -0.047243856 -0.12682344 0.1860643 -0.006350673
-0.048133753 -0.028634576 0.08066253 0.08387015 0.06588528 -0.06211752 0.06023389 0.012913843
-0.073525734 0.1824882 0.031238431 -0.059914045 0.014125509 -0.18117899 0.026729766 -0.07373369
00000000: b3a6 edbd b221 0bbe 8592 283d 4e3a 57bb
00000010: d981 8ebd 8bb4 c8bd f4c2 d43d 7828 83be
00000020: d095 513e f7e9 96bb a33a c23d fbc4 f8bd
00000030: 2f2f 87bd 5114 99bd fb56 ccbd 4fda 943d
00000040: f785 303e 7255 e43a 5c91 38be 90ba 513e
00000050: 55ad 833d c179 253e 688e b7bd 0cba 013e
00000060: f092 413d d2ba 30bd 578e 1dbe 9908 033e
00000070: 57be 9f3d 8630 8b3d cb2e 12be 1937 473e
00000080: 7f63 07be 7406 b03d 52c5 923d 1355 17be
00000090: 827e 80bd 710a 033e 5ddc 373e 211c 143e
000000a0: 133d 1f3c 75cb 403d 777d 29be c79a 493e
000000b0: 0865 23bd a37c c93d d264 1ebe 889d 4e3e
000000c0: 9bf1 1a3e 4977 163e 86f2 26bd b0bd f53c
000000d0: 67d9 51bd fc0e 0d3e 2fbf fd3d 6ecb 213e
000000e0: 94ea bfbb 9cfb ab3d e81c 1fbd 42ab 16be
000000f0: 6161 033e 106f f83d 532b 223e a12d 273e
00000100: 1591 ccbd a961 0bbe 2136 a8be 9261 84bd
00000110: 07d4 62bd 810a 5c3d a9b2 433e 2fc4 f73d
00000120: 162d b83a 61b2 95bd d5dd 313e d4dc 8e3e
00000130: bd82 9ebd 9474 b3be 3aa6 603e e02f f3bd
00000140: 6e84 d2bd 0271 4a3e 7831 36be 0e26 69bd
00000150: 0e25 ee3d 4329 4abe d358 93bd 8192 2dbe
00000160: 95ea 25bc 9cd9 83bc 4db7 a6bd 2aff 92bc
00000170: 0bb1 073d 3bb4 53bd 0b8d c5bd a134 9f3d
00000180: 9857 91bd 3e9a 843e d727 953c b43f fcbd
00000190: f656 f8bc 5e09 24be 69a5 45be 6b1b edbd
000001a0: eb46 a8bd 92d7 84be 3430 17be 68f3 9ebd
000001b0: 5269 25be faaa e1bd 3be8 4ebe 3030 203e
000001c0: 3fe2 673d 81ed 1abe da0b 253d 6a70 11be
000001d0: 1688 883e 0eba de3d 2d45 17be 802e 14bd
000001e0: b496 213e dd42 8cbd 7f32 f23d abb1 96bd
000001f0: 912b 31be 7da4 dc3c 9acf 72bd dc95 f5bd
00000200: b715 aabd 6c0f 543e 8824 3d3e f02c 23bd
00000210: 0154 393e 40e2 17be ef49 a9bc b431 cbbc
00000220: 3aa0 91bd 3ab9 9c3d 523b 06be b93f bcbd
00000230: 315f 273e de36 7cba 817a 66bc 56a6 2abc
00000240: 5512 3b3e 8f3e a03d f85b f5bd ee79 ed3d
00000250: 7255 bf3d e711 403e cce3 bf3b 5532 2cbe
00000260: 6460 34bd 4eff 873d 85c3 613e 6db8 a7bc
00000270: 2a31 533e fea2 99bc 359c 353c c1a9 0a3e
00000280: a629 9f3c c5c7 d13d 5997 76bc 7c24 2bbe
00000290: 2ab5 f2bd 5467 36bc 2462 d13d d86c a13c
000002a0: a89d 29bc ecae d73d 40f0 0bbd ae4d cb3d
000002b0: 1a19 cb3d c478 f0bc 68c9 053e 4543 e1bd
000002c0: 5f6e 083e 6927 663e 6486 cf3c 509c 743d
000002d0: 3d01 5a3d 7980 373e 6263 10be 53b8 073e
000002e0: 05ad 69be 1625 5e3c 6084 c93d 3094 c23d
000002f0: 6673 c5bd 1b96 12be 472f 39be b26a 293e
00000300: 9a63 9e3d 6c59 1f3d 2d7b 453e 15d6 8dbd
00000310: 22d2 aa3d 0cd0 c2bb 2a38 b23d c8f4 cebd
00000320: 5cf5 b3bd 8892 77bd 98b9 e1bd e44c 023e
00000330: cf57 1fbe 3419 dd3d a560 06be 146c d7bd
00000340: 4a09 39bc a236 13be da7c f53c 0ee2 8bbd
00000350: 4736 1a3e 394b eb3d 7d6d 333b 7cab b1bd
00000360: 509c 14be a228 06be 76ea d7bd 772e 643c
00000370: 3528 b63d ae43 983d 8ac1 233e cb9f 903d
00000380: 830a 13be 9df9 a0bc e655 ae3d 6a09 babd
00000390: 3e5e 37bd 40a5 ba3d 0756 313d 5ff6 f4bd
000003a0: bf51 d2bd c340 a83d bc4f 563e 295e 1fbd
000003b0: c682 41bd 01de 01be a487 3e3e 4e19 d0bb
000003c0: e627 45bd 0f93 eabc 6632 a53d 1dc4 ab3d
000003d0: ddee 863d f16e 7ebd d0b7 763d 9594 533c
000003e0: a994 96bd 30de 3a3e bde7 ff3c 6e68 75bd
000003f0: ae6e 673c fc86 39be 62f8 da3c b001 97bd

bias f4 [10]
-0.043397397 -0.041431643 0.0111902375 -0.029583706 0.07490617 -0.08251549 0.052273504 0.02993519
0.03599711 0.0073387627
00000000: 78c1 31bd 3ab4 29bd 4257 373c 8759 f2bc
00000010: 6868 993d e2fd a8bd be1c 563d a53a f53c
00000020: b571 133d 017a f03b
