DeepLearningDemo/models/jingxin_6.pth (torch, 587999 bytes, 10 tensors)

weight f4 [32, 3, 5, 5]
00000000: e0bb dc3c 550d 943d 3d4b 9e3c c746 183e
00000010: 651e 083e 5125 4e3d c525 54bd add5 21bd
00000020: 338f b1bd b583 77bd b4f6 2bbd 3b61 7c3d
00000030: b1dd c1bd 9ebe b9bb e603 0ebe bfe4 2abe
00000040: a73e 3dbe c84a 15bd c9c3 e5bd aedd 083d
00000050: e3a8 07be 247a 28be 3940 58be 2703 1cbe
00000060: 5b62 05be fa6a fd3d 9a8b c2bc 08bb 173e
00000070: da35 c239 f0ab 8c3a 09e8 f33d bb23 e73d
00000080: 5b53 b6bb 75e9 c23c 54d7 92bd 9c32 acbc
00000090: 59f9 2bbc 7456 bfbd ac05 a2bd 0020 2138
000000a0: dba5 f9bd f674 22be 1f02 07be ecbf 38bc
000000b0: 669b 7fbd cf23 36bd ef43 cbbd f8a6 a8bd
000000c0: bda3 34be d966 0fbe 5ad5 1a3d baa3 343e
000000d0: 53a0 0b3e 025c 7c3d 26e0 5b3d fca1 333e
000000e0: d210 293d ce55 f73d 7e69 0a3e 9828 013d
000000f0: 253e d23c 303e 193d f1d5 0b3e 4366 b23b
00000100: 55ed 0b3e c03d 30bd 8c3a d0ba 5682 0d3d
00000110: 4dab 323c 10e4 ce3d bca0 d83d 355f 373c
00000120: 9a5f 293d 527b cc3d d5e7 d73d 82e6 093e
00000130: 980e 2e3e 7962 303e 1572 d83d 4fc2 433b
00000140: 247b 293e 97e5 0f3e df74 2b3e d8b3 a63d
00000150: 3516 373d b5c9 243e 9ee0 043e 825c 723d
00000160: 3461 af3d f77b 413c 3dcd c43c bcf7 c03d
00000170: d350 413d 131f 3a3d c1d1 793d 6dd7 763d
00000180: f277 a33d af1e 3fbd 2b0e d0bd 84f1 193c
00000190: 90c7 26bd 109e 803b 18b1 7ebb 70ec 86bb
000001a0: 675f 6d3d f4f6 0cbc 501b d03d 24cc ad3d
000001b0: 53d0 5abc da9e 0fbe e8b7 953d b039 5e3d
000001c0: 0a35 f3bd cac1 a0bd afd9 8bbd 7315 4b3d
000001d0: f14c c5bd 059e b63d 1edf a6bc f645 2bbe
000001e0: 360d 72bd 758f 10be 4171 2bbe 9ce4 f0bd
000001f0: c7ce 2fbe 68ec c13d 5cdc fa3d 1467 4b3d
00000200: b149 acbd 610c 1cbe 65aa 87bc e6e7 1d3d
00000210: 9078 c4bd ce98 8ebd a873 12be e63b 463d
00000220: d1a6 a7bc be7b dc3c c541 0ebe 6068 14be
00000230: 911c f93d b696 ea3d 6b71 a53c 4a70 a6bd
00000240: 90d2 62bd 0eb6 d7bd 6f96 4f3d 8798 a73c
00000250: afb8 a33a 7ac2 c4bd d81e e23c 1819 91bd
00000260: 3b12 fe3c 97a9 b93c 3d61 e8bd 5205 d2bc
00000270: d7c0 ad3c 3ee0 d5bc 5e67 f13c 4445 ecbd
00000280: 1513 253d 29ca c63d a60a 813d a27b 94bc
00000290: 6972 a83d acc2 133e df23 813d 011a fd3d
000002a0: 5e79 c73d 501e 16bd 3dbe 323d 2d5e 953c
000002b0: 06a2 843d e30d acbd 84a7 13bd 43d3 39bb
000002c0: 72c8 c83d 823f f8ba cdb8 38bc 760c 88bc
000002d0: 38da 66bd d8b3 f33c c84a cbbd 322d 91bd
000002e0: 1c4c 6b39 2352 193d df1d 2d3d 459c 9dbd
000002f0: 0873 4bbd 625b 09be ce84 e1bd cf31 babd
00000300: 6d15 113d c2fd eebd 971a 753d ddcf 27be
00000310: 1ee7 13be 2cd4 30be ac80 ecbd b060 e9bc
00000320: 623f 283e fa5c 203e 5aad dd3d 59b3 c93d
00000330: 4d1d 803d 0e5b aa3d 734c 463d 4008 0dbd
00000340: 4b74 383c 96d5 bd3d 57f9 61bd 0139 9d3d
00000350: a690 023e 3fc8 1b3e ccdb 533d c482 a6bb
00000360: 6ea1 41bd 8db0 29bc cda5 5fbd 5725 a03d
00000370: 0b5c 5fbd d676 653c 9210 c43d 9f2c 9a3d
00000380: af0a abbd 5c72 21bc 9879 bdbd 765f 1bbe
00000390: 680e 10be a046 6f3d 450e d8bd 6675 b8bc
000003a0: 70bc 9b3c 720d 69bd 9330 b13d 4f95 c23d
000003b0: da04 6e3c 1fea 813d 218e f23d cabf 0b3e
000003c0: 8136 cc3d 6587 b33c b18a 693d e92d 403d
000003d0: 02c0 28bd a7c2 c4bd 9a35 4c3c 14b3 bdbd
000003e0: 50fa 90bc ab10 1e3c 5ee0 19be f029 2b3d
000003f0: 9e6a 05be b923 05be a92c babd 2333 7ebd
0.026945055 0.072291054 0.019322986 0.1487075 0.13292845 0.050328556 -0.051793832 -0.039510418
-0.08669891 -0.06042834 -0.04198332 0.061616164 -0.094661124 -0.0056684753 -0.13868675 -0.16688822
-0.18480931 -0.03644827 -0.11218984 0.033414535 -0.13248019 -0.16452843 -0.21118249 -0.15235578
-0.13025801 0.1237392 -0.023748208 0.1481744 0.00037042686 0.0010732394 0.119094916 0.11286112
-0.005564136 0.023792962 -0.07169977 -0.021020226 -0.010496461 -0.093426615 -0.07911238 3.8415194e-05
-0.121898375 -0.1586493 -0.13184403 -0.0112762265 -0.06240406 -0.044467743 -0.09925067 -0.08234972
-0.17640586 -0.14004077 0.037801124 0.17640582 0.13635378 0.061611183 0.05368056 0.17542261
0.041275807 0.12076913 0.13516805 0.031532854 0.025664398 0.037412822 0.13655831 0.0054443195
0.13664754 -0.04302764 -0.0015886589 0.034548126 0.010905099 0.10102093 0.10577533 0.011192133
0.04135094 0.09984459 0.10542265 0.13466838 0.16997755 0.17225064 0.105686344 0.0029870456
0.1655088 0.14052425 0.16743802 0.08139771 0.044698913 0.1609257 0.1297631 0.059170254
0.08563462 0.011809341 0.024023646 0.094222516 0.04719622 0.04543979 0.060991053 0.06026404
0.07981862 -0.04666012 -0.10158952 0.009395961 -0.04071766 0.0039250925 -0.003886288 -0.004117541
0.05795231 -0.0086038 0.101614594 0.08486202 -0.013355332 -0.14025441 0.07310468 0.054254234
-0.11875351 -0.07849462 -0.06828629 0.049581002 -0.09633816 0.089168586 -0.020370062 -0.16725907
-0.05909463 -0.14117225 -0.16742422 -0.11762354 -0.17168723 0.09468919 0.122490615 0.04965885
-0.08412493 -0.15239097 -0.016560743 0.038551234 -0.09593308 -0.06962739 -0.14301932 0.048396967
-0.020465286 0.026914474 -0.13892277 -0.14492941 0.12163652 0.11454527 0.020195683 -0.08126886
-0.05537659 -0.10532771 0.050680574 0.020458473 0.0012490953 -0.09607406 0.027602598 -0.070848644
0.031014552 0.022663875 -0.11346672 -0.025637303 0.021210117 -0.026107904 0.029468235 -0.11536649
0.0403014 0.09706528 0.06300859 -0.018125359 0.08224947 0.1442973 0.0630567 0.123584755
0.09739946 -0.036650002 0.043638457 0.018233383 0.06476216 -0.08401086 -0.036048427 -0.0028354682
0.09803857 -0.0018939825 -0.011274529 -0.016607504 -0.056360453 0.029748842 -0.09926373 -0.070886984
0.000224397 0.037431847 0.042264815 -0.07695822 -0.04967025 -0.13413766 -0.110116586 -0.090915315
0.035420824 -0.11669494 0.05983981 -0.16387887 -0.14443633 -0.17268437 -0.1154798 -0.028488487
0.16430429 0.15660468 0.1082408 0.09848661 0.06255589 0.083181486 0.04841275 -0.034431696
0.011258195 0.09269254 -0.05516943 0.07676888 0.12750491 0.15213107 0.051723287 -0.0050815064
-0.047273092 -0.010357034 -0.05460148 0.07819622 -0.05453114 0.0140053835 0.09573473 0.07528042
-0.08351647 -0.009853926 -0.09251708 -0.15173134 -0.14067996 0.058416963 -0.10549597 -0.022516917
0.019010752 -0.056897588 0.08651843 0.095011346 0.014527524 0.06343483 0.11843515 0.1364738
0.09971333 0.021915147 0.057017032 0.046918783 -0.041198738 -0.096074395 0.0124639515 -0.09262672
-0.017697483 0.009647529 -0.15026996 0.04178804 -0.13028952 -0.13001908 -0.090905495 -0.062060487

bias f4 [32]
00000000: 4112 bbbd 3030 75be e072 81be fe6d 253d
00000010: fee2 143d 0350 75be 4a0b 323e 210e 913d
00000020: 13a9 e33c 96f3 07bd d523 95be 3c91 c7bd
00000030: 4c6b dbbd 90d0 42be 1df0 d9bd 8179 a53d
00000040: b91c 863e fa92 8fbd 92ba e1bc 1778 26be
00000050: b7b2 5ebe 8fae 703b ac1e 10bd 385c 173e
00000060: c20e b43d 89bd 0ebe a3e4 653e d982 75bd
00000070: e393 7dbc d850 cfbd 8026 503e 3ffc 6fbe
-0.09134341 -0.23944163 -0.25282955 0.0403881 0.03634929 -0.23956303 0.17387119 0.07082773
0.027790582 -0.033191286 -0.291289 -0.09744498 -0.10713825 -0.19024873 -0.10641501 0.08079816
0.2619379 -0.070104554 -0.027554784 -0.16256748 -0.21747862 0.0036725139 -0.0351855 0.14781272
0.08791877 -0.1393949 0.22450499 -0.05993924 -0.0154771535 -0.101228416 0.20327187 -0.23436068

weight f4 [32, 32, 5, 5]
00000000: 80cf 1fb9 74c5 0fbb 6dcd 6c3d a2d5 183c
00000010: dc91 15bc 9020 0f3d bd71 6d3c 70c3 da3c
00000020: 34ac be39 08e4 abba 41a6 27bd f87d 63bd
00000030: c992 24bd e6b6 47bd 1d6b f6bb c9ce df3c
00000040: 3daf 1d3d 13a3 653d 8faa 303c 7148 a2bc
00000050: 49ad bfbc 2a9d 023d 4d96 bbbc abe5 193d
00000060: 3ab4 ee3b baea 10bd e655 d93c f245 a43c
00000070: 507b 80bc f620 af3c 1b16 083d b77c b63b
00000080: aded 3bbc c6f2 98bb 3653 c8bc 6536 f4bc
00000090: 025a 1a3c 1b25 d93c 3313 07bd df14 08bd
000000a0: 6d96 223d 2722 b63c 3c0d cabb 472b a83c
000000b0: 58c2 f43c 92fc f13c 59a1 95bc 476a ae3c
000000c0: 9030 8d3b 06dd 093b 97ac 8c3c 1f6c 0fba
000000d0: 982b 053c d620 d23c 98bd 723c e3f5 58bb
000000e0: 44d0 16bc 890d 9a3c 8b80 033d ddf8 0d3d
000000f0: 442e ab3c b6bd b7bc 7270 20bc 0001 a1bc
00000100: ab48 0b3c e69f 40bc 85b2 b1bc d180 8ebc
00000110: 4aef b53c 6587 d8bc b545 30bc 2952 c33c
00000120: d4d3 d9ba dc5a 4bb9 0ec8 e4bc 324e 193d
00000130: e6ae 563c 0263 0f3c bdca 0d3d e098 023c
00000140: 57fd 343c 17d3 033d 9f7e 3abc 488e b83c
00000150: b2d3 0cbd 6892 2b3d 8f7e f53b b162 573d
00000160: ea10 1f3d 9733 83bc bab3 113c 83b0 e53c
00000170: ee07 843c 4ef6 d3ba 3bfc 303c 73c0 0bbd
00000180: 063e 803c fc9b 81bc 3292 bdbc 04b0 31bd
00000190: cb1f fe3b d57b c33c b10a 343d 1c01 383d
000001a0: 63be 85bc 3440 da3c 7d11 b63c 6498 43bc
000001b0: c7f8 223d 6fb8 4e3d 677a 8d3c e4c2 02bc
000001c0: 9c43 e63b 3100 17bd f05c f1ba 2425 153d
000001d0: 9acd 703c 4044 7fbb 73df 81bc ebb0 de3b
000001e0: bfd1 b7bc ac6a 0e3d 8114 7b3c 2a3b cf3b
000001f0: 9853 89bc 4acd 2c3d 7b53 883c 4f9e d1bc
00000200: e1c4 9c3c db63 83bc ede3 263c 09b5 b93c
00000210: 8d27 cebc b729 b83c c5ed 1b3c f530 a43c
00000220: fb65 0c3d 7460 07bd 2034 9cbc 58d3 f5bb
00000230: e92e 243d 0798 0a3d c5af 513d 431a 603c
00000240: 5822 0a3d ac36 c93c 30dd 35bc 0d59 a23c
00000250: b21e 473c 4d20 e73b fd30 c2bb 251c 043c
00000260: 594a 14bc b02d 92bc f69e 91bc 924f f8bc
00000270: dce6 763c bb66 c13c 0e87 f03b ca11 333c
00000280: 6e9d bebc d726 20bd 33dd ce39 4f82 41bd
00000290: 93fd d0bc b694 b73c 3a7d 0a3b 1492 3e3d
000002a0: 98fd de3b 192b e1bc b75f c0bc 8248 96bc
000002b0: 72c2 203c 265d 173b 4b4a 13bc 84a5 863c
000002c0: 662b a23b bbe4 153d 960e 143d dfb4 013d
000002d0: 82b0 753c f734 0f3d 969f 89bc 5bef 4cbc
000002e0: 5462 76bc 9611 033b 9c26 b9bc d69d 8fbc
000002f0: fb19 513c d93c 31bc 1c0b b53c 44df e63c
00000300: 28ad ccbb 264f f2bc af47 4f3c a572 2cbd
00000310: e1f0 973c 8dcb e03c 6ac5 46bb 7586 ed3c
00000320: d8ab 013b 34b7 453c 6edf 253b 6c4f 033d
00000330: 35a0 b83c 792a 573d 4a6f 483d a271 283d
00000340: 430e f23c 3e23 b73b 9424 e23c e89e d9bb
00000350: 9390 533c 41cb 09bc 79b4 bd3c 894f 23bd
00000360: db4e 503c 19b7 28bc a2a0 cfbc cf8a cdbc
00000370: cadc 97bb 8eac be3c f6ec 283c 889a aebc
00000380: 1905 ee3c 5066 4f3d 0790 363d 6525 513b
00000390: 5d7f dcbc b477 c5bc 9058 353d 3340 733d
000003a0: 8a91 403d 5d88 0bbc dd52 bcbc 5547 bebb
000003b0: cae5 d9bb 5b6a 173d 504d e43c 2a48 573d
000003c0: f5a0 253c ce00 32bd 88f3 d6bc ff28 29bd
000003d0: 1af8 d3bb 27c4 aebc 0feb c53a dd2a 943c
000003e0: ed59 11bd 6a1e 893b 6229 83bc 27cf 603c
000003f0: d258 b4bc ba46 083d b271 b73c e567 74bc
-0.00015240721 -0.002193776 0.057813097 0.009328278 -0.009129014 0.034943163 0.014492449 0.02670452
0.00036367925 -0.0013114223 -0.040930036 -0.055540055 -0.040179048 -0.04875841 -0.007520093 0.027320283
0.0384972 0.056063723 0.010782852 -0.019809933 -0.023398058 0.031888165 -0.022898817 0.037572544
0.0072846683 -0.035380103 0.026530217 0.020052884 -0.0156838 0.021378022 0.033224206 0.0055690664
-0.011470241 -0.0046676127 -0.02445374 -0.029811094 0.009420874 0.026506951 -0.032977294 -0.03322303
0.03969424 0.022233082 -0.0061661284 0.020528449 0.029877827 0.02953938 -0.018265413 0.021290911
0.0043087676 0.0021036281 0.017172141 -0.00054711284 0.008128069 0.025650423 0.0148157105 -0.0033105544
-0.009204928 0.018805282 0.03210501 0.034661163 0.020896085 -0.022429328 -0.009792434 -0.019653797
0.008501212 -0.011756873 -0.02169157 -0.017395409 0.022208828 -0.026431749 -0.010758807 0.023842888
-0.0016618916 -0.00019393436 -0.027927425 0.03742809 0.0131032225 0.008751633 0.034617174 0.007971019
0.011046729 0.032183733 -0.011382728 0.022528782 -0.034381576 0.04188767 0.0074918936 0.052584354
0.03883449 -0.01601581 0.008892948 0.028038269 0.016117062 -0.0016171427 0.010802324 -0.03411908
0.015654575 -0.01582145 -0.023141 -0.043380752 0.007755255 0.023862759 0.04395551 0.044922933
-0.016326135 0.026641943 0.022225136 -0.011938188 0.039788034 0.05046886 0.01727028 -0.007981036
0.0070271026 -0.036865417 -0.0018414538 0.036412373 0.014697457 -0.0038950592 -0.01585362 0.0067959926
-0.022438882 0.0347697 0.015324713 0.0063241916 -0.016763493 0.042187966 0.01664137 -0.025588183
0.019136848 -0.016038826 0.010186178 0.022669332 -0.025165344 0.022480829 0.009517138 0.020042876
0.034276944 -0.03305097 -0.019067824 -0.007502001 0.0400838 0.03383639 0.051193018 0.013678136
0.03372416 0.024562202 -0.0111000985 0.019817853 0.012153314 0.007053411 -0.00592625 0.008063351
-0.009050929 -0.017844051 -0.017775994 -0.03031138 0.01506969 0.023608556 0.0073403185 0.010929534
-0.023268428 -0.03909954 0.00039456188 -0.047243413 -0.025511539 0.022409778 0.002113177 0.04652603
0.006805133 -0.02748637 -0.02348314 -0.018345121 0.009811984 0.0023096292 -0.008989881 0.016436346
0.004949021 0.036595087 0.036146723 0.031666633 0.014995696 0.03496262 -0.01679973 -0.012508239
-0.015038092 0.0019999496 -0.022601418 -0.017531317 0.012762542 -0.01081773 0.022100024 0.028182633
-0.006246228 -0.029578757 0.012651368 -0.04210152 0.018547477 0.02744081 -0.003033007 0.028994778
0.0019786265 0.012067605 0.0025310176 0.032058164 0.02253733 0.05253074 0.04893426 0.041123994
0.029547816 0.005588918 0.027605332 -0.0066412576 0.012912887 -0.008410276 0.023157345 -0.039870773
0.012714113 -0.01029756 -0.02534515 -0.025090603 -0.0046344744 0.02327564 0.010310402 -0.02131392
0.029055165 0.050634682 0.04457095 0.0031913158 -0.0269162 -0.02410493 0.044273913 0.059387397
0.047013797 -0.008516398 -0.022988731 -0.0058068433 -0.0066497074 0.036966663 0.027868897 0.052559055
0.010109176 -0.0434578 -0.026239172 -0.041298863 -0.006468785 -0.021333767 0.001509996 0.018086845
-0.03548615 0.004184534 -0.016010944 0.013721264 -0.02201501 0.033270575 0.022393081 -0.0149173485

bias f4 [32]
00000000: 57bd b93b 64ad 5fbc 905e 833c 2fcf a2bc
00000010: 7a48 843c 7e7d 0f3a cb9d b3bd 86e2 99bd
00000020: 8b64 223d ec23 9abc c49e eabb f5c7 843d
00000030: 450c a9bd 36d4 f93b 0635 9e3d 376a 85bc
00000040: 3a4f adbc 6e61 fa3c 6679 513d b47f 9fbd
00000050: c6ee b539 02f2 14bd d6fd ebbc bd44 d33c
00000060: 5d3a 0d3d f8b7 ec3c 0b1e cfbd 56d7 07bd
00000070: e49e 9ebd 57c1 913b 4380 50bd a6fb 803d
0.005668323 -0.013652179 0.016036302 -0.019874183 0.01614784 0.0005473717 -0.08770331 -0.07513909
0.039646666 -0.018815957 -0.0071600396 0.06483451 -0.08254293 0.0076241745 0.07724957 -0.016285999
-0.021155942 0.030564036 0.051141165 -0.07788029 0.0003470091 -0.03636361 -0.028807562 0.025789613
0.034479488 0.028896317 -0.10113152 -0.033164345 -0.0774515 0.0044480967 -0.05090357 0.06297998

weight f4 [64, 32, 5, 5]
00000000: 8b7e 9d3c 00f4 2d3c bf1a aa3c 4e14 f3ba
00000010: 5fd6 60bc 002f e8b8 59c2 d1bc 5d54 5cbc
00000020: 4042 18bc 180c 143d 1937 b7bc 6257 ee3a
00000030: 1d75 e63b a499 f5bb 9094 f1bc e35e 12bc
00000040: fcdd 19bd d426 bdbc 163e 55bc eded 99bc
00000050: 6347 cf3b 2984 61bc d09a cdbb 20ce abbb
00000060: c30f cfbc ceb6 96ba 4429 f4bb b61f 3ebc
00000070: a09b 7d3c 3f49 0a3c 21b8 19bc f4f0 d6bc
00000080: 7262 063d da6e 1e3c ff15 723c 4b5b abbc
00000090: 953e 373c 1ca3 903c a43a 1b3d f42d 90bc
000000a0: 4a97 eabc 6db2 acbb eb2f e6bc c7fc 05bd
000000b0: e695 8ebb adfb 71bc d93b c7bc d07d 9e3c
000000c0: 50b3 f7bc 6bd3 4cbc d2ca 01bd 12d1 67bb
000000d0: 3aad 303a 108e 06bb be02 34bb 4425 813b
000000e0: b8fa c8bc 4bd0 33bd d25c 4d3c 07f3 eb3c
000000f0: d4fb e7bc 3d7b c9bb a14c f7bb a7d4 45bc
00000100: 1b9e efbc ba14 03bd 2a6b f2bc 2c93 dd3b
00000110: 195d cbbc 162e 5abc b61c eabb ae3d f23c
00000120: 1e32 82bc da0c 01bc c0f7 83bc 22dd 103c
00000130: feb6 523b dd29 1e3d 83fb 5b3d e681 8c3b
00000140: 8559 24bd 072a f5bc 69e6 a2bc 818d 253d
00000150: fdf5 553d 8177 41ba 0b09 983c 2ab9 04bd
00000160: 0369 17bd 1703 a83a 6544 583b cd61 45bd
00000170: 7e06 01bd d61f 33bd f409 45bc 66a0 433a
00000180: bcc1 54ba b931 efbc f887 0fbd 05b1 2c3d
00000190: d26a 6bbb 602d 1fbc 3811 3fbc 9d8c 723c
000001a0: 68ce e63b 8adc 093d dce1 9fbc 6b87 ff3c
000001b0: 92b1 60bc c099 dd3c 90ac b53c 2e9f 233c
000001c0: 6f06 8dbc db2e c43b 48f0 89bc 34e5 72bc
000001d0: 4662 8cbc 1de7 95bc 160c e0bc 8bbe 37ba
000001e0: 62c0 033c 7062 c2bb aa96 c1bc ec1f a83b
000001f0: d6b9 ed39 8680 b5bc 448d d5bc cb69 c2bb
00000200: de8e 6d3d e011 223c 6856 863d 22bf f23c
00000210: da08 b539 1d45 2e3d 8677 883c d209 5b3d
00000220: 6769 513c a913 ebba d611 3dbc 90eb 0d3d
00000230: e2e9 4d3d a3ba 0c3d f618 b13c 69ba 8abc
00000240: ea19 9d3c a60c 2b3d 17ce 3f3d c52b 1e3c
00000250: 5ab4 763c adb4 583d b734 383c da03 a13c
00000260: 6c1a 213d 1822 0dbd a5c8 80bc 9c27 fb3c
00000270: 1db4 5e3d 6b31 813d 8497 e9bc b578 0fbc
00000280: 47cd bb3c 172c 8e3c fdd0 333d fb4f 503c
00000290: 4632 c4bc 0b30 c6bc 8291 253d 1dd6 033d
000002a0: e9f3 df3c b6bc 03bc 6721 2cbd b0c0 84bc
000002b0: 47e0 493d 406d 4b3c ad08 07bd 88cb bebc
000002c0: fcf2 36bb 138c fb3c e134 ac3c ce96 1cbd
000002d0: ca0b d6bc 9d43 9ebc a59e ef3c 8b7d ddbb
000002e0: 12f3 b03c 1e09 dbbc 5c4d a93c e560 863a
000002f0: 373c ac3c c304 063d cbca a13c be7e f23b
00000300: 3293 583b da6c 16bc d9b2 d83c 1df5 debc
00000310: 18cf 0e3c d203 c03c eb1d efbb f5ac cb3c
00000320: d519 173c 3ca3 ac3c 96f9 16bd 9e5c 0ebd
00000330: 2e34 dd3c 416c 803c 96ff 373d 6021 18bc
00000340: eccd a0bb cfdb f73b 483a cbbb c735 30bb
00000350: 07a1 0b3d ddd8 193c 74aa 953c 4789 a7bc
00000360: 481d a33a 1221 c5bb 4fdd 0bbd 8fd5 393c
00000370: bf17 b5bc 3505 84bb c3f4 173d df33 b4bc
00000380: e8ea 903b 6c19 66ba d508 e8ba 7647 9cbb
00000390: eb10 703d a30c ccbc cdb2 b03c ae93 03bc
000003a0: af63 a43b 2206 703c c55e 1b3d e312 06bd
000003b0: 1830 0bbd 0a35 d7b9 b579 753c 0923 ae3b
000003c0: 9f5d 37bd fe41 7fbc 1fcc 2cbd abb2 143a
000003d0: eee5 7f3c 2e09 d1bb fa1a 05bd 57a5 6d3c
000003e0: 1955 e63c 93bd e73c 4e94 d7bc 6f9e d2ba
000003f0: 2696 c63c 16f9 b43c bca0 89ba b96e b73b
0.01922538 0.010617256 0.020764707 -0.001854548 -0.013722985 -0.000110713765 -0.025605367 -0.013447848
-0.009293139 0.036144346 -0.02236514 0.0018184001 0.007033004 -0.007495122 -0.029489785 -0.008933756
-0.037565216 -0.023089804 -0.013015291 -0.01879021 0.0063256486 -0.01376442 -0.0062745586 -0.005243078
-0.02527607 -0.0011498572 -0.0074512083 -0.01160424 0.015478998 0.008440315 -0.009382279 -0.026237942
0.03280873 0.009669984 0.014775752 -0.020917555 0.011184354 0.017655902 0.03789772 -0.017600037
-0.028636593 -0.0052702934 -0.028099021 -0.03271177 -0.0043513654 -0.014769477 -0.02432053 0.019347101
-0.03023687 -0.012501578 -0.031687565 -0.0035372418 0.000673968 -0.0020531453 -0.0027467455 0.00394121
-0.024533615 -0.043899816 0.012534337 0.028802408 -0.028318323 -0.0061487244 -0.0075469767 -0.012074626
-0.029250195 -0.03200219 -0.029592115 0.006761929 -0.024824666 -0.013316652 -0.007144536 0.029570427
-0.015893038 -0.007876599 -0.016109347 0.008841785 0.003215253 0.038614143 0.053706657 0.004287946
-0.040124435 -0.029927267 -0.019885259 0.04041815 0.052236546 -0.0007380173 0.018559 -0.03240315
-0.03696538 0.0012818304 0.003299975 -0.048188973 -0.031500332 -0.043731533 -0.012026299 0.0007462561
-0.0008116027 -0.029198514 -0.03504178 0.042161006 -0.0035921824 -0.009715408 -0.01166182 0.014804033
0.0070436485 0.033657588 -0.019516878 0.031192502 -0.013714211 0.027050853 0.02217701 0.009986682
-0.017214982 0.005987031 -0.016838208 -0.014825154 -0.017136704 -0.01829868 -0.027349513 -0.0007009289
0.008041473 -0.005932145 -0.023631413 0.0051307585 0.0004534262 -0.022156011 -0.026068337 -0.0059330217
0.057997577 0.009891957 0.065594494 0.029632155 0.00034529605 0.04254638 0.016658556 0.053476162
0.0127814775 -0.0017934936 -0.011539897 0.034648478 0.050271876 0.03435768 0.021618348 -0.01693459
0.019177396 0.04176011 0.046827402 0.00965399 0.015057648 0.05290668 0.011243037 0.019655157
0.03933184 -0.034456342 -0.015720675 0.030658536 0.05437099 0.06308254 -0.028514631 -0.008756806
0.022925032 0.017355008 0.04390048 0.012714381 -0.023949753 -0.02419283 0.04042197 0.032186616
0.027337985 -0.008040598 -0.042024042 -0.016205162 0.049286153 0.012416184 -0.03296726 -0.02329041
-0.0027915826 0.030706441 0.021021308 -0.038229756 -0.026128668 -0.01931935 0.029250452 -0.0067593507
0.02160028 -0.026737746 0.02066677 0.0010252265 0.021024806 0.032719385 0.01975002 0.0074003628
0.003304672 -0.009181226 0.026452469 -0.027216488 0.008716367 0.023439322 -0.0072972677 0.024862746
0.009222467 0.02107393 -0.036859117 -0.034756295 0.02700242 0.01567662 0.04492148 -0.009285301
-0.0049073603 0.007564045 -0.006202016 -0.0026887523 0.034089115 0.009390083 0.018269755 -0.020451201
0.001244464 -0.006015905 -0.034146603 0.01134242 -0.02210605 -0.004028941 0.037098657 -0.02199739
0.0044225343 -0.0008777592 -0.0017702827 -0.004769261 0.058609884 -0.02490837 0.021569634 -0.008030815
0.005016766 0.0146499 0.037932176 -0.032732856 -0.033981413 -0.00041047513 0.0149826305 0.005314235
-0.04476702 -0.015579699 -0.042186853 0.00056723756 0.015618784 -0.006379268 -0.03249643 0.014504752
0.02811675 0.028288638 -0.026315834 -0.0016068945 0.024241518 0.02209143 -0.0010500173 0.005597916

bias f4 [64]
00000000: 8e8f f0ba d851 bf3a 4a9c 4abc 6da1 b23b
00000010: a4ca 103d 5026 213c a526 b43c 590b 37bd
00000020: 764a dfbc 9a04 4bbb 3728 25bd 7dd9 fd3c
00000030: 0d8d 32bd f070 3f3d 6090 e13c 63ef 4cbd
00000040: 0535 91bc fb55 a2bd 1f64 31bc 7349 18bd
00000050: 0e8b 323c 4927 273d dd5d 70bc 60ce c4bc
00000060: 0dd2 85bd e26c e03b 4d8c d03c 5003 cd3a
00000070: 24e2 173d 6765 743c 8a6d de3a cd26 11bd
00000080: c844 5c3a 8e35 09bd 469d 23bd 2697 1dbd
00000090: b0ad 18bd 4e77 06bd 45e5 343c 1f5c 2cbd
000000a0: 5ac3 7abc f700 e5bc 0ade 35bd ca71 85bc
000000b0: 809a f5bc 3c13 54bd 0392 d2bc c05e 86bc
000000c0: 55ad ddbc f97c 1d3d 6a6a 1abc f92b 173d
000000d0: 65cc 1cbd f77b 1d3d 241c c13a 2e79 713d
000000e0: 04bc 69bd 714b 73bb 49da 3f3c d998 073d
000000f0: a274 3ebb 1a98 86bd 0234 e33a b8c9 443c
-0.001835333 0.0014596535 -0.012366364 0.0054513724 0.035349503 0.009835795 0.021991083 -0.044688556
-0.027257185 -0.0030978085 -0.040321555 0.030987496 -0.043591548 0.046738565 0.027534664 -0.050032984
-0.017725477 -0.07926556 -0.010827093 -0.03717942 0.010897411 0.04080895 -0.014670816 -0.024024189
-0.06534205 0.0068489173 0.025457526 0.0015641246 0.0370809 0.014916754 0.0016969901 -0.035437394
0.0008402583 -0.03349834 -0.03994491 -0.038474225 -0.037275016 -0.03282862 0.01104099 -0.04208004
-0.0153053645 -0.027954562 -0.044401206 -0.01628961 -0.029980898 -0.051776156 -0.02570439 -0.016402602
-0.02706019 0.03844926 -0.009424785 0.03690717 -0.038280863 0.0384483 0.0014733118 0.058953457
-0.05706407 -0.0037123824 0.011709758 0.03310475 -0.0029061218 -0.0657198 0.0017334225 0.012010984

weight f4 [64, 1024]
00000000: 76e9 dbbc 5652 b33c 1f01 443a e451 b7bc
00000010: 50df 0b3d 1c50 2d3c bfb1 edbb be55 5abc
00000020: 5c2a f1bc 3c96 37bd 5999 1b3d f642 87b9
00000030: 34b4 0f3d 78a1 ddbb 5b39 103c e4ae 6dbb
00000040: 78dc ab3c f54c 87bc 96fc 13bd 2e89 e13c
00000050: fd68 bbbc 70ec a7bc 3e61 853a ebf4 653c
00000060: 0e5d f13c 3df0 55bc 8c41 b0bc c6c0 c93c
00000070: c540 9b3c ce33 023d d6c1 e53c 805d 8ebc
00000080: 7c0e 98bc 5fcf 053d 0de5 e0bc 8ca0 ac3c
00000090: 4ff4 33bc a805 a03c 72f4 56bc 0e0f 7dbc
000000a0: 0330 953c e887 e4bc d3fc 70bc f7de eb3c
000000b0: f490 06bd ba01 593c f1a6 193d c91a 8a3c
000000c0: 5e92 133c d229 edbc 6272 733c dffa 7abc
000000d0: 6b79 f73c 1c69 c8bc 9748 fc3c 9e11 a93c
000000e0: 9725 fd3c ac9b b7bc 00ae 253b 097c 1e3c
000000f0: 81eb 6f3c ff60 00bd 2527 873c 6abf 0ebd
00000100: 02b9 c3bb 63ef 363b 65d5 f53c 6f4e 8fbb
00000110: 63b5 053c 042c febb 38ca a63b 14de 3fbc
00000120: f8eb 543c 63be ec3c 42c8 96bc def2 1abd
00000130: a0bb 4cbb 9d97 b7bc cfca 393c 9f33 7a3b
00000140: 8edc 67bc 0ee1 d43c c25c 43bc fdec ad3c
00000150: 10fb 97bc 77af 8c3c a995 c5bc 27cf 243d
00000160: d4d5 163c 0558 a53c ed2b c93b fee8 193d
00000170: bea2 2f3c 19e4 223c dfb5 dd3c fb56 823c
00000180: 40ad 2c3d 43aa a33c f699 ae3b f588 03bc
00000190: 91b9 693c 1508 093d b85e 53bc 89ce 27bc
000001a0: 64ba b73c b087 243c ec37 b2bc 94cd ac3b
000001b0: 5b62 7e3c e73f 913b f862 91bc d04e 053d
000001c0: c3d8 303c c41f 8bbc b8c2 15bd fa1c 303c
000001d0: 2a2b c53c 8b04 d7bc 4fdf 33bd 28d5 6fbc
000001e0: 2d7a 7e3c c425 3e3d 7ddc a53b c5cc 683c
000001f0: 26c8 80bc fa36 173c 82da bbbc 1a81 b3bc
00000200: bce9 dd3c d143 a93b ffb1 59bc f9bd 3a3c
00000210: eff6 dbbc d823 8d3b 4b5a 4a3c bf7b cdbc
00000220: aa3e ddba e927 ecbc 7bc4 d9bc 6af3 39bc
00000230: 20e0 0bbd 1a8a 50bc 4a87 07bd e968 9a3c
00000240: 20e8 63bc e91b f7bb ee68 b53c 8949 9dbc
00000250: fb66 473b 7a71 a43b 6704 dfbc 7e63 933c
00000260: a6a1 233d 66ab 063d 1bc6 303c 8281 fabb
00000270: 5c3b 8abc ab20 dbba 3b42 943b a427 603d
00000280: 3a30 f43b 8773 b8bc dd05 50bb 25cd e8bc
00000290: 64f5 e7bc 7cdc cdbb a0dd ecbc 67cb c63b
000002a0: a5b2 0f3c 2881 d4b8 479b 45bd 6588 c2bc
000002b0: 769c 023c 842d 083c f18c e9bb c481 b2bc
000002c0: 24d5 b4bc cfef 39bb 95fd 50bc c0a1 ec3b
000002d0: 7ccb d0bc 10c4 9cba 7151 dc3c 0615 b438
000002e0: 2a05 b33c 5b3b 5cbc 1545 b73c 89c3 cc3b
000002f0: d1cf 0a3c e546 94bb e453 d139 1caa d63c
00000300: 444e b63c d75b 013d d490 b8bc 7f93 76bc
00000310: f015 a7bc 0620 2a3c 6b3f 37bd 0f61 e4bb
00000320: 6261 d93b 3859 633b f719 59bc 6d12 ac3c
00000330: f5ef e5bc a7d8 203c cb68 003d a223 95bc
00000340: 456c d9bc 54ce 1f3c a542 8cbc e71c c53c
00000350: ec5a 01bd ccf9 ca3c 6145 3b3b 16ae 9abc
00000360: da5e 9bbc 8c06 bbbc e109 993c bcf1 ae3c
00000370: 348c a13b 629a 903c 4768 d63c d8d7 343d
00000380: 3b43 e4bb 24c0 9fbc 31e5 bb3b 614e c5bc
00000390: ce17 d5bb ab91 ca3c 89f5 72bc 6e3e 023b
000003a0: 0c3c 8c3c d2dc a2bc fbad 3f3c 3f45 833c
000003b0: a86c 51bc 4e2b 063c 3ed0 823b 35d2 9d3c
000003c0: 233b b83b f5fd c0bc 70fd 11bd 4046 c53b
000003d0: f8c4 05bd bb4c d8bc f08e ecbc 0ee9 71bc
000003e0: 3880 25bd 7247 753c 1b4d 87bc ffd1 e6bc
000003f0: b144 daba 352b 9bbc 4480 e2b9 c110 e4bb
-0.026844721 0.021889847 0.00074769737 -0.022377916 0.034148514 0.010578182 -0.007253855 -0.013326107
-0.029439144 -0.04482101 0.03798804 -0.00025799096 0.035083964 -0.0067636333 0.008802737 -0.0036267573
0.020979151 -0.016516188 -0.036129557 0.027531233 -0.02287721 -0.020498484 0.0010176075 0.014035444
0.029463317 -0.013057766 -0.02151563 0.024628054 0.018951783 0.031787686 0.02804653 -0.017378569
-0.018561594 0.032668468 -0.02745297 0.021072648 -0.010983541 0.019533947 -0.013119804 -0.015445484
0.01821137 -0.027896836 -0.0147087155 0.028792841 -0.03285308 0.013245041 0.037512723 0.016858475
0.009007065 -0.028950606 0.014858814 -0.015318601 0.030209264 -0.024464183 0.030796332 0.020638283
0.030901713 -0.022413097 0.0025280714 0.009673127 0.014643551 -0.031342503 0.016498158 -0.034850515
-0.0059729824 0.0027913682 0.030008981 -0.0043733637 0.008160922 -0.007756712 0.0050900243 -0.011710662
0.012995712 0.028899377 -0.018406037 -0.037829272 -0.0031239763 -0.022411162 0.011339857 0.0038177741
-0.014151705 0.02598622 -0.011923971 0.021231169 -0.018552333 0.017173512 -0.024119215 0.04023662
0.009206254 0.020183573 0.0061392696 0.037575714 0.010719953 0.009942078 0.027064262 0.015910616
0.04215741 0.019978648 0.005328412 -0.008028259 0.014265434 0.033454973 -0.012901001 -0.010242113
0.022427745 0.010042116 -0.021755181 0.0052735303 0.015526379 0.0044326666 -0.017747387 0.032545865
0.0107938675 -0.01698292 -0.03656265 0.010749096 0.024068434 -0.026247283 -0.043914136 -0.014638223
0.015532059 0.046422735 0.0050616846 0.014208977 -0.015720438 0.009229416 -0.022931341 -0.021912146
0.027088992 0.005165555 -0.0132870665 0.011397832 -0.026851146 0.0043072514 0.012350629 -0.02508342
-0.0016879637 -0.028827624 -0.026582947 -0.011349538 -0.03414929 -0.0127282385 -0.033088006 0.018848853
-0.013910323 -0.007541169 0.022144761 -0.019200103 0.0030426371 0.0050184103 -0.027223779 0.017991778
0.03994908 0.032878302 0.0107894195 -0.007644833 -0.016874008 -0.001671811 0.004524497 0.054725304
0.007452038 -0.022516025 -0.0031741776 -0.028418133 -0.028315254 -0.0062823873 -0.028914273 0.006066728
0.0087706195 -0.00010133005 -0.048243787 -0.023746679 0.0079718735 0.008311633 -0.007127397 -0.021790393
-0.02207429 -0.0028371697 -0.012755771 0.0072214305 -0.025487654 -0.0011960287 0.026894303 8.586985e-05
0.021853048 -0.013441886 0.022371808 0.0062488955 0.008472399 -0.004525053 0.0003992609 0.026204161
0.022254117 0.031581726 -0.022529997 -0.015049814 -0.020396203 0.010383612 -0.044738214 -0.006969578
0.0066339234 0.003469063 -0.013250819 0.02100488 -0.028068522 0.009817279 0.03134994 -0.018205468
-0.026540885 0.009753782 -0.017121622 0.024061633 -0.03158085 0.024777316 0.0028575289 -0.018881839
-0.018966127 -0.02283027 0.018681468 0.021355502 0.0049300436 0.01765174 0.02617277 0.044151157
-0.0069660223 -0.0195008 0.005734109 -0.024085226 -0.006503082 0.024727663 -0.014829048 0.0019873637
0.017118476 -0.019880686 0.011699195 0.01602423 -0.012782253 0.008189036 0.0039921096 0.019265274
0.005622284 -0.023558596 -0.035642087 0.0060203373 -0.032658547 -0.026403775 -0.028876752 -0.014765037
-0.040405482 0.014970647 -0.016516259 -0.028176306 -0.0016652552 -0.018941501 -0.00043201644 -0.006960005

bias f4 [64]
00000000: a8d3 3fbc c69d c73c 2d29 91bc 02b8 573c
00000010: a181 4d3c bd32 aabc 33b7 ca3c 6b82 643d
00000020: 2d89 8a3c 3f78 37bc fa31 59bd 99b7 e53b
00000030: bb79 3bbc 9b89 b93c 8721 463c 7fdd 83bb
00000040: 2fb6 a9bb 199f daba 65ca b5bc 12f9 2dbd
00000050: 0a78 ab3c 12e4 f2bb a32a 373d fd6d 7ebc
00000060: 2bd9 acbb 4e81 6e3c b909 6fbc e780 7ebc
00000070: 9410 b93c 3a25 bd3b bd5e e2bc 84b0 babc
00000080: 5fac 343d a9c9 623a cb98 0fbd 1af0 1f3d
00000090: 5f93 ef3b 6f2e 5abc 48b4 16bd 0f09 1bbd
000000a0: cb85 d63c 0888 f8ba 74c4 a03c 329d 013c
000000b0: 0f55 983c 83c9 d4bc 4dfd e93c d4da 3ebb
000000c0: 3bdf 92bc 6c13 8a3b 7498 4d3d d6db a0bc
000000d0: 0a9a 2a3d 2083 6fbd 594f a4bc 3b61 23bd
000000e0: 6505 c03c 0391 48bd 2a3c 043d f07b 0c3d
000000f0: ef66 b8bc 5b10 6bbc 6d6d 5c3c c151 b6bc
-0.011708178 0.024367224 -0.01771983 0.0131664295 0.012543113 -0.020776147 0.02474556 0.05578844
0.016911114 -0.0111981025 -0.053026177 0.007010412 -0.011442597 0.022648623 0.0120929545 -0.004024207
-0.0051791887 -0.0016679495 -0.022191236 -0.04247386 0.020931263 -0.007412442 0.044718396 -0.015529153
-0.005274912 0.014557196 -0.01458972 -0.015533662 0.022590913 0.00577226 -0.027633065 -0.022789247
0.0441097 0.00086512655 -0.035057824 0.039047338 0.007311269 -0.013316735 -0.036793023 -0.037850436
0.026186844 -0.0018961439 0.019624926 0.007911013 0.018595247 -0.025974995 0.028563166 -0.002912213
-0.01792871 0.004213741 0.05019422 -0.019636076 0.04165081 -0.05847466 -0.020057367 -0.039887648
0.023440072 -0.04896642 0.03228394 0.034297884 -0.02251002 -0.014347161 0.0134538235 -0.02225578

weight f4 [10, 64]
00000000: 3af9 e0bd fcae 03be 3c06 063d 6f9a c4bb
00000010: ad38 7dbd 48bc adbd 830b c33d 4763 75be
00000020: f2be 423e 1ae8 b5bb c704 c33d 2231 e1bd
00000030: fd8b 78bd df59 a4bd 79ff c5bd 81af 803d
00000040: 5b07 293e 15fc da3b 275a 2dbe 7c44 533e
00000050: 1e89 883d 0f81 223e 4ef5 a5bd 2f5f f73d
00000060: 0c65 423d dc95 16bd 512e 1abe 8904 ea3d
00000070: f01e 943d 0faf 883d 83eb 17be 6f31 383e
00000080: fa08 fdbd 4581 a13d 78e6 8a3d 228b 11be
00000090: 2d7b 53bd 84c2 f43d 56de 283e e716 133e
000000a0: 0815 1c3c 6ab1 253d 0124 1cbe 1d94 3f3e
000000b0: 9963 1abd ddac c83d ae61 10be 6d71 443e
000000c0: 86cc 1f3e 1868 113e 7d9c 22bd 2e7b dd3c
000000d0: a954 2fbd e95f 073e 74a1 f43d 29ae 163e
000000e0: 2920 3b3b b4d8 983d a878 fcbc 03bd 0cbe
000000f0: 9476 fc3d fa79 ef3d 53db 1b3e 790c 213e
00000100: af71 b1bd 3161 f9bd 7687 9bbe 8c10 82bd
00000110: 5862 7bbd ccc4 1f3d a831 2c3e 0dfd e43d
00000120: f783 f039 e1df 89bd cf9a 283e 36c6 843e
00000130: 1116 a5bd 3f07 a9be f678 533e 4f99 cabd
00000140: 8008 b7bd 27bc 463e ce5e 32be 6c8a 56bd
00000150: 908d d23d a792 35be a161 93bd 0266 1dbe
00000160: d660 4ebc ae00 9ebc 52ee a7bd 9e78 87bc
00000170: 3cdb 103d ca08 32bd 48de bdbd 37ff 8d3d
00000180: cebf 79bd ca6e 753e 3c85 c23c b29f fabd
00000190: e2fa 41bd 723a 19be e074 29be fe23 ccbd
000001a0: a730 a7bd dbad 72be 3346 12be e6e7 8cbd
000001b0: e7ac 1fbe d901 d8bd 93e5 42be 8ca6 133e
000001c0: ee7a 823d 62ca 14be b2f5 133d fbd2 0cbe
000001d0: f684 823e 5ee8 de3d bc38 09be 2363 f8bc
000001e0: 247e 193e 30a3 71bd 8aea e03d 446e 9abd
000001f0: 6eaa 25be a23c 023d 0330 84bd 5582 dfbd
00000200: 0fcb a3bd f20a 493e 1353 2e3e 9c07 24bd
00000210: 001a 2f3e f09c 05be 90f2 3cbc e6e0 a7bc
00000220: 478c 70bd d6a6 9a3d 38ea fcbd d081 a1bd
00000230: c875 163e 29c0 3e3b 63db 5ebc 626c 94bc
00000240: 7b14 2c3e 2839 9c3d e32b eabd 583b d93d
00000250: e7bc b63d c1bb 353e be7d e03b b363 20be
00000260: 424e 5bbd e514 7b3d 42a2 373e 786b 7abc
00000270: 8fe9 3b3e 5afc 48bc 2f33 383c f31f 073e
00000280: 6220 6e3c 4026 bf3d 3de0 1cbc dc6f 2abe
00000290: 3a6c ecbd 1a6b 19bc dce2 b33d efd8 be3c
000002a0: 0a21 97bc e44b cc3d 6edb 15bd 246a bf3d
000002b0: 5eac d43d bfae f6bc b4c5 eb3d cf95 b4bd
000002c0: f64e fc3d c472 533e 6e23 f23c 7f08 583d
000002d0: b5ad 523d 6e03 2d3e 0e5b 0fbe 70f5 f33d
000002e0: e084 4ebe 3ab0 4e3c 1a0b c03d 0522 b03d
000002f0: 5183 c2bd a36c 0abe eac5 28be d0d5 163e
00000300: 155c 983d 7772 1d3d bb24 453e 56f3 9ebd
00000310: f33a b23d d8d9 e1bb 2675 c13d b4f1 b9bd
00000320: 566c aebd 2170 6abd c87a c9bd d93c ed3d
00000330: d2ef 0cbe 1e57 c53d 11d1 07be ea08 c6bd
00000340: fd31 2cbc 18e7 0ebe 67e2 e43c 2020 92bd
00000350: 1d1d 0f3e 9850 eb3d 75f2 45bb 6022 c1bd
00000360: e043 0ebe af1c f1bd 6a5a aebd 88e4 553c
00000370: a754 b73d 4528 933d e48a 1f3e a5b9 9c3d
00000380: 051e 11be aa5a 36bc 95a9 a13d 3a3c cfbd
00000390: 5400 36bd 2958 c03d d92f 323d 3b9c f5bd
000003a0: 63e4 d1bd dce7 9e3d 0716 4d3e 0709 1bbd
000003b0: 9a74 28bd 1158 02be 2ebe 333e 826a 18bc
000003c0: effa 1bbd 652a b7bc 73be ab3d 2413 b73d
000003d0: bb20 8c3d 5686 63bd 097c 4c3d 5a8d 973c
000003e0: 266d 99bd 68ab 2a3e f727 043d b00f 4dbd
000003f0: 25f0 003c bc8b 38be e76b 4f3c d25e 8ebd
-0.10985036 -0.1285972 0.03272079 -0.005999855 -0.06182163 -0.084831774 0.0952368 -0.23963653
0.19018152 -0.0055513503 0.095223956 -0.109956995 -0.06068038 -0.08024954 -0.09667868 0.06283475
0.16506712 0.0066828826 -0.16928922 0.20631593 0.06666778 0.15869544 -0.08103429 0.12078702
0.047459647 -0.03676401 -0.15056731 0.11426646 0.07232463 0.06674015 -0.14835934 0.17987607
-0.12355228 0.07885984 0.0678224 -0.14213231 -0.05163114 0.119511634 0.16491064 0.14364205
0.009526499 0.0404524 -0.1524811 0.18708844 -0.03769264 0.09798596 -0.14099762 0.19183894
0.15605363 0.14199865 -0.03970002 0.027036276 -0.042805348 0.1322018 0.11944857 0.14714874
0.0028553104 0.07463208 -0.030819252 -0.13743977 0.123273045 0.11693187 0.15220384 0.15727414
-0.086642615 -0.12176741 -0.30376786 -0.06350812 -0.061373085 0.03900604 0.16815817 0.11181078
0.0004587469 -0.06732155 0.16465305 0.25932473 -0.080608495 -0.3301334 0.20651612 -0.098925225
-0.08937168 0.19407712 -0.17418978 -0.052378103 0.10280907 -0.17731725 -0.071963556 -0.15370944
-0.01259633 -0.019287433 -0.08199753 -0.016537007 0.03536533 -0.043465413 -0.092709124 0.06933444
-0.060973935 0.23968044 0.023745172 -0.12237491 -0.0473584 -0.14963701 -0.1654849 -0.099678025
-0.081635766 -0.23699133 -0.14284591 -0.068801686 -0.15593301 -0.105472274 -0.19032888 0.14419001
0.06371103 -0.14530328 0.036122985 -0.13752358 0.25492066 0.10884164 -0.13400549 -0.03032071
0.14989525 -0.05899352 0.10982235 -0.07540563 -0.16178295 0.031796105 -0.0645447 -0.10913531
-0.07997715 0.19633082 0.17023878 -0.04004632 0.17099762 -0.13048148 -0.011532441 -0.020492982
-0.05872753 0.07551353 -0.12349361 -0.07886088 0.14693367 0.0029106236 -0.013602111 -0.018118087
0.16804688 0.07628089 -0.11434152 0.10607022 0.08922749 0.17747404 0.006850927 -0.15663032
-0.05354143 0.061299223 0.1793299 -0.015284412 0.18350814 -0.012267197 0.011242672 0.13195781
0.014534088 0.093334675 -0.009574947 -0.16644233 -0.1154408 -0.009363914 0.08783504 0.023296801
-0.018448371 0.099754125 -0.036586218 0.093464166 0.10384439 -0.030112622 0.11512318 -0.08817636
0.12319748 0.20649248 0.02955791 0.052742478 0.05143519 0.1689584 -0.13999578 0.11912048
-0.20167875 0.012615258 0.093771175 0.08600239 -0.09497703 -0.13518004 -0.16481748 0.1473
0.07439438 0.03843924 0.19252293 -0.077612564 0.0870265 -0.006892424 0.094461724 -0.09079304
-0.08516757 -0.05723584 -0.09837872 0.115838714 -0.13763359 0.09635757 -0.13263346 -0.09669669
-0.010509965 -0.13955343 0.027939988 -0.071350336 0.1397595 0.114899814 -0.003020433 -0.09430385
-0.1389308 -0.11773049 -0.08513339 0.013054974 0.08951693 0.07185415 0.15580326 0.076525964
-0.14171608 -0.011130014 0.07893673 -0.10118909 -0.044433907 0.09391815 0.043502662 -0.11992689
-0.102486394 0.077590674 0.20027934 -0.037850406 -0.041126825 -0.12728907 0.17553017 -0.009302737
-0.038081106 -0.022359082 0.08385935 0.08939198 0.0684218 -0.055548035 0.049922977 0.018500019
-0.074915215 0.16666949 0.032264676 -0.05006379 0.007869755 -0.18022054 0.012660003 -0.06951679

bias f4 [10]
00000000: e7fa 2abd b57a 1ebd 5d0b b83c ff7f 01bd
00000010: b733 803d 621b 9abd 60d4 293d 1e89 003d
00000020: db26 073d d6f8 353c
-0.041743185 -0.03869124 0.022466356 -0.031616207 0.06259864 -0.07524754 0.041462302 0.031380765
0.03299604 0.01110669
