DeepLearningDemo/models/jingxin_0.pth (torch, 587999 bytes, 10 tensors)

weight f4 [32, 3, 5, 5]
00000000: d011 c4bc c981 e23a f3d5 28bd f6f0 9b3d
00000010: c054 573d 18e1 d23c 5507 a9bd 5e6a 59bd
00000020: a693 ddbd 94f5 c0bd c2cd e2bc b7a9 bb3d
00000030: 1009 2cbd 25fd a53c 0994 00be 8a83 ffbd
00000040: 1f69 04be 1bac 593d 3fcc 78bd b19b 7f3d
00000050: 37ef a3bd 5c97 e0bd 8cf3 fbbd a895 b5bd
00000060: e0a6 b4bd b093 c13d 6d97 99bd 7a38 d93d
00000070: 9a23 40bd 5907 58bd eea0 cb3d 046d ad3d
00000080: ad74 96bc 27b2 d53b 30ec cbbd fc92 ddbb
00000090: 602b 8f3c 3812 3dbd 1852 70bd e94d cd3b
000000a0: 9d71 aabd fab8 ddbd c6e0 4cbd b050 073d
000000b0: 57af 23bd 46f6 0dbb b753 66bd 1033 10bc
000000c0: 065c febd 52b7 d9bd 86b2 93bc 072a c53d
000000d0: 736c 733d 0730 42bc f00b babc 449f e93d
000000e0: 11e8 0bbd f4eb 543d 50a5 903d 9ed6 19bd
000000f0: 178f 96bc 521e f039 b7bb e13d f643 1bbd
00000100: 235d b03d ad65 74bd 408c 4abc e995 413d
00000110: 5289 8abb 4c4a 903d 7b35 bb3d 06f5 e1bb
00000120: 9a6b 3d3d 4f57 ba3d 1843 ab3d 4155 b73d
00000130: 88ff c83d 992f da3d 90f8 853d e345 24bc
00000140: d2ad cc3d 0b0b 5d3d 4875 c23d 0e70 2f3d
00000150: ea67 063d b746 bb3d 19e8 383d 3fa8 01bc
00000160: a1ce 673d 23d0 103c f60e 29bd 6e76 953c
00000170: ac36 cebb 540d ed3c 53ab 833d e62b 083d
00000180: 041e 4a3d 9003 57bd 638e 9bbd e1b2 313d
00000190: 712b 16bd 98e9 5dbc fc8d fcbb c69e bd3c
000001a0: b1d4 e73d a26e b4bb 41a9 b83d fa85 c43d
000001b0: 915c 183d dd65 82bd 6914 a23d d48b 5b3d
000001c0: aa7b c1bd eafd 49bc 59a0 b63c 3e64 733d
000001d0: c2b6 b6bd 5b95 fa3d 6f3a 543d d2ef 9abd
000001e0: 0ce4 a7bc 7fd3 cdbd c130 d1bd eee9 b1bc
000001f0: d2a0 8abd bb98 c63d 0caf d93d 9db3 483d
00000200: e6fb 5fbd fc3a c5bd 4788 55bc 2c9d f63c
00000210: 2354 a5bd cd3f 93bc eb65 89bd 6a45 503d
00000220: 2dac c7bc 67c5 413d be84 a2bd bf92 7cbd
00000230: 289e f13d 694d da3d 769e 143d 2594 e8bc
00000240: cc80 923c 6753 bbbd b4b7 803d 6c6b 5f3d
00000250: dd91 843d ab29 aebc 99d8 2a3c 3629 abbd
00000260: 7673 ffba 326c 273c 0239 d7bd a83c 21bd
00000270: da26 c83c 71ac 79bd b666 8c3c a91d c8bd
00000280: 3795 58bc b2ba 883d 448a 683c bac5 7dbd
00000290: 0574 843d 7aa7 b23d 519b b23c 1f0b d03d
000002a0: c8d0 763d 55f4 70bd 23bf 533c ae77 3d3b
000002b0: 18a0 943d 924c c1bd e616 35bd 7a9d 82bb
000002c0: 3ee7 c73d 845d 8cbc 2cc0 78bb 0ebd 053c
000002d0: ad08 15bd 614d 863d 9bcf c6bd 33aa 41bd
000002e0: 6a37 463d e5d5 2a3d d4e5 8d3d 6760 8ebd
000002f0: 79db 26bd de3f d6bd bcf1 b3bd f6b5 58bd
00000300: 1512 b33d 5460 afbd ca55 c63d f090 f5bd
00000310: 1978 adbd 6051 c3bd 887b 7fbd 5a94 a83c
00000320: d22f ff3d 9fe2 e23d 4ec6 433d c8c7 883d
00000330: 53b0 3d3d e0ac 7d3d f0ff 133d 7763 a6bd
00000340: c14a 15bc 8224 c23d a3db b9bd 78b9 693d
00000350: e598 b03d 3e3a ee3d 1430 0b3d b0b0 cdbc
00000360: c00a 6ebd 199a 0abc e1f7 8cbd 4e30 8b3d
00000370: 4c90 6abd 510f a23c 20b6 f03d 30da a23d
00000380: 2bb9 a9bd 800c 2b3d 669a 00bd 015d b3bd
00000390: 6085 aebd 7f72 cd3d 3b96 92bd d648 c2ba
000003a0: 4c7f e53c 2a98 68bd 4a3f b13d e89b 953d
000003b0: 83ce e1bc 6354 3c3c 80ae 883d b3fb d13d
000003c0: db0d 9e3d 8dd2 8dbc 2405 323c c379 203b
000003d0: 1848 8dbd 14fc afbd 1ba0 5c3c b74e b5bd
000003e0: 42aa 1abc 62ba b83c d65e ccbd b6a7 c63d
000003f0: b210 9abd 1095 a5bd 7141 58bd db33 c7bc
-0.023934275 0.0017281111 -0.041219663 0.07614319 0.05257106 0.025742099 -0.082533516 -0.053079955
-0.10819177 -0.0942184 -0.027686004 0.0916323 -0.04200083 0.02026231 -0.12556471 -0.12476261
-0.12930726 0.05314265 -0.06074166 0.06240434 -0.08004611 -0.109663695 -0.12302312 -0.08866435
-0.088208914 0.09451997 -0.07499585 0.10606475 -0.046908952 -0.052741382 0.09942804 0.08468059
-0.018366182 0.0065214816 -0.099571586 -0.0067619067 0.017476737 -0.046159953 -0.05867204 0.006265391
-0.08322451 -0.10826297 -0.05001905 0.033035934 -0.03996214 -0.0021661683 -0.05623218 -0.008801237
-0.12419896 -0.10630669 -0.018029463 0.09627157 0.059429597 -0.011852271 -0.02271077 0.11407331
-0.034156863 0.051982835 0.07062781 -0.03755819 -0.018378777 0.00045798958 0.11022132 -0.03790661
0.086115144 -0.059667278 -0.01236254 0.047262106 -0.0042277956 0.07045421 0.0914106 -0.006895664
0.046245195 0.09098684 0.083624065 0.08951808 0.09814364 0.1065361 0.0654155 -0.010026428
0.09994091 0.05396561 0.09495026 0.042831473 0.032813944 0.09144347 0.04514322 -0.007913648
0.05659354 0.008838686 -0.041274033 0.018244948 -0.0062931385 0.02893702 0.06429162 0.03324499
0.04934503 -0.05249363 -0.075955175 0.043383483 -0.036662523 -0.013544463 -0.0077073555 0.023146998
0.113198645 -0.0055063525 0.090166576 0.095958665 0.037197653 -0.06367085 0.07914049 0.053600147
-0.09447415 -0.012328604 0.022293257 0.05942177 -0.08921577 0.122355185 0.05181354 -0.07565273
-0.020494483 -0.10050105 -0.10214377 -0.021717992 -0.06768955 0.096971 0.10629091 0.048999418
-0.05468359 -0.09630391 -0.013032979 0.030104242 -0.080726884 -0.017974759 -0.067088924 0.05084745
-0.024374092 0.0473074 -0.07935475 -0.061663385 0.11797744 0.10659296 0.036283933 -0.028390953
0.01788368 -0.09146767 0.062850386 0.054545805 0.06473134 -0.021260103 0.0104276175 -0.0835747
-0.0019489366 0.010218667 -0.1050892 -0.039364487 0.024432588 -0.06095547 0.01713882 -0.09771282
-0.013219169 0.06676234 0.014193121 -0.061956145 0.064674415 0.0872335 0.021802576 0.10158371
0.060257703 -0.058826763 0.0129239885 0.0028910446 0.07257098 -0.09438433 -0.04421129 -0.003986058
0.09760903 -0.017134435 -0.003795634 0.00816275 -0.036385227 0.065577276 -0.09707566 -0.047281455
0.04839269 0.041707892 0.06928602 -0.06951981 -0.04073665 -0.104614004 -0.087863415 -0.052907906
0.08743683 -0.08563295 0.09684332 -0.11990535 -0.084701724 -0.095370054 -0.062373668 0.020578552
0.12460293 0.11078381 0.04779654 0.0667873 0.046310734 0.061932445 0.036132753 -0.0812444
-0.009112061 0.094796196 -0.090750955 0.057061642 0.08622912 0.116322026 0.033981398 -0.025108665
-0.05811572 -0.008459591 -0.06883217 0.06796323 -0.05726652 0.019782694 0.117534876 0.07951772
-0.08287271 0.041759968 -0.031397246 -0.087579735 -0.08521533 0.10031604 -0.071575604 -0.0014822732
0.028014801 -0.05678574 0.086546496 0.073051274 -0.027564293 0.011494729 0.06673908 0.10253086
0.077174865 -0.017312312 0.010865483 0.0024486638 -0.068985164 -0.08593002 0.0134659065 -0.08852904
-0.009440007 0.022549812 -0.09979026 0.09699957 -0.07522716 -0.08085072 -0.052796785 -0.024316719

bias f4 [32]
00000000: 4c70 debd 9c9a a3bd 7597 03be f709 d23d
00000010: 7b80 53bd f41a 0fbe 30d6 f13d 2a24 933d
00000020: edcc 9fbd d0f4 48bd e1e0 fcbd ed94 273b
00000030: 3a0d b5bd bbe7 afbd f747 cebc 65d2 0a3c
00000040: 4c56 463d 6f1e ccbd b5d9 163d 7cad 4dbd
00000050: f8c5 c0bd c0da 153d 645a ebbc f0d1 e23c
00000060: 84dc a73d 072b 47bd 2351 ee3d 9e10 3dbd
00000070: 1ad4 393d 1f53 aebc 4b09 d93d b84a 1dbe
-0.10861263 -0.07988474 -0.12850745 0.10255807 -0.0516362 -0.13975126 0.11808431 0.07184632
-0.07802758 -0.049061596 -0.1234758 0.0025570944 -0.088404134 -0.08589121 -0.0251808 0.0084730135
0.048422143 -0.09966742 0.036828715 -0.050214276 -0.094127595 0.03658557 -0.028729625 0.027687997
0.08196357 -0.04862502 0.11636569 -0.046158426 0.04536829 -0.02127987 0.105974756 -0.15360534

weight f4 [32, 32, 5, 5]
00000000: 3649 28bc 0979 b4bc 2365 143d 5602 bcbb
00000010: 4cc7 a1bc e70a 073d 29de 5e3c 9dee ca3c
00000020: f619 46bc 2017 bbbc 054a e2bc 2268 03bd
00000030: f227 31bc 2373 a8bc d603 c03b a603 533c
00000040: 5a9c 913c eda8 183d 531f 86b9 a8d3 cebc
00000050: 9e43 a7bc 86ba 133d a60f bebc 806e 103d
00000060: b81c 643b c077 14bd 6d0e d33c 398d b53c
00000070: dcb8 a7bc e70a d53c df5f fe3c 96f9 4e3c
00000080: 3357 073a 10b0 b9bb 2d2f b2bc 53e1 f7bc
00000090: fb6c 313c d749 fa3c 7e61 07bd 09e6 c4bc
000000a0: f2fd a43c af32 02bb 0dce 0bbd 976a 3bbc
000000b0: 271e 4b3c 0763 f53c 0c42 71bc 4301 af3c
000000c0: f4ee 86bb 5bcb 8c3a 857c 703c 73d3 58bb
000000d0: 1ac5 963b 4a6a ad3c dc4f 3a3c e6a0 3c38
000000e0: 248d 1abb f79b e63c 8bd7 133d 5eb4 0c3d
000000f0: aeba d33c 7733 68bc 7715 913a 2153 02bc
00000100: 6f44 a23c 09e3 5fbc e922 d8bc 5b99 d2bc
00000110: 8f2c 643c c6aa fbbc 8ec8 75bb 00b1 0a3d
00000120: 9c6f b43b c5ea 513b 9f33 dabc d527 dc3c
00000130: 4f72 8e3b a344 24bb 813f a23c de4a d5bb
00000140: b800 213c 4cb6 003d 32ad 3dbc f432 d03c
00000150: 2a7d 13bd f527 4d3c 7f14 d7bc 0961 a03c
00000160: 6515 723c b78e ecbc 0f14 61bb 5d99 6c3c
00000170: ae35 95bb a495 bcbc 2a3e 06bc c15e cdbc
00000180: 1800 ea3c 18e3 b23a 8d72 b4bb 7c8e 04bd
00000190: bc05 4bbb 37e9 c13b f5e7 e53c d56a 063d
000001a0: 6292 e0bc 4e75 933c 253c 3a3c 996c bdbc
000001b0: b4b4 c03c dae4 043d 4041 093d ba56 3e3c
000001c0: 3ba5 ea3c c9d5 bfbc f4a6 4e3b 5c3c 0e3d
000001d0: 6f96 173c 3480 2abb b8cd 56bc 585f 173c
000001e0: b494 a3bc b6d5 0d3d 951f 7c3c 3ef9 c13b
000001f0: 2177 5bbc 6253 103d 002b 323c 8246 ffbc
00000200: 9963 703c c300 a8bc dab4 d43b 6d8d ba3c
00000210: 6782 c4bc f43c bb3c 069c bc3b 8101 953c
00000220: 3297 0b3d adf3 01bd a4be 5cbc 2c61 36bb
00000230: ae36 da3c 0086 973c 90f8 073d 057a 16ba
00000240: 8665 c13c 9cf7 bb3c 7095 32bc 879f 933c
00000250: dbec 2d3c b4e7 943b bee8 43bc 01b2 b5bb
00000260: 2975 e0bc e982 f6bc 9da9 c5bc a9f2 f6bc
00000270: a0ae 553c 0cba 9c3c fb25 3dba fcf4 f9ba
00000280: 9eef 96bc 921a dfbc 09b4 853c da17 ecbc
00000290: 0c3a 80bc 17e8 893c 1beb 1fbc 5379 113d
000002a0: b12d 853b 49c8 ccbc 0404 84bc ff09 4fbc
000002b0: 5b5e 473c 9785 8c3b 2de4 adbb 4d51 653c
000002c0: 661b b4bb cfca c63c cbce 013d 901f db3c
000002d0: a085 393c 78b6 033d 8124 97bc eda9 87bc
000002e0: 84b8 cdbc dd7d 4f3c 314d eebb f100 503a
000002f0: f35b 083d a8bb b93a 6e6e 823c 1b1d 953c
00000300: b9d1 61bc 11cb f9bc 083a 523c 474e 12bd
00000310: 301d c73c 0d5c 023d dca1 f63a 50ff 0d3d
00000320: 72bd 96bc 64ba 8ebb 4423 18bc 5a2e cd3c
00000330: 8f4e 813c a0aa f33c 0122 5f3c f3c0 8a3a
00000340: 91fd dbbb 3a04 9abc d5f8 d73c b7a1 35bc
00000350: 48c6 773b 029c febc 51fb 9ebb 21b4 0dbd
00000360: 0ee3 cd3c 6745 e83b 0857 fbbb 7e21 7dbc
00000370: 6d96 20bc 4b02 693c 5e1a 4d3b 2304 d5bc
00000380: e4ee f13c 251b 0b3d c97f 073d 558c f5ba
00000390: 4d72 0bbd b5e4 09bd bf5d e93c bd59 113d
000003a0: 66b5 b63c 52dc f8bc f305 05bd db9b 13bc
000003b0: 845a 9abc 87df a03c 391e b6b8 4636 e23c
000003c0: c53a ac3c a1bf e6bc 30f3 1ebc a0f8 0ebd
000003d0: 3634 e6bb 0efd 9ebc 9703 0e3b b0b6 b33c
000003e0: 3ce1 05bd 6c7b 1c3c 0070 94bc 8e43 5b3c
000003f0: af51 c3bc 97ca 0d3d 43af db3c 8aad 9dbc
-0.010271361 -0.02203037 0.036229264 -0.005737583 -0.019748352 0.03296938 0.013602772 0.024771983
-0.0120911505 -0.022838175 -0.027623186 -0.03208173 -0.010812746 -0.020562714 0.0058598323 0.012879288
0.01777475 0.037270475 -0.0002558181 -0.02524741 -0.020417985 0.036066554 -0.023200821 0.03526163
0.0034807157 -0.036247015 0.025763715 0.022162067 -0.02047389 0.026006175 0.031051574 0.012632748
0.0005162835 -0.0056667402 -0.02175101 -0.03025881 0.010829206 0.030552788 -0.03305196 -0.02403547
0.020140622 -0.0019866636 -0.034132052 -0.011438987 0.012397326 0.029954446 -0.014725219 0.021362906
-0.004117841 0.0010741757 0.014678125 -0.0033085018 0.004601133 0.021168847 0.011371579 4.497254e-05
-0.0023582662 0.028150542 0.03609423 0.0343517 0.025845852 -0.014172426 0.0011069019 -0.00795439
0.019808022 -0.013664969 -0.026383834 -0.025707891 0.013926639 -0.03072108 -0.0037503573 0.033860207
0.005506469 0.0032030803 -0.026635943 0.026874462 0.0043471227 -0.0025065325 0.019805672 -0.006509169
0.0098268315 0.03142385 -0.0115769375 0.025414921 -0.036008038 0.0125217335 -0.02625489 0.01957752
0.014775609 -0.028876645 -0.0034344231 0.0144408615 -0.0045535183 -0.023020573 -0.008193532 -0.025069596
0.028564498 0.0013648001 -0.0055068196 -0.032362446 -0.003097876 0.005917694 0.028064707 0.032816727
-0.02741355 0.018000271 0.011366879 -0.023123072 0.023523666 0.032444812 0.033509493 0.011617357
0.028643241 -0.02341737 0.0031532617 0.034725532 0.009252175 -0.0026016356 -0.013110571 0.00923904
-0.019968368 0.03462764 0.015388389 0.0059196046 -0.013395102 0.03523577 0.01087451 -0.03116155
0.014672183 -0.020508176 0.0064912857 0.022772515 -0.023987962 0.022856213 0.005755904 0.018189194
0.034079738 -0.031726528 -0.013473187 -0.0027828915 0.026637401 0.018496513 0.033196032 -0.0005740228
0.02360798 0.022945218 -0.0108998865 0.018020405 0.010615553 0.0045442227 -0.0119573455 -0.0055449014
-0.027399616 -0.03009172 -0.02412873 -0.030145006 0.013042122 0.019131683 -0.00072154374 -0.0019070203
-0.018424805 -0.02723435 0.016321199 -0.028819967 -0.015652679 0.016834302 -0.009760643 0.035516094
0.0040642847 -0.024997847 -0.016115196 -0.012636661 0.012168492 0.004288386 -0.0053067417 0.013996434
-0.00549643 0.024266629 0.031691354 0.026748449 0.011323363 0.032156438 -0.018450024 -0.01656052
-0.025112398 0.0126642855 -0.0072723855 0.00079347106 0.033290815 0.0014170306 0.015921798 0.018202355
-0.013782912 -0.030492337 0.012831219 -0.035719182 0.02430591 0.031826068 0.0018816548 0.034667313
-0.018400881 -0.0043557156 -0.009285752 0.025046516 0.01578453 0.029744446 0.013618947 0.0010586068
-0.006713577 -0.018800844 0.02636377 -0.011085919 0.0037807394 -0.03108025 -0.0048517366 -0.034595612
0.025132682 0.0070883515 -0.007670287 -0.01544988 -0.009801489 0.014221738 0.0031296234 -0.02600295
0.029532857 0.033961434 0.03308085 -0.0018733839 -0.034044553 -0.033665378 0.028487084 0.03548597
0.022303294 -0.030378494 -0.032476377 -0.009009327 -0.01884199 0.019637836 -8.684066e-05 0.02761377
0.021024117 -0.028167548 -0.009701535 -0.034905076 -0.007025267 -0.019407775 0.002166962 0.021937698
-0.032685503 0.00955091 -0.018119812 0.0133828055 -0.02384266 0.034617033 0.02681697 -0.019247789

bias f4 [32]
00000000: d726 853c 8b1e 1e3b d399 503d 64b2 bdbc
00000010: b033 073d b85a 513b 3d6d d6bb ceac 35bd
00000020: b480 043d 6eee e9bb 4cca 13ba 1fb2 483d
00000030: 0162 d1bc 9282 f43c 5c2b 563d 9df4 9ebb
00000040: 195d 773c 76ea 113d 7775 233d 16a9 1bbd
00000050: b3a5 823c bf93 3ebc fcbe abbc bc13 e23c
00000060: 6ee9 303d cf67 37bc 4be6 4ebd 4b3f a43c
00000070: fdb4 eabc 62a0 fa3c d89f 65bc f672 6d3d
0.016253872 0.0024127092 0.05092795 -0.023156352 0.033008277 0.0031944942 -0.006543784 -0.044354253
0.032349303 -0.0071390187 -0.00056377496 0.048997995 -0.025559427 0.029847417 0.052287444 -0.0048509375
0.01509788 0.03562399 0.039906945 -0.03800305 0.015948152 -0.011631905 -0.020965092 0.0275973
0.043191366 -0.0111941835 -0.050512593 0.020049712 -0.028650755 0.030594055 -0.0140151605 0.057970963

weight f4 [64, 32, 5, 5]
00000000: 8387 fa3c ec32 693c 4d86 433c 6fc0 d4bb
00000010: f743 81ba b4d5 053c f006 a3bc 9d6f aebc
00000020: 5165 06bd 98e8 aa3c 35ac 45bc 1f20 813c
00000030: eb73 b23c fb33 413b c5c0 b1bc 2d45 1a3c
00000040: 01c8 45bc 82a2 c23a 16be ac3b 948f 94bb
00000050: 21b8 893c a929 2139 9614 2d3b 22b4 feba
00000060: 8b02 b7bc bb79 8dbb ea04 81bb 72f6 29bb
00000070: 9241 013d 54b7 ba3c 5a08 fbbb dd48 eabc
00000080: f77a fe3c fddc 4e3c e810 8b3c 5255 dfbb
00000090: 2f1e 823c 89ad de3b e5db c63c 4604 aebc
000000a0: 60bd d0bc 3987 0338 b85a d7bc c224 05bd
000000b0: 5d90 1abb 0b92 54bc 102f 8fbc 19d2 bb3c
000000c0: 5f20 00bd d8e4 d7bb c462 d4bc ff4d 85bb
000000d0: 6b8c 123c b289 b7ba 6d42 fcbb 7ac2 973c
000000e0: d8a9 a4bc 9a8f e3bc cf5a d03c b6ca 043d
000000f0: 1e71 bebc e890 24bc 24aa 2f3b bfd1 b03b
00000100: 2ef7 80bc 9692 dabc 43d7 f6bc 76a7 b63c
00000110: 4ad9 4cbb 05db 973b 1c41 5a3b bfd0 d63c
00000120: 74b6 46bc b918 573b 8599 b8bb 36f2 9b3c
00000130: 8264 8b3c a920 b23c 301a b43c 0496 5c3b
00000140: 678b 01bd bde0 84bc 9211 dbbc ab67 9b3b
00000150: ea26 e13c 5da3 c7bb 3cac e43c a1b7 81bc
00000160: f3f9 e2bc 8e1e c7b9 33c3 c03c 3dd5 cbbc
00000170: 9cb8 25bc c182 dabc 0047 5fbb b145 2e3c
00000180: 0630 653c d9ee a5bc 2e68 00bd 2b47 033d
00000190: 189e abbc 62fa d6bc 84c6 8fbc e911 a43c
000001a0: f0fc 983b aa4a cb3c a01a f1bc 757f e23c
000001b0: 3cdc 2ebc a241 e13c 7c82 d53c 60bd 953b
000001c0: e2c5 cebc 847f 65ba 8eb4 c2bc 9f97 bbbc
000001d0: 9416 c6bc 01dc 9ebc 8060 c5bc 51ac bbba
000001e0: 478c 113c 267f b7bb 6f5a 76bc 8f7d 993c
000001f0: ae19 8e3c 3509 06bd dc15 44bc 46db d3bc
00000200: 80fd cc3c cf1e 5a3c 9563 093d b6ef e73c
00000210: e054 f4bb d3f9 703c 6e67 683b 2567 f43c
00000220: 8e53 283c 9ab4 d5ba 7641 09bd ad73 bd3a
00000230: f241 dc3c defc cb3c 1dcb 7b3c 3764 f5bc
00000240: c749 69bc 7bc9 c73c e66b e83c 994b 6b3b
00000250: cd22 183c fdc5 de3c f8ec b23c 0766 52ba
00000260: 2a3c 133d e8e2 8f3a 5f28 acbb 4175 133d
00000270: e21f c53c 3dbe dd3c 7c8c ddbc f035 86bb
00000280: 0148 923c 8b70 70bc 9f6f 3c3a abe3 933b
00000290: bb8e 8abc a978 bdbc 9628 ef3c 072c a73b
000002a0: 4119 aa3c c8df c13b ece2 16bd 8129 72bc
000002b0: b017 003d 1b46 553a 0c17 9abc 54c3 8ebc
000002c0: 62a7 1a3c ddc9 bb3c e097 613c b9b4 04bd
000002d0: c27c f2bc 1436 70bc d9e5 ac3c 10a2 9cbc
000002e0: f1b0 803c 39ba d5bc a3eb d13c db0c 28bb
000002f0: de0b 483c 8009 d23c 5c89 953c 87c3 1f3c
00000300: 5d70 4bb9 05ba 98bc b508 873c 7a73 02bd
00000310: 3559 203c 2ff6 bd3c 4fd0 5cbc 35f0 873c
00000320: e0cb b73b 40dc 043c c266 8cbc 299c cdbc
00000330: c463 b03b c7d9 583c 2764 cc3c daac 14bc
00000340: 1de3 9e3b cd8a 223b 40d0 8dbc 42da cdbc
00000350: 6585 d63c 6d63 c33c af38 ea3c 4804 bdbc
00000360: d263 4ebb 4b42 c7bb ac0e c2bc 2a83 d43c
00000370: 6df6 c7bc 9333 07bc c5ec bd3c 25c7 d0bc
00000380: 8938 513c 7639 3a3c 85b6 c03b ecea 0bbd
00000390: 1a90 0f3d 5194 69bc f314 033d eab3 ad3b
000003a0: 6fab 71bc 1405 b1bc 5f37 bf3c 90a7 a6bc
000003b0: b548 87bc 5945 473b b869 f139 7a79 bd3a
000003c0: a01b 02bd c2c9 d33a 780e 0dbd 3e1c 0cbc
000003d0: bc5d 8e3c 28d8 5939 cdbd a7bc 4dd5 973c
000003e0: 708d 953c ea0a bb3c 2ac8 c2bc 6d7b 023c
000003f0: e554 5d3c f456 2e3b 6e03 a1bb 0b05 503a
0.030582195 0.014233332 0.011933875 -0.0064926664 -0.0009862174 0.008168627 -0.019900769 -0.021293456
-0.032811467 0.020862862 -0.012064983 0.015762387 0.02178379 0.0029480446 -0.021698365 0.009415907
-0.01207161 0.0014849456 0.0052716834 -0.0045337174 0.016811432 0.00015369676 0.0026409975 -0.0019432346
-0.02234008 -0.00431749 -0.0039373534 -0.0025934246 0.031556673 0.022792496 -0.0076609077 -0.028599197
0.031064494 0.01262593 0.016975835 -0.006815591 0.015883533 0.0067955893 0.024274776 -0.021242272
-0.025480926 3.135877e-05 -0.026288375 -0.032505758 -0.0023584582 -0.0129742725 -0.017478496 0.02292733
-0.03128087 -0.0065885596 -0.025926001 -0.0040681357 0.008944611 -0.0014002828 -0.0076983483 0.01852535
-0.020100519 -0.027778435 0.025433926 0.032419883 -0.023247298 -0.010044314 0.0026804293 0.0053960974
-0.015742864 -0.026681226 -0.030131942 0.022296648 -0.0031257444 0.0046342635 0.0033302968 0.026222585
-0.012128461 0.0032821132 -0.0056335353 0.019036394 0.0170157 0.02174409 0.021985143 0.0033658752
-0.031627085 -0.016220445 -0.026741777 0.004742583 0.027484376 -0.0060924725 0.027914159 -0.015834631
-0.027707076 -0.00037979003 0.023530578 -0.024881953 -0.010114815 -0.026673676 -0.003406942 0.010636733
0.0139885 -0.020255493 -0.031349353 0.032050293 -0.020949408 -0.026242439 -0.017550714 0.020028071
0.0046688244 0.024815876 -0.029431641 0.027648667 -0.010672625 0.027497116 0.026063196 0.0045696944
-0.025240842 -0.0008754658 -0.023767736 -0.022899447 -0.024180688 -0.019392015 -0.024093866 -0.0014318322
0.008883542 -0.005599874 -0.0150362095 0.018736629 0.01734623 -0.032723624 -0.011968102 -0.025861394
0.025023222 0.013313009 0.033542234 0.028312545 -0.007456407 0.014708 0.003546204 0.02983434
0.010273827 -0.0016304434 -0.033509694 0.001445403 0.026886914 0.02490085 0.01536825 -0.029955013
-0.014238781 0.024388066 0.028371762 0.0035903214 0.009285641 0.027194018 0.021841511 -0.00080260675
0.03594605 0.0010977658 -0.005253836 0.036000494 0.024063054 0.027068252 -0.027044527 -0.0040957853
0.0178566 -0.01467527 0.00071882637 0.004513224 -0.016913762 -0.023128824 0.029194158 0.005101684
0.020763995 0.0059165694 -0.036837503 -0.014780403 0.03127259 0.00081357517 -0.018809818 -0.017427124
0.009439321 0.022923404 0.01376912 -0.032398913 -0.029600505 -0.014661331 0.021105694 -0.019120246
0.015709372 -0.026089774 0.025625056 -0.0025642428 0.012209861 0.025639296 0.018253975 0.009751207
-0.00019401447 -0.018643389 0.016483644 -0.03184841 0.009786894 0.023188679 -0.013477399 0.016594032
0.0056090206 0.008109152 -0.017138842 -0.025098877 0.0053829867 0.013235516 0.0249501 -0.009074414
0.0048488514 0.002480197 -0.017311215 -0.025128487 0.026186654 0.02385112 0.028591482 -0.02307333
-0.0031492603 -0.006080901 -0.023688637 0.02594145 -0.024409497 -0.008252042 0.02318419 -0.025485585
0.012769827 0.011366239 0.005881133 -0.034159586 0.035049535 -0.014256553 0.0320024 0.0053009884
-0.014750346 -0.021608867 0.023341833 -0.020343572 -0.016514162 0.0030406325 0.0004604587 0.0014455759
-0.031764627 0.0016158151 -0.034437627 -0.008551655 0.01737868 0.00020775257 -0.020476246 0.018534327
0.01825592 0.022832353 -0.023777086 0.007963997 0.01350901 0.002660212 -0.004913739 0.0007935322

bias f4 [64]
00000000: a3e8 993c b3ae a33c 19d4 82ba c63f 163c
00000010: 7aec 4d3d 4855 4e3c 75c3 723c bc59 f0bc
00000020: 07ab 78bc f985 703b 8097 9abc 590e b93c
00000030: 5af7 cebc f4ee 0a3d b407 0f3d 194e 7cbc
00000040: 1887 fc3b 7889 dfbc d26c b83c cbed 1bbc
00000050: d52c 103d b0c0 0d3d b57a 13bc 99f3 9bbc
00000060: 285b 0abd 5b50 203d 9d85 df3c 3fdf 723c
00000070: 7d97 fe3c 9727 2b3c eb20 783c 56e2 cabc
00000080: 4061 803c 113e 47bc 007c b9bc 5a7c 5bbc
00000090: 1d94 46bc fdcd 5cbb 960f 4c3c cbd5 c6bc
000000a0: ff54 f33c 1327 dfbc 40f9 b8bc 164b ddbb
000000b0: 8756 c7b9 6af8 f6bc fc2e 11bc 182b 6a3b
000000c0: a740 81bc 1580 e13c 01cc e7bb eed3 303d
000000d0: 7150 c4bc 5f42 0b3d c1ad 513c 3764 493d
000000e0: a64a 10bd a6d3 b33c c2c4 6b3c 6565 3b3d
000000f0: 3eca 1739 a265 0abd 8b1b de3b b63a 113d
0.018787688 0.019980764 -0.0009981423 0.009170478 0.05027435 0.012593575 0.014817108 -0.029339664
-0.015177495 0.0036700948 -0.018871069 0.02258985 -0.02526443 0.03391929 0.034919456 -0.015399479
0.007706534 -0.02728723 0.022512827 -0.0095171435 0.035199005 0.03460759 -0.009001424 -0.019037055
-0.03377834 0.039139133 0.027285391 0.014823734 0.031078095 0.010446451 0.015144567 -0.024766129
0.015671372 -0.012160794 -0.022642136 -0.013396347 -0.012120274 -0.0033692115 0.012454888 -0.024271866
0.029703615 -0.027240312 -0.02257979 -0.0067533357 -0.00038020706 -0.03014775 -0.0088613 0.0035731252
-0.015777899 0.027526895 -0.0070738797 0.043170862 -0.023964139 0.033998843 0.012797774 0.049167838
-0.03522744 0.021951508 0.014390172 0.045750994 0.00014475823 -0.03378833 0.0067781857 0.03545638

weight f4 [64, 1024]
00000000: 81b8 f7bc 80ee d73c 9fa1 ce39 881a acbc
00000010: 1307 013d d01f d73b b331 83bc ae8c d7bc
00000020: 40b9 fdbc 5d29 f4bc faab e23c 5acc b6bc
00000030: 7bed d23c c5fe 62bc b521 6a3c 9964 89bc
00000040: 1abd a03c d888 6dbb 98a8 d5bc 7ce0 d33c
00000050: 7801 8bbc 2ae3 76bb 8906 493c f0e6 843c
00000060: 5511 f73c a58f 02bc 532d b4bc 5e86 9d3c
00000070: eaa1 733c 6229 903c a4bf bb3c 2549 42bc
00000080: 7752 c1bc 3b6a cb3c 8303 e2bc d560 8c3c
00000090: cd68 9fbc ec34 863c f289 b4bb 9ec4 bcbb
000000a0: 1634 213c b78e eabc 752f 92bb e528 ba3c
000000b0: bef1 c0bc 698d 933c 885a cb3c 0156 733c
000000c0: 26a8 483c 2f41 e3bc e687 723c 1c34 67bc
000000d0: 80c5 003d d942 85bc bf2f ee3c b868 c83b
000000e0: 2210 b63c 1163 abbc 9454 b1ba 96c5 c93b
000000f0: 2c20 213c 99a4 c3bc fafa 8c3c e629 00bd
00000100: 1625 36ba 72f8 18bb 1087 d43c 22fd fe3b
00000110: 48b6 b53c 5c32 64bc 7dda b83b 4881 81bb
00000120: 35b2 ec3c 5bad c53c 01d1 82bc 96c1 f2bc
00000130: 0c6c 843c e384 a6bc 5ec0 dc3b 33e5 843c
00000140: 8b37 01bc cbdc e83c 69eb 85bc 5f83 c73c
00000150: d51a 88bc 173b c63c 91f9 3dbc 5532 fb3c
00000160: ac76 8c3c 16ea 713c d513 7c3b 9c13 f13c
00000170: 41bf 363c 972c 193b be36 b53c 1570 783c
00000180: 1543 d33c 3be4 043c 6dde 0b3c 3d89 05bc
00000190: a1e8 68bb 7222 a03c bee4 28bc 387f 4e37
000001a0: ea31 3e3c 6c11 acb9 fe93 91bc 1050 573c
000001b0: c2cc 013c 0775 c5bc d111 bfbc 854d a23c
000001c0: b0c1 d13b 716d 42bb 3d11 b3bc c212 9c3b
000001d0: 6a49 6e3c 880d 7abc c504 0dbd 418e c5bc
000001e0: dc55 ba3b 5c46 043d 649c 4a3c 7b65 ae3c
000001f0: 9e8c 9abc 07b1 e33b 0986 9bbc 8941 c8bc
00000200: 643a c23c ab17 9dbb 236c aabc 8b53 263c
00000210: f370 edbc 0d67 b13c ee5a ec3c 656c 9ebc
00000220: 84fb 94ba caaa 85bc 8a79 96bc af62 f9bb
00000230: c9d8 04bd 30da 69bc 3ae9 05bd 6665 6f3c
00000240: dc55 86bc a86c edbb db8c f13c 70c7 d9bc
00000250: ea8a 0abc 1262 153c 93bf 9bbc 9750 d23c
00000260: eeeb a93c 476b 773c b60a 8c3c a6a8 24bc
00000270: b7bd c5bc 698c 88bc 5dc1 b8ba 2731 f63c
00000280: 854d d13b c8fb e6bc fcaf 8bbb 9df1 fcbc
00000290: ba4a e1bc f2a3 59b9 b204 a8bc 1f9d 743c
000002a0: bd05 563c b375 b4bb 99e5 febc 1a8a 19bc
000002b0: c35f 063c 7e77 c23b ba80 fbbb 22ff 84bc
000002c0: a839 aebc 1ab2 56bc 6e7a 91bc 075b 593c
000002d0: 1548 85bc ba96 b23b 13bc f03c 1e52 cebb
000002e0: dc25 ab3c 347a bbbc 365e ce3b dbe2 a93b
000002f0: e58d fa3b 0a68 18bc 8b3b 1bbb e916 eb3c
00000300: ecdf a63c 410d de3c 3960 dbbc 7779 8abc
00000310: d785 b7bc 78a0 c63a a95a d7bc 7b13 2c3c
00000320: 1c65 b53a 85aa 0b3c 92c6 69bc 5bfd 8f3c
00000330: 0f0d b5bc dc99 a83b 8854 cc3c 312e 6cbc
00000340: 9d0b cbbc f619 6b3b a76f 9ebc 1a7b b43c
00000350: 2a15 92bc 4340 683c ea5f a43b 0479 04bc
00000360: 7a25 b5bb 3fe5 c0bc 5ef2 de3c 3e02 b53c
00000370: 9158 bc3c d4ad b63b 898c c23c 853f d23c
00000380: 51e6 32bc da8b 9bbc 8925 793c 25c0 a7bc
00000390: 7c4a 18bc c70f f53c 70d0 3bbc 44ff 9abb
000003a0: 5021 fe3b cb12 c8bc 8b8e f9bb 674c d33b
000003b0: 0e09 c1bc f624 7c3c e949 023b 9126 883c
000003c0: 9256 1e3b 2da2 d3bc 7dcd eebc bce9 8a3c
000003d0: 30a5 f3bc 7f30 c3bc b940 aebc 0dc5 15bc
000003e0: 8691 e6bc f820 843c 7827 9bbc 85f6 89bc
000003f0: 13df 913b 5b70 33bc 0ae4 4cbb 0f51 523b
-0.030239346 0.026358843 0.000394118 -0.021008745 0.031500887 0.0065650716 -0.01601491 -0.026312198
-0.030972123 -0.02980488 0.027669895 -0.02231424 0.025748005 -0.013854687 0.014290263 -0.016771602
0.01962142 -0.0036244895 -0.026081368 0.025863878 -0.016968474 -0.0037672021 0.0122696245 0.0162234
0.030159632 -0.007968818 -0.021994269 0.01922911 0.014870146 0.017597858 0.02291853 -0.011858259
-0.023598893 0.024830928 -0.027589565 0.017136017 -0.019459153 0.016382657 -0.0055096084 -0.0057607433
0.009839078 -0.028632505 -0.0044612237 0.022724578 -0.023552772 0.018011766 0.024823442 0.014852048
0.012247121 -0.027741043 0.0148029085 -0.014111545 0.03143835 -0.016267227 0.029075501 0.006115999
0.02222449 -0.020921262 -0.0013529235 0.0061575873 0.0098343305 -0.023882197 0.017209519 -0.031289957
-0.0006948275 -0.0023341444 0.02594331 0.0077816406 0.022181645 -0.013928022 0.00564128 -0.003952179
0.02889357 0.024130514 -0.015968801 -0.029633325 0.016164802 -0.020327037 0.006736799 0.016222572
-0.007886778 0.028425595 -0.016347604 0.024354635 -0.016614357 0.024198098 -0.011595146 0.030663649
0.01714643 0.014765283 0.003846397 0.029428296 0.011153997 0.0023372525 0.02212083 0.015163441
0.025788823 0.008111055 0.008536917 -0.008150396 -0.0035539048 0.019547675 -0.010308443 1.2308177e-05
0.01160858 -0.00032819377 -0.017770763 0.013141647 0.007922353 -0.024103655 -0.023323925 0.019812355
0.006401263 -0.0029667283 -0.021858806 0.0047629783 0.01454387 -0.015262015 -0.034428377 -0.024115684
0.0056865048 0.032293662 0.012366388 0.021288624 -0.01886588 0.0069485935 -0.018984811 -0.024445312
0.023709483 -0.004794081 -0.020803517 0.010151754 -0.028984522 0.021655584 0.028851952 -0.019338796
-0.0011366461 -0.01631679 -0.018368501 -0.007610641 -0.032433305 -0.014273211 -0.032693125 0.014611578
-0.016398363 -0.007245619 0.02948611 -0.026584357 -0.008455971 0.00911762 -0.019012248 0.025673194
0.020742383 0.0151012605 0.017094951 -0.010049975 -0.024138315 -0.016668515 -0.0014095713 0.030052735
0.006387415 -0.02819623 -0.0042629223 -0.030876929 -0.027501453 -0.00020755807 -0.020510051 0.014930039
0.013062892 -0.005507195 -0.03111534 -0.009371305 0.008201542 0.0059346547 -0.0076752575 -0.016234938
-0.021267727 -0.013103986 -0.017758574 0.0132663315 -0.016269723 0.005450097 0.029386556 -0.00629641
0.020892076 -0.02288542 0.006297852 0.005184514 0.0076463097 -0.009302149 -0.0023686613 0.028697448
0.020370446 0.02710593 -0.026779281 -0.016903622 -0.022402687 0.0015154025 -0.026288347 0.010502691
0.0013839337 0.008524542 -0.014268534 0.017576864 -0.022100953 0.0051452946 0.024942651 -0.01441531
-0.024785811 0.0035873628 -0.01934035 0.022031356 -0.017832357 0.014175477 0.0050163167 -0.008085493
-0.005528149 -0.023546813 0.027215179 0.022095796 0.02299145 0.005574921 0.023748653 0.025665054
-0.0109191695 -0.018987585 0.015206703 -0.020477364 -0.009295102 0.02991475 -0.01146327 -0.004730137
0.007755436 -0.024423024 -0.0076158694 0.006448317 -0.023563888 0.015389672 0.001988048 0.016619952
0.0024160487 -0.025834167 -0.029150719 0.016957156 -0.029741853 -0.023826836 -0.021271097 -0.009141219
-0.028145563 0.016129002 -0.018939719 -0.016841182 0.0044516413 -0.010952081 -0.0031263852 0.0032091772

bias f4 [64]
00000000: 2d5c e6bc b055 453c e413 3cbb eafd d43b
00000010: 125c afbb aa06 cdbc d7e5 103d 852e 263d
00000020: a9bd b73c d3ca 2bbc 9521 0abd 52fa 1dbc
00000030: c4b6 263b 9db1 ce3c 9f8e a53c b234 c53b
00000040: f46b 21bc e0d8 1c3b 1eba dcbc 1f27 25bd
00000050: 9eff 443c 3434 ddbb ca05 9a3c 3613 91bc
00000060: 95bb e1bb 2de7 5a3c 63e6 a5bb 229d 84bb
00000070: 23ff cb3c 8f30 c9bb d53c 8fbc 9b36 93bc
00000080: 620c e43c d006 fbba f5d4 eabc ca19 c13c
00000090: 547d edbb d6a2 51bc 2ef4 94bc 2eb1 05bd
000000a0: 6f6b 783c b07f 5dbc 165f 9fbb 9854 233c
000000b0: 10ee 163c 0079 e2bc 8e30 5dbc 0d56 b53b
000000c0: 50bf 9dbb 7a12 be3c 718e 0e3d 1d8b 07bc
000000d0: f062 543c b0d6 07bd 637d 16bd 0760 dfbc
000000e0: 0377 d93c 74ab 0abd ced8 f03c c2c8 bd3c
000000f0: 75a0 8cbc 12b2 65bc fe5c 26bc eae1 8dbc
-0.028120125 0.012044355 -0.002869838 0.0064999955 -0.005351552 -0.025027592 0.035375442 0.04057171
0.022429304 -0.010485369 -0.033723433 -0.009642201 0.0025438527 0.025231177 0.020209609 0.0060182447
-0.009852398 0.0023932979 -0.026944216 -0.040320512 0.0120238345 -0.006750608 0.018801589 -0.017709356
-0.0068888166 0.013360781 -0.0050628646 -0.004047052 0.024901932 -0.006139822 -0.017485062 -0.017970374
0.027837936 -0.001915181 -0.028665999 0.023571867 -0.0072476063 -0.012795171 -0.01818284 -0.032639675
0.015162333 -0.013519213 -0.00486363 0.009968899 0.009212032 -0.027645588 -0.013500346 0.0055339397
-0.004814066 0.02320217 0.03480381 -0.008272913 0.012963042 -0.033163726 -0.03674067 -0.02726747
0.026546007 -0.033854917 0.029400256 0.023167018 -0.017166356 -0.014019506 -0.010154007 -0.017319638

weight f4 [10, 64]
00000000: 95a3 11bd 3cd2 d6bd 00c9 923d b03f a3bc
00000010: e5d3 98bd 08e6 39bd f989 843d d61f 1ebe
00000020: be33 db3d 3f7e c8bb 6b4b 8a3d ee8d a1bd
00000030: 53ec f4bc 900a d6bc 56b8 d4bd 019c 823d
00000040: 1ba3 b83d 6eea d8bc 315d c9bd 81c6 123e
00000050: 5dbd 873d 399f 033e 6008 76bd e0ec 063e
00000060: ffd9 403d f571 45bd 5501 cfbd 3c3b e33d
00000070: d728 8b3d 6953 a53d 3cf1 e1bd 35ab c03d
00000080: 9cf5 debd e9de c73c 683c 853d b64a d6bd
00000090: 5a45 00bd 97c5 d53d d87f 073e 043b ce3d
000000a0: bca3 81bc a4d8 113d 9604 5fbd 1e50 fa3d
000000b0: 5380 5ebd c4af 8e3d 703b abbd 82e6 153e
000000c0: e96a e33d ea09 d93d a88b 17bd 53ab 263d
000000d0: 2841 1ebd 17a5 b03d cd53 be3d a156 e73d
000000e0: f12f bc3c f10f 843d b916 c0bc 658f cabd
000000f0: 3696 a83d 39bc 923d fdac b63d 161b d33d
00000100: 9002 28bd 6ac8 5abd d7b5 e9bd c2be 50bd
00000110: f738 36bd 61e0 ccbb fc77 ca3d fa72 6d3d
00000120: c7ce 37bd 6844 f2bc ae01 a93d feea 073e
00000130: 5ec4 8dbd 54ea 13be b053 d33d 372d b9bd
00000140: 39e1 8cbd 1862 ce3d 277a cdbd 56c6 83bd
00000150: 1aaf 983d 4d63 90bd e805 cfbc 5e6e d9bd
00000160: 55d0 25bc 4f0e 1ebd ee91 3cbd f37e c3bb
00000170: a909 933c ff88 0bbc 3a64 09bc 3efc d03c
00000180: 686a 8ebd 067f ef3d 7b4b a0ba 88e9 d5bd
00000190: 4c71 25bd ed0c bbbd 6a06 b7bd 25f6 75bd
000001a0: 0848 95bd b411 f6bd 69fc a6bc 3e5a 1fbd
000001b0: 56dc d1bd 345a d9bd ce24 f8bd d121 973d
000001c0: 3e37 513d b7ff 09bd dab2 b13c a9d5 79bd
000001d0: a055 e53d 1af6 b23d b77d ddbd 90cd 983c
000001e0: 8a36 983d 709f cebc c6bd b63d c018 afbc
000001f0: 5b56 f5bd 3716 85bc 71b0 9ebd de4d 8fbd
00000200: b2e7 3abd cc0c d73d fb82 623d 2159 02bd
00000210: 39f3 df3d bc6b 98bd 9ceb 833c bab7 d43c
00000220: 4a5f 14bd 57e3 2f3d c5f3 b7bd 371f 233a
00000230: 07fa ae3d c909 54bd d598 7bbc 5233 cfbb
00000240: 7920 ef3d df75 c73d 1b19 cebd 934e a83d
00000250: bee3 9c3d 3d02 f83d a667 403c 4e28 c6bd
00000260: 5afe 1dbd 3d43 693d 4d80 c43d 2154 7ebb
00000270: 7f5f fe3d fbd5 66bc 5703 17bd af25 c93d
00000280: 5c04 343d 05d9 a93d bd0e a5bb f5b3 eebd
00000290: a332 9dbd 6735 8dbc 3972 303d 22b1 b13c
000002a0: 274f 8abc 673f af3d 0fec 70bd 582a 953d
000002b0: 6f8a cc3d 13d1 22bc 868f 903d c999 34bd
000002c0: 0355 a83d b192 e63d e633 0b3c e935 203c
000002d0: f446 c83d 6e97 e53d 290f febd eaa9 a13d
000002e0: 28c1 05be 539d f1bc 5899 b63d 32de 2b3d
000002f0: 3786 c1bd fcc0 b5bd 9929 d1bd 1c36 dc3d
00000300: 0ba8 113d b79e ac3c 165d 113e a895 c8bd
00000310: bb54 9d3d 86ba a53c 5648 f13d c615 a8bd
00000320: 3268 49bd 31d7 0abd b7d7 35bd 4a8c 9c3d
00000330: e267 cdbd 8cd1 2e3d 2f24 debd fcee 97bd
00000340: 5846 a7bc 1790 c3bd 09e9 21bc a6b4 84bd
00000350: b00e d03d e4c2 ec3d 9aab 27bd cfc5 dabd
00000360: 6318 dfbd d5dd b8bd f261 a0bd 139e 14bc
00000370: 6616 603d 56fe 983d a7d9 eb3d 0f1a ce3d
00000380: 5fe9 eebd a4d4 513c 4437 643d 7670 e2bd
00000390: 151f d9bc b61f d33d 08e0 f53c b6ca b6bd
000003a0: 4945 d9bd 0611 853d e355 0f3e b98b 90bc
000003b0: 9911 4ebc 6cdc adbd e086 f53d 4f13 183d
000003c0: 0022 013c 298a 8dbc 770e 8b3d 9c74 ba3d
000003d0: 0ec8 8e3d 6861 5bbd 7b4c c03c 261a 0b3d
000003e0: 5f6c 81bd 5dc5 e73d c6bb 1c3d 43d8 8bbd
000003f0: 8342 a4bb f4d8 11be f768 863c ff05 35bd
-0.035556395 -0.10489318 0.07167244 -0.01992783 -0.07462291 -0.04538539 0.06471629 -0.15441832
0.107032284 -0.0061185653 0.06752666 -0.07888399 -0.029897844 -0.026128083 -0.10386722 0.06377412
0.09015485 -0.026478972 -0.09832228 0.14333536 0.06627915 0.12853707 -0.06006658 0.13176298
0.047082897 -0.04820438 -0.10107676 0.110952824 0.06794899 0.0807255 -0.1103234 0.09407655
-0.1088669 0.024398284 0.06505662 -0.10463469 -0.03131614 0.10438078 0.13232362 0.1006985
-0.015825145 0.035606995 -0.054447733 0.122223124 -0.0543216 0.069671184 -0.08360946 0.14638713
0.11104376 0.10597594 -0.03699842 0.04069073 -0.038636357 0.086252384 0.092933275 0.1129582
0.022972079 0.06448353 -0.023448335 -0.098906316 0.082317755 0.07164807 0.08919714 0.103079006
-0.04101807 -0.053413786 -0.11411636 -0.05096317 -0.04448792 -0.006252334 0.098861665 0.05797098
-0.044874933 -0.029573634 0.082522735 0.13273236 -0.0692222 -0.14444858 0.103186965 -0.09041827
-0.06878895 0.10077304 -0.10033064 -0.06434314 0.07455273 -0.0705019 -0.025271371 -0.10616754
-0.010120471 -0.038587864 -0.046037607 -0.0059660613 0.017948942 -0.008516549 -0.008385712 0.025510903
-0.06953889 0.1169415 -0.0012229526 -0.10444933 -0.04039125 -0.09133325 -0.0893677 -0.060049195
-0.072891295 -0.12015095 -0.02038403 -0.03890442 -0.10247104 -0.10612908 -0.12116395 0.07379497
0.051078074 -0.033691134 0.021691728 -0.060994778 0.11197972 0.087383464 -0.10814994 0.018652707
0.074322775 -0.02522251 0.08922915 -0.021374106 -0.119793616 -0.016245944 -0.07748497 -0.06997274
-0.045631118 0.10500488 0.055300694 -0.03182328 0.10935063 -0.07442424 0.016103558 0.025966514
-0.036223687 0.042941418 -0.08982042 0.0006222608 0.08543783 -0.051767144 -0.015356262 -0.0063232565
0.116761155 0.09739279 -0.10063382 0.08218112 0.07660626 0.12109802 0.011743462 -0.09675656
-0.038572647 0.05694889 0.09594784 -0.003880747 0.12420558 -0.014089103 -0.03686842 0.09821641
0.04394947 0.08293346 -0.0050371573 -0.11655418 -0.07675674 -0.017237378 0.04307768 0.021690909
-0.016883446 0.08557015 -0.058818873 0.07283467 0.099873416 -0.0099375425 0.07058625 -0.044091973
0.0821934 0.11258448 0.00849626 0.009778478 0.09779158 0.112105235 -0.12405235 0.07893737
-0.13061965 -0.029493963 0.08915967 0.04195995 -0.094494276 -0.088746995 -0.10213012 0.10752508
0.03556065 0.021071775 0.14195666 -0.0979417 0.07682177 0.020230543 0.11781375 -0.08207278
-0.049171634 -0.03389663 -0.044395175 0.076439455 -0.1002958 0.04268031 -0.10846745 -0.074186295
-0.020419285 -0.09548967 -0.00988222 -0.064797685 0.101590514 0.1156061 -0.040935136 -0.1068226
-0.10893323 -0.09026686 -0.078311816 -0.009070891 0.05470886 0.07470386 0.11516123 0.10063564
-0.11665606 0.012807045 0.055716768 -0.110566065 -0.026504079 0.10308783 0.030014053 -0.08925383
-0.10608918 0.064973876 0.13997607 -0.01764475 -0.012577438 -0.08489308 0.11988616 0.03712779
0.007881641 -0.017277794 0.06789868 0.09104273 0.06971751 -0.05355969 0.023473969 0.033960484
-0.06319498 0.11316941 0.038265012 -0.06828358 -0.0050128116 -0.14242917 0.016407473 -0.04419517

bias f4 [10]
00000000: 9e9e b83c f93c 06bd 79a6 553d 0f18 8ebd
00000010: a4f6 aebc f652 a6bc 336b f2bb e5a0 703d
00000020: 8e98 c4bb bb9e 1d3d
0.022536572 -0.03277299 0.052160714 -0.069381826 -0.021357842 -0.02030323 -0.007398033 0.05874719
-0.0059996312 0.038481455
