DeepLearningDemo/models/jingxin_6.pth (torch, 588127 bytes, 10 tensors)

weight f4 [32, 3, 5, 5]
00000000: 3678 17bc 62d2 d13d a74d 86bd a7bd d5bd
00000010: e13f a93c 4714 65bd 7747 d8bd 04c0 933d
00000020: d1de 9b3d ac9a 133d d870 6c3d 2748 003e
00000030: 7ce6 273e 251f b23d 9726 873c dcb6 0c3d
00000040: 30f0 63bd c2b1 babd dfd3 f13b d9f8 c6bd
00000050: 458e 40bd e286 083d 4985 dcbd a192 e33d
00000060: b192 d8bd 4a61 893d 371a bf3d cb67 a8bd
00000070: 7f30 cabd b11f 5bbd 8320 a1bc d4b8 c7bd
00000080: ac20 ef3d 07b4 1fbd c4b3 763d 099d 81bc
00000090: 7024 b1bd f3a2 163d 0986 173e f087 093d
000000a0: c712 ec3d 2b99 ce3b 98d4 a6bd 27b2 423d
000000b0: be71 973d ca8e e9bd d7f4 00be 2e8b f23b
000000c0: 69a1 5ebc 8710 0d3d df92 52bd cbf9 d4bc
000000d0: f3ea 21bd 656f cebd fe58 e6bd 0447 813c
000000e0: bbb6 03be 6d03 703d 76f5 91bc f9b2 c83d
000000f0: 8727 253d 1676 8ebd 1c26 063e fcbf 383d
00000100: 18a2 fb3c 2d55 b9bc 476b 993b 40a1 cebd
00000110: b8a6 83bd 42f5 663b ff03 903d 4169 19bd
00000120: 5650 d63d 079a c73d 8bda 77bd 2549 debd
00000130: f08a 9abd 4cdd 6d3c 9d5d 8dbb dea4 443c
00000140: df99 b73d 2cc9 70bd 73de 1939 a953 a2bd
00000150: 1bc4 773c 9d4a 333b b04b 13be 3c1f 9ebc
00000160: 01d2 dcbd ce2b 8fbd 5659 0d3d ae55 fb3b
00000170: 422b d93d 4bbe ee3d c8f1 9ebd 7f34 2cbc
00000180: f01a 0a3d 2467 92bd 7b65 f63d afe4 423d
00000190: 6f4a f1bd 9b13 ecbc 467d dfbd e186 42bd
000001a0: ea0f d13d 1d4c 773d db5c 92bc 7687 e43d
000001b0: 7cff 41bd 3b7c 06be e414 533c f91b ce3c
000001c0: c0c3 50bc 6f84 f9bd 7561 33bd b6bb f03c
000001d0: ad9f 023e 1fa8 80bd 77e8 453d 47eb c33d
000001e0: 611f d63d 899b 1dbd fe88 1cbb 05f6 083d
000001f0: 7de9 ab3c 3d83 c23d 6300 813d af79 b63d
00000200: b1bc de3d 6e9d 9ebd de4d d13d faf5 aa3d
00000210: 8342 2fbd 97c1 913b bcd1 b4bc 7770 afbd
00000220: 132c c63d ddd7 83bd 09cb 8cbd d5ce ac3d
00000230: 3171 53bc 2ef7 92bc 8412 a73c 2fe1 203d
00000240: ec7d 0e3d f30c d23d b296 b53c c4df c83d
00000250: 120f 283d f341 dfbc 4105 78bc af07 ca3c
00000260: 7532 3e3c 7be1 243e 303b 643e 3d9d e93c
00000270: 9752 47bd 000d 9d3d 72fc 04bd 844c 85bc
00000280: 2de2 973d 610e 2d3c 9202 8b3d a7ca adbd
00000290: 126e 14bd cb98 d23c bf91 debc 6622 f1bc
000002a0: 9bfb e93c fcac b4bd 6a77 673d 68e5 34bd
000002b0: 3a1d 54bd 72ad 753d 5a54 c03d 2405 b23d
000002c0: da18 31be 6185 e7bd b6aa 07be 2ffd df3d
000002d0: ff62 d0bd 9226 03be 912f 41be fd3c 0bbe
000002e0: ab2c de3d ba78 e1bc e66e 47be 9af6 aebd
000002f0: 41e3 a4bd f174 9dbd f569 1abe d8ec 83bd
00000300: fd39 303d 87ce b7bd 7555 05be a6df eebc
00000310: bf69 02be 9159 9f3a 3cb7 b63d f65b 453d
00000320: 992e 9c3d c8f4 edbd 95c6 e8bd cda7 b93b
00000330: 9264 163e 0089 3e3d 2548 4b3c 5dae 09be
00000340: f493 6e3d 759c 023e 8ab3 f1bc cf3d 0dbe
00000350: d245 663d 50d5 e5bd a057 c3bb 5d24 a5bd
00000360: 5197 14be 94a8 d5bc d73e 723d 5097 c3bd
00000370: 4447 5cbc e2c3 d6bc 7fa8 2cbd cb1d 40bc
00000380: 696b e73d 2d10 e43b c813 ce3d 5ba8 c3bd
00000390: 925d d5bd c424 853c 6009 00bd ce69 123d
000003a0: 54d5 07bd 2ef7 c8bd e268 cd3d 79d5 c13d
000003b0: 18c7 b6bc 9589 2dbd 97af 8e3c da49 d1bd
000003c0: f163 85bd d91f 0ebe f09c 53bc 932f c7bc
000003d0: 13e1 3fbd 1ff6 d8bd 00fc d23d dcea 993d
000003e0: d0bf cf3d 90f4 083e 69c7 c8bc f4c8 cc3d
000003f0: d968 a9bc 3d5e bdbc 0e7a a43d 70ee 0d3d
-0.009244969 0.102452055 -0.0655778 -0.10436564 0.020660343 -0.05592754 -0.10560506 0.072143584
0.07610858 0.03603618 0.057724804 0.12527524 0.16396517 0.086973466 0.016497893 0.034354076
-0.055648983 -0.09115936 0.0073799933 -0.09715433 -0.04701068 0.03333176 -0.107676096 0.111119516
-0.10574854 0.067080095 0.09331172 -0.08222922 -0.09872531 -0.05349702 -0.019668823 -0.0975205
0.116761535 -0.038990047 0.06023003 -0.01582195 -0.08649528 0.036776494 0.14797224 0.033576906
0.11527019 0.00630488 -0.08146018 0.04753318 0.073947415 -0.11404188 -0.12593399 0.0074018454
-0.013588288 0.03443959 -0.0514096 -0.025998017 -0.039530706 -0.100798406 -0.11247443 0.015780933
-0.12862675 0.058597017 -0.01781724 0.09799761 0.0403209 -0.06956117 0.13100475 0.045104966
0.03071694 -0.022623623 0.004681978 -0.1008935 -0.064282835 0.00352414 0.07032012 -0.037453894
0.104645416 0.09746175 -0.060511153 -0.10853795 -0.075460315 0.014518093 -0.004314138 0.012002198
0.089648955 -0.058785602 0.00014674086 -0.07926113 0.015122439 0.0027357705 -0.14384341 -0.019302003
-0.107822426 -0.06990777 0.034509026 0.007670126 0.10603954 0.11657389 -0.0776096 -0.010510563
0.033717096 -0.07148579 0.120310746 0.04758137 -0.11781775 -0.028817942 -0.10912566 -0.04749191
0.102081135 0.06037532 -0.017866543 0.111586496 -0.04736279 -0.13133328 0.012883399 0.025159823
-0.012741983 -0.12183463 -0.043794114 0.029386383 0.12756224 -0.062820666 0.0483174 0.0956636
0.10455204 -0.038478408 -0.0023885365 0.033437748 0.02098536 0.09497688 0.06298902 0.08909928
0.10875834 -0.07744871 0.1021993 0.083476976 -0.04278804 0.0044481265 -0.022072665 -0.08566373
0.09676375 -0.06437657 -0.068746634 0.084378876 -0.012905405 -0.01794013 0.020394571 0.03927725
0.034788057 0.10256376 0.022166584 0.09808305 0.041029997 -0.027253127 -0.015137971 0.024661867
0.01160871 0.16101639 0.22288203 0.02851736 -0.04866275 0.07668495 -0.032467313 -0.016271837
0.074161865 0.01056251 0.067875996 -0.084859185 -0.036237784 0.025707623 -0.027169107 -0.029435348
0.028562358 -0.08822057 0.056510366 -0.04416409 -0.051785685 0.059979863 0.09391089 0.08692387
-0.17294636 -0.11304737 -0.13248715 0.10936963 -0.10175132 -0.12807682 -0.18865801 -0.13597484
0.108483635 -0.027523387 -0.19475898 -0.08543129 -0.08051158 -0.076883204 -0.15079482 -0.06441659
0.043024052 -0.08974939 -0.1302088 -0.029159378 -0.12735651 0.001215743 0.08921668 0.048183404
0.07626075 -0.11618954 -0.113660015 0.0056657554 0.14686802 0.046517372 0.012407337 -0.1344542
0.058246568 0.12754996 -0.029504556 -0.1379311 0.05621893 -0.11222327 -0.0059613734 -0.08063576
-0.14510848 -0.02608136 0.05914196 -0.09550345 -0.013444725 -0.026216451 -0.042152878 -0.011725853
0.11299784 0.006959936 0.10062367 -0.09553596 -0.10418238 0.016252883 -0.03125894 0.035745434
-0.03316243 -0.09812771 0.100297704 0.09464545 -0.022311732 -0.042367537 0.017417712 -0.10219164
-0.06513203 -0.13879336 -0.012915835 -0.024314677 -0.046845507 -0.10593819 0.103019714 0.07515499
0.10144007 0.13374543 -0.024509149 0.09999266 -0.020679878 -0.023116225 0.080310926 0.03465122

bias f4 [32]
00000000: b35e 293d b70f 6fbe 0521 c63d 8ec1 9cbd
00000010: 6515 3d3e db06 6f3e fafe 923e c146 8fbe
00000020: c822 92bd 69f2 3dbe 2d6a 81bc 9e50 abbd
00000030: d743 69bd 6885 4abd 3888 18bd ef76 3e3e
00000040: f62c bebc 2306 0ebe 0a21 40be fec8 83be
00000050: 0d12 863e edbc 52be eb55 0bbe 5319 923d
00000060: bf60 19bb eb77 f1bd cb43 7a3d 4d21 9d3c
00000070: d65f 983e 3fde 4439 dec9 13be b86b fdbd
0.041350078 -0.23345838 0.09674267 -0.07654105 0.18465193 0.23342459 0.28710157 -0.27983668
-0.0713554 -0.18549503 -0.015797699 -0.08364986 -0.056949463 -0.049443632 -0.037239283 0.18600057
-0.023214798 -0.13869528 -0.18762603 -0.25739282 0.26185647 -0.20579882 -0.13606994 0.071337365
-0.0023403612 -0.11790451 0.06109981 0.019180918 0.29760617 0.0001877481 -0.14432475 -0.12374061

weight f4 [32, 32, 5, 5]
00000000: b8c9 de3c 41a5 8fbc 8036 a03c 2c30 15bd
00000010: d715 583c e755 663c fa7d e83c 19fc 343c
00000020: 5947 8c3c 92a0 12bd ae3f d3bc 062c 0abd
00000030: d854 e4bc 0d66 0c3c 5377 03bd fc70 c4bb
00000040: 3452 c0bc 0870 c43c 4e99 7d3c 04b0 74bb
00000050: d323 0cbc e045 9dbb e805 e9bc 4ecb 7c3c
00000060: 7c5e 06bd a78a b9bc 2172 1bbd 6fea 553c
00000070: 8368 093d 8787 e8bc d977 9abc e4f1 903b
00000080: ca2a 163d 8fba adbc 7ee2 a2bc 938c 1e3c
00000090: e876 b53b 9fed 51bc 4557 153d 4c28 993c
000000a0: 0b0b bd3b 6899 d63c 4672 12bc 8612 76bc
000000b0: ab70 153d e575 a93c 6742 db3c 739e c23c
000000c0: eda3 a53c e739 c23b d140 d63c aa35 66bb
000000d0: 33c0 043d cfc1 cf3c 2558 03ba a858 213b
000000e0: ee8c 2b3b 9c3a 393c a43b 29bd 1bc1 f4ba
000000f0: ac88 033c 63fe a2bb e32d abbb 715d 4abd
00000100: 418b 0ebd 21b6 7f3c a65e 92bc 4b9a 12bc
00000110: 91cb 50bd 2d60 00bd 9025 bc3b 666b e7bc
00000120: 2212 36bd 44a0 c3bc 7421 a73c 9694 bf3c
00000130: 22c7 013d da68 abbc 9cbd d13c 52a7 b03c
00000140: e58d d2b9 6d30 04bc b1dc d0bc d4ca bf3c
00000150: d155 0fbc 43f7 2c3d cf20 e9bc e196 043d
00000160: 0bd3 06bd 328f b2bb 4d59 dd3b 73ac 113d
00000170: ecab ffbc f28f 653c 7b89 f13c eb3a f7bc
00000180: 9495 11ba f9b3 3ebc 44e6 763c d0f6 e63c
00000190: cb60 173d 666f 213d 6e04 08bd 6d3e 243c
000001a0: 7a59 073d 3d10 413c 9c5a cbbb 93a2 fdbc
000001b0: c202 b4bb b49c 8abc b3fc b0bc 2a1c 573c
000001c0: 1298 05bc 1d52 30bd e5c6 1bbb 864d a9bc
000001d0: 9d10 efbc 7e26 b6bc f3a8 c6ba 32fc d83c
000001e0: 042d 13bd 239e 03bd 0284 ffb8 ba3a ee3a
000001f0: e146 76bc fc66 bb3c 297e 0b3c 0123 a9bb
00000200: 7037 d4bc f504 7b3b 292e bd3c dfc3 33bc
00000210: 16f4 40bc 7497 91bc 6b19 0f3d 6243 2c3d
00000220: 7f45 af3c 8ea5 aebb 69ba 81bb 508f f9bc
00000230: ec27 a63c 8c3a 26bd ec84 81bc f578 29bd
00000240: 464e c2bc 4278 c0bc a0f7 15bd 6670 35bd
00000250: 8921 34bd ef60 12bb c53e 683d 010b 2a3d
00000260: 0b33 d13c d924 14ba 4b9a 4c3c f8b4 c83c
00000270: 03ba 833c 5de7 57bc 065b 2fbd ce3e 2dbb
00000280: 0e92 db3c 21ff a53c ed45 32bc 7584 c03b
00000290: df8a bc3b a1bf e7bc 0fcd a93c 9a9d 17bd
000002a0: c7eb 64bd 5ebe cdbb ceea 01bd 2eaa 9b3c
000002b0: 4233 2abd 4564 00bd 2490 cb3c e528 05bd
000002c0: d438 b4bc f6b5 e7bc 83fa 763c 5014 1dbc
000002d0: 0804 60bc f333 713a c7db b1bc 8a07 be3b
000002e0: 962b 923c 78e7 42bd 851c c8bc 43d7 923c
000002f0: 6899 0bbd 6e20 bfbc d406 34bd 46e6 3cbd
00000300: 8ef4 973c 6ae1 693c a3c1 9b3c 683d f2bc
00000310: 9ca5 6bbc 5817 85bc 7b8e 9b3c dc68 e5bc
00000320: a2d0 f63c bfbb 463b 1901 083c 6965 d5bc
00000330: 7b21 bbbc 2dcf 6c3c ebcb a93c 6477 513b
00000340: e052 c93c d36d 803c c6a0 dbbb 0350 84bc
00000350: 1261 ae3c 33cd a9bb 2640 d8bb 24b9 903c
00000360: 365b 53bc 2d20 d2bc 1b10 af3b 829d d53c
00000370: 653b 273c b186 86bc 88a7 87bb 8284 68bc
00000380: 8d0b 803c b69d 01bc 7daf 923c f1f1 e0bb
00000390: b70c 53bc 0364 453b 0ebf fbbb 0a81 663c
000003a0: b6bd 603c e83d 08ba dea1 c3bc 8c86 17bc
000003b0: 16d4 a3bc 2f81 8abb 30e3 1e3d 1139 c6bc
000003c0: 249e adbc 9fef 203d 3b88 b7bc eecb 0b3d
000003d0: 9fb7 b5bc 1f3f 1f3d 3692 223d 2177 cdbc
000003e0: b29b de3c 2998 f93c 2afe 4ebc 6f9b 0ebc
000003f0: 874d a53b cc1e e13b d9d8 22bc 89fc 47bb
0.027195796 -0.017534854 0.019557238 -0.036422893 0.013188801 0.014058567 0.028380383 0.011046433
0.017123865 -0.035797663 -0.0257872 -0.03373339 -0.027872488 0.008569253 -0.03209622 -0.005994914
-0.023476698 0.023979202 0.015478445 -0.0037336359 -0.008553463 -0.0047995895 -0.0284452 0.015429331
-0.03280495 -0.022649122 -0.03795064 0.013056382 0.033546936 -0.028384937 -0.018855976 0.004423367
0.0366619 -0.021207122 -0.01988339 0.00967707 0.0055378564 -0.012813001 0.03646018 0.018695973
0.0057691387 0.026196197 -0.008938378 -0.015019065 0.0364844 0.0206861 0.026765062 0.023757195
0.020219767 0.0059273127 0.026153954 -0.00351272 0.032409858 0.02536097 -0.0005010388 0.0024619494
0.002617653 0.0113054775 -0.041316643 -0.0018673273 0.008028191 -0.004974173 -0.005223976 -0.04940552
-0.03480077 0.015607388 -0.017867398 -0.008947919 -0.050975386 -0.03134172 0.0057417825 -0.028249454
-0.044450887 -0.023880132 0.020401694 0.023386281 0.03168405 -0.02092402 0.025603108 0.02156416
-0.0004016004 -0.008068186 -0.025495859 0.023412146 -0.008748488 0.042227995 -0.028458027 0.03237045
-0.03291611 -0.005449199 0.0067550302 0.03556485 -0.031209908 0.01401137 0.029484501 -0.030179461
-0.00055536 -0.0116395885 0.015069548 0.028193861 0.036957543 0.03941288 -0.03320735 0.010024649
0.033044316 0.011783657 -0.00620587 -0.03096131 -0.005493493 -0.016920425 -0.021604871 0.013129273
-0.008153932 -0.04304706 -0.0023769673 -0.020666849 -0.029182727 -0.022235151 -0.0015156552 0.026487444
-0.035931602 -0.032133233 -0.00012183936 0.0018175461 -0.015031547 0.022876255 0.008513966 -0.0051616435
-0.02590534 0.0038302515 0.0230933 -0.010971992 -0.011776945 -0.017772414 0.03493635 0.04205645
0.021395443 -0.0053297943 -0.0039589894 -0.030463845 0.020282708 -0.04058318 -0.015810452 -0.04137512
-0.023718964 -0.023494843 -0.036613107 -0.044296645 -0.043977294 -0.002233561 0.056700487 0.0415144
0.025537034 -0.00056512427 0.012487958 0.024500355 0.016079908 -0.01317772 -0.042811416 -0.002643514
0.026803043 0.020263257 -0.010880929 0.005875165 0.0057538594 -0.028289618 0.020727662 -0.037015535
-0.055888917 -0.006278797 -0.031718068 0.019002046 -0.04155279 -0.031345624 0.024849005 -0.032509703
-0.021999754 -0.028285008 0.015074375 -0.009587362 -0.013672836 0.00092011614 -0.021711243 0.0057992386
0.017843049 -0.047584027 -0.024427662 0.01792491 -0.034081846 -0.023330893 -0.043951824 -0.046118043
0.01854923 0.014274934 0.019013232 -0.029570296 -0.014382746 -0.016246483 0.018988838 -0.028004102
0.03012878 0.0030324308 0.008301043 -0.026049333 -0.022843113 0.014453691 0.020727118 0.0031962031
0.02457565 0.015677368 -0.0067025153 -0.016151434 0.021286521 -0.0051819324 -0.006599444 0.017666407
-0.012900164 -0.025650108 0.005342496 0.026076082 0.010207032 -0.016421648 -0.0041398443 -0.014191749
0.015630508 -0.007911136 0.017905945 -0.006864779 -0.012881449 0.0030119426 -0.0076826876 0.014068851
0.013717106 -0.0005197213 -0.023880895 -0.009248387 -0.019998591 -0.0042268257 0.03879088 -0.024197133
-0.021193571 0.03929102 -0.022403827 0.03413003 -0.022182284 0.038878556 0.03969022 -0.02508122
0.02717385 0.030468063 -0.01263384 -0.00870405 0.0050446424 0.0068701264 -0.009939396 -0.0030515513

bias f4 [32]
00000000: 2c17 f7bc 8686 343d 040b a0bd 25ab 30bd
00000010: 9de5 05bd ecc8 bebc 027f a9bc e962 aebc
00000020: 1dd9 8fbd b69d f6bd 80bc 5abd 754e ee3c
00000030: 07f7 963c 9bd1 72bd 0d18 ce3c 9b0f c7bd
00000040: 7521 46bd d1bd 1bbd b2d4 0fbd 32c4 af3d
00000050: 6c59 f1bc 24ed 83bc a74b 383b 5860 8dbd
00000060: 0e09 8a3c 4f77 89bd dc81 15bd 4a8c af3b
00000070: a97d 173d 82e8 ed3c f466 00bd 3435 8bbd
-0.030162416 0.044073604 -0.07814601 -0.043131966 -0.03268968 -0.023289166 -0.020690445 -0.021287398
-0.07023833 -0.120418 -0.053402424 0.029090146 0.018428339 -0.059281927 0.025157953 -0.097197734
-0.04837175 -0.03802282 -0.03511495 0.08582343 -0.029461585 -0.016104288 0.0028121264 -0.06903142
0.01685002 -0.067122094 -0.036500797 0.0053573 0.036985073 0.029041532 -0.031348184 -0.06797257

weight f4 [64, 32, 5, 5]
00000000: 1526 2b3c dde1 f63b 3857 32bd 7b46 1bbd
00000010: 503d 10bd de3b 8cbc 4096 f03b 4c5e 033d
00000020: 52cd 42bc b6e3 a03c 4f5f 48bc 00bc d43c
00000030: 2c24 9cbc 798c c63c e569 f13c 1495 43ba
00000040: 168c 0a3d c1cb 6b3c 8030 e8ba 567e d23c
00000050: b855 173d 067a c83b 2578 cbbc 6ce7 04bd
00000060: bb69 993c 03d2 2abc 321f 523c 3599 cab8
00000070: 598d a73c c774 fbbb 99c1 70bc 6114 a23c
00000080: 8fdc 97bc d4e3 d73b 0a2e 6abc de9a f03c
00000090: 97e0 ff3c 1db7 80bc a305 e4bc e989 9db9
000000a0: dd85 c73c 9039 253c 3cf8 84ba 315e 80bc
000000b0: 4112 d43b 61fc 9c3b 72a1 bcbc dd80 ab3b
000000c0: 6ee2 c4bc 899b 87bc 221f c2bc 4c95 8dbc
000000d0: bd9f 8b3b 10f9 0b3b 7234 18bd 44cb c4bc
000000e0: 7968 e1bc f4e1 873c bf6c 5e3c e64f 80bc
000000f0: 8bc2 92bc 0561 0cbc 6acb 72bc bce2 e33a
00000100: 3d4c 083d 2be6 303a 63a8 183d 2fae fe3c
00000110: 2f3e 2d3d 3ed0 733c 6093 5c3c 6cbc 303c
00000120: 4e6a dc3c 2af4 b1bc cad4 fcbc 4e91 3dbd
00000130: f712 643c 7604 fa3b f56a 04bd 043d 45bd
00000140: aab6 ebbb 1bab 9ebc d848 10bb eaaf f63b
00000150: 3add d2bb 7606 5cba c38a 6bbb 2f8e 683c
00000160: e73e a0bc faff 433d 976f 403d 79ec a13c
00000170: f30a 433a 63bb fabc 53c2 84bc 9e65 f4bc
00000180: 9982 9f3b 9589 58bd 4a21 293c e04d 3fbd
00000190: 498c d1bc e853 96bc 28ad fa3c 2b18 10bd
000001a0: f472 25bd 844b 96bc 6c0c 0c3d da5c 133d
000001b0: f9c2 113d 1b4e 11bc c95e 093d 455b 313d
000001c0: 015f 973b 4c32 983c 424f 073d dc09 bc3a
000001d0: bc93 c53c 7469 8abb e959 07bd bbfa 5fbc
000001e0: c2a9 023c b4bc 013c 5939 02bd 513c 56bc
000001f0: 8227 a338 e200 0bbd 3a0c 9cbc 2bc0 05bd
00000200: bc7a 003c e9c6 1a3d 042a 9e3c 6db5 bf3c
00000210: 68c9 db3b bab1 4fbc 93b6 7fb9 66d7 863c
00000220: 9300 9bbc e362 bbbc a882 1bbd d000 9fba
00000230: c159 c6bc 430d d03b c674 153d a024 1c3d
00000240: e3d2 c63c 0653 7a3c f795 283d 0be3 053d
00000250: c588 a93a 7b37 d33c b874 ba3b c505 b3bc
00000260: e64e 0c3c fa51 fb3c 9a45 533a 3391 d73c
00000270: 9f9a 29bc 5def f8bc 1046 fe3c 468c c8bc
00000280: 32d4 773c 8d69 6ebc c6f7 193c b475 e73b
00000290: 1e7c 073c af06 8bbc 7e2f 673b f360 4d3c
000002a0: 2952 cebc 21b5 0d3a 9ecb c13c fa74 463d
000002b0: 0f62 9bba 1188 233d a62a 153d 7e09 62bc
000002c0: 4587 283c 8175 35bd ca06 30bd 2d65 35bc
000002d0: c434 b43c cef2 adbc a431 373c ffe4 933c
000002e0: cd82 123d 2e2a fb39 a9e3 053d 708e 2c3d
000002f0: 2def 223d 38f1 183d 1fd4 3e3d 8d40 2d3d
00000300: 5783 3f39 baed a7bc 0c18 93bc d5b1 2f3b
00000310: b3f0 0abd b5d4 87bc a358 8bbb b5f5 373d
00000320: 4873 e93b 53e2 1bbc 6a0e dcbb ed7d f8bc
00000330: 6ced e13c b671 723c ec42 85bc df0e 7938
00000340: 92af aebc 62ad 05bd 533c 13bd 6ef4 5dbb
00000350: a3c0 d63c 3776 0bbc 2f5c 063d 6d53 053d
00000360: 1739 60bc f713 88bc ba77 e1bc d67b 38bb
00000370: fd6e c63c cf38 01bc 91a4 a9bc 9519 763c
00000380: 0e06 f4bc 793d cc3b 45f3 eebc 0303 0abd
00000390: 6816 de3b 9cab 25bd 27ee d93c 013a 673b
000003a0: f486 3cbd 76e7 cebc 1141 e6bb 6896 a1bc
000003b0: 2d3d 1bbd b584 2bbc ea4f d83c df80 d43c
000003c0: e0bc 84bb 7a9a 843c 6efc 5b3d 3714 4d3d
000003d0: 65ab 0f3c 5abb 0f3c 75ab c4bc 91c0 17bd
000003e0: c9c5 29bd b614 3dbd 3142 1cbc 9d38 c83b
000003f0: 2928 4ebc 2f49 933c 4b27 c6bc 0a28 0c3d
0.010446091 0.007534249 -0.04354021 -0.037909012 -0.035214722 -0.01711839 0.00734213 0.03207235
-0.0118897725 0.019639831 -0.012229755 0.025968552 -0.019060217 0.024236904 0.02946944 -0.0007460874
0.033825003 0.01439184 -0.001771465 0.025695007 0.036946982 0.006118062 -0.024837563 -0.032447264
0.018727174 -0.010426047 0.01282482 -9.6606476e-05 0.020453142 -0.007673833 -0.014694595 0.019785108
-0.018537788 0.0065884385 -0.014293203 0.029370721 0.031235022 -0.015712315 -0.027834719 -0.00030048125
0.024355823 0.010084525 -0.001014478 -0.015669914 0.0064719026 0.004790828 -0.023026202 0.0052338676
-0.024033751 -0.016553657 -0.023696486 -0.017283104 0.0042609856 0.002135817 -0.03715939 -0.024022706
-0.027515637 0.016587235 0.013575732 -0.015663099 -0.017915031 -0.008568053 -0.0148190055 0.0017386298
0.03327583 0.0006748165 0.03726996 0.031088917 0.04229563 0.014881192 0.013462871 0.010787111
0.026906159 -0.021722872 -0.030863184 -0.04628115 0.013920537 0.0076299263 -0.032328565 -0.048153892
-0.007193406 -0.019368699 -0.0022016075 0.007528295 -0.0064350637 -0.0008393297 -0.0035940863 0.014194055
-0.019561244 0.04785154 0.04698142 0.01976608 0.0007440291 -0.030606931 -0.016205942 -0.029833611
0.0048678634 -0.052865583 0.010322878 -0.046705127 -0.025579588 -0.018350556 0.030600145 -0.0351793
-0.04039283 -0.018346556 0.034191534 0.035977222 0.03558633 -0.008868719 0.03353766 0.043299932
0.0046194796 0.01857867 0.03303457 0.00143462 0.024118297 -0.004223997 -0.03304473 -0.013670619
0.007975044 0.0079185255 -0.031792972 -0.013075904 7.7798046e-05 -0.03393639 -0.019048799 -0.03265397
0.007841762 0.03778735 0.019307144 0.02340194 0.006707359 -0.012676651 -0.00024386709 0.016460132
-0.018921172 -0.022874301 -0.0379664 -0.001213098 -0.02421272 0.006349237 0.036488317 0.038120866
0.02427048 0.015278583 0.041158643 0.03268723 0.0012934437 0.025783291 0.0056901835 -0.021853337
0.008563733 0.030678738 0.00080593827 0.026314354 -0.010351806 -0.030387575 0.031039268 -0.02448095
0.015126275 -0.014551532 0.009397453 0.007063592 0.008269338 -0.01697096 0.003527611 0.0125353215
-0.025185661 0.00054057135 0.023656663 0.0484514 -0.0011854785 0.039924685 0.036417626 -0.013796208
0.010286157 -0.044301514 -0.042975225 -0.0110714855 0.021997817 -0.021233942 0.011181269 0.01805353
0.035769273 0.00047905877 0.032687817 0.042128026 0.039778877 0.03733942 0.046589013 0.04229789
0.00018264107 -0.020499099 -0.017955802 0.0026808877 -0.033920955 -0.016580919 -0.0042525097 0.04491206
0.0071243383 -0.009514409 -0.0067155855 -0.030333484 0.027579032 0.014797619 -0.016267262 5.9380076e-05
-0.021323953 -0.032636054 -0.0359462 -0.0033867615 0.026214903 -0.008512071 0.032802757 0.032550264
-0.013685486 -0.016611082 -0.02752291 -0.0028149984 0.024222845 -0.007887079 -0.020708354 0.015020748
-0.029788043 0.006232914 -0.029168734 -0.03369428 0.0067775734 -0.040446863 0.026602818 0.0035282376
-0.04602714 -0.025256854 -0.0070267995 -0.01972504 -0.03790014 -0.010468652 0.026405293 0.025940357
-0.004050836 0.016186941 0.053707533 0.050068107 0.008768891 0.008772695 -0.024007538 -0.03704888
-0.04144839 -0.04616233 -0.009537266 0.0061102645 -0.012582817 0.017979233 -0.024188658 0.03421787

bias f4 [64]
00000000: a91d 7abb dc6e 73bd 05bd 1fbb 8c51 2ebd
00000010: aa76 283d a755 6b3c b6d0 4bbd 72cd 19bd
00000020: b97e 7abb cb11 cdbc 2263 d13c 4f9d 653c
00000030: 4d92 253d 8f74 a4bc df34 8fbc d902 f23a
00000040: e40d 053c 6e3d dabc 5dca 9e3a 2d79 32bd
00000050: 4011 31bb c538 1abd 7a5d 1abd 8ef8 31bc
00000060: 0944 b43c 6683 41b9 d967 2dbc 8f74 8dbc
00000070: 94a8 a0ba 2a07 6e3c db8f 0dbd 67e9 29bd
00000080: a724 ab3c 7e38 0ebc bd67 41bb 37a9 053d
00000090: 2263 e53c b3f2 55bc 6b91 083d bce3 a53c
000000a0: 8a4f fc3c 5859 43bc a94e 49bd b071 fabb
000000b0: 38f3 563c 06eb df3c 2387 013d 1ed5 003d
000000c0: 2a4e 1f3d e94e 09bd f715 0bbd 3b82 e739
000000d0: 8b12 25bd f77d c7bc 1def 99bd 2802 1fbc
000000e0: e858 fdbc 3b18 31bd a299 5cbc 33cb a43c
000000f0: 228f 34bc 9ecf 8dbb 2a46 aebc bfd8 583a
-0.0038164651 -0.059431896 -0.002437414 -0.042558238 0.041128792 0.014363683 -0.04975959 -0.037549444
-0.0038222505 -0.025032898 0.025559966 0.014014556 0.040422726 -0.02007511 -0.017481266 0.0018463983
0.008120988 -0.02664062 0.0012114752 -0.043572593 -0.0027018338 -0.037651796 -0.037686802 -0.010862483
0.022005098 -0.00018454864 -0.010583841 -0.017267494 -0.0012257271 0.014528075 -0.03456102 -0.041482355
0.0208915 -0.008680461 -0.0029511296 0.03263208 0.028001372 -0.013058352 0.033341806 0.020250194
0.030799646 -0.011923157 -0.04914728 -0.007642947 0.013119511 0.027333748 0.031623017 0.031453244
0.038892902 -0.03352252 -0.033956494 0.00044156783 -0.040300887 -0.024352057 -0.0751631 -0.009705104
-0.030926183 -0.043236 -0.013464363 0.020116424 -0.011020454 -0.0043277284 -0.021273691 0.0008272044

weight f4 [64, 1024]
00000000: aed0 423c 3e81 3fbb 22c8 f13c e8d8 88bc
00000010: b8d3 dc3a c6b4 f43c 8295 ddbb c023 1b3c
00000020: ca5c c5bc efec 8bbc a8c3 7f3c 0c77 e53c
00000030: a522 04bc f12f 31bc 91dc b5bc d974 a03c
00000040: d167 00bd 3809 ecbb dcaa 78bb 3c31 ab3c
00000050: 64be 9cbc ee02 e3bc d907 43bc 76bf f1bc
00000060: 9996 2bbd acf4 633c fd00 b1bc ebdb fc3a
00000070: 396d 00bd c231 09ba b0f3 f23c 78f2 6cbc
00000080: 559d 2cb9 cecf 9a3b f131 393b 6f6b 92bc
00000090: 0473 ee3a 1399 e3bc 2fce a6bc b709 87bc
000000a0: 34be be3c ec42 c8ba 6d67 cbb9 dcf4 eabc
000000b0: 8fda e5bb f924 063a cde2 01bd ce82 d1bc
000000c0: f8e6 a33c 078d c33c 7c50 4d3c ac18 d2bc
000000d0: 9b50 503c f983 a83c 6b00 ccbb 3c77 c03c
000000e0: 46af 5b3c ad94 f3bc 6396 70bb c32d a13c
000000f0: b30c eb3c d856 16bd ef01 d43c 5e43 833c
00000100: d5ee cabc 115e 973b 7c29 ca3b 547a fe3b
00000110: 1852 bd3c 59b6 10ba 7605 57bb 9540 96bc
00000120: 9b60 0ebd c6a3 153c cb54 06bd 14af 9d3c
00000130: 01a9 4abc e454 673c 6afb d6bc a61f 43ba
00000140: 9035 fbbc 37d0 8d3c dbb7 be3c b446 cf3c
00000150: fe6c be3c f2f0 de3c 6a45 f8bc cb82 73bc
00000160: 13d3 123d 9ef0 a7bc 4d61 19bd 881c b13c
00000170: 4c07 d63c 0b3a f7bc 5cb8 d0bc bd8f 743c
00000180: a321 d63c 6f28 c2bc f87a 693c ef09 79bc
00000190: 1f49 efbb 9fe5 a2b9 5d6d ce3a 57db 07bc
000001a0: 1553 96bc b7bc c7bc 5f5b 963c dadd 853c
000001b0: 74cb e03c e707 3b3c c50f 2c3a 3606 ae3b
000001c0: 0dbf 91bc 953a bebc ec5c c83c bf8d d9bb
000001d0: 5e6b b6bb e36e c6bc fdb0 a2bc 6afe 4a3c
000001e0: ba6a 91bc 365f e13b fd55 48bc 08a6 db3b
000001f0: 1c8c 203c f569 e63b 3258 8a3b 235b 5c3c
00000200: bc74 cbbc 4819 f03b e5ce d7bc 8837 0ebd
00000210: fa6b 443c 1910 523b 9ff3 aa3c e25f 873c
00000220: b227 1cbd 23f1 c0bc 8536 f33b 49fe 843a
00000230: e47d b6bc 508f 3dbb f156 7e39 e604 56bb
00000240: 78a2 66bc 1596 893b e734 cb3c 3beb aebc
00000250: e727 033d 06a7 e33b 1209 94bc d0a8 a13c
00000260: e67d 1dba 42ca febc 2c2d a8bc 4731 8bbc
00000270: 1002 82bb 5c59 a23b e219 eebc 3a20 df3c
00000280: 3b73 023a e01a bebb a205 1d3c baa2 bf3c
00000290: a8ac e73c 29a0 2cbc 4cb1 e6bc 74d5 06bb
000002a0: 73b7 d2bb 97d4 da3c 8c21 033d 08f3 84bc
000002b0: 553c 90bc f1d0 68bb 97af 88ba 2a37 16bc
000002c0: c76d aabc b14b 5abc 9e8f 543c 7fdb 043d
000002d0: cb30 d33c e21c d43a f33b c5bc b80c d8bc
000002e0: a300 223a 9dc2 03bd 498c 13bd 5e54 92bc
000002f0: 9863 b1bb 531e 90bc f1f7 3abb b9d7 e2bc
00000300: 3216 aabc 88a5 fcbc ab40 013c ff3d a1bc
00000310: 95f3 3fbc 33eb c23b e064 79bc a635 dbbb
00000320: 3811 053d e0a2 bfbb 8be4 533d 534c 64bc
00000330: 0a3b c93b 5a7a 94bc 0f08 ca3c b0c9 ff3c
00000340: f2f6 05bd 297d d63c 09e5 9d3b e30e 12bd
00000350: 2377 2bbd 0aa5 573c 0cd2 8bbc 8a3a 223c
00000360: 14ec 1fbd 38b4 1abd b847 a2bc 6722 87bb
00000370: 76be 4a39 980f 4dbc a19f 2abc 7985 88bc
00000380: dbd2 c5bb d411 df3c 5c50 d1ba 04a2 0ebc
00000390: 0dc7 d9bb 7b00 23bd dc3c b6bc 0b57 01bd
000003a0: bdb9 993c 7cef 23bc d180 d3ba 64f9 ac3c
000003b0: e4ca b53c 8e29 b93a fb14 efb8 3467 c0ba
000003c0: ea94 093a 200f 44bc 3764 263c 7f54 bb3c
000003d0: 8737 d23c f1da d9bc da56 d0bc c26c 343b
000003e0: f8bb d23c be37 253c 71de dfbb 0e64 78bc
000003f0: cb99 d63c 6e23 82bc dd98 d4bc eaee c5bb
0.011890573 -0.0029221321 0.029514376 -0.016704991 0.0016847765 0.029871356 -0.0067622075 0.009468973
-0.024092097 -0.017080752 0.015610613 0.028010868 -0.0080649005 -0.010814653 -0.0221999 0.019586967
-0.031349007 -0.0072032474 -0.0037943637 0.0208975 -0.019133754 -0.027711358 -0.0119037265 -0.029510241
-0.041891668 0.013913315 -0.021606917 0.0019291615 -0.031354163 -0.000523355 0.029657215 -0.014462106
-0.00016461809 0.0047244793 0.0028258527 -0.017873494 0.0018192236 -0.027782952 -0.020361988 -0.016484125
0.023284055 -0.0015278733 -0.00038796235 -0.028681211 -0.0070145796 0.00051172037 -0.031710435 -0.025575068
0.020007595 0.023870958 0.012531396 -0.02564653 0.01271453 0.020570742 -0.0062256358 0.023494355
0.013408488 -0.02973398 -0.0036710731 0.019675141 0.028692579 -0.036703914 0.025879828 0.016023334
-0.024772087 0.004619368 0.006169496 0.0077660475 0.023110434 -0.0005520336 -0.0032809651 -0.018341342
-0.0347601 0.009133285 -0.03279571 0.019248523 -0.012369395 0.014119361 -0.02624293 -0.00074433757
-0.030665189 0.017311199 0.023281028 0.025302269 0.02324533 0.027214501 -0.030306537 -0.014862726
0.035845827 -0.020500477 -0.03744631 0.02162005 0.026126526 -0.030179044 -0.025478534 0.014926848
0.026139086 -0.02370092 0.014250509 -0.015200122 -0.007302418 -0.0003107013 0.0015749146 -0.008292041
-0.018350163 -0.024381978 0.018354116 0.016341139 0.027440764 0.011415458 0.0006563629 0.005310799
-0.017791295 -0.023221293 0.024458371 -0.006639212 -0.0055669984 -0.024222797 -0.019859785 0.012389759
-0.017751087 0.006877805 -0.012227532 0.006703142 0.00979903 0.007031674 0.0042219395 0.013449463
-0.024835937 0.0073272325 -0.026343772 -0.034720927 0.011988634 0.0032053052 0.02086812 0.016525213
-0.038123794 -0.023552483 0.0074222707 0.0010146584 -0.022276826 -0.0028924532 0.00024255716 -0.0032656728
-0.0140768215 0.0041987994 0.0248055 -0.021352401 0.032020476 0.006947401 -0.018070731 0.019733816
-0.0006007835 -0.031102303 -0.020529352 -0.01699127 -0.003967531 0.0049545 -0.029065076 0.027237047
0.0004976277 -0.0058015436 0.0095838625 0.023393024 0.028280571 -0.010536232 -0.028160714 -0.0020574005
-0.0064305603 0.026712699 0.032014415 -0.016229168 -0.017606894 -0.003552493 -0.0010428306 -0.009168426
-0.020804299 -0.01332371 0.012973694 0.03243589 0.025780102 0.0016182924 -0.024076438 -0.026373252
0.00061799044 -0.03216802 -0.03602246 -0.017862495 -0.005413484 -0.017592585 -0.0028529132 -0.027690755
-0.020762537 -0.03084065 0.007888953 -0.019682882 -0.011715789 0.005948448 -0.015221804 -0.006689745
0.032487124 -0.0058482736 0.051731627 -0.013934213 0.006141071 -0.018124748 0.024662046 0.031224102
-0.03270621 0.026182728 0.004818563 -0.03565873 -0.041861665 0.013161907 -0.017067932 0.009901652
-0.0390435 -0.037769526 -0.019809589 -0.004123974 0.00019335173 -0.012515925 -0.010414035 -0.016665207
-0.006037099 0.02723018 -0.0015969384 -0.00870562 -0.006646043 -0.03979538 -0.022245817 -0.03157715
0.018765325 -0.010005828 -0.0016136413 0.021115012 0.022191472 0.0014126764 -0.00011400316 -0.0014679194
0.0005248325 -0.011966497 0.010155729 0.02286744 0.025661243 -0.026593657 -0.025432039 0.0027530645
0.025724396 0.010084091 -0.006831937 -0.015160574 0.026196381 -0.015886035 -0.025951797 -0.0060404437

bias f4 [64]
00000000: 64bb e13c e798 d8bc 538b 3abd 9fee 1f3c
00000010: b8a8 2e3d 0ff2 2fbd 29b5 fcba 4207 003d
00000020: 3664 c73b 1668 81bb 3a21 d6bc 1052 383c
00000030: 51fa 763c 26b0 52bd f8e6 153d ef8e a43a
00000040: 139b bcba 095d 7d3c 3538 083d bbd6 83bc
00000050: 5391 abbc 5399 c93c b27e 86bc a7b9 b93c
00000060: 4874 47bd a550 183c f699 b23c a88c 363c
00000070: 5f50 f53c 408d 173c 57d6 633d 108f bb3c
00000080: 169f fabc e628 21bc 254f f43a c5ad 623c
00000090: e2f9 003c ce91 f4bc a280 c13a 31b3 133b
000000a0: c3f3 5c3d 17ff bd3c c812 aa3c 8a66 2e3d
000000b0: 7a75 523c 4c34 96bc 2c53 16bd c665 3dbb
000000c0: db82 7ebc bece 443c 1f36 8c3b 5b93 b33c
000000d0: 04b9 edba a109 9abc 667f 54bd 0351 453c
000000e0: 3aeb f53c 32bd 9c39 b5e8 1b3c 6ac4 db3c
000000f0: 03e1 543b a6b9 22bc bba4 c6b9 2833 173d
0.027555175 -0.026440097 -0.045543026 0.009761482 0.04264137 -0.042955454 -0.0019280064 0.03125692
0.006084944 -0.0039491756 -0.02613889 0.011250034 0.0150743285 -0.05143752 0.036597222 0.0012554805
-0.0014389477 0.015464076 0.03325673 -0.016093602 -0.02094332 0.024609243 -0.016417835 0.022671534
-0.04869488 0.009296571 0.02180193 0.0111419335 0.02994555 0.009249985 0.055624332 0.022895366
-0.030593436 -0.009836411 0.001863931 0.013835375 0.007872077 -0.029854681 0.0014763067 0.0022537226
0.053943407 0.023192925 0.020760909 0.042578258 0.012845391 -0.018335484 -0.036700413 -0.0028899773
-0.015534128 0.012012182 0.0042789127 0.02192085 -0.0018136804 -0.01880342 -0.05187931 0.0120432405
0.030019391 0.000298956 0.009515931 0.026827056 0.003248275 -0.009931957 -0.00037888237 0.03691402

weight f4 [10, 64]
00000000: d11c 8abd 8941 59bd 47f4 af3d 3da8 13be
00000010: de0e 20be cec6 5c3e c959 1f3d 610e 92bd
00000020: 73c3 b23d d9b6 d4bd c1b5 733d 8f2a 4d3b
00000030: cdda 403c 2442 1f3e 77b5 413d e812 16bd
00000040: 013e e73c 35d7 ff3c 770c d8bd 2df2 d53d
00000050: 710f d6bd aa8f bf3a 331d 123e 7ede 163d
00000060: bf4a 533e 1639 7dbd c7a5 e8bd 4df8 c2bd
00000070: ccaa bcbd 9932 17be 23d4 32be 3263 0cbe
00000080: 61e8 27bc f083 c43d 4d97 cc3d 417c 363d
00000090: 5f3c 19be 8180 0abc ab86 853d 5c95 be3c
000000a0: 2d2e 70bd 5b56 213e c4c6 4bbd 2b7a da3b
000000b0: 2c47 44bc b441 043e b0b1 0f3e 17b9 0b3d
000000c0: 0784 833d 83f2 413e e778 13bc 5058 043e
000000d0: 344d 7e3c 5865 b13d 26bf b93d d99c 3abe
000000e0: d8ed 433c 0fd8 55be 0aca 1c3e 28cb 3abd
000000f0: e3f4 1ebe 98ac 11bd e6a8 73bc d6c5 0bbe
00000100: 570f cf3c 8572 09be 66e5 623e 10ae 4bbe
00000110: 3085 48bd fe0f 5c3c 6e89 8b3d 48fb 1bbe
00000120: f2af 01bd da8d 5c3d 0271 2e3e b519 293e
00000130: 1ab5 0abe bedf bbbd 6e13 a5bd 7da2 7e3c
00000140: b295 11bd f9c9 0d3e 01fc 9b3b e6ef ad3d
00000150: a4bd 453e 5a34 393e 5deb 2b3e 84b9 61be
00000160: fedc da3d 7955 1abe 5554 cb3d 220a c4bc
00000170: f63d 75be 46bc 8bbd 9e6d ffbd 6f6c a5bd
00000180: 0908 db3a 7d10 b73d 943e 97bb fd68 c43b
00000190: bdb2 9d3d d1ba 49be 3ff8 1ebe 2210 523e
000001a0: 37b0 d83d e047 213e 1188 843d b614 483c
000001b0: 288e 50be 3d3e 16be fc83 873d fffa 6fbe
000001c0: 3581 58be 9413 49be 124d 043e 936b 35be
000001d0: 6d33 523c a4d9 28be 20a1 51bc ca3d b73c
000001e0: f278 3c3e 5456 79be c5bf 85be e2e7 2abd
000001f0: 15cb fc3d ddab 16be 554d 663d 1842 193e
00000200: cb11 18be 27ea 00be 8ba9 3fbe 1640 163e
00000210: 992d 8a3d cbd2 433e e002 0e3e bd45 4f3d
00000220: 7f8d 3a3e d59c 9c3d 92d7 35be e413 a63d
00000230: cc24 ec3d e4fb 0ebc 511e 52bd c8a1 48be
00000240: f0f6 9abd 3975 173e 16e6 953d c5c3 94bd
00000250: 343a 3ebd 0314 06be ff54 7fbd 6978 e03d
00000260: c109 c03d ca1a 10be 5eea bebd 01d0 f9bb
00000270: fbcd 403c cd3e 7a3d 3afd 193e f55d 693d
00000280: a769 9d3d d3f9 b43d 00bb 86bd f0e4 13bc
00000290: 6ba8 e2bc df61 463e f4d2 0e3e 3241 10bd
000002a0: 2da6 81bd 9d2b 6ebd a458 8b3d 5aae d13d
000002b0: 343f 8f3d 5678 f1bc 36b1 0c3e 9c70 003c
000002c0: 5829 8ebd fe05 bc3c 4b5b 00bd c90e 8d3d
000002d0: 7961 1abe 4167 82bd 4231 b03d 5ecc e6bd
000002e0: e394 003e 66ed 773d 2eb2 fdbd dec5 b5bd
000002f0: 3a05 01bd 5702 023e 87b0 90bd da31 6fbc
00000300: dc6a 8d3c 566e cabd 7894 20be 20ca 08be
00000310: 59b8 6f3d 5d09 4cbd e3fd 24bd a6af b6bd
00000320: 7e6a 033e 0b8e d7bd 07ce 243d c92e f2bd
00000330: 0efc 5ebc 3dec 8cbc 259d d0bc 226b 9bbd
00000340: fd07 943d b6c6 84bd b432 293e 73f2 05bd
00000350: 36e3 d83b 8030 13be 3f3a c3ba e6fe 113e
00000360: 6ddc cbbc fd4e 1d3c 5658 b93d dbd3 a8bd
00000370: 4b73 1a3e 2e45 1dba bde1 f13d 1146 173e
00000380: 5624 94bd a2bc a23c 834d 41bc 7680 f23d
00000390: 460b dd3d cef9 433d a699 073e 3bc0 7cbe
000003a0: 4fa6 de3d f9a4 25be 479d c83b de42 113e
000003b0: d960 33bd b323 0cbd b7f4 a53d 3d83 403e
000003c0: d924 0dbd 3a6b 58bc 6f56 d3bd 48b5 36be
000003d0: 43f8 a43c 721c 7cbd 423b b7bb ca2b 003e
000003e0: bbdc 1fbe 9572 a1bd fa6f 363d 3f91 bd3b
000003f0: f416 933d 8e1a 8ebc ba6f 523d 28d7 673d
-0.067437775 -0.053041015 0.08591514 -0.14419647 -0.15630671 0.21560213 0.038903985 -0.07131649
0.08728685 -0.10386438 0.059499506 0.0031305884 0.011770916 0.15552574 0.0472922 -0.036639124
0.028227808 0.031230548 -0.105492525 0.10446582 -0.10452164 0.0014614959 0.14268951 0.03683328
0.20633982 -0.06182202 -0.113597445 -0.09520016 -0.092122644 -0.14765395 -0.17463736 -0.13709715
-0.010248275 0.095954776 0.09989796 0.04455209 -0.14964436 -0.008453489 0.065198265 0.02326458
-0.058637787 0.15755598 -0.049750105 0.0066673956 -0.011979859 0.12915689 0.14032626 0.034112062
0.064216666 0.18940167 -0.009000993 0.12924314 0.015521336 0.08661908 0.09069662 -0.18223895
0.011958562 -0.20883201 0.15311447 -0.0456039 -0.15523104 -0.03556499 -0.0148718115 -0.13649687
0.02527587 -0.13422592 0.22157821 -0.19890618 -0.048955142 0.013431547 0.06813322 -0.15232575
-0.031661935 0.053846218 0.17035297 0.16513713 -0.13545647 -0.09173535 -0.080603465 0.01554167
-0.03554315 0.13846578 0.004760266 0.084930226 0.19310623 0.18086377 0.16789003 -0.22043425
0.10686682 -0.15071668 0.099281944 -0.023930613 -0.23949417 -0.0682302 -0.1247208 -0.08077323
0.0016710769 0.08938692 -0.004615614 0.005993961 0.07700107 -0.19700171 -0.15524386 0.20513967
0.10580485 0.15750074 0.06471265 0.012211969 -0.20366728 -0.1467218 0.06616971 -0.23435591
-0.21143039 -0.19636375 0.12920025 -0.17716818 0.012829644 -0.16489273 -0.012794763 0.02236833
0.18405512 -0.24349338 -0.2612287 -0.041725047 0.12343422 -0.14713998 0.056226093 0.14966619
-0.14850537 -0.12589322 -0.1871702 0.14672884 0.06746978 0.1912338 0.13868284 0.050603617
0.18218039 0.07647101 -0.17758015 0.081092626 0.11530456 -0.008727048 -0.051298443 -0.19592965
-0.07566631 0.1479081 0.07319276 -0.072639026 -0.046442226 -0.13093571 -0.062336918 0.109604664
0.093768604 -0.14072719 -0.09322046 -0.007623673 0.01176786 0.061095048 0.15038005 0.05697437
0.07686167 0.08836713 -0.06578636 -0.009026751 -0.027668199 0.19373272 0.1394766 -0.035218425
-0.06330524 -0.05814706 0.06804016 0.10238333 0.06994477 -0.029476326 0.13739476 0.007839348
-0.069414794 0.022952076 -0.031337064 0.06887586 -0.15076245 -0.0636735 0.08603145 -0.11269449
0.12556796 0.060529135 -0.12387501 -0.08875631 -0.031499125 0.12696205 -0.0706492 -0.014599288
0.017262869 -0.09884326 -0.15681636 -0.13358355 0.058525417 -0.049813617 -0.040281188 -0.08920221
0.12833592 -0.105251394 0.040235545 -0.1182533 -0.013609899 -0.017202491 -0.025465557 -0.07588793
0.07228086 -0.064832136 0.16523248 -0.03270192 0.0066188825 -0.1437397 -0.0014894678 0.14257392
-0.02488538 0.009601352 0.09050052 -0.08243533 0.15083043 -0.0005999383 0.11810634 0.14772822
-0.07233493 0.019865338 -0.011798265 0.11840908 0.10793166 0.047845654 0.13242206 -0.24682705
0.108715646 -0.16176213 0.0061222645 0.14185664 -0.043793533 -0.034213733 0.08103316 0.18800063
-0.03445897 -0.013209159 -0.1031922 -0.17842591 0.020137912 -0.061550565 -0.005591781 0.12516704
-0.15611546 -0.07883183 0.044540383 0.005785137 0.07182112 -0.017346647 0.051376082 0.056601673

bias f4 [10]
00000000: e670 41be caa6 903c f712 2a3d 5eeb 5f3d
00000010: c877 d13d 1025 d5bb a586 2d3e 3a95 9f3c
00000020: 3017 00bd c533 d43b
-0.18890724 0.017657656 0.041521993 0.054667823 0.102279246 -0.0065046623 0.16945894 0.019480336
-0.031272113 0.006475898
