DeepLearningDemo/models/jingxin_9.pth (torch, 588127 bytes, 10 tensors)

weight f4 [32, 3, 5, 5]
00000000: 5559 2dbb 4b47 e63d 2f0f a4bd 5380 04be
00000010: 3773 813c f00a 89bd 3a06 f0bd e050 a03d
00000020: ce08 9b3d 950f 313d a238 6b3d 2bd8 023e
00000030: dc90 363e fc0f c33d 193c 993c aa9d 4d3d
00000040: 62fb 3bbd 6dcd dbbd 08a0 afbb 6c98 d2bd
00000050: 72bf 34bd 3780 113d 0f8c e4bd d23f df3d
00000060: b9f1 e3bd e828 9f3d 2577 da3d 1d03 bfbd
00000070: 6ed7 f5bd 31ef 5cbd 77c7 e4bc 0f3f dcbd
00000080: 75e9 003e 4a18 0ebd e684 963d 961e 53bc
00000090: b267 a7bd 2219 613d 63db 263e 0ed4 343d
000000a0: 6d6c 0a3e 7d5c a13c a0e4 bdbd cce3 2c3d
000000b0: e71f 9e3d da56 dabd 75d0 f2bd 5646 193c
000000c0: fff8 07bc f175 193d fac0 47bd 1e44 abbc
000000d0: 538a 68bd a049 01be 256d f3bd 1415 e13a
000000e0: e669 14be 7186 753d 68b4 adbc bab7 d33d
000000f0: d692 1b3d 6023 8fbd a082 113e f54e 533d
00000100: 459a 093d 8391 01bc 6cef 6f3c de95 ecbd
00000110: c7b7 99bd 977a 993a 9760 953d fc37 08bd
00000120: 8178 d33d eb7d c83d 8f25 7fbd ca8c e8bd
00000130: a60b a3bd 261c 8d3c 0ce8 253b 82a9 a63c
00000140: d946 b63d f1ee 83bd ffd4 90bb 6c98 b6bd
00000150: 7bc3 1f3c e9ee b1ba 0cd7 19be 09bf ecbc
00000160: 2d30 f6bd bb9d 9abd aa71 1a3d 750d 263c
00000170: b0c3 da3d 7239 fd3d cfe6 98bd e952 acba
00000180: 9528 0f3d 8f4a 94bd 52a6 033e 4e2c 4e3d
00000190: 3aef edbd 945f d4bc 48b6 cfbd 03ee 19bd
000001a0: 50eb e43d 1e62 8a3d 32fa 70bc 8f1a e83d
000001b0: d4a1 5bbd 4fd9 09be 8da4 7a3c 8b06 da3c
000001c0: 9ee0 8ebc 2a55 06be e07c 3dbd e073 143d
000001d0: dbca 083e 0cd7 78bd 66a9 673d a47d ce3d
000001e0: 2496 ec3d 50d5 14bd 0749 63bb 6837 293d
000001f0: f1ad bd3c 8dc7 bf3d 1595 823d b19f c03d
00000200: 73cb ec3d 62e7 94bd 57eb d93d ab74 ae3d
00000210: eb87 2dbd 7cba f7ba 74cd ddbc 9a91 b2bd
00000220: d6c4 c43d 9a4d 8fbd 9a91 9fbd 4c2c a53d
00000230: f107 31bc 9d1a 78bc 0e18 a93c bd29 393d
00000240: a6ed 163d 0b04 df3d facd ae3c 78d7 c23d
00000250: 813e 3a3d a447 efbc ad2b 99bb 45ec a93c
00000260: c567 463c c7e7 263e 9e86 743e 2743 333d
00000270: 4d65 6bbd 41f3 923d 3de3 02bd 8ae6 a73b
00000280: 5ec7 b93d c4ab 3ebb c4d3 713d e8d3 a5bd
00000290: 9905 1cbc d855 063d 8904 36bd 13ef 19bd
000002a0: 1019 db3c 0b37 9dbd 3ac0 803d e8e7 57bd
000002b0: 8b3e 36bd 1f33 843d e3c7 cf3d d9ce b53d
000002c0: 623e 42be 31ad 00be e2b5 0ebe f93b f53d
000002d0: fb72 bebd 5e6a 16be 3928 50be 6955 0fbe
000002e0: 436c 033e 12a8 78bc df1d 5bbe c913 cbbd
000002f0: 7a2e 9ebd 8ce0 48bd d3e4 16be a11f afbd
00000300: c319 033d 8ecf bbbd 0155 f3bd 7400 c7bc
00000310: 78a1 0cbe 18b4 f13b 9a6e c23d c82a 683d
00000320: c0fa b53d ecb6 f8bd 5c00 efbd 6221 fa3b
00000330: 8f3e 273e cb7e 883d 8377 df3b 3d9c 0dbe
00000340: 9390 833d 4a34 1e3e f1b5 05bc 3fd6 15be
00000350: c009 513d efbe d0bd 8e05 d53c c925 8abd
00000360: 10d8 1ebe 8312 eabc 1ed5 823d 5615 a4bd
00000370: c7e9 883a de71 dbbc e518 f2bc 0d61 16ba
00000380: c68e fe3d 50fb 9d3c ddcd e83d 4a05 e9bd
00000390: 8b46 dcbd b6f3 df3c 99ab 23bc 8f46 1e3d
000003a0: ffc8 77bd 3ad7 c0bd 3e82 ed3d 3794 e43d
000003b0: 80bb 1dbd 83f2 90bd d733 de3c 93cf bdbd
000003c0: 4567 88bd f047 28be aa97 1ebd 8296 b0bc
000003d0: 2f51 39bd 82d4 d7bd 1fe0 c13d 2048 873d
000003e0: e434 dc3d 4a51 0b3e 10e9 e4bb ff5b eb3d
000003f0: 08e2 1cbd 35d2 babc bb9a c03d bb31 7b3d
-0.002645095 0.11244067 -0.080107085 -0.12939577 0.015802009 -0.06691539 -0.117199376 0.07827926
0.07570039 0.04322775 0.057427056 0.12777774 0.17828697 0.09524533 0.018705415 0.05019919
-0.045894034 -0.10732541 -0.0053596534 -0.102829784 -0.04412789 0.035522666 -0.111595266 0.10900845
-0.11130089 0.07771474 0.10667256 -0.09326766 -0.120039806 -0.05393905 -0.027927143 -0.10754215
0.12589057 -0.034691133 0.07349567 -0.01288571 -0.08174075 0.05495561 0.16294627 0.044147544
0.13517924 0.019697422 -0.092721224 0.04220943 0.07720929 -0.10661097 -0.11856166 0.009355148
-0.008299111 0.037465993 -0.04876802 -0.020906504 -0.05677254 -0.12625742 -0.11886052 0.001717242
-0.14493522 0.059942666 -0.021204188 0.103377774 0.03798183 -0.06989169 0.14209986 0.05158897
0.03359439 -0.007908228 0.014644485 -0.115520224 -0.07505756 0.0011709508 0.07293814 -0.033256516
0.10325719 0.09789642 -0.062291678 -0.113549784 -0.07961206 0.017225336 0.0025315313 0.0203445
0.08900232 -0.06442059 -0.0044199224 -0.08915791 0.009751196 -0.0013575229 -0.1502344 -0.028899686
-0.120209076 -0.07549616 0.037706055 0.010135044 0.10681856 0.123644724 -0.07465898 -0.0013147268
0.03495081 -0.072407834 0.12856415 0.05033522 -0.116178945 -0.025924481 -0.10142189 -0.0375805
0.11177695 0.067569956 -0.014708089 0.11333191 -0.05362113 -0.13461803 0.015298021 0.026614448
-0.01744109 -0.13118425 -0.04626167 0.03624332 0.13358633 -0.06075196 0.056558035 0.10082558
0.115520746 -0.036336243 -0.003468098 0.041312605 0.02315423 0.09364233 0.063760914 0.09405459
0.11562242 -0.07270695 0.10640591 0.085183464 -0.04236595 -0.0018900181 -0.027075507 -0.087191775
0.09607856 -0.06997223 -0.07791443 0.080650896 -0.010805116 -0.015143064 0.020641353 0.04520582
0.036847733 0.10889443 0.021338452 0.09513754 0.045469765 -0.029208966 -0.004674396 0.020742545
0.0121097015 0.16299354 0.23879477 0.043765213 -0.057469655 0.07175303 -0.031954993 0.005123918
0.090712294 -0.002909408 0.059039846 -0.080970585 -0.009522819 0.03279671 -0.04443792 -0.037581515
0.02674535 -0.07676514 0.06286664 -0.052711397 -0.04449324 0.06455063 0.10145547 0.08877344
-0.1896911 -0.12566067 -0.1393657 0.119743295 -0.092992745 -0.14689013 -0.20327844 -0.13997425
0.12834267 -0.01517679 -0.21398114 -0.09915883 -0.077237085 -0.04904227 -0.14735727 -0.085509546
0.03200699 -0.09170447 -0.118814476 -0.024292208 -0.1373347 0.007376205 0.09493752 0.056681424
0.088857174 -0.121442646 -0.116699904 0.007633374 0.16332458 0.06664809 0.006819667 -0.13829131
0.0642406 0.15449634 -0.008161054 -0.1463251 0.05103469 -0.10192668 0.026003625 -0.06745488
-0.15512109 -0.02857328 0.06388305 -0.08011882 0.0010445648 -0.026787695 -0.029552886 -0.00057365076
0.124295756 0.019284874 0.1136739 -0.11377962 -0.107556425 0.02733789 -0.009989643 0.03864151
-0.06049442 -0.09416051 0.11597107 0.11161082 -0.038508892 -0.070775054 0.027124329 -0.09268107
-0.06660322 -0.16433692 -0.038718857 -0.021556143 -0.04524344 -0.105385795 0.09466576 0.066055536
0.107522756 0.13605228 -0.006985791 0.11492156 -0.038301498 -0.022805313 0.094045125 0.061326724

bias f4 [32]
00000000: 9bb4 413d 4f95 77be b0b5 f93d 5256 91bd
00000010: 2aa3 493e 1208 813e 795d a03e 34c6 a2be
00000020: a607 99bd cc8d 51be 5fd0 58bc 8468 b7bd
00000030: 0fa9 56bd cb0c 4fbd 8059 9bbc cb43 4d3e
00000040: 67e0 c2bc 2df5 2ebe 66d2 4dbe 83a8 90be
00000050: e4c9 923e 382a 5bbe b96b 0ebe 93b0 913d
00000060: b96f 90bc 6083 f5bd 624e 9f3d e504 133d
00000070: 8e1f a93e 318c 6abb 2570 17be 0fa3 10be
0.04729138 -0.2417805 0.12192857 -0.070965424 0.19691148 0.2520147 0.31321314 -0.31791842
-0.07472162 -0.20464247 -0.013233273 -0.08955482 -0.05240732 -0.05054931 -0.018963575 0.20045392
-0.023788644 -0.17085715 -0.20099792 -0.28253564 0.28669655 -0.21402824 -0.1390828 0.07113757
-0.017631399 -0.119879484 0.07778622 0.03589334 0.33031887 -0.0035789127 -0.14788873 -0.14124702

weight f4 [32, 32, 5, 5]
00000000: bb79 d73c 4b67 8abc b412 9f3c 665e 1bbd
00000010: 42f0 293c 29cf 7c3c 540f ec3c 98a5 2b3c
00000020: d81c 773c 4638 13bd c719 bebc 0515 02bd
00000030: a140 d9bc dd40 ed3b ab03 fcbc 4384 c3bb
00000040: 55c9 cfbc d040 b63c 87bb 4e3c dba3 8dbb
00000050: 9a90 10bc 1192 bfbb 1120 f0bc bc9d 593c
00000060: 9645 05bd a5f1 d3bc 7691 27bd 9b6a 2e3c
00000070: a04a 043d 9622 eebc ad74 b2bc b2a5 333b
00000080: 0695 133d 14a8 b1bc 50bd a5bc 413c fd3b
00000090: f9ab 8d3b 3bc5 6bbc 44e5 0e3d 8171 8c3c
000000a0: 067d cf3b 903f de3c acd6 1ebc 2029 7dbc
000000b0: a753 113d 36aa a43c 716f d53c 5534 ab3c
000000c0: 2556 893c 4cc3 213b 9414 fe3c db6a 813b
000000d0: ee82 0e3d 0077 be3c 57a5 6eba 9377 353c
000000e0: ec88 393c 0b7b 313c 2512 37bd affe 00bb
000000f0: 7792 853c 2ad6 ffba 8169 f5bb e477 5fbd
00000100: 66f0 08bd eed7 b13c 0d53 80bc f3a3 45bc
00000110: 0b01 6cbd 7782 f3bc efad b33b 644d fabc
00000120: b0d5 3fbd b3fc f8bc b8ae a43c 19b6 d53c
00000130: 2abb 113d cb74 b4bc c0f3 c93c 7e52 a93c
00000140: b506 8b3b 29af 67bb 9980 d5bc d74f ba3c
00000150: 403e fcbb 9f21 3e3d dfa5 d4bc e774 033d
00000160: d7cb 0dbd 3f0d 9cbb 77bd 173c 644c 1a3d
00000170: d611 05bd 2431 443c 20e1 f23c 7ef1 f4bc
00000180: e108 0f3a e4f9 69bc 9628 4a3c 5b0b e63c
00000190: 4e83 173d e59e 2a3d cbc8 fabc 65b0 2e3c
000001a0: a175 043d 887d 673c 7c29 35bb 3dff e8bc
000001b0: 88cd debb 982f 80bc e99b 89bc 728a 8b3c
000001c0: df72 d2bb ae71 38bd 92ad 9e3a 01e7 8ebc
000001d0: 18fe ebbc ac02 a5bc 3c3a a2bb 0f5c e63c
000001e0: 8c1f 0abd c4e0 08bd 1afa e73a 221c 8e3a
000001f0: 7241 40bc 1104 c23c 4d9f 1e3c c7ae 89bb
00000200: a19f cdbc b9e0 cb3b 1e2e d43c 0893 03bc
00000210: 5f2e 65bc 189d 9fbc 54f0 133d b887 393d
00000220: 2e6b ae3c 4091 1dbc b87d d1bb 7101 f3bc
00000230: 32d4 a83c 2fc4 2abd 70ef c4bc e458 40bd
00000240: d811 c9bc e710 ccbc 05e8 1abd 4632 40bd
00000250: 39cc 44bd a7fd a4bb e93b 8b3d f9d9 673d
00000260: 41e2 043d a5c3 e4ba 13bb 343c f37b 243d
00000270: 58f7 f73c 4ea5 2dbc 7ac3 38bd 2a40 45ba
00000280: 2098 2c3d 69e1 f63c 66ad 11bc 9e57 573b
00000290: e269 0f3c 3cf7 a0bc 133e d83c 7696 19bd
000002a0: e40d 79bd 6f51 a4bb 4243 dbbc 7225 ba3c
000002b0: 7cca 2abd 0a46 12bd 7fe0 e13c 9b06 e9bc
000002c0: 4045 a8bc 5281 dcbc a8df 8c3c 6e2f 0abc
000002d0: 7048 37bc cf89 aa3a bec5 b6bc c2af c53b
000002e0: 0940 8d3c 9eb7 45bd aad5 e9bc 029e 693c
000002f0: ca8c 13bd 74ff b7bc 39e4 3abd e5e0 53bd
00000300: ed37 813c 104c 5e3c a7f8 a93c 58ff f7bc
00000310: ed05 81bc 10b5 78bc c0e8 a43c 1d26 d1bc
00000320: f2ff d43c 718c cd3a 5e67 be3b 1fd7 e8bc
00000330: 729c cabc 2468 623c 28f1 a43c 14a9 0d3a
00000340: 08e1 bb3c ccd8 7f3c 9095 dcbb c795 77bc
00000350: 50df b03c 074e e8bb 4c22 dabb 5635 8c3c
00000360: 3684 58bc 6f22 d3bc 9ecf 8e3b e135 d73c
00000370: a613 263c cdda 94bc d386 d9bb 09b0 82bc
00000380: d19a 853c 00f5 2dbc 8963 983c f660 a9bb
00000390: 9974 6ebc 2e41 9fb8 a3bd 30bc 7955 5e3c
000003a0: c2cb 643c 528c 12bb 218a c9bc 039d 06bc
000003b0: 36d5 95bc 5a95 acbb 7853 113d 303b ddbc
000003c0: 8d6a 87bc 7b6a 293d 042a b0bc e52a 083d
000003d0: f569 b8bc 4337 2f3d 634c 2e3d 34a9 dcbc
000003e0: 7948 ac3c 2ec7 d83c ea9e 7fbc a570 0ebc
000003f0: 3b0d a73b 092a 963b c60f 53bc 5295 89bb
0.026303163 -0.016894957 0.019418098 -0.037931822 0.010372223 0.01543025 0.028815903 0.010476492
0.0150825605 -0.03594234 -0.023205651 -0.031758327 -0.026520075 0.0072403983 -0.030763468 -0.0059666946
-0.025364557 0.022247702 0.012617952 -0.0043225116 -0.008823538 -0.00584627 -0.029312165 0.013282236
-0.032537065 -0.025872061 -0.040910207 0.010645534 0.03229773 -0.029069226 -0.021784151 0.0027411995
0.03603079 -0.021686591 -0.020231873 0.00772813 0.0043234793 -0.014390285 0.034886613 0.017143967
0.0063320426 0.027129918 -0.009694736 -0.0154516995 0.035480168 0.020100694 0.026054116 0.020898977
0.01676471 0.0024683056 0.031015672 0.0039495057 0.034792833 0.023250103 -0.0009103617 0.011075872
0.011324149 0.010832558 -0.04469504 -0.0019683053 0.016305191 -0.0019518782 -0.0074893837 -0.054557696
-0.033432387 0.021709409 -0.015664602 -0.012063014 -0.057618182 -0.029725296 0.005483381 -0.03055448
-0.046834648 -0.030393934 0.020102844 0.026087807 0.035578884 -0.022028347 0.024652362 0.020669218
0.004242743 -0.0035352206 -0.026062297 0.022743149 -0.0076978505 0.046418782 -0.025958 0.03209391
-0.034618225 -0.0047623212 0.0092614805 0.037670508 -0.032487713 0.011974607 0.029648364 -0.029900309
0.000545634 -0.01428077 0.012338778 0.028081587 0.036990456 0.04165544 -0.030613324 0.010662173
0.032338742 0.01412905 -0.0027643135 -0.02844202 -0.0067994036 -0.015647694 -0.016797977 0.01703379
-0.006422385 -0.04503029 0.0012106171 -0.017444136 -0.028807685 -0.020142876 -0.0049507897 0.028120069
-0.03372149 -0.03341748 0.0017698437 0.0010842124 -0.011734353 0.02368358 0.009681535 -0.0042017433
-0.025100531 0.0062218574 0.025900897 -0.00803066 -0.0139881065 -0.019484088 0.036117867 0.045295447
0.021291342 -0.00961715 -0.0063931607 -0.029663773 0.020608995 -0.041691 -0.024039954 -0.046959773
-0.024544641 -0.024910403 -0.037818927 -0.046922944 -0.048046324 -0.0050351205 0.06798536 0.05660436
0.032442335 -0.0017453326 0.01103093 0.04015727 0.03026931 -0.010598494 -0.045108296 -0.0007524515
0.042137265 0.03013678 -0.008891439 0.003285862 0.008753272 -0.01964914 0.026396787 -0.037497006
-0.060804263 -0.0050145905 -0.02676547 0.022722933 -0.04169701 -0.035711326 0.027572868 -0.028445533
-0.020540833 -0.026917133 0.017196491 -0.00843416 -0.011186704 0.0013011041 -0.022311088 0.006032915
0.017242448 -0.048270814 -0.028544266 0.014258863 -0.03602294 -0.022460677 -0.045627806 -0.051728148
0.015773738 0.013567939 0.02074845 -0.030273125 -0.015749896 -0.015179887 0.020130515 -0.02553087
0.02600095 0.0015682114 0.005810662 -0.02842289 -0.024732802 0.013818774 0.020134524 0.0005403918
0.022934452 0.015615653 -0.0067316964 -0.015111393 0.021590859 -0.0070893797 -0.0066569205 0.017115276
-0.013215115 -0.025773255 0.004358246 0.026270809 0.0101365205 -0.018170739 -0.0066383868 -0.01595308
0.016309174 -0.010617495 0.01860215 -0.0051690293 -0.014554166 -7.5938515e-05 -0.0107874 0.013570183
0.013964595 -0.002236147 -0.024601998 -0.008216145 -0.018290143 -0.0052668275 0.035479993 -0.027005762
-0.0165303 0.041361313 -0.02150441 0.033244032 -0.022511462 0.04277731 0.042553317 -0.026936151
0.021030651 0.026462164 -0.015601853 -0.008693849 0.0050980127 0.0045826477 -0.012882179 -0.0041987086

bias f4 [32]
00000000: 1411 13bd aec1 3e3d 2a7b cabd 1549 52bd
00000010: fd90 29bd 236f b7bc c491 01bd 9697 f3bc
00000020: 39ee bdbd 5313 0fbe f0fc 84bd b197 0b3c
00000030: f913 ed3c 8461 bbbd 3cd2 c23c 2067 d5bd
00000040: 84ca 72bd da0c 7cbd 6c15 3cbd 7e1e b23d
00000050: 14ee 1abd 850d 18bd c544 9dbc 89ef a0bd
00000060: ed7b 703c 8b56 afbd 3c50 2cbd a456 e6bc
00000070: 3dec 1c3d 1fcd eb3c 9583 0cbd eff8 a1bd
-0.03590496 0.046571426 -0.09886773 -0.051339228 -0.041398037 -0.022391861 -0.031633154 -0.029735368
-0.09273953 -0.13972215 -0.064935565 0.008520053 0.028940188 -0.09149459 0.023781888 -0.1042006
-0.059275165 -0.061535694 -0.045918867 0.08697222 -0.037824705 -0.03712227 -0.01919783 -0.07858188
0.014677984 -0.08561429 -0.042068705 -0.028117485 0.038311232 0.028784333 -0.034305174 -0.079088084

weight f4 [64, 32, 5, 5]
00000000: 7bdb ba3b ef1b 143b 21f4 39bd 2346 1fbd
00000010: 13e6 1dbd e3cb 9dbc 0895 043c e3ad 073d
00000020: b926 33bc 7df1 b53c 5b44 84bc 49a4 ed3c
00000030: bfae 94bc 1f9d cd3c 5a17 053d d568 10bb
00000040: 5243 1a3d f156 4a3c cca8 3ebb 2034 cc3c
00000050: 05ca 1d3d c059 a53b f091 f5bc 5f1a 1fbd
00000060: 1d03 303c 4521 4bbc 2b6e 2b3c 198d 18bb
00000070: 17ec a03c 2c8a 36bc 2ea2 80bc fe9f 903c
00000080: 1a87 bfbc c040 963b 9f47 84bc eb8e d43c
00000090: d7ad ec3c 1f65 95bc 507e 03bd 7ecd 16bb
000000a0: fd49 923c bc18 4f3b eb69 acbb 50f6 98bc
000000b0: 9d0e 2bba 23da 9c3b d68b a6bc df02 053c
000000c0: 0257 bbbc d24e a2bc d817 98bc 76e2 80bc
000000d0: 357c ec3b 8963 d93b c865 08bd b619 e5bc
000000e0: 3002 0bbd 9f45 363c ca5d 353c 8dc7 91bc
000000f0: 9d35 84bc 44e5 06bc d788 40bc deaf fb3a
00000100: 1999 0c3d 3dfd 573b 402c 203d 5f11 0a3d
00000110: 8496 2c3d 5816 953c 996d 7e3c 9279 333c
00000120: ee5b c23c 2b23 babc d6eb f5bc bb79 47bd
00000130: af78 ac3b 03c0 d73a 9c19 13bd 6eef 5abd
00000140: 103c 67bc 2c31 0abd 6941 72bc 2403 11ba
00000150: d633 0cbc 05d9 643a 362a 78ba 9f9f 933c
00000160: b9de 88bc 3381 5a3d 2e46 383d de00 b63c
00000170: 754f a83b c78b e4bc 426d 92bc 56eb bcbc
00000180: 56e1 4f3b 4561 66bd b2a9 0a3c 3498 5abd
00000190: 6736 07bd 77ba bfbc fd1a e83c 40b9 0abd
000001a0: dac9 1abd 0276 b0bc d7b9 0f3d 68a5 0a3d
000001b0: 10ba 153d e3fc 86bb 01aa f73c 7e52 6a3d
000001c0: ac19 253c 2eef cd3c ffbf 273d e27f 873b
000001d0: 4cf0 003d 327d 92bb e774 1bbd 6f66 f3bc
000001e0: 72ee 3c3c bdd1 2b3c 7488 05bd 2257 c1bc
000001f0: 1eee 8ebc 9e7e a7bc a9f4 90bc 8120 0fbd
00000200: 06ae 2b3c b0ef 2b3d abf7 ab3c f59c 7d3c
00000210: 1ef3 f739 a7a6 4dbc 3816 c7ba ab83 ae3c
00000220: 0d64 c1bc f081 e1bc 29bc 1ebd 8ab7 00bc
00000230: 71a2 b0bc ea82 b83b f2f6 143d 1295 043d
00000240: 1b54 a93c 1d10 983c d164 453d b1a3 253d
00000250: f76e 1b3c 7487 a93c 9b52 943c cb3d 8abc
00000260: ac2d 4e3c 9ec4 083d 78ed a43b cce2 f63c
00000270: e925 43bc e84b 06bd 0e1e ed3c 2ab9 d9bc
00000280: ae8b 7f3c 213d 9fbc 4c81 d43b ca0b 203c
00000290: d92f 9b3b 3c2c 59bc 2c0c 8cbb 8b0f f33b
000002a0: 1229 a6bc ecfe 993b 018e a53c 9e1f 463d
000002b0: c02c 7c3b 1635 583d 9a26 2e3d 53ca bcbc
000002c0: 388e ed3a 74c1 57bd fc05 50bd d1c6 65bc
000002d0: 0864 aa3c 89ff bdbc a39c 1338 7445 503c
000002e0: b432 273d 9533 0fbb 633f 253d e57b 433d
000002f0: 38dd 2e3d 8486 343d ded1 2f3d 1daf 2f3d
00000300: 523e 713a 952d d6bc 42f1 f4bc a037 2f3c
00000310: 272d 07bd e9f0 75bc c138 adba 54fc 543d
00000320: 9115 963b b581 72bc abcd 45bc 5b70 eabc
00000330: c766 eb3c ce3d 4b3c b3b1 b8bc 35b0 d5bb
00000340: a74f bfbc 1b6f 06bd 2a55 23bd 66b2 b9bb
00000350: 7233 ba3c 452e 20bc d7d6 143d dfe0 0f3d
00000360: 0744 25bc 0c16 51bc 0e5c b1bc 0a61 03bb
00000370: 79b5 cd3c cf38 42bc 3b5d c7bc 22b5 6f3c
00000380: af58 05bd 3082 843b 24c0 0dbd 6616 11bd
00000390: 3ab6 da3a cd78 4fbd a0f8 953c 0173 4dbc
000003a0: 87c9 6dbd d295 02bd 8807 36bc 4c30 d2bc
000003b0: a7cf 2abd 7d18 60bc 5601 ed3c 33db fd3c
000003c0: bb44 b3bb cd33 c63c ab10 763d bac7 6d3d
000003d0: 0082 963c b4c1 2b3c 6b33 cbbc dde6 25bd
000003e0: fa41 32bd 04a6 5dbd 73c5 b5bb 54a1 283c
000003f0: 0417 5cbc 120e 923c 39b8 adbc eb81 143d
0.0057024336 0.0022599658 -0.045398835 -0.038885247 -0.038549494 -0.01926226 0.008092172 0.033124816
-0.010934525 0.022209877 -0.016145876 0.029009001 -0.018149732 0.025099335 0.032492973 -0.002203514
0.037661858 0.01234983 -0.002909231 0.024927199 0.03852274 0.0050460994 -0.029976815 -0.03884351
0.01074293 -0.012398069 0.010463278 -0.002327746 0.019643826 -0.011141341 -0.015702333 0.017654415
-0.023379851 0.0045853555 -0.016147433 0.025947055 0.028891487 -0.018236695 -0.032102883 -0.0023010666
0.017857546 0.0031600436 -0.00526165 -0.018672138 -0.000652531 0.004786746 -0.02033035 0.00811836
-0.022868637 -0.019812975 -0.018566057 -0.015732985 0.007216955 0.00663418 -0.03330019 -0.027966361
-0.033937633 0.011124997 0.011069724 -0.017795349 -0.016138846 -0.008233372 -0.011751375 0.0019202193
0.034325693 0.0032957338 0.0391047 0.033707973 0.04213573 0.01819913 0.01552906 0.010954278
0.023725476 -0.022721848 -0.030019682 -0.048700076 0.00526341 0.0016460422 -0.035913095 -0.053450994
-0.014113441 -0.0337383 -0.014786103 -0.0005531779 -0.0085572805 0.0008729848 -0.0009466739 0.01802045
-0.016707765 0.05334587 0.044988804 0.02221721 0.005136425 -0.027898682 -0.017874364 -0.023061436
0.0031720004 -0.056245107 0.00846331 -0.05336781 -0.033010866 -0.023404343 0.028333182 -0.033868074
-0.037790157 -0.021540646 0.03508934 0.03384915 0.036554396 -0.004119502 0.030232431 0.057207577
0.010076921 0.025138464 0.040954586 0.004135118 0.031479165 -0.004470491 -0.037953284 -0.02971193
0.011531459 0.010487017 -0.032600835 -0.023601118 -0.017447527 -0.020446118 -0.017694788 -0.034943108
0.010478502 0.04197663 0.02099212 0.015479316 0.00047292648 -0.01255194 -0.0015189117 0.021303019
-0.023607278 -0.02752778 -0.038753662 -0.007856259 -0.021561833 0.0056308405 0.036368318 0.032368727
0.020669987 0.01856237 0.04819185 0.04043931 0.009486905 0.020694472 0.018105796 -0.016875168
0.012584131 0.033390634 0.0050331913 0.030137442 -0.011910894 -0.032787234 0.028944995 -0.02657755
0.015597267 -0.019438328 0.00648514 0.009768436 0.0047359285 -0.013255175 -0.004273912 0.0074176244
-0.020283256 0.0046995785 0.020209314 0.048369996 0.0038478822 0.052785 0.042517282 -0.023045694
0.001812405 -0.052674726 -0.050786957 -0.014024452 0.020799652 -0.023193138 3.519341e-05 0.012711871
0.04081984 -0.0021850814 0.040343653 0.047725577 0.04269144 0.044073597 0.042924754 0.04289161
0.0009202707 -0.026144782 -0.029900197 0.010694414 -0.033002045 -0.015011051 -0.0013215767 0.05199845
0.0045802076 -0.014801432 -0.012072961 -0.028618028 0.028735531 0.012404872 -0.022545671 -0.0065212497
-0.02335341 -0.032820802 -0.03987614 -0.0056670187 0.02272961 -0.0097766565 0.0363377 0.035126563
-0.01008702 -0.012761604 -0.02165034 -0.0020046853 0.025110947 -0.011854365 -0.024336448 0.014630588
-0.03255528 0.00404384 -0.034607068 -0.03542175 0.0016686388 -0.050652314 0.01830703 -0.012539626
-0.05805352 -0.03188116 -0.011110194 -0.025657795 -0.04170194 -0.013677713 0.028931301 0.030988311
-0.00547084 0.024194622 0.06007449 0.058051802 0.018372536 0.010483194 -0.024804791 -0.04050337
-0.04351995 -0.054113403 -0.0055472194 0.01029237 -0.013433222 0.017828975 -0.021206008 0.036256712

bias f4 [64]
00000000: f1fc edbb 9716 90bd fc2b 7cbc ead9 72bd
00000010: 0556 283d f1bf ea3b 9fcb 6cbd 1d6b 37bd
00000020: 0961 4ebc e355 06bd 0f35 7b3c 88dc c83b
00000030: 02d2 fc3c ea07 f2bc cf33 0dbd 023f d6bb
00000040: 42d6 e23b 51bc 08bd f743 efbb c715 5bbd
00000050: d69f 26bc c2ab 3abd f6f3 28bd 47d7 afbc
00000060: 697e 5b3c ac27 30bc 5582 cebc b203 d5bc
00000070: 9470 84bc 437c 073c edcd 39bd 7e45 2dbd
00000080: 1a75 9b3c 56a1 74bc 9483 5ebc dd2a e93c
00000090: 9a89 a53c 8b91 00bd d7ed be3c bca8 853c
000000a0: e1bf 083d 523c a6bc e9e4 68bd d67f 9fbc
000000b0: 95c3 8fb9 e623 a73c bddf ea3c 62f7 fa3c
000000c0: 5c1c 123d 146f 30bd 8b75 40bd 0a89 13bc
000000d0: 7e61 5abd 0e4c d3bc be15 afbd 543b b3bc
000000e0: bec3 1abd cf46 57bd 36b9 bbbc ec0a 983c
000000f0: d7f6 90bc 1b38 5fbc deb4 05bd fb12 20bc
-0.007262819 -0.07035559 -0.015391346 -0.05928985 0.04109766 0.0071639945 -0.057811376 -0.044779886
-0.012596377 -0.03279675 0.015332474 0.006129805 0.030861858 -0.02954479 -0.034473237 -0.006538273
0.006922514 -0.033382718 -0.007301803 -0.053487565 -0.010169944 -0.045573957 -0.041248284 -0.021464957
0.013396838 -0.010751646 -0.025208632 -0.026002739 -0.016166963 0.008269372 -0.0453624 -0.0423026
0.018976737 -0.014931044 -0.013581175 0.028462822 0.020207215 -0.0313888 0.02330677 0.01631581
0.033386115 -0.020292435 -0.05685893 -0.019470137 -0.00027420805 0.02040286 0.02867114 0.03063554
0.035671577 -0.043074682 -0.046987098 -0.009004841 -0.053315632 -0.025793102 -0.08549069 -0.021878876
-0.03778433 -0.052557763 -0.022915464 0.018559895 -0.017695827 -0.013624216 -0.03264319 -0.00977015

weight f4 [64, 1024]
00000000: 4b20 813c 54c8 4f3b 9553 043d 7212 92bc
00000010: 907d 4cbb 32c7 d33c a4fc 54bc 606e f03b
00000020: 0023 c6bc c8c7 b4bc bbc7 3f3c 07df cd3c
00000030: 2194 3cbb 6889 2bbc 029c 90bc 6b77 a23c
00000040: 9bd0 0bbd e1a8 62bc f405 3239 df1c c93c
00000050: 7f7a d5bc 628e 0bbd d32c 82bc ebeb 0fbd
00000060: efc2 46bd 7207 313c 681b 8abc 2944 04bb
00000070: 1c94 f5bc 69ef d13b e6cc 1a3d 6c78 3cbc
00000080: 9ac3 81ba 4b4f e1ba a57b 593a b6e9 b3bc
00000090: 702f 293b 08e6 f4bc 8c27 8bbc 0d7e 91bc
000000a0: fdb6 ea3c 6a1e fe3a ce51 a8ba 3751 f9bc
000000b0: 775f c5bb b66a dfba dc6c 08bd 7694 e5bc
000000c0: c1bf 923c 93aa b83c 58b4 443c 6910 dfbc
000000d0: 45a0 213c 8192 9e3c 7abe 14bc 4ab1 af3c
000000e0: bd15 103c 1b14 f0bc 7901 4cb9 3cd2 853c
000000f0: 36dd ea3c 3322 28bd 1fb5 c83c 9a89 a53c
00000100: 14e5 bfbc fab9 303c 8f6f 563c 8798 513c
00000110: 3ed3 ae3c e668 88bb 1039 acbb 0a5f b2bc
00000120: 9a03 1fbd d330 043c b98b 20bd 91b7 813c
00000130: cfe7 01bc d57a 6a3c 9eb3 d1bc 4c39 8aba
00000140: a1f5 11bd 7158 593c 1f8d a93c b1f0 cb3c
00000150: b424 913c 71a2 c43c a9a0 05bd 4161 78bc
00000160: c845 1f3d b289 9cbc 3ed3 1ebd 44ef a73c
00000170: c7e5 003d 4852 c1bc 4a0a c6bc f12d 6f3c
00000180: 8c58 d53c 95bc b9bc 6ac6 6e3c 134e 78bc
00000190: c1f8 fabb 65ca 9b3b 5830 993b faa9 14bb
000001a0: 111b a0bc 6332 70bc 6b2b b93c 33b3 913c
000001b0: c97d c73c 2e5c 823c 6a92 903b af51 dc3b
000001c0: 12a1 72bc 09fd babc 232f b83c 405c 8bbb
000001d0: 1f2a 2bbc 394c f1bc a0be e5bc 31d9 343c
000001e0: f2f4 a1bc 7477 283c 1bbc 24bc ffa4 0b3c
000001f0: 9d05 243c 7589 e83b c2f7 c53b 0b7b 763c
00000200: c50a ddbc 4d69 013c 7635 debc b682 18bd
00000210: 5021 1a3c 008c 77ba 791e 353c a988 553c
00000220: 1b7e 2cbd b626 e3bc 8002 e33b 8c90 0bbb
00000230: e394 98bc 7d39 a9bb 30a5 273c 508b 81bb
00000240: 4bff 9dbc bb23 953a 7177 e73c 872c c9bc
00000250: aae5 e23c b0e6 2b3b f074 92bc 8a70 c73c
00000260: eac5 d6bb 0556 dbbc f1b6 b1bc 1a9b 53bc
00000270: cfd6 b3bb bfc2 7f3a 04ab e9bc 12ee dd3c
00000280: 470d 57bb 2be6 2fba 584c 4c3c e85a a03c
00000290: 92d9 cb3c d234 20bc 2072 cfbc 0a36 0ebc
000002a0: 7623 f0bb a34a e73c 4db4 093d 95be 88bc
000002b0: 25e1 97bc 7315 f3bb 0e58 16bb a1cb e6bb
000002c0: 8523 9ebc 67f6 8abc d8d9 6f3c 23f2 0b3d
000002d0: cc2f e53c d340 a6bb 9915 b6bc d343 d1bc
000002e0: 837d 2e3b 0f53 f8bc c7f5 30bd 03cd a7bc
000002f0: f073 77ba de5d 18bc f383 5a3a 2413 f8bc
00000300: 89ac a2bc 5884 0bbd 2984 ca3b 5102 c7bc
00000310: 33b1 08bc 07b9 073b f1b3 9bbc a775 36bc
00000320: fbc2 303d 7ad4 183b 3b8a 5b3d 0cb0 55bc
00000330: f658 453c c49d 69bc 3910 463c 94d4 1f3d
00000340: b17b 18bd a229 ec3c 6205 433c da21 11bd
00000350: b03a 3fbd 9b27 743c 2f96 89bc ae2c fe3b
00000360: ea5d 37bd 6732 1fbd fcbc 96bc afd6 ebbb
00000370: 9ebe d63a 48df 0dbc aa09 1bbc cf53 33bc
00000380: f9ff f6bb 6459 d83c 17f3 08bc 34ce 4cbc
00000390: c2ef fabb e984 1abd cbe8 abbc 2e62 f8bc
000003a0: 8bdc a33c 3db7 8dbb 9a87 8a3b a8fa a83c
000003b0: 0a26 be3c 12d5 193b 11c1 943b 15f7 463b
000003c0: 0915 61bb eb33 e8bb ef96 1e3c ffe2 b73c
000003d0: 4d71 c03c 7b74 b1bc 2bdb bdbc c37b bcbb
000003e0: 3f8d fb3c b9cb 873c 4aec c6bb 705f a1bc
000003f0: c30e c73c 5ea6 69bc c3be e7bc 0a28 ffbb
0.015762469 0.0031705098 0.032306273 -0.017831061 -0.003120277 0.02585182 -0.012999687 0.0073373765
-0.024186611 -0.02206792 0.011705334 0.025130762 -0.0028774815 -0.010469772 -0.017652515 0.019832334
-0.03413449 -0.013834209 0.0001697762 0.0245499 -0.026059387 -0.034071334 -0.015890514 -0.0351371
-0.048525747 0.010804998 -0.016858771 -0.0020182228 -0.02997785 0.0064067137 0.037793063 -0.01150332
-0.0009900213 -0.0017189769 0.00082963175 -0.021962028 0.0025815628 -0.029894844 -0.01698663 -0.017760301
0.028651709 0.0019387726 -0.0012841763 -0.030434234 -0.006023343 -0.0017045352 -0.03330694 -0.028024893
0.017913701 0.022542274 0.012005888 -0.027229505 0.009864871 0.019356968 -0.009078616 0.021446843
0.008794245 -0.029306462 -0.00019455505 0.0163356 0.028669935 -0.04104824 0.024500428 0.020207215
-0.023424663 0.010786528 0.013088121 0.012792713 0.021340962 -0.0041628955 -0.005255826 -0.021773834
-0.038821794 0.008068281 -0.03919575 0.015834602 -0.007928803 0.014311512 -0.025598343 -0.001054564
-0.03563464 0.013265715 0.020697175 0.024895044 0.017717697 0.02400324 -0.03262392 -0.015159906
0.038884908 -0.019108627 -0.038775675 0.020499833 0.031469133 -0.023598805 -0.024174828 0.014598356
0.026043199 -0.02267293 0.014573673 -0.015155333 -0.0076590483 0.004754352 0.0046749525 -0.0022684322
-0.019544156 -0.014660451 0.022603711 0.017785644 0.024351971 0.015913095 0.004411985 0.0067236046
-0.01480891 -0.022825735 0.022483414 -0.0042529404 -0.010447054 -0.029455291 -0.028044999 0.011038111
-0.01977012 0.010282386 -0.010054613 0.008523225 0.010011104 0.0070964643 0.006041498 0.015043984
-0.026982674 0.007898641 -0.027125102 -0.03723403 0.009407356 -0.0009443164 0.0110546285 0.013033071
-0.04211245 -0.02772842 0.0069277883 -0.0021295873 -0.018625682 -0.005164324 0.010232255 -0.003953375
-0.019286772 0.0011378446 0.028255196 -0.024557365 0.027697403 0.002623003 -0.017878026 0.024345655
-0.006554355 -0.026774416 -0.021693679 -0.012915397 -0.0054882537 0.00097564975 -0.02852393 0.02709106
-0.003281431 -0.0006710018 0.012469374 0.019574597 0.024884019 -0.009778218 -0.025322974 -0.008679876
-0.007328446 0.028233832 0.033619214 -0.01669244 -0.018539974 -0.0074183284 -0.0022940668 -0.0070433174
-0.019304046 -0.016963197 0.01463934 0.034166466 0.027976893 -0.0050736456 -0.022227095 -0.025545036
0.0026625104 -0.030313043 -0.04320314 -0.0204835 -0.0009439578 -0.009299723 0.0008335702 -0.030282564
-0.019857662 -0.03406176 0.0061803055 -0.024293097 -0.008343029 0.002070965 -0.019006701 -0.011136449
0.043154698 0.0023320005 0.053598624 -0.013042461 0.012045136 -0.014258806 0.012088829 0.03902109
-0.037227336 0.028828446 0.011903139 -0.035432674 -0.046686828 0.014902021 -0.016795246 0.007756791
-0.044767298 -0.038866427 -0.018400662 -0.007197223 0.0016383713 -0.008659191 -0.009462753 -0.0109452745
-0.0075378385 0.026409812 -0.008358738 -0.0125003345 -0.007657976 -0.03772441 -0.020985028 -0.030320253
0.020002624 -0.004324822 0.0042275907 0.020627335 0.023211498 0.0023472947 0.004539617 0.0030359675
-0.0034344813 -0.007086267 0.00967954 0.022447107 0.023491526 -0.021661988 -0.023175796 -0.0057520582
0.030707 0.016576635 -0.0060706483 -0.019698828 0.024299031 -0.014260856 -0.028289204 -0.0077867555

bias f4 [64]
00000000: 6dd3 f43c 69e9 babc 53a9 40bd 5b63 3f3c
00000010: c796 303d 2c74 3dbd 2439 d8bb 4472 0d3d
00000020: fba6 923b 5e0e 9dbb 93db e7bc a223 0d3c
00000030: 123a 803c d0c7 67bd 30d8 213d 0542 97b9
00000040: 96bb 9338 85c9 723c 6324 003d 1f78 79bc
00000050: 92cf bfbc 8652 da3c 5b69 9ebc 263e da3c
00000060: 2039 60bd d938 7c3c 748b b83c 27d7 683c
00000070: 1a15 0c3d 3aad 2c3c dd29 6a3d e96a b33c
00000080: e7a7 0ebd f26a 6fbc cc0d 923b 890a 6b3c
00000090: b29e 403b 6dd9 13bd 77f6 23bb c51f 2b3a
000000a0: 7cdb 633d 5dbf ca3c 134d 8a3c 7194 2f3d
000000b0: 47f4 913c f3da 6fbc d2cf 28bd 8020 f6bb
000000c0: bd7f 2ebc 96ac 5f3c f39d 093c 2d45 e43c
000000d0: 1b3e 73b9 0f09 96bc aa15 61bd 09f6 363c
000000e0: f250 fe3c f0c6 643b 44d1 783c 6e8f e33c
000000f0: b2d6 a73b 72ea fbbb 1e82 db3a 16fc 183d
0.029885972 -0.022816377 -0.04703648 0.011681403 0.043112542 -0.04625337 -0.0065986086 0.0345328
0.004475472 -0.0047929725 -0.028302943 0.008614453 0.01565269 -0.05658704 0.039512813 -0.00028850153
7.044447e-05 0.014818554 0.0312847 -0.015226393 -0.023414407 0.026650678 -0.019337347 0.026640963
-0.05474198 0.015394413 0.022527434 0.014211453 0.03419981 0.010539347 0.05716883 0.021901565
-0.034828093 -0.0146129 0.004457211 0.0143457735 0.0029391465 -0.036096025 -0.002501873 0.00065278664
0.05562924 0.024749452 0.016882455 0.042866174 0.017816676 -0.014639604 -0.041213818 -0.0075111985
-0.010650572 0.013651988 0.008399474 0.027865017 -0.00023197422 -0.018314866 -0.0549523 0.011167058
0.031044457 0.0034908615 0.015186612 0.027778354 0.005122029 -0.00768786 0.0016747152 0.037349783

weight f4 [10, 64]
00000000: da2c a1bd e2d6 5bbd 8320 a83d 2b82 1abe
00000010: 3424 2fbe 3e3d 7b3e aaf0 3d3d 93d2 98bd
00000020: 77c0 e13d cf6f c3bd a00d 823d b58f 043b
00000030: 7382 c63c b974 423e aae3 783d 361c 44bd
00000040: 71d3 0f3d bd7b 133d 92c1 e1bd d87d ec3d
00000050: d107 f5bd 14fd bebb 2cc4 143e b245 3a3d
00000060: 9c8b 743e ff88 8dbd 19d4 06be 7ac4 e3bd
00000070: 1fe7 b8bd 5793 20be 8472 40be 14be 13be
00000080: 3b77 18bc a486 cc3d a7c2 ea3d f732 123d
00000090: c854 34be 1e9f 053c 18e6 b13d dbf0 2a3c
000000a0: 5612 a7bd 0391 2a3e 311d 1ebd cb2f f23b
000000b0: 4ff4 4fbc 5a32 053e 422b 1e3e 1922 7b3d
000000c0: 7d40 883d 4083 6b3e a41b 9fbc 66b7 203e
000000d0: bbcc a73c 209f c33d 16c2 d33d 53cf 48be
000000e0: b3ff 783c 1843 6cbe 274c 2b3e c496 1bbd
000000f0: a694 3bbe 9b4e dbbc 021e 0abd 10d0 25be
00000100: 6098 2b3d 4653 13be 0138 7b3e 9f4b 5bbe
00000110: b87d 4cbd 6f4e 0a3b df2c a03d e104 27be
00000120: 630d 16bd d777 813d f862 453e 33ec 3e3e
00000130: b3b4 0dbe 5115 f9bd 7c29 cebd 589a 593c
00000140: 9684 08bd 384d 1f3e ad16 853a 4bec c83d
00000150: 3e44 503e f128 503e d5d7 363e e2b9 77be
00000160: 90ed d93d cc4a 31be d8ba e03d 94c0 0fbd
00000170: 21c5 84be ef4d 9bbd c6b8 fcbd 14ce a8bd
00000180: 5cb1 923b a0e1 aa3d e33f 283a 3e50 983b
00000190: 7792 9c3d 66cf 71be b5f0 30be f2d8 633e
000001a0: f5a9 ff3d 7f98 323e edee 873d 6ee1 923b
000001b0: caac 60be c902 30be 02c3 893d e85b 83be
000001c0: cd83 62be 5910 62be baa4 213e cd88 5bbe
000001d0: 1b99 ba3c f479 42be e9c6 ccbc 9da0 123d
000001e0: bfd3 4f3e 3da1 8dbe 72ea 96be c5ed 4ebd
000001f0: 9d0e 183e f742 31be a919 9d3d 6aee 273e
00000200: 0314 25be f927 0cbe 92a7 5abe c755 393e
00000210: 34b7 ac3d 9406 653e 5535 213e d7e2 443d
00000220: 0aaa 453e 9c91 bd3d 46cf 54be ad0c ab3d
00000230: 9e05 0e3e d309 cdbb bd28 68bd 16de 7ebe
00000240: be32 b5bd 6717 393e 17df ae3d 5474 a6bd
00000250: c1f8 6ebd 7cd6 14be 3868 c1bd e308 093e
00000260: b4ef 013e d100 22be 5a10 e8bd ba57 1a3b
00000270: bf42 6d3c 6266 903d f8c4 323e 247d 893d
00000280: 2755 a03d 1767 af3d 35e3 58bd 19cf 45bc
00000290: 45c2 1bbd e3d0 5c3e 7837 2f3e c55f 8ebd
000002a0: 76b4 85bd 7406 91bd 6f8a b73d c58e eb3d
000002b0: f7b1 cb3d 140c cabc 42a7 1a3e 7d11 933c
000002c0: 78dc 8fbd 97a2 393d 0084 35bd d9bc 8c3d
000002d0: bce2 1fbe 6a63 66bd 81ef cc3d 0856 f0bd
000002e0: bfc1 0b3e cdec 7f3d ba13 0bbe c005 b6bd
000002f0: 7036 cebc 7aa9 213e 0c43 bdbd bbb1 8dbc
00000300: 1083 c43c d885 cfbd 6334 2cbe 2dd5 1bbe
00000310: 9a42 853d 569b 7abd 6d7c 54bd 29be babd
00000320: 6f6a fa3d ca44 00be 7c76 4b3d d64b e1bd
00000330: bc4a b7bc 740f 64bc 344a debc 235e 92bd
00000340: 5027 933d 8f46 90bd 7b5b 3d3e bdc6 c6bc
00000350: 4465 753c 1bcc 1fbe bc49 8539 b0cd 163e
00000360: 0e9c 03bd 3f81 753c c7e0 b63d 7682 a9bd
00000370: 4c94 1c3e 15f4 c4bc 1585 f33d 3151 073e
00000380: 7d92 9fbd 58a7 b13c 0c60 93bc 6121 063e
00000390: 2fe9 e83d 5190 133d 91b6 0f3e 08ed 83be
000003a0: caa3 ef3d 2885 35be 7b4d a53b 8d15 173e
000003b0: bcf1 59bd 7122 02bd b6cb bc3d 65f7 473e
000003c0: d3c6 0cbd e4a0 b2bc 3cd3 e8bd 97d6 4cbe
000003d0: 3d6b f73c 8f46 44bd edb2 cabb dc15 0d3e
000003e0: 04ac 31be 9eea b7bd 91ed 453d cf92 6a3b
000003f0: 41c2 953d 9d1b cbbc a8da 603d 26a2 553d
-0.07869883 -0.053671725 0.08209326 -0.15088718 -0.17103654 0.24535081 0.046372093 -0.07462039
0.11023038 -0.0954281 0.06350255 0.0020227258 0.024232125 0.18989839 0.060763992 -0.047878467
0.035113756 0.036006678 -0.11023249 0.1154744 -0.119643815 -0.005828509 0.14527959 0.045476623
0.23881382 -0.069108956 -0.13166846 -0.11121459 -0.09028458 -0.15681206 -0.18793684 -0.14427978
-0.0093057705 0.09986618 0.11462908 0.035693135 -0.17610466 0.008155612 0.08686465 0.010433401
-0.08157794 0.1665688 -0.038602058 0.0073909513 -0.012692525 0.13007489 0.15446189 0.061311815
0.06652925 0.22999287 -0.01942236 0.15694961 0.020483365 0.09551835 0.10339753 -0.19610338
0.015197682 -0.23072469 0.16728269 -0.03798558 -0.18318424 -0.02677088 -0.033720024 -0.16192651
0.041893363 -0.14387235 0.24533083 -0.21415566 -0.049924582 0.002110388 0.078210585 -0.16310455
-0.03663386 0.06321686 0.19276035 0.1864479 -0.13838463 -0.12162269 -0.10066506 0.013281427
-0.03332957 0.155568 0.0010153853 0.09810694 0.20338532 0.20328118 0.17855771 -0.24192002
0.106410146 -0.17313689 0.109731376 -0.035095766 -0.25931647 -0.07583224 -0.1233993 -0.08242431
0.0044767093 0.08343816 0.0006418211 0.0046482375 0.076451235 -0.23614272 -0.17279322 0.22250727
0.124835886 0.17440985 0.06637368 0.0044824397 -0.21940914 -0.17188562 0.06726648 -0.25656056
-0.2212059 -0.22076549 0.15785494 -0.21438904 0.022778085 -0.18991834 -0.024997192 0.035797704
0.20295618 -0.27662078 -0.29475743 -0.050519723 0.14849325 -0.17310701 0.0767091 0.16399541
-0.16120915 -0.13687123 -0.21352986 0.18099128 0.08433381 0.2236579 0.15743001 0.048067894
0.19303146 0.092562884 -0.20782194 0.08352027 0.1386933 -0.0062572747 -0.056679476 -0.24889407
-0.08847569 0.18075334 0.08538645 -0.081276566 -0.0583427 -0.14534944 -0.09443706 0.13382296
0.12689096 -0.15820624 -0.11331244 0.0023550824 0.014481246 0.07050778 0.1745795 0.06713322
0.078287415 0.08564585 -0.052951057 -0.012073302 -0.038027067 0.21564059 0.17111003 -0.0695186
-0.06528561 -0.07081309 0.08961951 0.115018405 0.099460535 -0.024663962 0.15102866 0.017952675
-0.07024473 0.045321073 -0.044315338 0.06871957 -0.15613836 -0.056247152 0.10006619 -0.11735159
0.13648127 0.06248169 -0.13581744 -0.088878155 -0.025172442 0.15787306 -0.09241304 -0.017296663
0.023988277 -0.101329505 -0.16816859 -0.15218039 0.06506844 -0.061183296 -0.051876474 -0.091183014
0.12227332 -0.12526241 0.049673542 -0.11000793 -0.022374503 -0.0139197 -0.027134992 -0.071468614
0.07185233 -0.07044708 0.18491928 -0.024264688 0.014977757 -0.15605204 0.00025422673 0.14726901
-0.032131247 0.014984428 0.089295916 -0.082768366 0.15290946 -0.024042169 0.11890618 0.13214566
-0.07791612 0.021686241 -0.017990135 0.1309867 0.11372601 0.036026303 0.14034487 -0.25766778
0.11701162 -0.17726576 0.005044637 0.14754315 -0.05320905 -0.031771127 0.09218542 0.19527967
-0.0343693 -0.021805234 -0.11368415 -0.20003735 0.030202502 -0.047918852 -0.0061858804 0.1377787
-0.17350775 -0.089802966 0.048322264 0.003579307 0.073124416 -0.02479344 0.054896027 0.05215659

bias f4 [10]
00000000: 4d27 46be e5c7 173c b5e9 053d 39d2 523d
00000010: faab f43d d812 5cbc c11a 3b3e 2f3e a83c
00000020: 55c4 f8bc bd0b c53b
-0.1935093 0.009263967 0.032693584 0.051470015 0.119468644 -0.013432227 0.18271925 0.020537464
-0.030367056 0.006013362
