DeepLearningDemo/models/jingxin_0.pth (torch, 588127 bytes, 10 tensors)

weight f4 [32, 3, 5, 5]
-0.014153876 0.09739774 -0.049306914 -0.073744334 0.025700528 -0.050149877 -0.09652788 0.04705024
0.055838596 0.008567331 0.036361277 0.10615026 0.11736962 0.045335382 -0.010477536 0.019166624
-0.05285949 -0.07299361 0.017039403 -0.08345642 -0.038472876 0.052415013 -0.09195741 0.11541196
-0.08795078 0.06886914 0.097786024 -0.057875987 -0.06172627 -0.044047378 -0.0054561826 -0.07632695
0.10087889 -0.053530406 0.03523284 -0.031545732 -0.096484296 -0.0037099582 0.10730316 0.0038110095
0.09677693 0.008216602 -0.066136755 0.050726905 0.07799111 -0.11516418 -0.11604608 0.013073739
-0.020788938 0.038630284 -0.041379422 -0.013558301 -0.00849393 -0.05908183 -0.09547123 0.036397323
-0.10071883 0.05414692 -0.019892445 0.0857151 0.029562183 -0.075153574 0.1008172 0.017989663
0.012628825 -0.040069625 0.0048473063 -0.08434668 -0.055598892 0.012478628 0.06723514 -0.032525256
0.10841827 0.09211875 -0.055072036 -0.0757022 -0.048897676 0.029554717 0.001752115 0.023045363
0.10799048 -0.036274206 0.023108479 -0.05259799 0.0504394 0.024521604 -0.11666618 0.0061992244
-0.08413454 -0.03768592 0.029947901 -0.0035605729 0.089761436 0.101143435 -0.08264418 -0.03132824
0.008566197 -0.094702005 0.101745114 0.03304103 -0.10669451 -0.024465226 -0.11149568 -0.054571014
0.1041237 0.05875656 -0.017443437 0.11806898 -0.03116931 -0.102834314 0.02373829 0.038735908
0.005574357 -0.10141611 -0.015502066 0.025097204 0.11662261 -0.07375991 0.039082635 0.09434502
0.0918959 -0.0539295 -0.013202493 0.029035721 0.02100498 0.09371196 0.05356929 0.074066065
0.09126295 -0.0816551 0.08691291 0.06792923 -0.05200412 0.005369323 -0.0054973573 -0.0855547
0.097337246 -0.060109187 -0.06240775 0.10049949 -0.024826393 -0.03810218 -0.000727403 0.02175538
0.025957434 0.08438286 -0.0010059254 0.07886012 0.03145017 -0.031274408 -0.08481312 -0.02099501
-0.03765407 0.08558047 0.11091529 -0.019454503 -0.05840379 0.06354341 -0.06719587 -0.09604189
0.04906286 0.027406171 0.08097649 -0.08809288 -0.07798508 0.032308336 0.007949011 -0.009864945
0.034898404 -0.105522044 0.05838128 -0.028345978 -0.0654852 0.03449984 0.05326096 0.09994239
-0.12403098 -0.061880354 -0.11442374 0.07914225 -0.07977934 -0.05874364 -0.11921 -0.09701149
0.0924391 0.0016988306 -0.11855891 -0.011988348 -0.031065248 -0.072329015 -0.108519845 0.008443031
0.10058881 -0.04994409 -0.116727024 -0.007829888 -0.09019767 0.010452954 0.083746925 0.026205024
0.05436822 -0.104441784 -0.098171666 -0.013046028 0.080955364 0.026475048 0.03602794 -0.10946496
0.051353987 0.06650395 -0.03886054 -0.10395959 0.08739196 -0.105831325 -0.04311918 -0.0753363
-0.11193264 -0.008002226 0.059898853 -0.11908832 -0.028000554 -0.02512445 -0.06733782 -0.052077167
0.057446267 -0.02326958 0.07052673 -0.08857216 -0.104727216 -0.004378842 -0.05901141 0.032313306
-0.0080720605 -0.098487884 0.085316464 0.073802054 -0.004298541 -0.013509198 0.015713327 -0.10449558
-0.052642494 -0.10687381 0.009036472 -0.026949303 -0.047777243 -0.10607003 0.10522096 0.064142905
0.0721809 0.10510905 -0.051705234 0.07800899 -0.0039597866 -0.015906084 0.06940747 0.0073778853
00000000: a9e5 67bc 7778 c73d 0cf6 49bd 4507 97bd
00000010: ea89 d23c f569 4dbd 69b0 c5bd c1b7 403d
00000020: 03b7 643d fe5d 0c3c 90ef 143d 4f65 d93d
00000030: 7c5f f03d 98b1 393d f9a9 2bbc 5303 9d3c
00000040: 3183 58bd ac7d 95bd 3896 8b3c 33eb aabd
00000050: bc95 1dbd 20b1 563d 2b54 bcbd 1b5d ec3d
00000060: 8a1f b4bd 440b 8d3d 0a44 c83d 5f0f 6dbd
00000070: afd4 7cbd 066b 34bd c7c9 b2bb 4e51 9cbd
00000080: 9799 ce3d b342 5bbd 4f50 103d 1936 01bd
00000090: 8f99 c5bd c522 73bb c2c1 db3d 21c2 793b
000000a0: fc32 c63d ed9e 063c b572 87bd 04c7 4f3d
000000b0: ceb9 9f3d 33db ebbd 91a9 edbd 3c33 563c
000000c0: 904d aabc ca3a 1e3d 787d 29bd a323 5ebc
000000d0: 202a 0bbc caff 71bd 6c86 c3bd 5c15 153d
000000e0: ad45 cebd 29c9 5d3d 7bf5 a2bc 668b af3d
000000f0: 642c f23c 1eea 99bd 4079 ce3d 0f5f 933c
00000100: 22e9 4e3c 0c20 24bd 27d6 9e3b f4bd acbd
00000110: aabb 63bd 2973 4c3c 94b2 893d 3439 05bd
00000120: 660a de3d c1a8 bc3d 3793 61bd c109 9bbd
00000130: ee48 48bd bc1c f23c 39a7 e53a a1c9 bc3c
00000140: 1d2a dd3d 4394 14bd fe4d bd3c fd70 57bd
00000150: 8b99 4e3d 88e1 c83c aeee eebd dd22 cb3b
00000160: bb4e acbd 8d5c 1abd 4d55 f53c 8058 69bb
00000170: d8d4 b73d 4a24 cf3d 5a41 a9bd 0a52 00bd
00000180: 3c59 0c3c 20f3 c1bd be5f d03d 0856 073d
00000190: a782 dabd 4c6b c8bc d957 e4bd db85 5fbd
000001a0: ce3e d53d b8aa 703d 8ae5 8ebc 26ce f13d
000001b0: c856 ffbc cc9a d2bd cd76 c23c 8ba9 1e3d
000001c0: 19a9 b63b 40b3 cfbd 61fc 7dbc a798 cd3c
000001d0: d6d7 ee3d 700f 97bd 1d15 203d f637 c13d
000001e0: eb33 bc3d 2ee5 5cbd 454f 58bc 52dc ed3c
000001f0: a312 ac3c 0eec bf3d 796b 5b3d f3af 973d
00000200: 12e8 ba3d ca3a a7bd 65ff b13d 7b1e 8b3d
00000210: 4602 55bd 25f1 af3b 2d23 b4bb 4d37 afbd
00000220: c058 c73d 0d35 76bd 459f 7fbd add2 cd3d
00000230: b860 cbbc 0811 1cbd 30af 3eba 5738 b23c
00000240: afa4 d43c ecd0 ac3d 41d9 83ba 6a81 a13d
00000250: e5d1 003d 9819 00bd 80b2 adbd bafd abbc
00000260: 273b 1abd d044 af3d 8e27 e33d 0d5f 9fbc
00000270: d038 6fbd 0c23 823d fd9d 89bd 9cb1 c4bd
00000280: 23f6 483d e882 e03c 01d7 a53d 0a6a b4bd
00000290: a4b6 9fbd bf55 043d 923c 023c 94a0 21bc
000002a0: a1f1 0e3d f11b d8bd 3621 6f3d d335 e8bc
000002b0: 1b1d 86bd b44f 0d3d 2a28 5a3d 99ae cc3d
000002c0: f403 febd 4176 7dbd fe56 eabd 5515 a23d
000002d0: 5a63 a3bd 2c9d 70bd 5f24 f4bd f6ad c6bd
000002e0: b650 bd3d 4cab de3a 04cf f2bd c76a 44bc
000002f0: 8c7c febc 3c21 94bd a73f debd a454 0a3c
00000300: 8201 ce3d 2d92 4cbd 940e efbd ee48 00bc
00000310: 8eb9 b8bd de42 2b3c 8283 ab3d ebab d63c
00000320: 36b1 5e3d 93e5 d5bd 3a0e c9bd 02bf 55bc
00000330: edcb a53d 33e2 d83c 0992 133d 2a2f e0bd
00000340: 8f58 523d 3933 883d 3b2c 1fbd c4e8 d4bd
00000350: 8efa b23d 18be d8bd bd9d 30bd eb49 9abd
00000360: f13c e5bd c51b 03bc 8058 753d 94e4 f3bd
00000370: 6b61 e5bc cad1 cdbc 69e8 89bd de4e 55bd
00000380: c74c 6b3d d99f bebc 5170 903d 5265 b5bd
00000390: 397b d6bd 647c 8fbb f3b5 71bd f55a 043d
000003a0: ad40 04bc 04b4 c9bd 66ba ae3d 8825 973d
000003b0: c7da 8cbb af55 5dbc 3cb9 803c c701 d6bd
000003c0: a89f 57bd a8e0 dabd b60d 143c c9c4 dcbc
000003d0: 12b2 43bd 3e3b d9bd 167e d73d 5b5d 833d
000003e0: 94d3 933d 6a43 d73d dec8 53bd 2dc3 9f3d
000003f0: 19c1 81bb 7a4d 82bc 8125 8e3d 30c2 f13b

bias f4 [32]
0.024525795 -0.12279956 -0.020259922 -0.07172038 0.09293926 0.10947728 0.16109219 -0.067186624
-0.05223924 -0.053125232 0.035354454 -0.09189957 -0.06486463 -0.0004802212 -0.102203526 0.14176695
-0.074429095 0.01661069 -0.077645674 -0.11795111 0.12651683 -0.08304271 -0.048662845 0.105245315
0.020447427 -0.0026928924 -0.026022205 -0.036715824 0.13477716 0.042750288 -0.100019105 -0.009684656
00000000: 52ea c83c 567e fbbd 23f8 a5bc 22e2 92bd
00000010: f056 be3d a035 e03d 5af5 243e 2499 89bd
00000020: d0f8 55bd d899 59bd d5cf 103d d735 bcbd
00000030: bfd7 84bd 33c6 fbb9 1550 d1bd 5b2b 113e
00000040: 486e 98bd 2413 883c b204 9fbd 5a90 f1bd
00000050: a18d 013e 4c12 aabd b152 47bd db8a d73d
00000060: 5d81 a73c 3d7b 30bb 852c d5bc 5563 16bd
00000070: 0603 0a3e ed1a 2f3d d1d6 ccbd 64ac 1ebc

weight f4 [32, 32, 5, 5]
0.02811896 -0.01939227 0.019067412 -0.0343623 0.01606286 0.015178322 0.028625155 0.012960049
0.021914324 -0.031464554 -0.026809942 -0.034443583 -0.028081117 0.012285657 -0.030528365 -0.0040020337
-0.018714642 0.02789894 0.022310417 0.0001579784 -0.0071590752 -0.0013990018 -0.024693523 0.019601451
-0.030705838 -0.017814288 -0.035531048 0.012070332 0.03077573 -0.027741937 -0.016272068 0.0038536028
0.03355907 -0.025936294 -0.02141304 0.0076727434 0.001928297 -0.017172623 0.030959535 0.016412461
0.00063763565 0.019682236 -0.013574273 -0.021438021 0.03383585 0.018098196 0.022162948 0.021583779
0.017396469 0.005378149 -0.0020454659 -0.02774739 0.023228232 0.026070153 -0.004312084 -0.028937593
-0.018961316 0.009601421 -0.034158327 -0.003286382 -0.010300749 -0.010031373 0.0061041247 -0.03084829
-0.031639326 0.0068567316 -0.017966587 0.0030790158 -0.03492998 -0.029551215 0.002107015 -0.026311282
-0.03677468 -0.014196223 0.020049216 0.0131838275 0.02206683 -0.025129993 0.022837693 0.020186746
-0.012870451 -0.016271176 -0.027549025 0.022433769 -0.0117532695 0.031311266 -0.033241253 0.031969078
-0.032914754 -0.009714949 0.00091922045 0.034390323 -0.027670845 0.014977961 0.026372653 -0.032927968
-0.001858868 -0.009362828 0.014439989 0.025672145 0.030499548 0.032809798 -0.03458265 0.012282732
0.033833105 0.007887074 -0.011322887 -0.029612603 0.0015796277 -0.013621722 -0.023374097 0.011289282
-0.0045034327 -0.033152744 0.0004927774 -0.019429052 -0.025616331 -0.01831119 0.009940923 0.029912634
-0.03669744 -0.028322147 0.0026356431 0.007401303 -0.015171042 0.0064244242 -0.002730052 -0.010323056
-0.027643677 -0.0037690126 0.0046410146 -0.020480856 -0.010742224 -0.012444991 0.030910209 0.02863093
0.020480894 0.0056758784 0.0075509483 -0.029035684 0.018512413 -0.03313293 0.0026416073 -0.023842566
-0.018755333 -0.021129424 -0.028965643 -0.032718167 -0.03137233 0.00089155143 0.029263698 0.016365306
0.014599276 0.0031573896 0.016467646 -0.0041768164 -0.0044708173 -0.013718595 -0.03159382 0.0030753913
0.0035334835 0.009888915 -0.0035336062 0.023345778 0.012268203 -0.0369242 0.02082804 -0.021955658
-0.037046038 -0.0005719071 -0.036276978 0.020702422 -0.029528076 -0.019997703 0.026289316 -0.0111337835
-0.003032684 -0.01726063 0.01789389 -0.006465985 0.010967436 0.02107675 -0.010567554 0.011135003
0.025730236 -0.02294337 -0.0054656197 0.030246587 -0.026874047 -0.013238337 -0.02652136 -0.033192374
0.024555316 0.018787969 0.025583861 -0.020881876 -0.010870075 -0.017006574 0.019732308 -0.026620686
0.031720188 0.0012228255 0.008199184 -0.025110237 -0.020703856 0.013441697 0.019446932 0.0045683878
0.026403438 0.017264275 -0.008567662 -0.019379877 0.01981966 -0.0038202286 -0.0068132575 0.017941441
-0.011770375 -0.024503607 0.006157518 0.026063116 0.0085304 -0.016454862 -0.0014517334 -0.013289666
0.015467923 -0.0022224032 0.01708236 -0.011403009 -0.015357488 0.0070221843 -0.005418023 0.010652435
0.008810269 -0.003496194 -0.02288398 -0.0187322 -0.02932671 -0.011310039 0.034973446 -0.025222804
-0.031681277 0.03232079 -0.026260896 0.033917446 -0.023059413 0.03208907 0.032842178 -0.0270568
0.02698076 0.028938428 -0.012295744 -0.011869313 0.0020833018 0.0067498237 -0.005252493 -0.006432432
00000000: bc59 e63c 8adc 9ebc 4333 9c3c 7cbf 0cbd
00000010: 4296 833c 7fae 783c 4d7f ea3c 6356 543c
00000020: ab85 b33c fae0 00bd 86a0 dbbc b714 0dbd
00000030: 5f0a e6bc c849 493c 9f16 fabc 7e23 83bb
00000040: 734f 99bc 518c e43c 56c4 b63c 01a7 2539
00000050: ad96 eabb b65e b7ba 124a cabc 3993 a03c
00000060: cf8a fbbc 45ef 91bc 0189 11bd a4c2 453c
00000070: 621d fc3c 0f43 e3bc 004d 85bc ba8c 7c3b
00000080: 3c75 093d 5a78 d4bc 666a afbc a36b fb3b
00000090: e9be fc3a 9aad 8cbc da9e fd3c 6d73 863c
000000a0: 0127 273a a43c a13c a166 5ebc ca9e afbc
000000b0: 7697 0a3d ab42 943c 128f b53c 77d0 b03c
000000c0: 0a83 8e3c 2f3b b03b 390d 06bb 7f4e e3bc
000000d0: 2249 be3c 1391 d53c 624c 8dbb 880e edbc
000000e0: c354 9bbc 474f 1d3c 9ae9 0bbd 5760 57bb
000000f0: 79c4 28bc a15a 24bc 1c05 c83b 8eb5 fcbc
00000100: 3d98 01bd 6fae e03b aa2e 93bc 50c9 493b
00000110: bd12 0fbd 6415 f2bc d915 0a3b c28a d7bc
00000120: 0ca1 16bd 4697 68bc 413e a43c fb00 583c
00000130: 7fc5 b43c 6add cdbc 1d16 bb3c ad5e a53c
00000140: 96de 52bc 214b 85bc 7eae e1bc 06c7 b73c
00000150: c990 40bc 3e40 003d fb27 08bd 02f2 023d
00000160: 9fd1 06bd 732b 1fbc d7f7 703a dedc 0c3d
00000170: f8ad e2bc 1f66 753c 760b d83c 7adf 06bd
00000180: 43a5 f3ba 8c66 19bc b495 6c3c 644e d23c
00000190: 30da f93c 9163 063d 89a6 0dbd 833d 493c
000001a0: 9594 0a3d c938 013c a183 39bc 2196 f2bc
000001b0: 830b cf3a a52d 5fbc 097b bfbc aef6 383c
000001c0: 8891 93bb 2ccb 07bd bb2d 013a ad29 9fbc
000001d0: 57d9 d1bc 5901 96bc 41df 223c 570b f53c
000001e0: 0e50 16bd d903 e8bc c1ba 2c3b a186 f23b
000001f0: f68f 78bc fa83 d23b acea 32bb 0922 29bc
00000200: fe74 e2bc 8a01 77bb a713 983b 78c7 a7bc
00000210: 2700 30bc 13e6 4bbc 6837 fd3c 6a8b ea3c
00000220: 8cc7 a73c b8fc b93b f26d f73b 3edc edbc
00000230: 58a7 973c 65b6 07bd d11e 2d3b 7c51 c3bc
00000240: c9a4 99bc 9d17 adbc 5b49 edbc 7c03 06bd
00000250: 4680 00bd 01b7 693a 6cba ef3c 8910 863c
00000260: cd31 6f3c 35ec 4e3b 28e7 863c addd 88bb
00000270: ef7f 92bb f5c3 60bc 8568 01bd 818c 493b
00000280: 0492 673b 1e05 223c 1394 67bb a53f bf3c
00000290: 9300 493c d43d 17bd 919f aa3c 5adc b3bc
000002a0: 96bd 17bd 09ec 15ba 2b97 14bd 2098 a93c
000002b0: dde4 f1bc 39d2 a3bc b15c d73c 796a 36bc
000002c0: ffbf 46bb 2a66 8dbc 3596 923c 9de0 d3bb
000002d0: c3b0 333c 26a9 ac3c 8923 2dbc 966f 363c
000002e0: 37c8 d23c bcf3 bbbc f118 b3bb b1c7 f73c
000002f0: f626 dcbc 9ce5 58bc 5343 d9bc baf4 07bd
00000300: 3b28 c93c 3ae9 993c 3f95 d13c 7810 abbc
00000310: 6618 32bc 5f51 8bbc a6a5 a13c a013 dabc
00000320: 07ed 013d 3747 a03a df55 063c fcb3 cdbc
00000330: 229b a9bc 903a 5c3c 2c4f 9f3c 6ab2 953b
00000340: 064c d83c cf6d 8d3c 615f 0cbc 8cc2 9ebc
00000350: d75c a23c cd5c 7abb bf41 dfbb eef9 923c
00000360: 88d8 40bc cabb c8bc 01c5 c93b 5182 d53c
00000370: 17c3 0b3c 59cc 86bc 1748 beba e6bc 59bc
00000380: 2c6d 7d3c bda5 11bb 4ef0 8b3c b0d3 3abc
00000390: f99d 7bbc 5a1a e63b ac89 b1bb 8d87 2e3c
000003a0: f258 103c 6720 65bb 2f77 bbbc 4574 99bc
000003b0: 923e f0bc be4d 39bc 5140 0f3d 0ea0 cebc
000003c0: 3ac4 01bd ce62 043d 1721 d7bc 05ed 0a3d
000003d0: 18e7 bcbc d46f 033d 8585 063d 39a6 ddbc
000003e0: c106 dd3c 4810 ed3c 1774 49bc 8277 42bc
000003f0: 0188 083b a02d dd3b 1b1d acbb 27c7 d2bb

bias f4 [32]
-0.0049823024 0.049317557 -0.024445934 0.0054073366 0.017886344 0.0017348751 0.0055621206 -0.018283576
-0.019125262 -0.046445664 -0.032219402 0.020583918 0.02442915 -0.013346392 0.009969362 -0.049559813
-0.017686093 -0.017002145 -0.018475562 0.07351245 -0.023608653 -0.013621039 0.00425383 -0.0017338708
0.019219184 -0.013551253 -0.0052926443 0.050053675 0.038535234 0.024871156 0.0133282915 -0.047620058
00000000: 9542 a3bb 3501 4a3d d742 c8bc 0730 b13b
00000010: 6286 923c c064 e33a 7342 b63b 70c7 95bc
00000020: 95ac 9cbc cf3d 3ebd 7ef8 03bd 9b9f a83c
00000030: a41f c83c d3aa 5abc 8956 233c 3bff 4abd
00000040: 6de2 90bc 1548 8bbc 105a 97bc b28d 963d
00000050: ef66 c1bc c72a 5fbc b663 8b3b 0d43 e3ba
00000060: 8d71 9d3c 1306 5ebc eb6d adbb 1505 4d3d
00000070: 1fd7 1d3d 98be cb3c e85e 5a3c 400d 43bd

weight f4 [64, 32, 5, 5]
0.0113315275 0.01085722 -0.034010295 -0.02840774 -0.027605902 -0.020048685 0.0051502013 0.03338888
-0.0130560445 0.015338962 -0.00039288483 0.02895582 -0.014595038 0.026290853 0.027718645 -0.0003837839
0.027864853 0.01878853 0.0077013783 0.030459117 0.034378882 0.00868117 -0.011236527 -0.020517653
0.027034571 -0.010808614 0.0098623345 -0.0035611517 0.020049242 -0.0035484862 -0.021579683 0.012236864
-0.02379408 0.0047761337 -0.017484108 0.030132689 0.030231249 -0.014941169 -0.02152199 0.0007995662
0.02884827 0.013936057 0.0052611805 -0.009750201 0.01201478 0.0024505844 -0.023087637 0.007182821
-0.02306831 -0.014130073 -0.021940215 -0.016863659 0.006279662 0.0061539668 -0.036711536 -0.019531112
-0.026293932 0.020557394 0.020058772 -0.0087980805 -0.015414856 -0.010485193 -0.017778708 -2.2274702e-05
0.03317612 0.004874888 0.031875342 0.021817476 0.036930278 0.009193413 0.017615851 0.010717853
0.032216724 -0.010377449 -0.021606458 -0.033646207 0.022706233 0.014050841 -0.026587334 -0.03864618
-0.013218787 -0.017296415 -0.0016081836 0.0017093471 -0.0135821635 0.0021432345 -0.012534936 0.0021796075
-0.030566249 0.030569097 0.035128247 -0.0015472833 -0.012670852 -0.033854317 -0.018025246 -0.030727275
0.02209963 -0.027408184 0.026396748 -0.030507702 -0.026273878 -0.016889393 0.034287795 -0.030525902
-0.03524346 -0.019548818 0.02978268 0.033403944 0.028707229 -0.020306865 0.033810176 0.025538675
-0.0038267449 0.011116707 0.019912802 -0.0057584755 0.015801357 0.008550178 -0.01893593 0.00089009287
0.004042307 0.013116611 -0.019854011 -0.0059566493 0.013065573 -0.032411225 -0.013743625 -0.033772696
0.006224911 0.029936256 0.025024485 0.028574351 0.016489774 -0.002945579 0.008450096 -0.003908341
-0.021744056 -0.011472321 -0.029093623 0.006839851 -0.019845426 0.011315857 0.033929985 0.03052804
0.0175154 0.0071306634 0.025463324 0.020584181 -0.00086463266 0.03398397 0.0017858235 -0.018733624
0.0073596337 0.026228825 -0.0076365913 0.035693124 -0.00391439 -0.026996229 0.032893755 -0.03001865
-0.0068808887 -0.025647659 0.009954526 0.012641106 0.014241343 -0.015730018 0.020426337 0.023872014
-0.034276877 -0.010848305 0.01600736 0.033053342 -0.020615516 0.018588278 0.022950556 -0.002327439
0.026108809 -0.025472773 -0.029772308 -0.0054124426 0.016857013 -0.026436545 0.009318668 0.0058477013
0.011963349 0.004374142 0.01884665 0.027444068 0.029160665 0.025094284 0.026673123 0.03003821
0.0070415777 -0.0029141165 0.0022816288 -0.008860223 -0.030665359 -0.020008082 -0.018457973 0.02807782
0.012982296 -0.0045973505 -0.002346501 -0.02488093 0.029038548 0.008387186 -0.014404753 0.0037271823
-0.015842047 -0.029953161 -0.02139632 0.006020152 0.02600276 -0.008738121 0.02883534 0.02848763
-0.022160564 -0.026406836 -0.029054614 -0.003670232 0.02905517 0.004331702 -0.0061654528 0.030723732
-0.021405343 0.014407649 -0.024930436 -0.026873894 0.017185483 -0.03245296 0.02774832 0.011028907
-0.035303287 -0.017148048 -0.0016454944 -0.005605799 -0.028303029 -0.0007672014 0.02850425 0.023719382
-0.009035663 -0.005565873 0.038179055 0.03835945 -0.008411297 0.013362587 -0.012882722 -0.012724506
-0.018209483 -0.026828105 -0.0060920706 0.011487934 -0.0038042914 0.024215776 -0.024918983 0.03320721
00000000: dfa7 393c 7be2 313c 614e 0bbd 59b7 e8bc
00000010: c625 e2bc 243d a4bc 05c3 a83b c7c2 083d
00000020: 05e9 55bc 4550 7b3c 1cfc cdb9 c134 ed3c
00000030: 0720 6fbc ea5f d73c 3612 e33c 9a36 c9b9
00000040: d544 e43c 67ea 993c d85b fc3b 6685 f93c
00000050: dfd0 0c3d 773b 0e3c 6919 38bc a314 a8bc
00000060: 9b77 dd3c 9d16 31bc a195 213c 3662 69bb
00000070: 4f3e a43c b88d 68bb e0c7 b0bc 217d 483c
00000080: cdeb c2bc 1d81 9c3b d53a 8fbc d4d8 f63c
00000090: 86a7 f73c cecb 74bc e24e b0bc fb99 513a
000000a0: 3553 ec3c 0f54 643c fb65 ac3b 4fbf 1fbc
000000b0: a4d9 443c fc99 203b 4922 bdbc df5d eb3b
000000c0: c1f9 bcbc d281 67bc f7bb b3bc a825 8abc
000000d0: 9fc5 cd3b 37a7 c93b d65e 16bd b6ff 9fbc
000000e0: 5f66 d7bc fb67 a83c 4b52 a43c d325 10bc
000000f0: 988e 7cbc 16ca 2bbc a7a4 91bc 8fda bab7
00000100: afe3 073d 86bd 9f3b b88f 023d 90ba b23c
00000110: 3444 173d f89f 163c 1e4f 903c ef99 2f3c
00000120: aff5 033d 2d06 2abc 0700 b1bc 9bd0 09bd
00000130: 6c02 ba3c 8035 663c aecd d9bc 754b 1ebd
00000140: 9c93 58bc 36b1 8dbc b0c9 d2ba 2c0c e03a
00000150: b987 5ebc 8275 0c3b 555f 4dbc bfd7 0e3b
00000160: 1266 fabc 0b6c fa3c a3e2 0f3d 36ce caba
00000170: 6899 4fbc d3aa 0abd aea9 93bc c4b7 fbbc
00000180: 490a b53c 2187 e0bc fe3d d83c 4aeb f9bc
00000190: 513c d7bc a05b 8abc 5c71 0c3d 7511 fabc
000001a0: 725b 10bd d824 a0bc cffa f33c 93d2 083d
000001b0: 6c2b eb3c 955a a6bc 8a7c 0a3d 7c36 d13c
000001c0: 20ca 7abb d922 363c 2c20 a33c 98b1 bcbb
000001d0: d971 813c 0c16 0c3c 861f 9bbc 1f55 693a
000001e0: 5475 843b 0ee7 563c e1a4 a2bc ff2f c3bb
000001f0: fc10 563c a2c1 04bd f12c 61bc 3d55 0abd
00000200: 57fa cb3b e13c f53c 2600 cd3c c214 ea3c
00000210: 9015 873c 9d0a 41bb 4572 0a3c 8a11 80bb
00000220: 9720 b2bc 67f6 3bbc c055 eebc d420 e03b
00000230: e092 a2bc 2566 393c 2bfa 0a3d f115 fa3c
00000240: 757c 8f3c 57a8 e93b 7698 d03c 28a0 a83c
00000250: 84a8 62ba c632 0b3d 4b12 ea3a 4277 99bc
00000260: 1529 f13b d5dd d63c 5f3c fabb f432 123d
00000270: 4944 80bb 3227 ddbc 9abb 063d ace9 f5bc
00000280: 1479 e1bb 0a1b d2bc 4f18 233c a41c 4f3c
00000290: 8654 693c 3ddc 80bc 2255 a73c 3e8f c33c
000002a0: e965 0cbd 17bd 31bc de21 833c f162 073d
000002b0: dfe1 a8bc 7246 983c ce02 bc3c f287 18bb
000002c0: 24e2 d53c 47ac d0bc 0ee5 f3bc dc5a b1bb
000002d0: b817 8a3c 7491 d8bc 54ad 183c 139e bf3b
000002e0: ec01 443c f654 8f3b 4a64 9a3c 62d2 e03c
000002f0: 59e2 ee3c 8792 cd3c 9881 da3c b112 f63c
00000300: 09bd e63b c3fa 3ebb 6187 153b 782a 11bc
00000310: eb35 fbbc fde7 a3bc 2d35 97bc 7503 e63c
00000320: b2b3 543c 5fa5 96bb c1c7 19bb 18d3 cbbc
00000330: 40e2 ed3c 686a 093c ea01 6cbc be43 743b
00000340: 2ec7 81bc 5560 f5bc 5647 afbc b244 c53b
00000350: bd03 d53c 562a 0fbc 1738 ec3c e45e e93c
00000360: 128a b5bc 2653 d8bc f103 eebc 4688 70bb
00000370: 1c05 ee3c f3f0 8d3b 9107 cabb 56b0 fb3c
00000380: 425a afbc 0f0e 6c3c ea3a ccbc a426 dcbc
00000390: 92c8 8c3c 65ed 04bd 7250 e33c 97b2 343c
000003a0: 2e9a 10bd 107a 8cbc a1ad d7ba dab0 b7bb
000003b0: c1db e7bc 041e 49ba bf81 e93c 264f c23c
000003c0: 510a 14bc ed61 b6bb a461 1c3d cc1e 1d3d
000003d0: 89cf 09bc c1ee 5a3c 0d12 53bc 727a 50bc
000003e0: 0e2c 95bc 9dc6 dbbc fe9f c7bb e337 3c3c
000003f0: 6b51 79bb 2a60 c63c e522 ccbc 4904 083d

bias f4 [64]
0.010126811 -0.031275798 0.025411298 0.002260076 0.022382976 0.018792283 -0.03490605 -0.015767911
0.014782413 -0.0037073018 0.027469695 0.032288678 0.044343356 0.0005508961 0.012483958 0.0032332314
0.0005774385 -0.023245526 0.010029213 -0.022794392 -0.0023583884 -0.018517949 -0.047272343 0.0157361
0.03174227 0.028164113 0.014670894 -0.0005430544 0.024055978 0.01569373 -0.018495841 -0.03315149
0.023152478 0.014886577 0.01923766 0.036824863 0.03388184 0.029840507 0.034418095 0.028178437
0.012952921 -0.021012582 -0.038641855 0.02264436 0.035635836 0.035043154 0.028028602 0.021746548
0.039452143 -0.02060704 -0.008745084 0.027127584 -0.015275 -0.012924953 -0.040938854 0.0076058228
-0.017028872 -0.024383817 0.0027665203 0.033777207 -0.00877263 0.014894374 0.00029625406 0.011880698
00000000: edea 253c 0d1b 00bd 5b2b d03c c91d 143b
00000010: 815c b73c 46f2 993c a5f9 0ebd b52b 81bc
00000020: ef31 723c 34f6 72bb 2008 e13c 2241 043d
00000030: 61a1 353d 036a 103a 8489 4c3c 9fe4 533b
00000040: 3e5f 173a 676d bebc 9151 243c 4ebb babc
00000050: 318f 1abb f4b2 97bc a5a0 41bd fee8 803c
00000060: 2f04 023d 6db8 e63c 305e 703c c45b 0eba
00000070: 0b11 c53c 2390 803c 9784 97bc dbc9 07bd
00000080: 44aa bd3c d4e6 733c 4c98 9d3c abd5 163d
00000090: afc7 0a3d 1474 f43c fdf9 0c3d 77d6 e63c
000000a0: 7d38 543c 9422 acbc ec46 1ebd aa80 b93c
000000b0: e2f6 113d 6989 0f3d 3d9c e53c d125 b23c
000000c0: 9298 213d 18d0 a8bc 8a47 0fbc ab3a de3c
000000d0: fe43 7abc 2fc3 53bc 80af 27bd 443a f93b
000000e0: 2280 8bbc 92c0 c7bc 824e 353b f859 0a3d
000000f0: 14bb 0fbc 8807 743c 8c52 9b39 42a7 423c

weight f4 [64, 1024]
-0.0006683558 -0.017786479 0.02322355 -0.020995485 -2.8958097e-05 0.025549153 1.8420647e-05 0.0103723025
-0.018271307 -0.006543669 0.01766469 0.03172555 -0.009940112 -0.0041287565 -0.025401229 0.017552303
-0.029450262 -0.0070650424 -0.00877332 0.015481411 -0.015036878 -0.028035078 0.0029179314 -0.01873343
-0.030590428 0.023406504 -0.020997826 0.008528828 -0.031201717 0.0007127304 0.026336951 -0.017905332
0.001556832 0.01913297 0.0078086006 -0.008998508 0.0013118531 -0.021467337 -0.016751902 -0.013950914
0.017088719 -0.0085511645 0.01500769 -0.024138354 -0.0045873094 0.001123297 -0.025389144 -0.024530256
0.028404405 0.028741064 0.014844382 -0.021620503 0.006031056 0.020700866 -0.00040104345 0.020285731
0.017194653 -0.026689244 0.0030259397 0.018161513 0.03225678 -0.0285059 0.03177587 0.014189563
-0.018968677 -0.0052342904 0.006676537 0.00919903 0.027266277 0.0015695607 0.0032379196 -0.012553302
-0.030956367 0.014780092 -0.023309236 0.025980223 -0.014381495 0.010467377 -0.027042085 -0.0015185152
-0.025336701 0.019727739 0.030679261 0.029588975 0.025023168 0.021952737 -0.024951346 -0.017153936
0.031727508 -0.008551159 -0.026774345 0.025396565 0.01917843 -0.025309816 -0.023152668 0.019985609
0.028292118 -0.018731963 0.02153543 -0.010610988 -0.0018021809 -0.0031401103 -0.007887684 -0.0076753
-0.017054167 -0.018356316 0.011982072 0.019503923 0.025842188 0.0067806076 -0.0011486978 0.006844947
-0.01382125 -0.020363336 0.030818237 -0.0037772332 0.008100968 -0.026693316 -0.019075064 0.022570433
-0.010347038 0.0024498657 -0.01115496 0.011054183 0.015283795 0.013124053 0.013518723 0.01330622
-0.025853388 0.00534221 -0.02995726 -0.03197118 0.016210293 0.011363004 0.029063115 0.020183299
-0.03133092 -0.01789093 0.0108990865 0.0036517049 -0.025161784 -0.0038616136 -0.0041621006 -0.008773151
-0.01574825 0.008718629 0.025780952 -0.021105394 0.026569176 0.007314354 -0.013348596 0.008231804
0.015956054 -0.027547583 -0.0042600445 -0.015897442 0.001451717 0.006474564 -0.013856117 0.025941547
0.00015592681 -0.0046735546 0.015233507 0.02245245 0.02168867 9.409062e-05 -0.012069376 0.0022987123
-0.0013419248 0.02333672 0.031333722 -0.011966263 -0.014748488 -0.0053413277 -0.0067530707 -0.009893124
-0.030843114 -0.011817008 0.008857543 0.028178925 0.021319399 -0.005747186 -0.013478651 -0.025319973
0.00058397953 -0.030182302 -0.025619067 -0.017723944 -0.011641859 -0.017890822 -0.00559293 -0.020553056
-0.026915368 -0.026557848 0.0135662565 -0.017321818 -0.015533733 0.001919921 -0.003051708 -0.00538529
0.013531199 -0.004959504 0.033228252 -0.023795214 -0.0006444603 -0.015026605 0.020491898 0.022417158
-0.021395475 0.018161712 0.0025679225 -0.028327553 -0.03262752 0.010854331 -0.015632967 0.014374491
-0.029109003 -0.027164847 -0.014819292 0.007518596 -0.0012168649 -0.012740981 -0.012724191 -0.015164697
-0.0030319784 0.02880321 0.004949908 0.0006293143 0.003137249 -0.027973559 -0.016182004 -0.026725965
0.017429795 -0.008968541 0.007087201 0.024398783 0.022751978 0.002560155 0.007962204 -0.0057860897
0.006551125 -0.018495211 0.0042150193 0.01989682 0.021427266 -0.024023917 -0.028846715 0.0063652215
0.013612327 0.011777637 -0.015809273 -0.00798864 0.025250368 -0.016321506 -0.024428794 0.0018040361
00000000: 9934 2fba f3b4 91bc 503f be3c b9fe abbc
00000010: 0aeb f2b7 754c d13c 0a86 9a37 97f0 293c
00000020: b5ad 95bc 466c d6bb 8ab5 903c a6f2 013d
00000030: dadb 22bc 854a 87bb 3d16 d0bc d9c9 8f3c
00000040: ad41 f1bc df81 e7bb f9bd 0fbc bea5 7d3c
00000050: 3d5d 76bc d2a9 e5bc c43a 3f3b da76 99bc
00000060: c798 fabc ffbe bf3c a203 acbc 7fbc 0b3c
00000070: be9a ffbc 87d6 3a3a 97c0 d73c 34ae 92bc
00000080: 9d0e cc3a bfbc 9c3c 4adf ff3b 7a6e 13bc
00000090: 7cf2 ab3a 45dc afbc 493b 89bc 6092 64bc
000000a0: a4fd 8b3c 2f1a 0cbc d0e2 753c ccbd c5bc
000000b0: 2451 96bb 983b 933a e5fc cfbc adf3 c8bc
000000c0: 5bb0 e83c 6172 eb3c da35 733c 7b1d b1bc
000000d0: 2aa0 c53b dd94 a93c 2443 d2b9 432e a63c
000000e0: cddb 8c3c 67a3 dabc d84e 463b 74c7 943c
000000f0: af1f 043d 3585 e9bc 6a27 023d 577b 683c
00000100: 3364 9bbc 6984 abbb dac6 da3b 87b7 163c
00000110: 875d df3c b8b9 cd3a 4733 543b 5dac 4dbc
00000120: 3598 fdbc 3328 723c 03f3 bebc 7ad4 d43c
00000130: 5da0 6bbc 5c7f 2b3c 5d87 ddbc ea08 c7ba
00000140: ea8e cfbc 119c a13c 1353 fb3c 9464 f23c
00000150: 63fd cc3c 3ad6 b33c c466 ccbc 6986 8cbc
00000160: b4f4 013d 291a 0cbc df55 dbbc 750c d03c
00000170: 151c 9d3c 8856 cfbc aaaa bdbc dcb8 a33c
00000180: dfc4 e73c c673 99bc 126b b03c b6d9 2dbc
00000190: 2837 ecba 4fca 4dbb 583b 01bc 1581 fbbb
000001a0: 2eb5 8bbc fc5f 96bc 7450 443c b1c6 9f3c
000001b0: ffb2 d33c dc2f de3b e78f 96ba 944b e03b
000001c0: 8672 62bc 03d1 a6bc 8776 fc3c 758b 77bb
000001d0: ecb9 043c f1ab dabc 4f43 9cbc a1e5 b83c
000001e0: 9f86 29bc ed8d 203b 4bc3 36bc 9b1c 353c
000001f0: e268 7a3c 4506 573c a27d 5d3c 5502 5a3c
00000200: 7cca d3bc b50d af3b ed68 f5bc 36f4 02bd
00000210: 73cb 843c e52b 3a3c c515 ee3c 7257 a53c
00000220: da54 00bd 0090 92bc 1592 323c 7151 6f3b
00000230: 1620 cebc 2013 7dbb 3b62 88bb 43bd 0fbc
00000240: 7902 81bc 95d8 0e3c 9332 d33c 38e5 acbc
00000250: 9aa7 d93c 40ad ef3b 12b4 5abc b0de 063c
00000260: 45b6 823c 78ab e1bc d897 8bbb 5a3b 82bc
00000270: 8a47 be3a 9428 d43b c404 63bc 5e83 d43c
00000280: 4980 2339 9e24 99bb f695 793c 33ee b73c
00000290: 70ac b13c 8452 c538 a2be 45bc fea5 163b
000002a0: 86e3 afba a62c bf3c ca57 003d 250e 44bc
000002b0: a4a3 71bc 4e06 afbb dd48 ddbb c516 22bc
000002c0: b3aa fcbc 209c 41bc 3a1f 113c 7dd7 e63c
000002d0: 05a6 ae3c e452 bcbb 8fd5 5cbc d56b cfbc
000002e0: 3416 193a e040 f7bc 14df d1bc ce31 91bc
000002f0: 7fbd 3ebc c68f 92bc e644 b7bb e25e a8bc
00000300: 9e7d dcbc d88f d9bc 0145 5e3c 7ce6 8dbc
00000310: 3381 7ebc dca5 fb3a 2aff 47bb 1677 b0bb
00000320: f6b1 5d3c 5683 a2bb 591a 083d 2eee c2bc
00000330: 00f1 28ba 2632 76bc a0de a73c 30a4 b73c
00000340: 9045 afbc dfc7 943c 974a 283b 2f0f e8bc
00000350: 6fa4 05bd 5dd6 313c b510 80bc fc82 6b3c
00000360: 0176 eebc d088 debc 9ecc 72bc 8e5e f63b
00000370: 367f 9fba 8cbf 50bc 2079 50bc 5975 78bc
00000380: 28b4 46bb b6f4 eb3c d632 a23b 91f8 243a
00000390: 4e9a 4d3b ce28 e5bc 1f90 84bc 69f0 dabc
000003a0: eec8 8e3c caf0 12bc c03b e83b f5df c73c
000003b0: 5b62 ba3c 46c8 273b e773 023c 3d99 bdbb
000003c0: d2aa d63b 4583 97bc 251e 8a3b a8fe a23c
000003d0: 3c88 af3c cecd c4bc f24f ecbc 5993 d03b
000003e0: 3d06 5f3c fdf6 403c 7382 81bc c9e2 02bc
000003f0: dcd9 ce3c aeb4 85bc e51e c8bc 6875 ec3a

bias f4 [64]
0.02039461 -0.032445244 -0.035792466 0.007080297 0.026901769 -0.02802468 0.017386053 0.021013893
0.015221072 -0.0015347233 -0.018826932 0.02400923 0.018169213 -0.03432242 0.027003234 0.016896358
0.0016730854 0.017076353 0.028483195 -0.019484991 -0.027151698 0.027217831 -0.00621909 0.0034890992
-0.03323812 -0.01604121 0.016889246 -0.008520306 0.016343903 0.0063744797 0.038432475 0.031590313
-0.021181678 0.001842574 -0.011565988 0.0035820396 0.018162163 -0.0076756724 0.00829612 0.013285952
0.031921383 0.030101003 0.0260204 0.02634279 0.0064172433 -0.030421264 -0.027651502 0.020639684
-0.0138901705 0.016997593 0.004440442 0.012217197 -0.0021822336 -0.01589876 -0.037861314 0.0012332775
0.025521824 -0.0054972647 0.0001484269 0.0146899875 -0.017217116 -0.029302545 -0.0098695755 0.030244427
00000000: 9912 a73c 4ee5 04bd 1f9b 12bd d601 e83b
00000010: 1961 dc3c 0494 e5bc 326d 8e3c 5425 ac3c
00000020: ce61 793c c528 c9ba f03a 9abc 01af c43c
00000030: 9ad7 943c aa95 0cbd e335 dd3c 3b6a 8a3c
00000040: 6e4b db3a b5e3 8b3c 9755 e93c fd9e 9fbc
00000050: 3d6d debc eef7 de3c 82c9 cbbb 5fa9 643b
00000060: b224 08bd db68 83bc 515b 8a3c c198 0bbc
00000070: a6e3 853c 03e1 d03b 5f6b 1d3d d864 013d
00000080: 3385 adbc 8682 f13a 457f 3dbc a7c0 6a3b
00000090: d1c8 943c 3584 fbbb 73ec 073c 52ad 593c
000000a0: ffbf 023d 6196 f63c bc28 d53c d6cc d73c
000000b0: bd47 d23b 0436 f9bc 6785 e2bc 8e14 a93c
000000c0: 9993 63bc 893e 8b3c 2181 913b a32a 483c
000000d0: ce03 0fbb 1e3e 82bc 7714 1bbd eda5 a13a
000000e0: 2513 d13c 6622 b4bb 0ba3 1b39 46ae 703c
000000f0: e90a 8dbc e40b f0bc 00b4 21bc 29c3 f73c

weight f4 [10, 64]
-0.04745321 -0.0373302 0.0527896 -0.09745942 -0.107560754 0.13555455 0.028536052 -0.056193106
0.055635717 -0.10769763 0.04400534 -0.0319228 -0.014692857 0.12627782 0.037904557 0.035894103
-0.00047099084 0.008839731 -0.069043055 0.04974797 -0.07359779 0.010452694 0.12490803 0.01291212
0.12405502 -0.045848493 -0.07785442 -0.09724995 -0.059904534 -0.096588336 -0.14131261 -0.04783763
-0.016465012 0.06277165 0.06205644 0.02969879 -0.06371918 0.022876853 0.065281406 0.018331425
-0.07741416 0.104080155 -0.02912803 0.016743613 -0.0046605887 0.12552671 0.083373785 0.07100854
0.05593374 0.110087775 -0.03501078 0.10412682 0.013801959 0.100121 0.074058264 -0.10631424
-0.0034383184 -0.10686 0.13574734 -0.06664826 -0.115436055 -0.031965077 -0.00213199 -0.07316279
0.0039699282 -0.115659066 0.09702843 -0.11370756 -0.02232447 0.02104557 0.024240907 -0.10637692
0.014168558 0.032192398 0.09499871 0.12161712 -0.075887755 -0.06745741 -0.033436228 -0.028538011
-0.006093244 0.10612613 0.04316694 0.02766879 0.10272474 0.11390946 0.0910117 -0.1332161
0.035863005 -0.11750688 0.05616495 -0.01205703 -0.12902662 -0.053040914 -0.077189706 -0.035795182
-0.02332259 0.056604564 -0.03771049 -0.0019072358 0.04773929 -0.10153459 -0.11361209 0.091846526
0.056818567 0.05314811 0.010768252 0.01380883 -0.100002855 -0.08047133 0.066008545 -0.13508317
-0.10216406 -0.13132697 0.10938617 -0.11203625 0.011610359 -0.10517598 0.016265837 -0.01533181
0.11077833 -0.13217837 -0.14373834 -0.0438168 0.081590794 -0.105379395 0.016479922 0.07555955
-0.08829305 -0.097650394 -0.11207358 0.08409968 0.017170312 0.11172782 0.10307252 0.050478645
0.10836346 0.070849955 -0.12436309 0.07602358 0.08864018 -0.025767276 -0.025408704 -0.12363878
-0.06419064 0.095552 0.02852393 -0.03931215 -0.006260658 -0.07712463 -0.016825749 0.081745975
0.051366996 -0.09495542 -0.07798031 0.009599461 -0.0032239181 0.017728627 0.1041404 0.02485885
0.054018747 0.09482099 -0.042082727 0.009133218 -0.054138493 0.11324256 0.07426957 0.04217302
-0.042458836 -0.0041790637 0.040446583 0.09925515 0.0212411 -0.009696606 0.08804974 -0.048410203
-0.06775746 -0.01188497 0.0031386684 0.06596581 -0.12401801 -0.0605251 0.064990975 -0.0904607
0.09858527 0.038765673 -0.1083475 -0.057929084 -0.03725463 0.10254439 -0.040254436 -0.019796094
0.012408026 -0.090450995 -0.09318491 -0.11440477 0.039872434 -0.02051979 -0.00045739108 -0.05038637
0.11102323 -0.08955977 0.03872378 -0.10017815 -0.020584213 -0.008116626 -0.014238997 -0.05029301
0.07145287 -0.075010106 0.112842806 -0.01890731 0.009650548 -0.126505 0.015334736 0.12912197
0.0038377 0.009082698 0.085352905 -0.062204357 0.123586915 -0.0019982709 0.097193636 0.10774739
-0.04952985 0.044437423 0.00080423395 0.094019 0.07946133 0.03266157 0.12148647 -0.15207309
0.090999216 -0.110189475 -0.0068218727 0.115869455 -0.083878264 -0.028262716 0.06384659 0.12151174
-0.056283977 -0.009199045 -0.1044095 -0.12601748 -0.010916389 -0.07377298 0.0066873212 0.08353123
-0.12828518 -0.0842326 0.056435935 0.021023972 0.045428853 0.00055353774 0.063379265 0.040671714
00000000: 4c5e 42bd 8de7 18bd e839 583d ce98 c7bd
00000010: d048 dcbd d0ce 0a3e 70c4 e93c be2a 66bd
00000020: 47e2 633d 9390 dcbd f23e 343d 7bc1 02bd
00000030: 4fba 70bc f94e 013e cf41 1b3d b205 133d
00000040: 52ef f6b9 85d4 103c 7266 8dbd 87c4 4b3d
00000050: 70ba 96bd c741 2b3c c8cf ff3d 5b8d 533c
00000060: 8f10 fe3d a1cb 3bbd 2372 9fbd fb2a c7bd
00000070: 755e 75bd 1bd0 c5bd 41b4 10be 64f1 43bd
00000080: a2e1 86bc 6c8e 803d e52e 7e3d e04a f33c
00000090: 347f 82bd 3d68 bb3c 42b2 853d c92b 963c
000000a0: 518b 9ebd fa27 d53d e89d eebc e729 893c
000000b0: dab7 98bb 138a 003e e0bf aa3d ed6c 913d
000000c0: c71a 653d b375 e13d 7767 0fbd 7140 d53d
000000d0: 9d21 623c 3d0c cd3d dcab 973d 48bb d9bd
000000e0: 6955 61bb 6ad9 dabd 5a01 0b3e e27e 88bd
000000f0: bd69 ecbd d0ed 02bd dbb8 0bbb 5fd6 95bd
00000100: 2c16 823b a9de ecbd d7b6 c63d 82df e8bd
00000110: cfe1 b6bc c267 ac3c de94 c63c 25dc d9bd
00000120: 3d23 683c 2ddc 033d af8e c23d 6612 f93d
00000130: 0a6b 9bbd 1c27 8abd 6df4 08bd 8cc8 e9bc
00000140: d6a9 c7bb a858 d93d d1cf 303d a9a9 e23c
00000150: 5961 d23d 5d49 e93d 5864 ba3d cd69 08be
00000160: 16e5 123d 72a7 f0bd 380d 663d d98a 45bc
00000170: 8e1f 04be 6e41 59bd a315 9ebd f89d 12bd
00000180: 040f bfbc 30da 673d 5176 1abd 37fc f9ba
00000190: 468a 433d 5ef1 cfbd 75ad e8bd 081a bc3d
000001a0: 96ba 683d d5b1 593d 536d 303c 6e3e 623c
000001b0: 4cce ccbd 27ce a4bd 7d2f 873d 3e53 0abe
000001c0: 643b d1bd 947a 06be db05 e03d 4373 e5bd
000001d0: 6039 3e3c 8166 d7bd ef3f 853c 4632 7bbc
000001e0: c0df e23d c459 07be 2530 13be 3f79 33bd
000001f0: 1319 a73d 27d1 d7bd e700 873c f7be 9a3d
00000200: fdd2 b4bd eefc c7bd d586 e5bd 743c ac3d
00000210: c1a8 8c3c 8ed1 e43d af17 d33d b2c2 4e3d
00000220: a9ed dd3d c819 913d 13b2 febd 40b2 9b3d
00000230: fc88 b53d e515 d3bc ea25 d0bc 5436 fdbd
00000240: 6276 83bd c4b0 c33d 04ab e93c c705 21bd
00000250: 3526 cdbb 85f3 9dbd 27d6 89bc 6f6a a73d
00000260: 3366 523d fd77 c2bd 24b4 9fbd 0f47 1d3c
00000270: 5f48 53bb a03b 913c 9047 d53d c9a4 cb3c
00000280: c342 5d3d 8231 c23d f05e 2cbd 7ea3 153c
00000290: 53c0 5dbd b7eb e73d a51a 983d 9ebd 2c3d
000002a0: 51e9 2dbd 87f0 88bb 51ab 253d 4946 cb3d
000002b0: d101 ae3c 83de 1ebc 6c53 b43d c749 46bd
000002c0: 6cc4 8abd 2db9 42bc 1eb2 4d3b 1519 873d
000002d0: 28fd fdbd 2be9 77bd fd19 853d 7643 b9bd
000002e0: 13e7 c93d c1c8 1e3d 4be5 ddbd 0c47 6dbd
000002f0: 5098 18bd cb02 d23d d6e1 24bd 6b2b a2bc
00000300: 084b 4b3c 5f3e b9bd bbd7 bebd 0c4d eabd
00000310: 4751 233d 1e19 a8bc fecd efb9 f061 4ebd
00000320: 2660 e33d 1d6b b7bd d49c 1e3d 342a cdbd
00000330: 39a0 a8bc 99fb 04bc af4a 69bc 0b00 4ebd
00000340: e255 923d e69e 99bd 211a e73d 81e3 9abc
00000350: 551d 1e3c 878a 01be 8b3e 7b3c 8d38 043e
00000360: ec81 7b3b 99cf 143c 81cd ae3d ffc9 7ebd
00000370: 231b fd3d 6cf5 02bb 750d c73d aaaa dc3d
00000380: d0df 4abd 0404 363d 3ad3 523a 098d c03d
00000390: 9fbc a23d 23c8 053d e6cd f83d 0cb9 1bbe
000003a0: cc5d ba3d 05ab e1bd 048a dfbb f74c ed3d
000003b0: 5ec8 abbd 3687 e7bc 00c2 823d 26db f83d
000003c0: 078a 66bd 97b7 16bc a6d4 d5bd ba0a 01be
000003d0: a7da 32bc 4a16 97bd 5121 db3b 6c12 ab3d
000003e0: 315d 03be 2482 acbd 5e29 673d 773a ac3c
000003f0: 9b13 3a3d 4a1b 113a fdcc 813d 6297 263d

bias f4 [10]
-0.13235395 0.037270125 0.05141814 0.028454222 0.03824652 0.04911194 0.11694226 0.044813223
-0.065332875 0.016288012
00000000: cb87 07be 8fa8 183d d49b 523d d418 e93c
00000010: 62a8 1c3d 9a29 493d 6c7f ef3d 128e 373d
00000020: 3ecd 85bd 706e 853c
