DeepLearningDemo/models/jingxin_8.pth (torch, 588127 bytes, 10 tensors)

weight f4 [32, 3, 5, 5]
000000 84 f2 ad bb 1c c2 dd 3d 33 c0 9a bd f4 6d f7 bd
       -0.005308451 0.10828039 -0.0755619 -0.12081519
000010 af ed 94 3c c7 f5 80 bd c3 5d e9 bd 92 c1 9a 3d
       0.018179743 -0.06296878 -0.11394837 0.07556452
000020 66 10 9b 3d 1f cf 29 3d ba 7d 6f 3d b0 fd 01 3e
       0.07571487 0.04145729 0.05846951 0.1269443
000030 4e 73 31 3e 6e 89 bd 3d 64 e8 95 3c 30 4e 38 3d
       0.17329141 0.09254728 0.018299289 0.04499644
000040 e5 01 4c bd d3 29 d1 bd ee 3c 80 ba ea f5 cf bd
       -0.049806494 -0.102130555 -0.0009783783 -0.10154326
000050 d6 f4 37 bd 5c df 0c 3d b7 55 e2 bd 99 1d e1 3d
       -0.044911228 0.0343927 -0.11051505 0.109919734
000060 81 1e e1 bd e5 71 97 3d 90 0e d0 3d de ad b7 bd
       -0.10992146 0.073947705 0.101590276 -0.089687094
000070 2e 4b e6 bd 03 0f 58 bd 00 83 ca bc 86 73 d6 bd
       -0.11244808 -0.05274869 -0.024720669 -0.10471253
000080 4d 76 fa 3d 37 cf 13 bd 43 20 8f 3d db f6 51 bc
       0.12229595 -0.036086287 0.06988575 -0.012815203
000090 9a 9a aa bd a6 7c 47 3d ae e2 21 3e aa 1d 28 3d
       -0.08330269 0.04870286 0.15809128 0.041043915
0000a0 64 de 03 3e 35 34 70 3c 1d 7b b6 bd 50 15 35 3d
       0.12877804 0.014660885 -0.08910201 0.04420978
0000b0 e0 ef 9a 3d 68 20 df bd 66 dc f8 bd 51 29 09 3c
       0.07565284 -0.10894853 -0.12151413 0.008371667
0000c0 31 e5 22 bc 71 39 13 3d e3 b2 4b bd 27 58 bd bc
       -0.009942339 0.035943452 -0.049731147 -0.023113323
0000d0 d8 f4 50 bd d0 21 f0 bd d7 ea ec bd 29 7b e4 3b
       -0.05101475 -0.11725199 -0.1156823 0.0069726896
0000e0 1a 40 0f be 90 b1 71 3d f1 6e a4 bc 72 9a d1 3d
       -0.13989297 0.059007227 -0.020072432 0.10234536
0000f0 28 cf 23 3d 13 80 8e bd 89 9a 0d 3e 05 d7 4a 3d
       0.03999248 -0.06958022 0.13828482 0.049521465
000100 9d 7f 07 3d c3 e4 4a bc 37 12 33 3c 31 9f e2 bd
       0.033080686 -0.012383643 0.010929636 -0.110655196
000110 d3 ec 91 bd 74 ba cd 3a 72 7f 94 3d 98 bf 0e bd
       -0.07125249 0.0015695826 0.07250871 -0.034850687
000120 f5 39 d4 3d 46 bb c8 3d 01 e3 7d bd 84 f5 e5 bd
       0.10362617 0.098013446 -0.061984066 -0.11228469
000130 9f a5 a0 bd ec 0a 84 3c 01 9d 60 b9 b8 83 8a 3c
       -0.0784409 0.01611849 -0.00021420793 0.016908512
000140 b3 89 b5 3d 59 14 81 bd d5 a4 56 bb e0 d8 b0 bd
       0.08864155 -0.06302709 -0.0032752056 -0.086351156
000150 33 27 31 3c 53 f7 33 ba af 69 18 be 5d e5 d7 bc
       0.0108125685 -0.0006865162 -0.14884065 -0.026354486
000160 f5 6e ee bd a8 e4 97 bd f3 b5 14 3d 74 16 11 3c
       -0.11642257 -0.074166596 0.036306333 0.008855451
000170 3c 08 d9 3d b7 0a f8 3d 33 49 9b bd 29 ec 91 bb
       0.10597274 0.12111419 -0.07582321 -0.0044532013
000180 88 c7 0b 3d 27 a9 94 bd f4 c4 00 3e a5 fe 48 3d
       0.034125835 -0.07258826 0.12575132 0.049070973
000190 e8 49 ee bd 59 fb d7 bc 09 21 d4 bd bb 49 27 bd
       -0.1163519 -0.02636497 -0.103578635 -0.0408418
0001a0 88 f0 dd 3d 0e bf 85 3d ff 71 7f bc b8 37 e7 3d
       0.10836893 0.065305814 -0.015591144 0.112899244
0001b0 b5 2d 53 bd 84 fc 08 be 9b d0 6a 3c 3d d5 d3 3c
       -0.05155726 -0.13377577 0.014331962 0.025858516
0001c0 14 89 84 bc fe 24 03 be 7a c4 3a bd eb aa 0a 3d
       -0.016178645 -0.1280708 -0.04559753 0.033854406
0001d0 2f 71 06 3e d4 b1 7d bd 3a 14 5c 3d ca dd ca 3d
       0.13129114 -0.06193717 0.053730227 0.09905584
0001e0 eb 2e e5 3d ce 22 19 bd 00 9d 6b bb de 38 1e 3d
       0.111905895 -0.037386708 -0.0035951734 0.03862845
0001f0 97 5a b5 3c d1 59 c1 3d 18 27 83 3d bb 3e be 3d
       0.022137923 0.09440959 0.06403941 0.09289309
000200 b6 76 e8 3d 06 56 98 bd 96 5c d7 3d d0 d3 ad 3d
       0.11350767 -0.07438283 0.10515706 0.08487666
000210 8a cd 2c bd a5 7f db 39 ef c0 d0 bc 0e bb b1 bd
       -0.042188205 0.00041866038 -0.025482623 -0.08678256
000220 56 e7 c4 3d 03 c2 8b bd d3 f0 98 bd 99 bf a7 3d
       0.09614436 -0.06824114 -0.074678086 0.08190841
000230 10 25 3d bc 58 2a 85 bc db 5a a5 3c 35 04 31 3d
       -0.011544481 -0.016255543 0.020184925 0.043216903
000240 43 52 14 3d f2 f2 da 3d f9 90 af 3c 5b 37 c4 3d
       0.036211263 0.106908694 0.021431433 0.09580871
000250 e7 63 34 3d cd f2 ea bc f1 d0 ea bb e8 3b b8 3c
       0.044040587 -0.02868023 -0.007166021 0.022489503
000260 0d c5 45 3c ce 4f 27 3e bd 48 71 3e 35 e9 21 3d
       0.012070906 0.16339037 0.23562904 0.039529044
000270 a3 b0 5d bd c5 2e 97 3d 94 58 fb bc 19 41 bd 39
       -0.054123532 0.073819675 -0.030681886 0.0003609739
000280 a0 2a ae 3d 49 aa 9a 3a 91 04 7e 3d 94 58 a6 bd
       0.08504224 0.0011800017 0.062016074 -0.08122364
000290 30 d1 88 bc 50 c4 f3 3c f4 f6 20 bd e6 3f 0e bd
       -0.01670131 0.029756695 -0.039298013 -0.034728907
0002a0 65 da e8 3c 1c 6e a1 bd d7 49 76 3d e9 42 4f bd
       0.028424451 -0.0788233 0.060129013 -0.05060092
0002b0 87 95 40 bd 53 b6 82 3d 19 ec cd 3d 1f 24 b4 3d
       -0.0470176 0.06382432 0.10054798 0.08795952
0002c0 40 51 3d be af 01 fb bd bf b7 0c be 1d b0 ef 3d
       -0.18488026 -0.122561805 -0.13741969 0.11703513
0002d0 f3 28 c5 bd 73 c0 10 be 1f f3 4b be 15 db 0d be
       -0.09626951 -0.14135914 -0.19916962 -0.13853104
0002e0 49 8b fb 3d 2c 83 a6 bc 4a db 55 be d5 d6 c3 bd
       0.12282426 -0.02032622 -0.20884433 -0.0956246
0002f0 99 a4 a0 bd fe f8 6b bd 57 91 19 be fb a1 a3 bd
       -0.078438945 -0.057610504 -0.14996849 -0.0798988
000300 7f 6e 0e 3d 3e 87 ba bd 62 7b f9 bd 51 f0 de bc
       0.034773346 -0.09107827 -0.121817365 -0.027214201
000310 3e b0 0a be bd 48 8e 3b 11 35 be 3d a4 d3 5f 3d
       -0.13543794 0.004342167 0.09287465 0.054645196
000320 63 ee ad 3d 79 7e f5 bd d2 c0 ed bd 1c f1 f1 3b
       0.08492734 -0.11987013 -0.11609043 0.007383479
000330 1b 37 23 3e bf f1 76 3d 8b 58 0f 3c 34 22 0c be
       0.1593899 0.06028914 0.008749138 -0.13684922
000340 aa 8b 81 3d 95 18 17 3e 21 33 7d bc d2 52 13 be
       0.06325467 0.14755471 -0.015454085 -0.14387062
000350 a2 1f 58 3d 1e d4 d5 bd 92 79 8c 3c 6c 0c 94 bd
       0.052764542 -0.10440849 0.017147813 -0.07228932
000360 1a c5 1b be 82 c4 e0 bc 41 16 82 3d b9 5e aa bd
       -0.15211907 -0.027437452 0.06351901 -0.08318848
000370 c1 26 83 bb da 26 dc bc ac d7 08 bd f8 58 4a bb
       -0.0040024226 -0.026873995 -0.033408806 -0.0030875783
000380 08 5a fb 3d 48 8c 80 3c a5 7c e0 3d 0f 37 dc bd
       0.122730315 0.015691891 0.10961274 -0.10752689
000390 f2 29 da bd 9e ee c7 3c 69 c9 8c bc 58 8d 18 3d
       -0.10652532 0.024405774 -0.017185884 0.03724417
0003a0 c1 0e 51 bd 65 b8 c3 bd a1 f3 e3 3d 03 a7 d7 3d
       -0.05103946 -0.09556655 0.11130453 0.10529902
0003b0 d4 a4 0a bd 59 da 7b bd 00 0b be 3c 26 94 c4 bd
       -0.0338486 -0.06148753 0.023198605 -0.095985696
0003c0 b1 eb 89 bd 43 24 20 be 02 5d f5 bc d7 36 bb bc
       -0.06734408 -0.15638833 -0.029951576 -0.022853298
0003d0 52 a3 3b bd d3 50 da bd 02 a7 c6 3d 0f bd 8d 3d
       -0.04581005 -0.10659947 0.09699823 0.06920826
0003e0 99 5c d8 3d 14 ab 0b 3e c2 c7 3c bc 3d 58 e3 3d
       0.105645366 0.1363948 -0.011522235 0.111008145
0003f0 b6 29 01 bd 4c 7c b8 bc 6d c4 b9 3d ee 8b 59 3d
       -0.03153392 -0.022520207 0.09070668 0.053111963

bias f4 [32]
000000 cd 96 3d 3d 18 d7 76 be a8 17 f2 3d 49 4e 96 bd
       0.046286393 -0.24105489 0.11820918 -0.073391505
000010 9f a8 48 3e c1 0b 80 3e d8 90 9d 3e bd e4 9d be
       0.19595574 0.25008968 0.3077457 -0.30838576
000020 05 ff 94 bd 95 5b 4c be 42 f3 77 bc 3a d8 b3 bd
       -0.072752036 -0.19956811 -0.015133681 -0.08781476
000030 42 24 59 bd ef 94 50 bd 96 27 c7 bc 79 47 49 3e
       -0.053013094 -0.050923284 -0.024310868 0.19656171
000040 87 a1 ba bc d1 c0 26 be 4f 6b 4b be dc 1a 8d be
       -0.0227821 -0.16284491 -0.19865154 -0.27559555
000050 c4 58 90 3e 2c 87 5b be cb 14 0f be bf ea 92 3d
       0.28192723 -0.21438283 -0.13972776 0.071736805
000060 0b 75 3a bc de 83 f9 bd 5c 96 96 3d e3 76 04 3d
       -0.011380444 -0.12183355 0.073528975 0.03233994
000070 c5 59 a5 3e ea 2b cb ba 4e 73 16 be 01 fe 0c be
       0.3229505 -0.0015500758 -0.14692423 -0.1376877

weight f4 [32, 32, 5, 5]
000000 73 a3 d9 3c 28 fc 8c bc 79 a5 9f 3c cd e4 19 bd
       0.026567196 -0.017210081 0.019488083 -0.037571717
000010 df f2 36 3c b0 20 72 3c 4b e1 e9 3c 79 22 2e 3c
       0.011166303 0.014778301 0.02854981 0.010628336
000020 2f f6 7f 3c 64 63 14 bd b0 5d c3 bc 2b cf 03 bd
       0.01562266 -0.0362276 -0.023848385 -0.032179993
000030 5c be da bc 2d bb 01 3c de 27 ff bc b9 3b c6 bb
       -0.026702099 0.007918161 -0.03114694 -0.0060496
000040 8a 84 ca bc 17 c9 bb 3c fd 4e 5c 3c 31 75 85 bb
       -0.024721403 0.022923036 0.013446567 -0.004072808
000050 be 06 0e bc 4f 40 b6 bb 4d 7d ee bc e6 ce 64 3c
       -0.0086686 -0.0055618654 -0.029112482 0.013965344
000060 cd 80 05 bd 65 2a cd bc 08 10 24 bd dd 6b 3c 3c
       -0.032593537 -0.02504463 -0.04005435 0.011500326
000070 27 d6 05 3d d0 10 ee bc 19 26 aa bc ac 3f 60 3b
       0.032674935 -0.029060751 -0.02077012 0.003421764
000080 be 79 15 3d c5 5d ad bc 60 a3 a2 bc 4b 48 09 3c
       0.036493056 -0.021162877 -0.019853294 0.008379052
000090 4f a2 9c 3b 2b cd 5e bc ae 35 12 3d 6b db 91 3c
       0.004780091 -0.013598721 0.035695724 0.017804822
0000a0 50 4c d0 3b 62 36 dc 3c f2 1d 18 bc 3c d2 77 bc
       0.0063567534 0.0268814 -0.009284483 -0.015125807
0000b0 77 cd 12 3d 76 59 a8 3c d3 69 d8 3c f0 be b3 3c
       0.035840478 0.02055047 0.026417648 0.021941632
0000c0 d2 60 93 3c 3b 7c 6d 3b 6d 29 f6 3c ca 85 f0 3a
       0.017990503 0.0036237377 0.03004905 0.0018350419
0000d0 b9 4e 0d 3d 66 8b c6 3c fd 3c 47 ba a8 77 16 3c
       0.034498904 0.024236392 -0.00076003355 0.009183802
0000e0 c0 15 16 3c b3 f0 3c 3c 39 df 31 bd 97 1b ed ba
       0.009160459 0.011531997 -0.043425772 -0.0018089887
0000f0 8d 54 64 3c 99 fa 31 bb b2 ac e3 bb 8b b8 5b bd
       0.013936174 -0.0027157424 -0.006948077 -0.05364279
000100 85 b6 0c bd 31 7a a2 3c f1 c7 84 bc 23 f7 3c bc
       -0.03435375 0.019833656 -0.01620862 -0.011533531
000110 2f dc 64 bd 9e fd f9 bc ae fe b6 3b b5 a7 f3 bc
       -0.055874046 -0.030516442 0.0055845594 -0.029743055
000120 21 89 3e bd 18 06 e8 bc f3 fb a5 3c e2 42 ce 3c
       -0.046517495 -0.028323218 0.02026174 0.025178377
000130 0e 86 0c 3d 31 6d af bc 49 a6 cb 3c 2a 2b aa 3c
       0.034307532 -0.021414371 0.024859564 0.020772535
000140 1b b6 37 3b fd 4b a1 bb 22 03 d2 bc 5e c2 bc 3c
       0.0028032127 -0.0049223886 -0.02563626 0.0230419
000150 b7 28 04 bc 01 90 38 3d 42 47 da bc fe 25 04 3d
       -0.008066348 0.045059208 -0.026645306 0.032262795
000160 dd fd 0a bd 79 21 a2 bb ae 87 0c 3c 0b 9e 17 3d
       -0.03393351 -0.004947838 0.00857727 0.037015956
000170 81 83 03 bd 26 a8 51 3c f7 06 f3 3c 15 77 f2 bc
       -0.032107834 0.012796437 0.029666407 -0.029597798
000180 0c 4c 9f 39 5b 6a 59 bc f2 67 5d 3c 33 69 e8 3c
       0.00030383503 -0.013269986 0.013513552 0.028370475
000190 9d e4 19 3d 69 48 29 3d 3d d7 00 bd 52 00 2a 3c
       0.03757154 0.04132882 -0.031455267 0.010376053
0001a0 fe 78 05 3d 73 56 60 3c e6 db 6d bb 17 71 ef bc
       0.03258609 0.013692486 -0.00362944 -0.02922873
0001b0 53 93 d3 bb 91 ef 84 bc 9b b1 93 bc c6 80 84 3c
       -0.0064567714 -0.016227515 -0.018029025 0.016174685
0001c0 d8 f7 dc bb 8f e4 35 bd 44 29 32 b8 03 7d 94 bc
       -0.0067434125 -0.044407424 -4.247694e-05 -0.018126016
0001d0 77 82 e8 bc ee 5e a9 bc 6e 7f 84 bb 56 89 e3 3c
       -0.028382523 -0.020675149 -0.004043511 0.027775448
0001e0 fc df 0c bd d4 17 05 bd c2 5e 9b 3a 58 60 ab 3a
       -0.034393296 -0.032493427 0.0011853802 0.0013074977
0001f0 16 37 4f bc 9e cc c1 3c d8 d2 16 3c a3 82 92 bb
       -0.012647411 0.02365714 0.0092055425 -0.0044711395
000200 95 55 cd bc e5 aa bc 3b f0 20 d0 3c 7a 73 0f bc
       -0.025065223 0.005757677 0.02540633 -0.008755559
000210 a7 cc 53 bc b3 b5 96 bc b7 cb 14 3d e0 0e 36 3d
       -0.012927211 -0.018397188 0.03632709 0.04444778
000220 05 da ae 3c ae 3f 05 bc 39 08 b4 bb fd c9 f2 bc
       0.021344194 -0.008132858 -0.0054941443 -0.029637331
000230 2b 3f a8 3c 23 e2 2a bd 77 57 b3 bc 22 f1 39 bd
       0.020537933 -0.041719567 -0.021892292 -0.045395978
000240 50 ea c7 bc a0 3e c8 bc bc 82 19 bd 52 96 3d bd
       -0.024403721 -0.024443924 -0.037478194 -0.046285935
000250 ec 9c 40 bd c2 ef 80 bb 03 95 84 3d 96 34 54 3d
       -0.047024652 -0.0039348314 0.06473734 0.051807962
000260 58 7e fa 3c 7e 1b ac ba c3 b2 34 3c 83 14 11 3d
       0.030577824 -0.0013130752 0.011028948 0.035419952
000270 51 14 d5 3c 09 70 33 bc 0a ca 36 bd 00 7d eb ba
       0.026010664 -0.010952004 -0.044626273 -0.001796633
000280 fa f9 19 3d d3 24 e3 3c 70 05 19 bc 4d c4 75 3b
       0.03759191 0.02772752 -0.009339675 0.0037501038
000290 aa ff f7 3b 14 15 b5 bc f6 00 cd 3c 34 37 1a bd
       0.0075683193 -0.022104777 0.025024872 -0.037650302
0002a0 ca 03 74 bd d1 78 b6 bb cb 3d e5 bc 2b 31 b3 3c
       -0.059573926 -0.0055686017 -0.027983567 0.021874031
0002b0 a5 29 2c bd 54 7b 0c bd 8b 1f dc 3c ed fa f7 bc
       -0.042031903 -0.034297302 0.02687051 -0.030271018
0002c0 59 42 b1 bc c6 9c e3 bc b0 ce 85 3c 6c 9a 13 bc
       -0.021638082 -0.027784716 0.016333908 -0.009008985
0002d0 37 23 4d bc ad b4 47 3a 15 5f b4 bc c9 f3 c4 3b
       -0.012520603 0.00076181703 -0.022017995 0.006010507
0002e0 4c 61 8c 3c 37 cb 46 bd 12 3e e1 bc 49 61 7d 3c
       0.017136239 -0.048533645 -0.027495418 0.015465089
0002f0 ce f9 10 bd 67 63 be bc 67 6e 39 bd 4b 3a 4c bd
       -0.035394482 -0.023240758 -0.045271304 -0.04986028
000300 55 72 89 3c 23 22 60 3c 3b 2b a2 3c b3 61 f6 bc
       0.01677815 0.013680014 0.019796005 -0.030075883
000310 db 50 76 bc 98 5b 7a bc bb ea a0 3c 5e ba db bc
       -0.015033926 -0.015280627 0.019643178 -0.026822265
000320 a3 7b e0 3c 5b 29 08 3b a6 f8 dc 3b 73 37 e4 bc
       0.027402705 0.0020776603 0.0067435084 -0.027858471
000330 e0 e9 c6 bc fa 62 67 3c f7 47 a9 3c a4 d8 e4 3a
       -0.024281442 0.014122719 0.020664198 0.0017459583
000340 e4 a4 c0 3c 6c bb 7f 3c 6b 77 d6 bb b3 c3 78 bc
       0.023516126 0.01560865 -0.0065449974 -0.015183377
000350 72 51 b2 3c 9e 90 ce bb c1 e7 cf bb 30 19 8f 3c
       0.021767352 -0.006303861 -0.006344766 0.017468065
000360 54 b4 53 bc a3 81 d1 bc 5e 22 9f 3b c3 98 d7 3c
       -0.012921412 -0.02557451 0.004856392 0.02631796
000370 81 a0 28 3c b1 21 8f bc 83 73 be bb b3 98 7a bc
       0.010292173 -0.01747212 -0.00581211 -0.015295195
000380 73 a7 84 3c e5 be 25 bc ad 08 92 3c ed 39 c5 bb
       0.016193127 -0.010116314 0.017826403 -0.006018868
000390 09 dc 6a bc dd c2 3d 37 f0 b2 1e bc 74 bb 66 3c
       -0.014334687 1.1310648e-05 -0.009686217 0.014082778
0003a0 37 71 6b 3c 88 fc b1 ba 47 3d c9 bc 3f 27 02 bc
       0.014370254 -0.0013579288 -0.024565352 -0.007943927
0003b0 08 ac 93 bc c0 51 7d bb d3 4e 19 3d d6 af d0 bc
       -0.018026367 -0.0038653463 0.03742869 -0.02547447
0003c0 0d 41 92 bc c6 1b 27 3d 75 32 b3 bc 28 68 07 3d
       -0.017853284 0.04079797 -0.021874646 0.033058316
0003d0 47 fd bb bc 14 78 2b 3d ec 06 2b 3d 4a 54 da bc
       -0.02294792 0.041862562 0.041754648 -0.02665152
0003e0 df a5 b9 3c 16 c3 df 3c 73 d5 6e bc d5 41 0f bc
       0.022662101 0.027314704 -0.014577257 -0.008743723
0003f0 cc 74 a4 3b d7 42 ac 3b 76 45 48 bc 86 6b 67 bb
       0.005018806 0.0052569914 -0.012223592 -0.0035311892

bias f4 [32]
000000 65 34 0c bd 28 20 3a 3d f5 8d bc bd a4 65 47 bd
       -0.034229655 0.045440823 -0.09206764 -0.048680916
000010 3d ab 1f bd 17 a9 bc bc a0 c8 de bc f5 47 d4 bc
       -0.038981665 -0.023029847 -0.027195275 -0.025913218
000020 13 0e af bd ee e5 08 be 5d 8d 76 bd 2e 27 86 3c
       -0.08547606 -0.13368961 -0.06019341 0.016376104
000030 e2 df cc 3c f8 79 a4 bd 40 ed cf 3c 35 f3 d1 bd
       0.0250091 -0.08031076 0.025381684 -0.10251466
000040 b0 ba 61 bd 14 eb 56 bd fa c9 29 bd 3b 40 b2 3d
       -0.05510968 -0.05247028 -0.041452385 0.08703657
000050 d9 65 0a bd 80 af ec bc ba aa 1c bc ce 6b 9c bd
       -0.033788536 -0.028892279 -0.009562189 -0.076377496
000060 8b c1 7f 3c 87 a0 a3 bd a6 ca 26 bd 23 62 8e bc
       0.015610109 -0.079896025 -0.040720604 -0.01738078
000070 e0 2f 1d 3d ab 4b ea 3c 83 91 0a bd 05 6a 99 bd
       0.038375735 0.028600534 -0.033830177 -0.07490925

weight f4 [64, 32, 5, 5]
000000 f7 c4 03 3c a7 d8 8f 3b 76 fe 35 bd 98 58 1d bd
       0.008042566 0.0043898406 -0.044432126 -0.038414568
000010 62 a1 17 bd ca 99 94 bc 55 90 f1 3b 0e ee 05 3d
       -0.03701914 -0.018139739 0.007371942 0.03269773
000020 37 1a 3c bc 42 2b b2 3c d6 06 7b bc 76 3e e3 3c
       -0.0114808595 0.021749143 -0.015321454 0.027739745
000030 c4 ed 95 bc ba 6c ce 3c 36 eb 05 3d c9 04 04 bb
       -0.018301852 0.02519833 0.032695018 -0.0020144454
000040 5f ad 13 3d 16 b1 4e 3c 36 26 34 bb c6 fb d0 3c
       0.03605401 0.012615463 -0.0027488596 0.02551068
000050 89 5c 1c 3d c3 b8 a6 3b 14 99 ec bc c1 78 16 bd
       0.038174186 0.0050879433 -0.028881587 -0.036736254
000060 23 0b 56 3c 93 ff 3c bc dd 3a 3b 3c 22 e5 b7 ba
       0.013064179 -0.011535543 0.011427608 -0.0014030079
000070 3e 1f a3 3c d5 99 1e bc 2e 72 77 bc 9d bc 97 3c
       0.019912358 -0.009680231 -0.015102906 0.018522555
000080 be ad b0 bc 8a bf a3 3b d4 5f 7a bc c4 8f dc 3c
       -0.021567222 0.0049971985 -0.015281636 0.026924022
000090 c8 04 f4 3c b9 c1 8e bc e0 df fa bc d4 a1 f0 ba
       0.029787436 -0.017426359 -0.03062433 -0.0018358775
0000a0 b4 97 a3 3c ef d8 a9 3b 8f cb 91 bb 8a bb 92 bc
       0.019969799 0.005183331 -0.004449315 -0.017911691
0000b0 d8 ab 8b 3a e7 a3 ba 3b 58 4b ae bc 77 ec e7 3b
       0.0010656072 0.005695808 -0.021276161 0.0070777494
0000c0 9f 6d bf bc 6d 3f 9a bc e6 a6 ab bc 2b d4 85 bc
       -0.023367701 -0.018829072 -0.020953607 -0.016336521
0000d0 8c a1 c9 3b 86 8b ab 3b 67 ee 0d bd 30 1d dd bc
       0.006153291 0.0052351383 -0.034651186 -0.026991457
0000e0 60 03 01 bd f1 b4 53 3c 0b a4 42 3c a3 37 8d bc
       -0.03149736 0.012921558 0.011879931 -0.017238444
0000f0 2e cc 87 bc a5 a3 06 bc dc 3d 56 bc 2b 3c f1 3a
       -0.016576853 -0.008217727 -0.013076272 0.0018404772
000100 aa 34 0b 3d 03 19 05 3b 73 56 1e 3d f8 3c 07 3d
       0.03398577 0.0020309098 0.038656663 0.03301713
000110 19 13 2e 3d ad dd 8c 3c df 34 64 3c 30 a7 30 3c
       0.04249868 0.017195547 0.013928621 0.010782048
000120 2f 9e ca 3c a3 23 b9 bc a4 d3 f9 bc 07 d2 46 bd
       0.024733631 -0.0226 -0.030496426 -0.04854014
000130 a0 1f 04 3c 70 f1 80 3b 14 82 0c bd 69 6e 51 bd
       0.008064181 0.0039350316 -0.03430374 -0.051130686
000140 b5 04 44 bc 5e 62 f2 bc f8 10 39 bc 3c 7d ef 3a
       -0.011964013 -0.02958792 -0.01129555 0.0018271576
000150 bb 2c 06 bc 14 8b 6d b9 b3 65 c3 ba d6 71 8d 3c
       -0.0081893755 -0.00022653892 -0.0014907628 0.017266195
000160 89 9f 87 bc e1 1b 56 3d 85 43 3b 3d 80 6c b3 3c
       -0.016555564 0.05227268 0.04571869 0.021902323
000170 21 03 86 3b 1c 23 e7 bc 44 f2 8e bc 1c 46 cd bc
       0.0040897285 -0.028214984 -0.017449506 -0.025057845
000180 ad 28 46 3b f0 9a 64 bd 83 cd 11 3c 3c 7f 55 bd
       0.0030236647 -0.055811822 0.0088990955 -0.052123293
000190 c6 d4 f0 bc 50 c9 b2 bc e4 9b f1 3c f8 f5 0c bd
       -0.029398333 -0.021824509 0.02949328 -0.03441426
0001a0 72 a1 1e bd fc fa ad bc 56 d1 0c 3d f6 be 0c 3d
       -0.038728185 -0.021237843 0.034379326 0.034361802
0001b0 4b 6b 14 3d 95 30 9c bb f5 c9 fc 3c 40 e4 58 3d
       0.036235135 -0.0047665336 0.03085802 0.05295205
0001c0 df c5 fe 3b 98 3e bf 3c 10 83 20 3d ab 1e 72 3b
       0.007775053 0.023345277 0.03918749 0.003694455
0001d0 34 40 ee 3c 15 87 b6 bb 62 1f 15 bd d7 b3 ca bc
       0.029083349 -0.0055703023 -0.036406882 -0.024743957
0001e0 d3 1d 34 3c 33 53 0a 3c 2d b4 03 bd 14 2c a2 bc
       0.010993439 0.008442688 -0.03215425 -0.019796409
0001f0 82 3a 44 bc f9 d4 db bc 8d 27 9b bc 90 3a 0b bd
       -0.01197684 -0.026834952 -0.018939758 -0.033991396
000200 b6 7b 1b 3c f7 b0 23 3d 23 fc 9e 3c e1 79 97 3c
       0.009489944 0.03996369 0.019407338 0.018490734
000210 76 3a 16 3b 39 06 50 bc 45 02 12 bb 3f 96 a6 3c
       0.002292303 -0.012696796 -0.0022279185 0.020335315
000220 97 4e bd bc ca 18 df bc 5d b4 21 bd 81 4a c5 bb
       -0.023108764 -0.0272335 -0.03947865 -0.0060208444
000230 9c 4e bd bc 6f bf a8 3b c5 e0 15 3d ad 01 0f 3d
       -0.023108773 0.005149774 0.03659131 0.034913708
000240 36 71 b4 3c 9b 95 8d 3c ae 27 40 3d 15 b5 1c 3d
       0.02202664 0.017283252 0.04691284 0.03825863
000250 fb 29 cd 3b 0c 14 bc 3c 6a fb 54 3c 28 a5 9f bc
       0.006261108 0.022958778 0.012999395 -0.019487932
000260 19 a6 2a 3c 3f 50 02 3d ea 0d 42 3b 96 ee e4 3c
       0.010415577 0.03181481 0.0029610344 0.027945798
000270 37 f7 3f bc a4 e1 02 bd 21 c8 f7 3c 1d 44 d0 bc
       -0.011716655 -0.03195347 0.030246796 -0.025423104
000280 b7 08 78 3c 4f 26 96 bc 13 9a df 3b 06 56 0a 3c
       0.0151387965 -0.018328814 0.006823787 0.008443361
000290 2d 35 b2 3b 6d bd 67 bc 63 a4 bd ba ac d0 1d 3c
       0.005438468 -0.014144284 -0.0014468547 0.009632271
0002a0 a8 cb aa bc eb a7 86 3b 1b 0e b7 3c 78 ef 4c 3d
       -0.020849064 0.004109373 0.022345593 0.050033063
0002b0 dd 07 56 3b 3e 1f 49 3d b6 1e 29 3d 9f e9 a3 bc
       0.0032658495 0.04910206 0.041289054 -0.02000886
0002c0 fe f8 70 3b 31 ad 50 bd 16 d3 46 bd b8 d2 57 bc
       0.0036769505 -0.05094642 -0.04854115 -0.013172798
0002d0 29 24 ae 3c 4e 85 ba bc 13 ac 5a 3b ad 3c 67 3c
       0.021257477 -0.022768643 0.0033366724 0.014113587
0002e0 d7 b9 21 3d 33 75 b6 ba 68 80 1d 3d 82 3a 3e 3d
       0.03948387 -0.0013920426 0.038452536 0.046442516
0002f0 8a 55 2e 3d ec 46 2c 3d 2a 2c 34 3d 08 26 2c 3d
       0.042562045 0.042059824 0.04398743 0.042028457
000300 f0 a5 8e b9 3c d4 cc bc 41 91 df bc 7c 29 10 3c
       -0.00027207984 -0.025003545 -0.027290942 0.008798953
000310 cc 3d 09 bd 1a ab 82 bc e9 51 18 bb a1 52 4b 3d
       -0.0335062 -0.015950728 -0.0023242182 0.049639348
000320 27 23 b4 3b c9 f9 52 bc 73 f6 21 bc cf c5 e9 bc
       0.0054973545 -0.012876936 -0.009885418 -0.028536705
000330 20 3a ea 3c 95 51 5f 3c 2b 1b ad bc e9 c4 a3 bb
       0.02859217 0.0136302905 -0.021131119 -0.0049978388
000340 46 c8 bc bc 76 9d 06 bd ae b5 1f bd 60 7a a9 bb
       -0.023044717 -0.03286501 -0.038991623 -0.005172059
000350 1c 1b c6 3c 50 12 10 bc 2b 30 12 3d 38 cc 08 3d
       0.024182849 -0.008793429 0.035690468 0.033397883
000360 8e 67 3f bc 80 bc 6d bc e7 06 c3 bc e9 55 e8 ba
       -0.011682404 -0.014510274 -0.023807002 -0.0017725799
000370 40 43 c8 3c 93 02 3c bc 5d 76 c6 bc 80 a6 66 3c
       0.02444613 -0.011475223 -0.024226362 0.014077783
000380 a9 f0 01 bd 95 d9 8c 3b 14 9b 06 bd 78 2d 0e bd
       -0.031723652 0.0042983987 -0.032862738 -0.03471133
000390 c6 ca 78 3b 75 1d 3f bd 36 f6 a8 3c 47 0d 01 bc
       0.003796266 -0.04665895 0.020625215 -0.007876701
0003a0 4f 11 5f bd ba 10 f6 bc 03 93 22 bc 5f e2 c7 bc
       -0.054459866 -0.030037273 -0.009922746 -0.024399934
0003b0 0f 27 27 bd 3f 3d 54 bc b7 6e ec 3c 57 79 fc 3c
       -0.040808734 -0.012954055 0.028861387 0.030819578
0003c0 03 30 a7 bb 28 09 b7 3c 2a 85 6f 3d 7a ee 66 3d
       -0.005102159 0.022343233 0.058476605 0.056379773
0003d0 1c bb 85 3c 96 40 1a 3c fd 3e cd bc a8 3f 24 bd
       0.016324572 0.009414813 -0.02505445 -0.04009977
0003e0 cf c9 2e bd e1 40 53 bd 69 6b dd bb 98 53 10 3c
       -0.04267293 -0.051575545 -0.006757189 0.008808993
0003f0 93 7c 5a bc 81 1e 93 3c b3 4a b5 bc 99 82 12 3d
       -0.013335365 0.017958881 -0.022130346 0.03576908

bias f4 [64]
000000 12 55 bd bb cc a3 88 bd 64 44 3d bc 46 db 5c bd
       -0.0057779634 -0.06671867 -0.01155195 -0.053920053
000010 eb 42 2b 3d 71 a1 1e 3c 18 e4 61 bd 01 3a 2e bd
       0.041811865 0.009682045 -0.055149168 -0.042535786
000020 3a 26 20 bc c0 d3 f6 bc 35 e8 9c 3c 44 95 13 3c
       -0.009774739 -0.030130267 0.019153694 0.009007756
000030 89 a6 0a 3d a8 75 d9 bc aa 9b e9 bc c4 60 5b bb
       0.033850227 -0.02654536 -0.02851661 -0.0033474425
000040 43 c8 fe 3b 02 bb fc bc f2 be 8c bb 83 b0 4b bd
       0.007775338 -0.030850891 -0.0042952234 -0.04972888
000050 19 4e ec bb 03 ea 33 bd 12 03 22 bd 9b c8 96 bc
       -0.0072114584 -0.043924343 -0.03955371 -0.018406203
000060 fa b4 86 3c 47 fa fd bb 52 92 a3 bc 05 c4 ba bc
       0.016443718 -0.0077507826 -0.019967232 -0.022798548
000070 54 5c 30 bc 54 1c 2e 3c ed f8 29 bd 2a d9 2b bd
       -0.0107642 0.010626871 -0.04149716 -0.04195515
000080 18 7e a7 3c 45 65 60 bc 62 79 25 bc 10 df f4 3c
       0.020445868 -0.01369602 -0.010099741 0.02989152
000090 c2 c5 bd 3c 49 89 d5 bc 6b 16 da 3c ae ce 8d 3c
       0.023165587 -0.02606644 0.026622018 0.017310467
0000a0 93 50 08 3d 1b bf 8b bc d5 3d 5c bd 61 1f 84 bc
       0.033279967 -0.0170589 -0.053769905 -0.016128244
0000b0 5e a6 84 3b a4 2a bc 3c bc e2 f6 3c f2 88 00 3d
       0.004048153 0.022969551 0.030137412 0.0313806
0000c0 e0 b7 15 3d 9b 37 21 bd cb 4f 2e bd 68 d0 bc bb
       0.03655231 -0.03935967 -0.042556565 -0.0057621486
0000d0 57 39 48 bd 96 2d d0 bc 52 c5 a6 bd c6 b0 90 bc
       -0.04888281 -0.025412362 -0.081431046 -0.017662417
0000e0 66 d1 0f bd e5 34 49 bd ab 38 a3 bc e8 96 99 3c
       -0.035111807 -0.04912271 -0.019924482 0.018748716
0000f0 f2 ca 7d bc 26 af 2e bc 43 cd e9 bc 76 0c db bb
       -0.01549028 -0.010661876 -0.02854026 -0.006684835

weight f4 [64, 1024]
000000 60 d2 72 3c 71 ed ea 3a d2 51 02 3d 43 28 8e bc
       0.014820665 0.0017923546 0.03181631 -0.017353183
000010 ce 8d d3 ba 32 f8 df 3c 49 28 3b bc e8 ca 02 3c
       -0.0016140284 0.027340028 -0.011423179 0.007982947
000020 19 1e cb bc f5 20 ac bc 5e 45 54 3c 5e 59 d4 3c
       -0.024794625 -0.021011809 0.012955992 0.02592152
000030 1a c3 9f bb 26 75 31 bc 5a 90 9f bc 9f a5 a1 3c
       -0.004875553 -0.010831153 -0.019478012 0.019732295
000040 8f 8b 07 bd 9d 5b 34 bc ee 39 55 b9 bf 63 c1 3c
       -0.033092078 -0.01100817 -0.00020334843 0.023607133
000050 64 1b c2 bc 56 eb 02 bd c7 5a 7d bc 0f c4 0a bd
       -0.023694701 -0.031962715 -0.015463538 -0.033878382
000060 81 10 3e bd 43 01 40 3c 23 9e 97 bc 59 12 3b ba
       -0.046402458 0.011719051 -0.018508023 -0.0007136218
000070 65 8c fa bc 7a 3c 78 3b 40 12 10 3d c9 84 47 bc
       -0.030584523 0.0037877844 0.035173655 -0.012177655
000080 e1 2f 69 ba 6f 07 13 37 aa cf 9f 3a 66 9a aa bc
       -0.0008895379 8.763614e-06 0.0012192626 -0.020825576
000090 ae 68 0d 3b c2 f2 ef bc 5d 5d 93 bc 8b 19 8d bc
       0.0021577287 -0.02929056 -0.017988855 -0.017224094
0000a0 ff dd db 3c 98 ae df 39 e2 19 88 ba f0 0d f9 bc
       0.026839254 0.00042663957 -0.001038369 -0.030402154
0000b0 c9 7a d8 bb 0e 6a 86 ba 60 fc 04 bd e9 d3 df bc
       -0.006606434 -0.0010254995 -0.032467246 -0.027322726
0000c0 8f ac 8f 3c c8 7f b7 3c 5d 5a 43 3c 5a c5 e0 bc
       0.017538337 0.022399798 0.0119234 -0.027437855
0000d0 66 03 2e 3c d2 77 a0 3c d8 56 06 bc a8 a7 af 3c
       0.010620927 0.019588385 -0.008199416 0.02144225
0000e0 8a 1c 23 3c 7e ec ef bc c3 ee 8c ba 30 a5 8e 3c
       0.009955535 -0.029287573 -0.0010752309 0.017412752
0000f0 77 9b e4 3c 9f b2 26 bd 34 df c7 3c 5a d3 96 3c
       0.027906163 -0.04069769 0.024398424 0.018411327
000100 2e f9 c5 bc b8 a4 06 3c 54 1a 29 3c 95 8f 31 3c
       -0.02416667 0.008217983 0.0103212185 0.010837455
000110 d6 4b b4 3c b9 bd 34 bb 28 32 94 bb 38 24 ab bc
       0.022008818 -0.0027578904 -0.0045225807 -0.020891294
000120 b8 1f 18 bd 14 6c 0a 3c a3 05 18 bd 49 fb 8b 3c
       -0.037139624 0.008448619 -0.03711475 0.017087596
000130 13 ad 18 bc 7c c2 68 3c 5e 74 d1 bc 6d b7 68 ba
       -0.009318608 0.014206525 -0.025568184 -0.000887743
000140 e9 e4 0b bd 3c 36 6f 3c 1b 57 af 3c 36 46 cd 3c
       -0.034153853 0.014600333 0.02140384 0.025057893
000150 ad b2 9c 3c de 71 d1 3c fb 05 01 bd 06 43 79 bc
       0.019128168 0.025566991 -0.031499844 -0.015213734
000160 4d 4d 19 3d f0 09 a6 bc 30 f9 1e bd 5f f3 a7 3c
       0.037427235 -0.02026841 -0.038811862 0.02050179
000170 b7 86 f2 3c 8a ff d4 bc bb 1f ca bc 18 74 6f 3c
       0.029605253 -0.026000757 -0.024673333 0.014615081
000180 4f 5c d5 3c c2 39 bf bc 3e 79 63 3c 44 5d 77 bc
       0.026044993 -0.02334297 0.013883887 -0.01509792
000190 7d bd fd bb 97 0f 67 3b 96 48 6b 3b 56 4a 94 bb
       -0.007743536 0.0035257095 0.003590142 -0.004525463
0001a0 c3 19 9c bc cb 45 95 bc 37 97 aa 3c 55 6c 8c 3c
       -0.019055253 -0.018221756 0.020824058 0.0171415
0001b0 94 95 d3 3c a0 04 75 3c 04 fb 64 3b f1 8f db 3b
       0.02582816 0.014954716 0.0034939656 0.0067005088
0001c0 ab 3f 81 bc 99 6b bc bc 5e 92 bb 3c d6 db ae bb
       -0.01577743 -0.023000525 0.022896942 -0.005336265
0001d0 7e 0b 0e bc 81 b0 e0 bc 59 54 cd bc e7 65 3e 3c
       -0.008669732 -0.027427914 -0.025064634 0.011620975
0001e0 4a cd 9a bc 9a 17 15 3c 12 60 31 bc 07 65 03 3c
       -0.018896718 0.009099865 -0.010826128 0.008019692
0001f0 a6 20 20 3c e5 b8 d3 3b 06 c5 a4 3b c9 78 6b 3c
       0.009773409 0.00646125 0.00502837 0.014372059
000200 a6 28 d6 bc 8a c7 03 3c 9c ac d8 bc 9e 16 15 bd
       -0.02614243 0.008043179 -0.026449494 -0.036398523
000210 86 70 28 3c 53 b1 a8 38 47 31 62 3c 77 88 61 3c
       0.010280734 8.0438935e-05 0.013805694 0.013765446
000220 3c bb 26 bd 2e 44 db bc 8a 38 ea 3b 08 27 bf ba
       -0.040705904 -0.026765909 0.0071478533 -0.0014583776
000230 c2 82 9f bc 30 80 98 bb 44 ad e0 3b 7a 5f 50 bb
       -0.01947153 -0.004653953 0.0068565924 -0.003179519
000240 07 43 92 bc 8a 24 f2 3a 09 35 de 3c cf 70 c0 bc
       -0.017854227 0.0018474024 0.027124899 -0.023491291
000250 c8 d9 f1 3c 16 11 92 3b 03 25 90 bc eb a6 be 3c
       0.029522792 0.004457603 -0.017595774 0.023272952
000260 bc f7 a8 bb 8d 73 ea bc 66 b5 b4 bc 44 c3 6f bc
       -0.0051564854 -0.028619552 -0.022059154 -0.014633957
000270 35 82 a3 bb aa a2 eb 3a 5e a1 ee bc 71 5e dd 3c
       -0.004989887 0.0017977555 -0.02912968 0.027022572
000280 bd 46 f7 ba 3b 50 07 bb 54 a7 3f 3c 95 15 aa 3c
       -0.0018865686 -0.0020647186 0.011697609 0.020762244
000290 d8 61 d7 3c 7b ad 1d bc 98 d8 d9 bc 9a b8 e9 bb
       0.026291773 -0.0096238805 -0.026592538 -0.007132602
0002a0 d6 17 f2 bb b3 a0 e8 3c ae a5 08 3d 13 02 89 bc
       -0.0073880954 0.02839694 0.03336113 -0.016724622
0002b0 fa 34 9a bc 0d 68 c7 bb d8 32 e8 ba 95 85 06 bc
       -0.01882409 -0.006085402 -0.0017715348 -0.008210559
0002c0 be 15 9d bc e6 74 81 bc 1f 5c 66 3c 46 93 0a 3d
       -0.019175407 -0.015802812 0.014060049 0.033831857
0002d0 f2 c1 e0 3c af 4d 19 bb 15 6f b9 bc b7 55 d3 bc
       0.02743623 -0.002339225 -0.022635976 -0.025797708
0002e0 df 8b e3 3a 06 78 f9 bc be 91 29 bd 1c 9f a3 bc
       0.001736041 -0.03045274 -0.041398756 -0.01997333
0002f0 16 b6 0a bb a0 2d 44 bc 60 64 cc b9 6d da f0 bc
       -0.002116566 -0.0119737685 -0.00038984697 -0.029401029
000300 4d 68 a5 bc 70 a8 09 bd e6 aa c1 3b c1 89 ba bc
       -0.020191336 -0.0336079 0.0059102653 -0.022770764
000310 88 77 19 bc 5e ff 63 3b 91 eb 91 bc f3 50 19 bc
       -0.009366877 0.0034789662 -0.017812522 -0.009357679
000320 d6 16 23 3d 18 92 ea b9 f5 e9 5a 3d 38 54 4f bc
       0.0398167 -0.00044740806 0.053445775 -0.012654357
000330 3a 3a 25 3c fb 1a 80 bc 27 7b 81 3c 44 9f 16 3d
       0.010084683 -0.015637865 0.015805794 0.03677298
000340 19 36 11 bd cf 1b eb 3c 36 b6 26 3c 8e df 11 bd
       -0.035451982 0.028699784 0.010175278 -0.03561359
000350 db 83 37 bd ab 93 6f 3c e0 ca 86 bc 8a e0 0d 3c
       -0.04480348 0.014622609 -0.01645416 0.008659491
000360 f4 f1 31 bd 55 b8 1f bd 16 4d 9d bc 16 77 c7 bb
       -0.043443635 -0.038994152 -0.019201797 -0.006087194
000370 53 e5 b6 3a a4 30 1f bc 61 dd 1a bc 7b ea 4a bc
       0.0013953842 -0.009716187 -0.009452195 -0.012385006
000380 19 9d ed bb 61 4c da 3c 56 91 b5 bb b2 d2 37 bc
       -0.0072513935 0.026647748 -0.005541007 -0.011219667
000390 5e 01 fd bb b9 37 1f bd 9f ef af bc 55 27 00 bd
       -0.0077211102 -0.0388715 -0.021476565 -0.03128751
0003a0 ef fc 9d 3c a5 8b dd bb 7a a4 f3 3a 24 f9 a7 3c
       0.019285647 -0.0067610317 0.0018588447 0.020504542
0003b0 f0 60 bb 3c 29 ec f3 3a c5 2e 45 3b f8 b0 e1 3a
       0.022873372 0.001860981 0.0030087691 0.0017218878
0003c0 9a 19 0f bb 2f 59 0b bc 47 7a 24 3c 78 e2 b8 3c
       -0.0021835328 -0.00850515 0.010038919 0.022568926
0003d0 b6 f1 c9 3c 4e c3 ba bc ac 7c be bc bd 92 54 bb
       0.02465139 -0.022798207 -0.023252808 -0.0032436096
0003e0 43 6e f0 3c 3a 7c 63 3c 19 a2 cf bb 7a 25 96 bc
       0.029349452 0.013884598 -0.006336462 -0.018328417
0003f0 db 37 cd 3c 7b 0f 6f bc 47 51 df bc b5 49 f2 bb
       0.025051048 -0.014591093 -0.027260436 -0.0073940405

bias f4 [64]
000000 72 68 ef 3c 8f f0 c2 bc 20 1c 3e bd 77 06 31 3c
       0.029224608 -0.023796348 -0.04641354 0.010804764
000010 30 24 30 3d ad 13 3a bd a3 da b1 bb 44 5b 09 3d
       0.04300326 -0.04542892 -0.005427675 0.033534303
000020 bd 7c 99 3b 0d c7 9d bb 3d 3c e0 bc 83 89 13 3c
       0.0046840594 -0.0048149885 -0.027372474 0.009004953
000030 03 fa 77 3c 83 5c 60 bd 29 7c 1e 3d cc 01 21 3a
       0.015135291 -0.054775726 0.038692627 0.00061419304
000040 1b 4d c6 b9 77 eb 6f 3c b5 89 02 3d a1 30 7e bc
       -0.0003782295 0.014643542 0.03186961 -0.015514524
000050 46 c0 b7 bc cc 6d d4 3c b0 25 95 bc b5 e2 cf 3c
       -0.02243055 0.025931261 -0.018206447 0.025376657
000060 14 df 58 bd 94 c0 63 3c a1 d4 b7 3c 20 29 5a 3c
       -0.05294712 0.013900895 0.022440257 0.013315469
000070 03 f2 06 3d ee 6d 24 3c 4d a7 67 3d 42 3c b5 3c
       0.032945644 0.010035975 0.056556035 0.02212346
000080 45 97 09 bd ed 2c 56 bc 25 c3 73 3b c5 a1 6b 3c
       -0.033591527 -0.013072235 0.0037195173 0.014381831
000090 2a ed 9a 3b 38 4a 0c bd 36 fc 99 ba dd ea 9b 3a
       0.004727979 -0.034250468 -0.0011748138 0.0011895556
0000a0 e4 3f 62 3d 2f a3 c5 3c 69 38 93 3c 08 7d 2f 3d
       0.055236712 0.024125664 0.017971234 0.04284385
0000b0 00 87 82 3c c2 4f 80 bc a7 9e 23 bd 86 06 c5 bb
       0.015933514 -0.015663031 -0.039946225 -0.0060127405
0000c0 b9 08 48 bc 74 ba 55 3c 5e 1d e0 3b 6b 29 d4 3c
       -0.012209111 0.013044942 0.0068394383 0.025898656
0000d0 9f c9 31 ba 8e af 96 bc c0 14 5d bd e9 6f 40 3c
       -0.0006782058 -0.018394258 -0.053974867 0.011745431
0000e0 bf 87 f8 3c 73 5a 26 3b 27 86 5f 3c f9 b2 e2 3c
       0.030338166 0.0025383502 0.013642824 0.027673231
0000f0 03 9c 97 3b 7e 3e 0a bc 3e 89 98 3a 4d 5f 18 3d
       0.0046267523 -0.008437751 0.0011637581 0.03720026

weight f4 [10, 64]
000000 2d e6 99 bd 70 53 5f bd 96 bf a7 3d e5 9d 18 be
       -0.07514606 -0.05452293 0.08190839 -0.14903982
000010 55 d8 29 be 8e d5 6f 3e ea 5a 32 3d 11 aa 96 bd
       -0.1658643 0.23421308 0.043543734 -0.07356656
000020 92 dc d4 3d 0e fc c6 bd 6d af 7e 3d 27 fc 5b 3b
       0.10393633 -0.09716044 0.062179018 0.0033567043
000030 db 08 b6 3c 5b de 37 3e f5 9b 68 3d 47 58 40 bd
       0.02222102 0.17955916 0.056789357 -0.046959188
000040 33 68 04 3d 9d 47 07 3d dc 66 db bd bf aa e3 3d
       0.032325935 0.03302728 -0.10712978 0.111165516
000050 62 ec eb bd ec a8 a0 bb f5 ec 12 3e 3a f0 37 3d
       -0.11519696 -0.0049029496 0.14348204 0.044906832
000060 58 34 69 3e 7b ce 89 bd e4 12 00 be f8 3b d8 bd
       0.22773874 -0.06728836 -0.12507206 -0.10558313
000070 ef c8 b4 bd 33 5a 1f be a1 5e 39 be 41 28 10 be
       -0.088273875 -0.15561752 -0.18102504 -0.14077856
000080 3b ab 20 bc eb 77 cb 3d a0 82 e1 3d 3c 41 1e 3d
       -0.0098064495 0.09934982 0.11011243 0.03863643
000090 21 9a 2b be 0b cc 67 3b 32 f8 a5 3d fe d3 48 3c
       -0.16758014 0.0035369422 0.0810398 0.012257574
0000a0 9e ad 94 bd d1 69 24 3e 72 98 2c bd ad e2 08 3c
       -0.07259677 0.16055991 -0.04213757 0.008354825
0000b0 00 c3 35 bc c1 ef 05 3e 23 46 1a 3e 9f f4 5a 3d
       -0.011093855 0.1307974 0.15065818 0.053455945
0000c0 c9 70 85 3d 05 14 5f 3e cf 7b 89 bc 9b d2 15 3e
       0.06515653 0.2178498 -0.01678267 0.14631121
0000d0 4f c8 a2 3c fe 09 bf 3d 86 b6 ca 3d 83 7f 43 be
       0.019870905 0.09328078 0.09898095 -0.1909161
0000e0 87 e1 3c 3c a0 85 67 be 36 55 26 3e bb 73 28 bd
       0.011528379 -0.22609568 0.16243443 -0.041125994
0000f0 2c c0 30 be ea e4 e6 bc c6 3f e4 bc c6 fa 1d be
       -0.17260808 -0.028185327 -0.02786244 -0.15427694
000100 b5 74 16 3d e1 e9 0f be d1 ca 73 3e d8 d1 55 be
       0.036732394 -0.14054061 0.23807837 -0.2088083
000110 9d 59 4a bd 7a 45 a7 3b 05 cf 9a 3d 6f 5f 24 be
       -0.049401868 0.005104718 0.07559017 -0.1605203
000120 d1 a4 13 bd 8a ad 78 3d 2e 87 3e 3e b8 14 37 3e
       -0.036045853 0.060712375 0.18606254 0.17878997
000130 1b 8f 0d be ad 4c e7 bd 36 10 c2 bd 61 ad 72 3c
       -0.13824122 -0.112939216 -0.09475748 0.014811845
000140 d8 d6 09 bd 9b b0 1b 3e a4 4c 5c 3a 09 94 c3 3d
       -0.033652157 0.15204088 0.00084037543 0.0954972
000150 1a 22 4e 3e be 3b 4a 3e 53 84 34 3e a0 d7 71 be
       0.20130196 0.19749352 0.17628603 -0.2361741
000160 b4 4a dd 3d f8 7b 29 be 51 e6 da 3d bd 46 03 bd
       0.10805264 -0.16551197 0.106884606 -0.032049883
000170 d9 f9 81 be 90 bc 92 bd ec c4 fc bd fa fb a7 bd
       -0.2538593 -0.07164872 -0.12342247 -0.082023576
000180 85 13 7c 3b 88 31 ac 3d b2 cf e3 b7 f9 e7 81 3b
       0.0038463783 0.08407885 -2.7157224e-05 0.003964421
000190 27 32 9d 3d 42 4f 66 be d9 ab 2c be bf e4 5e 3e
       0.076755814 -0.22491172 -0.1686243 0.21766947
0001a0 8e eb f2 3d e2 f0 2e 3e 68 94 8a 3d 67 14 08 3c
       0.11861335 0.17084077 0.067665875 0.008305646
0001b0 97 a4 5d be 8e 8b 29 be b8 2a 88 3d 38 43 80 be
       -0.21644817 -0.16557142 0.06648773 -0.25051284
0001c0 6e 89 60 be 30 d3 5b be 6f 9f 17 3e 13 e3 4e be
       -0.21927425 -0.2146728 0.14806913 -0.2020381
0001d0 6b 16 a6 3c a1 3a 3a be b8 c2 ac bc b0 9d 05 3d
       0.020274362 -0.18186428 -0.021088943 0.032621086
0001e0 fe f8 4b 3e 95 51 88 be 91 5a 92 be 71 d5 3d bd
       0.19919202 -0.26624742 -0.28584722 -0.04634613
0001f0 1c 1b 11 3e 2f c8 27 be 4f 70 8f 3d 0a e9 24 3e
       0.14170498 -0.16384958 0.07003843 0.16104522
000200 9b 80 1e be b2 d4 07 be 47 1b 51 be 97 a0 2c 3e
       -0.15478747 -0.1326473 -0.20420562 0.16858135
000210 05 5a a4 3d cc f3 5a 3e 7e ca 18 3e c6 9c 49 3d
       0.08024982 0.21382064 0.14920995 0.049221776
000220 05 29 41 3e 6a 6d b2 3d 94 f1 4a be f3 80 a8 3d
       0.18863304 0.08712275 -0.19818717 0.0822772
000230 a2 3a 05 3e 73 d8 be bb 19 a8 60 bd 46 8f 6e be
       0.13010648 -0.0058241426 -0.05484781 -0.23296842
000240 e5 1c af bd b8 a0 2c 3e ff 55 a9 3d 10 0c a3 bd
       -0.08550433 0.16858184 0.082683556 -0.07961285
000250 ec 99 5c bd 24 cf 0f be 78 9a ad bd 59 41 00 3e
       -0.05385773 -0.14043862 -0.08476728 0.12524928
000260 bf e2 ef 3d a0 71 1b be 8f 0a dc bd cb 31 9c 3a
       0.1171317 -0.15180063 -0.107442014 0.0011916695
000270 c3 8f 5e 3c 1f 53 83 3d 09 a4 2a 3e 1f 5d 81 3d
       0.01358408 0.064123385 0.16664137 0.063165896
000280 49 a7 9d 3d 8c b6 b2 3d 5d 91 66 bd 0f 93 31 bc
       0.07697923 0.08726224 -0.056290973 -0.010838284
000290 3b b5 11 bd 3b 6e 53 3e 86 09 27 3e b4 f0 72 bd
       -0.035573225 0.20647518 0.16312227 -0.059311584
0002a0 e9 84 7f bd 1f 76 89 bd 4b c6 a8 3d b9 ae e4 3d
       -0.062382612 -0.06711983 0.082409464 0.11166138
0002b0 0e 59 b8 3d b4 6d c3 bc 8c 6b 15 3e 0f 5c 58 3c
       0.09001361 -0.023856021 0.14591807 0.013205542
0002c0 cf 83 8f bd 59 a3 23 3d dc a5 29 bd a7 59 8b 3d
       -0.07007562 0.039950702 -0.04141794 0.06804209
0002d0 38 2f 1d be 8c 01 6b bd bc 45 c2 3d b6 63 ec bd
       -0.15350044 -0.057374522 0.09485957 -0.11542456
0002e0 be 22 08 3e 29 f3 79 3d 16 ea 06 be 73 7e b6 bd
       0.13294503 0.06102291 -0.13175234 -0.08910837
0002f0 7e 30 da bc 23 3a 18 3e 64 eb ad bd b7 3b 8b bc
       -0.026634451 0.14865927 -0.08492163 -0.016996248
000300 50 20 a6 3c ba 95 cd bd 04 32 28 be 17 59 14 be
       0.02027908 -0.10038324 -0.1642533 -0.1448711
000310 8e 67 81 3d 66 26 67 bd 41 c4 44 bd 1f 1d ba bd
       0.063185796 -0.056433104 -0.048038725 -0.09087586
000320 53 3a fc 3d 78 3d f5 bd af e2 3a 3d 27 03 e8 bd
       0.12315812 -0.11974615 0.04562634 -0.11328726
000330 9c fb 9e bc 47 ab 55 bc 39 a8 d0 bc 4e e7 96 bd
       -0.019407086 -0.013041324 -0.02547084 -0.073683366
000340 38 84 8f 3d 6d d8 8b bd 07 df 36 3e ac e1 d7 bc
       0.070076406 -0.06828389 0.17858516 -0.026352726
000350 36 db 57 3c 78 ae 1c be 7c a6 e1 b8 6a 9c 17 3e
       0.013174823 -0.1530093 -0.00010759846 0.14805761
000360 a9 5e f1 bc 00 da 5f 3c 69 9b b5 3d 31 41 a6 bd
       -0.029464083 0.013662815 0.08867533 -0.08117903
000370 6f d4 1b 3e 1d af 8d bc b5 c8 f2 3d df 9c 0a 3e
       0.15217756 -0.017295415 0.11854688 0.13536404
000380 39 f5 9a bd 6b 7d b6 3c 40 65 76 bc ad 53 02 3e
       -0.07566304 0.0222766 -0.015038788 0.12727232
000390 80 3f e4 3d d4 07 2b 3d cf 82 0d 3e 33 a7 82 be
       0.11144924 0.041755512 0.13819431 -0.25518188
0003a0 1e 8b e8 3d bc f2 30 be 89 60 c0 3b dd 62 16 3e
       0.113546595 -0.17280096 0.005870883 0.14686151
0003b0 42 50 4a bd b8 60 fc bc 14 4e b6 3d 45 62 45 3e
       -0.049392946 -0.030807838 0.08901611 0.19275768
0003c0 e4 b1 0b bd 06 40 94 bc 6e 3d e6 bd 63 1d 44 be
       -0.034105197 -0.018096935 -0.112421855 -0.19151835
0003d0 79 39 d6 3c cc d7 4b bd 44 63 a3 bb 4b 04 08 3e
       0.026150452 -0.049766347 -0.0049861986 0.13282888
0003e0 cf 8a 2c be c9 df ae bd f0 e4 41 3d b9 d9 88 3b
       -0.16849826 -0.085387774 0.047337472 0.004176345
0003f0 9a 36 95 3d 74 2e a6 bc 8b 3d 58 3d 73 db 56 3d
       0.07285805 -0.020285822 0.052793067 0.052455377

bias f4 [10]
000000 df d6 44 be 3d 5d 3d 3c 0e 32 0c 3d d7 89 59 3d
       -0.19222592 0.011557874 0.034227423 0.05310997
000010 83 81 ea 3d fd c8 3a bc a7 a7 36 3e 94 07 a6 3c
       0.11450484 -0.011400458 0.17837392 0.020267285
000020 7b 13 f5 bc 15 62 d0 3b
       -0.029916516 0.0063593485
