DeepLearningDemo/models/jingxin_4.pth (torch, 588127 bytes, 10 tensors)

weight f4 [32, 3, 5, 5]
00000000: 000b 09bc ade2 d13d 80de 5fbd 9cf1 b2bd
00000010: d2e8 cb3c 6bf1 48bd 5f6e c3bd e151 8d3d
00000020: 52d7 9c3d 21ac 023d 7702 603d 320e 003e
00000030: 4206 1e3e e957 a43d 8c11 753c 1b3f dc3c
00000040: d1d4 62bd 39c3 a3bd 036c 753c 7918 b6bd
00000050: 46db 3cbd 6db9 1b3d 7708 d1bd 1c8e e73d
00000060: dedf c7bd d549 833d 4bdc b83d cc81 98bd
00000070: 2acb aebd a300 5bbd 3424 7dbc 7afc b5bd
00000080: c904 e43d ef0b 2cbd cd72 533d 126a b0bc
00000090: 45bc b4bd 5fec ca3c ac4c 0c3e a12d da3c
000000a0: 37eb d43d ced9 663b 7361 97bd 8c32 4d3d
000000b0: caca 9b3d 36fc efbd 6849 00be d7a6 103c
000000c0: 191e 87bc 1d10 173d 7a3b 4dbd fd38 cabc
000000d0: 4beb e6bc e4bd adbd 308c debd b892 bd3c
000000e0: ffeb eebd eefa 6d3d 1c27 7fbc 121f c23d
000000f0: 20ea 173d 9c97 8dbd 885c fc3d fbec 223d
00000100: 0e8f ea3c 1f29 04bd 166b 1a3b e6e4 bcbd
00000110: 15b6 70bd 341d 083c e4f0 8a3d cf20 19bd
00000120: a390 d93d fce6 c43d 32f4 68bd dd7e d1bd
00000130: 7804 91bd 0230 6e3c 4916 e0bb 9efa 2b3c
00000140: 2650 be3d f8f8 57bd 019b cc3b 9c00 8ebd
00000150: cc7f c73c 0cbd 1b3c bf69 0bbe 0db5 20bc
00000160: 07e8 c5bd 6f8b 79bd feb3 123d 0f3b 023c
00000170: c3cf da3d 4859 e83d 7a43 9ebd 94a8 6dbc
00000180: d581 083d db29 91bd 6adc eb3d 90aa 3d3d
00000190: 9670 f9bd 778f 0cbd 6dba f0bd f18e 69bd
000001a0: 10ef c13d 08d4 583d e039 bbbc 99ae de3d
000001b0: 7fae 35bd fb22 03be c2a8 303c 984d c03c
000001c0: c6c1 28bc 4c33 eebd 704f 26bd d8cf ce3c
000001d0: a26d fb3d 80da 85bd 3a2b 2c3d 99c3 bc3d
000001e0: ba8f c73d cab0 28bd d799 50bb 154f de3c
000001f0: a4d1 983c 7e3b c13d 4519 773d 04b3 ab3d
00000200: 419e d23d fa59 a3bd 224a c83d e120 a53d
00000210: 95d3 32bd 53f6 133c d1a9 81bc ecb3 acbd
00000220: 21f1 c73d 5771 76bd 6c61 7dbd d434 b83d
00000230: 6626 57bc f379 a0bc 2ed4 a53c 7b87 133d
00000240: 9962 0e3d 9ff7 ca3d 40dd b43c d660 cb3d
00000250: 94df 1b3d b8b9 d3bc f51c debc 57d7 b63c
00000260: 4b8d 153c 0422 1b3e fa18 4d3e 4e9a 703c
00000270: d6a3 43bd a057 9d3d 15af 27bd 9d9b 2abd
00000280: 007c 7a3d bb90 703c b04e 903d 0dbf bfbd
00000290: c4a7 80bd 6da4 b83c fe93 8dbc 3f19 c8bc
000002a0: 28e2 d63c cabb d2bd 79ca 5f3d 74a3 1cbd
000002b0: 1384 63bd e1bd 5b3d 7c2a a63d bd0e b43d
000002c0: 9e48 23be aa8d cabd aa39 02be cf9a ca3d
000002d0: c491 d5bd 4ea4 e8bd 5bb4 32be 7409 08be
000002e0: f37a bd3d 1031 04bd 3b65 39be e14c 95bd
000002f0: 98f6 a6bd 701a c7bd 144b 17be 8226 44bd
00000300: 83ba 613d 8bd0 b0bd 62ff 0ebe 6028 dcbc
00000310: ba4d efbd 5c2e 3a3b f4a8 b23d 07c9 213d
00000320: f351 8e3d 145d e3bd 8c7f dcbd db6c 253b
00000330: e687 033e 61a3 0e3d fcd0 863c eaa2 05be
00000340: 1c47 513d 0985 d03d b85c 2cbd c381 08be
00000350: 80d1 733d 0c5a fabd c17a 0dbd 6d02 b0bd
00000360: 331c 0dbe 4f1d bebc 1c3b 5c3d 4d15 e7bd
00000370: 8233 a1bc 53cb c5bc f22c 46bd 0048 b0bc
00000380: 0fcf c63d 0e65 53bb 6f96 b93d 3351 b3bd
00000390: a883 d0bd 27f8 0b3c f6af 34bd e7b4 0e3d
000003a0: 0cba a0bc fa0c cbbd 9420 bc3d 98db ae3d
000003b0: 196f 46bc 260d e1bc ed59 6c3c 9f57 d8bd
000003c0: b5cf 76bd b3bc fbbd bb4c 07ba 6912 cdbc
000003d0: 5950 40bd e954 d4bd 4d38 dd3d 61b3 9d3d
000003e0: 625b c23d d84e 023e e02f 28bd 2f3a af3d
000003f0: ddbb 84bc 8f85 cdbc 7ef6 8c3d 9363 773c
-0.008364439 0.10248313 -0.054655552 -0.087374896 0.02489129 -0.04905836 -0.09542536 0.06900383
0.076582566 0.031902436 0.05468985 0.12505415 0.15432075 0.0802458 0.014957797 0.02688556
-0.05537874 -0.0799622 0.014979365 -0.088913865 -0.046107553 0.038018633 -0.10206693 0.11306402
-0.09759496 0.06410567 0.090263925 -0.07446632 -0.08534844 -0.053467404 -0.015450526 -0.08886047
0.11133725 -0.04200357 0.051623154 -0.021534953 -0.08824972 0.024770914 0.13701123 0.026633086
0.10396426 0.0035225037 -0.07391634 0.050097033 0.07607038 -0.11718027 -0.12528002 0.00882884
-0.016493844 0.0368806 -0.05010555 -0.024685377 -0.028188368 -0.084834844 -0.108665824 0.02314125
-0.116661064 0.058100633 -0.015573289 0.094785824 0.037088513 -0.06913683 0.123223364 0.039776783
0.028632667 -0.03226578 0.0023562363 -0.092233464 -0.058767397 0.008307744 0.067842275 -0.037384804
0.106232904 0.09614369 -0.056873508 -0.102292754 -0.070809305 0.014537813 -0.006838594 0.0104967635
0.09292631 -0.05272767 0.006244064 -0.0693371 0.02435293 0.0095055215 -0.13614558 -0.009808791
-0.09663396 -0.06092399 0.035816185 0.007948651 0.10684159 0.11345154 -0.07727714 -0.014505524
0.033326942 -0.070880614 0.1151665 0.04630524 -0.12179677 -0.034316506 -0.11754308 -0.057021085
0.09469426 0.052936584 -0.022854745 0.108731456 -0.044355866 -0.12806313 0.0107824225 0.0234745
-0.010300105 -0.11630878 -0.0406031 0.025245592 0.1227677 -0.06535816 0.04203341 0.09216995
0.097442105 -0.041184224 -0.0031829977 0.027137319 0.018654652 0.09435175 0.060326833 0.08383754
0.10284091 -0.07976146 0.09779765 0.08062912 -0.04365881 0.009030896 -0.015828045 -0.08432755
0.097627886 -0.060166683 -0.061860487 0.08994451 -0.0131317135 -0.0195894 0.020242777 0.036017876
0.034762 0.09910511 0.022078156 0.09930579 0.038055018 -0.025845394 -0.027113417 0.022319479
0.009127925 0.15149695 0.20029059 0.014685227 -0.047763668 0.07682729 -0.040938456 -0.04165231
0.061153412 0.014682944 0.070462584 -0.09362612 -0.06281999 0.022539342 -0.017282482 -0.0244261
0.026230887 -0.10289724 0.054636452 -0.03824182 -0.055545878 0.05364788 0.08113572 0.087918736
-0.1594567 -0.098903015 -0.1271731 0.09892809 -0.10428193 -0.11359464 -0.17451613 -0.13284856
0.09251966 -0.032273352 -0.18105023 -0.07290054 -0.08152503 -0.097218394 -0.14774734 -0.047888286
0.055109512 -0.086335264 -0.13964608 -0.026874721 -0.11684747 0.002840898 0.087236315 0.039498355
0.06949224 -0.111017376 -0.10766515 0.0025241885 0.1284481 0.03482378 0.016457073 -0.13050428
0.051093206 0.101816244 -0.04208061 -0.1333075 0.059525967 -0.12224206 -0.034540895 -0.08594213
-0.13780288 -0.023207335 0.05376731 -0.1128336 -0.019677881 -0.024144804 -0.048382707 -0.021518707
0.09707462 -0.0032256278 0.09061896 -0.08755722 -0.101813614 0.008543051 -0.044113122 0.03484049
-0.019619964 -0.099145845 0.09185901 0.08537978 -0.012111449 -0.02747209 0.014425737 -0.105635874
-0.06025668 -0.12291851 -0.0005161275 -0.025033193 -0.046951625 -0.10367758 0.10801754 0.077002294
0.09490086 0.12725389 -0.041061282 0.085560195 -0.016202861 -0.0250881 0.06882952 0.015099424

bias f4 [32]
00000000: 7489 fe3c 818b 59be 928c 553d a6c1 9fbd
00000010: 4dca 273e 5b27 423e b2e5 7d3e 102a 71be
00000020: 12bd 91bd d781 24be eddf 18bc 6b69 aebd
00000030: 3e32 8abd 8f7e 3ebd e76b 5dbd 2931 303e
00000040: 4bca ecbc d8d5 ccbd 63e7 2fbe 3e69 73be
00000050: dc11 653e 8859 3abe 3413 fcbd 9313 893d
00000060: 3d48 9d3b 9e62 c7bd f87f 423d 352f 1abc
00000070: bb58 813e e44a 1838 9327 0dbe 0f8d c7bd
0.031071402 -0.21244623 0.05213601 -0.078006074 0.16385765 0.18960325 0.24794653 -0.23551202
-0.071161404 -0.16065155 -0.009330732 -0.08516201 -0.06747864 -0.046507414 -0.05405798 0.17206253
-0.028905055 -0.10001725 -0.17178111 -0.23770615 0.22370094 -0.18198216 -0.1230835 0.066931866
0.0047998712 -0.097356066 0.04748532 -0.009410669 0.25263008 3.630937e-05 -0.13784628 -0.09743702

weight f4 [32, 32, 5, 5]
00000000: 0c3d e83c e4b6 91bc b22f a23c f92e 10bd
00000010: eb0e 733c d905 603c 1e04 e13c 4888 313c
00000020: c306 973c d63c 0fbd 9c52 e0bc 52bd 10bd
00000030: cb30 f3bc 083c 123c 4a67 07bd ed94 b4bb
00000040: 10b3 b5bc ebe6 c73c 6510 8f3c 1ffc 63bb
00000050: 46af 09bc 521b 7bbb b56d e1bc 7408 893c
00000060: 47dc 06bd 8a8e aebc ac39 18bd 6be4 513c
00000070: 279c 063d cb13 e9bc 6fe8 96bc e458 843b
00000080: 33ca 0e3d be16 c0bc 1782 b0bc 9418 1d3c
00000090: 8748 ad3b 5129 5dbc b235 103d 07f2 913c
000000a0: 0bcc 833b e540 ca3c a03b 18bc 57cf 84bc
000000b0: e106 143d 1806 a23c fe1f d23c cdb6 c43c
000000c0: 3663 a83c 9f2e dd3b 4906 8b3c 4e57 62bc
000000d0: 7628 de3c f2af c73c d43c e4ba 555e 06bc
000000e0: faaf e2bb 58cd 1d3c 0b5a 20bd f050 b5ba
000000f0: f8ff bb39 148a 14bc 10bf 42bb ae78 2fbd
00000100: 4d77 05bd 700e 333c 92c9 adbc d7e2 e8bb
00000110: cb0c 3bbd c7e1 f6bc 3143 c03b 5ab5 e7bc
00000120: cb7a 2fbd b55f a6bc 30c2 ac3c c732 a13c
00000130: 1e2c e33c f7cc b5bc 8585 cd3c be74 b23c
00000140: ef75 abbb fe59 43bc 355d d9bc 49ac bb3c
00000150: 33a3 20bc a21a 1d3d 451c f8bc 7bb0 033d
00000160: 9490 04bd fdfa d3bb 15ee 813b 827b 0b3d
00000170: f102 f7bc 695b 6d3c f114 eb3c 651d 03bd
00000180: 0a8d 18bb 653e 33bc cef0 753c bb72 e03c
00000190: a568 0c3d db57 113d e44b 11bd 1a5e 183c
000001a0: b8bb 073d 5f5f 123c bd36 32bc b5d4 06bd
000001b0: 2523 92bb 7408 89bc 31fe cbbc 7b0a 0e3c
000001c0: c0e3 24bc 217b 29bd 80ea 59bb 4bbe b9bc
000001d0: bc08 00bd 1fb1 cabc 941c 333a 4bed d13c
000001e0: 9191 19bd e49f 04bd f4c2 f5ba f4d1 013b
000001f0: 3b66 8cbc 9cbc 973c 92d9 933b 58ff 08bc
00000200: 446d e4bc 5dda 92b9 79cf 8e3c cecc 78bc
00000210: 37f6 51bc 5cd0 8fbc 0398 023d 418e 1a3d
00000220: c90e a73c 370e 0abb 694b 99ba 3fd9 f9bc
00000230: ea00 983c 7957 24bd 586b 27bc fde4 12bd
00000240: fd27 b1bc 9090 b8bc 18e4 12bd b616 2cbd
00000250: be36 24bd a87a 46ba 685b 393d aed4 ec3c
00000260: ef99 9a3c 845f e7b9 ba42 6c3c 9fca 393c
00000270: cc0f 913b e312 84bc f3ad 25bd 16dc a7ba
00000280: 167b 7c3c 3dfa 4a3c 84e8 3bbc 6d9a 2d3c
00000290: 0bf5 f73b 04b7 0dbd 7693 823c 6d0d 0fbd
000002a0: b369 4fbd 95b2 a6bb e42b 11bd 8905 823c
000002b0: 0967 22bd ea1d e8bc a406 c83c df32 febc
000002c0: 4517 a2bc 4b4c e5bc bd83 5b3c 3bff 35bc
000002d0: 1a4d 4abc 5a3c 103b b984 b6bc 6696 803b
000002e0: 2b95 883c 06af 37bd bb48 aebc 9e18 9f3c
000002f0: 9e00 0dbd fd9f c3bc d728 28bd 8c73 2ebd
00000300: 3d18 a03c 5898 733c 5235 9d3c ce81 e5bc
00000310: 3d77 57bc bfe5 88bc d4b3 a03c 76bc e3bc
00000320: dd4a 023d 9aaa 3f3b 81ef 173c bf16 cabc
00000330: f8e0 adbc b18e 613c 6322 a03c 9749 573b
00000340: d460 cd3c 4de1 813c 8337 fbbb 49a9 94bc
00000350: 64b0 a13c 2c97 a1bb ceba f4bb 5535 8d3c
00000360: 5104 59bc 9da3 d7bc 898d 963b a091 c93c
00000370: 5cdb 153c 9822 89bc bae4 55bb 45fc 68bc
00000380: 0adb 6c3c a9f8 d4bb ec70 863c 887f 1ebc
00000390: 7441 5ebc 7d03 9c3b 208b 02bc 2e44 353c
000003a0: d65b 203c f340 42bb c590 cebc 7635 45bc
000003b0: 9edb b9bc 1413 c8bb 5dce 1c3d 76af c6bc
000003c0: c446 cbbc 9fba 1b3d 571d b5bc dfb0 153d
000003d0: e96d a8bc 516b 143d 8af8 1a3d cabe c2bc
000003e0: c6be f73c 4f6e 053d c29b 47bc f7db 23bc
000003f0: 25a0 7a3b a785 f73b 29a5 03bc 36a8 87bb
0.028349422 -0.017787404 0.019798134 -0.035201047 0.0148351 0.013673269 0.027467784 0.010835715
0.018435841 -0.034970127 -0.027383141 -0.0353368 -0.029686352 0.008925445 -0.03305749 -0.0055109174
-0.02218011 0.024402102 0.017463872 -0.0034787727 -0.008403605 -0.0038315845 -0.027518133 0.016727664
-0.032924917 -0.021308202 -0.037164375 0.012810807 0.032863762 -0.02845182 -0.01842138 0.004038917
0.0348608 -0.023448344 -0.021546407 0.009588379 0.005288187 -0.01349862 0.035207458 0.017815603
0.0040221266 0.024689147 -0.009291559 -0.016212149 0.036139373 0.019778296 0.02565002 0.024012947
0.02055512 0.0067499424 0.01697077 -0.01381476 0.027118903 0.02437589 -0.0017413148 -0.008201201
-0.0069179507 0.009631477 -0.03914837 -0.0013833325 0.0003585813 -0.0090661235 -0.0029715933 -0.0428397
-0.032584477 0.010928735 -0.02121428 -0.0071071195 -0.045666497 -0.030136956 0.005867385 -0.028284717
-0.042841714 -0.020309309 0.02108869 0.019677533 0.027730998 -0.022192461 0.025088081 0.021784183
-0.0052325646 -0.011923311 -0.026533702 0.0229093 -0.009804535 0.038355477 -0.030286917 0.032150727
-0.032364443 -0.006469129 0.003965149 0.034053333 -0.03015277 0.014487126 0.02869651 -0.032010455
-0.0023277425 -0.010940169 0.015011026 0.027398458 0.034279484 0.035484176 -0.035472766 0.009299779
0.033138007 0.008933871 -0.010877308 -0.032917697 -0.004459756 -0.016727664 -0.024901481 0.008669491
-0.010064065 -0.04137719 -0.0033251345 -0.022673747 -0.03125833 -0.024742661 0.00068325666 0.025625845
-0.03749234 -0.032379046 -0.0018750117 0.001980898 -0.017138591 0.018522553 0.0045120204 -0.00836166
-0.027884133 -0.00028009983 0.017432915 -0.015185548 -0.01281505 -0.017555408 0.03188325 0.03773332
0.020392792 -0.0021065602 -0.0011695448 -0.030499099 0.018555123 -0.040122483 -0.010218464 -0.03586291
-0.021625513 -0.02252987 -0.03586206 -0.042013846 -0.04009127 -0.0007571378 0.045253187 0.028910007
0.01887223 -0.00044130918 0.014420206 0.011339813 0.004426932 -0.016122287 -0.040449094 -0.001280668
0.015410205 0.012388763 -0.01146901 0.0105959 0.007567053 -0.034598365 0.015939455 -0.034924913
-0.050637912 -0.0050872066 -0.035442248 0.01587178 -0.039649043 -0.028334577 0.024417229 -0.031030117
-0.019786486 -0.02799048 0.013398108 -0.011108215 -0.012347484 0.0022008629 -0.022280084 0.003924179
0.016672691 -0.04484465 -0.021274915 0.019420918 -0.034424417 -0.02388 -0.041054573 -0.042590663
0.019542808 0.014867865 0.019190464 -0.028015997 -0.013150987 -0.016711114 0.019616999 -0.027799826
0.031809676 0.0029245974 0.009273411 -0.02466905 -0.021225438 0.01376693 0.019547647 0.003285026
0.025070585 0.015854502 -0.0076665296 -0.018147128 0.01973743 -0.004931351 -0.007468558 0.017237345
-0.013245658 -0.026323134 0.004594509 0.024605572 0.009146538 -0.016740128 -0.0032637552 -0.014220302
0.01445652 -0.006499369 0.016411267 -0.0096739605 -0.01356541 0.004761158 -0.00796774 0.011063619
0.00978752 -0.0029640764 -0.025215516 -0.012036672 -0.02268773 -0.00610579 0.03828274 -0.024253588
-0.024814017 0.038019773 -0.022108717 0.03654563 -0.020560222 0.036235157 0.03783468 -0.023772616
0.030242335 0.0325759 -0.012183132 -0.010001174 0.0038242426 0.0075537744 -0.008034983 -0.0041399254

bias f4 [32]
00000000: b2bb b5bc 6f18 383d bb31 81bd 9917 0fbd
00000010: e1ee bbbc d883 c0bc 3adc a4bc 8a26 c4bc
00000020: 0e99 59bd 3ed6 d7bd 9301 48bd d889 0a3d
00000030: 9eab 6b3c 42ec 24bd 28fa bd3c d0a6 b7bd
00000040: 1599 20bd cc00 f8bc a778 0fbd 0f92 a23d
00000050: 10bd febc 7e2c 35bc 53b0 483b 86ab 5abd
00000060: 3ab0 8f3c b890 53bd 13c9 04bd 13d1 f73c
00000070: 3bcd 013d 8ed3 db3c 1116 c0bc 75c7 7ebd
-0.022184227 0.044945177 -0.063083135 -0.034934614 -0.022941055 -0.023500368 -0.020124543 -0.023944158
-0.05312448 -0.1053891 -0.048829626 0.033822864 0.014384178 -0.040264376 0.023190573 -0.08967364
-0.03920849 -0.030273817 -0.035027172 0.07938015 -0.031096011 -0.011057971 0.0030622676 -0.053386234
0.017540086 -0.051651686 -0.03241832 0.030251062 0.031689864 0.026834276 -0.023448022 -0.062201936

weight f4 [64, 32, 5, 5]
00000000: a612 2f3c 40af 093c 3e92 2dbd 0389 15bd
00000010: abaa 09bd 3c70 9abc 6fb8 e03b 1855 053d
00000020: 60d9 39bc 3113 913c 7df5 07bc cc6c e13c
00000030: 8604 8cbc da88 d53c 53d8 e33c bd4c 1bb9
00000040: 2854 053d 6243 8f3c 4380 3a3b 7d0c e13c
00000050: 0efe 0a3d 5be3 bd3b 5c65 a2bc 0701 e5bc
00000060: a42f b53c 1593 28bc 97f0 533c 9e76 7a39
00000070: 9425 ab3c f8bb d8bb aaf7 75bc b0cf ac3c
00000080: c71f 83bc ca4b 0c3c d521 69bc 911f 033d
00000090: 2bb3 073d e3df 59bc 1763 c7bc a282 183a
000000a0: 33c0 e03c 6845 5e3c 2812 2c3b 0600 63bc
000000b0: c68a 1d3c 9ec3 1d3b 1bf6 c6bc 6461 983b
000000c0: 295a cebc 414d 83bc c7e6 c2bc 68c3 91bc
000000d0: 9a4e 463b 538a 293a 17d9 1ebd 8c53 abbc
000000e0: c66b d1bc 8ac7 953c 2df0 713c c554 5fbc
000000f0: c126 9ebc f056 2bbc c960 88bc 218c 943a
00000100: 46b1 053d 330e 6b3a 7233 133d 3fb2 e83c
00000110: 3e5e 293d 9aa9 533c 908f 703c b6c5 3b3c
00000120: c417 ee3c 9bda 96bc 66c5 e7bc e0f5 31bd
00000130: 37f8 8b3c 8310 1e3c 84c5 01bd 3e45 3fbd
00000140: 11ae afbb 1623 3bbc f0b7 ca3b 5b48 313c
00000150: 7322 cbbb fe0c 823a c439 88bb ddbf 463c
00000160: 070d bcbc d4bc 2a3d d9a2 403d 67b8 853c
00000170: 5f6f e4ba b5a7 fabc 962f 5cbc dcb3 09bd
00000180: 62d0 183c dd1e 3bbd cc05 513c eff7 2fbd
00000190: d6db d2bc e37e 8ebc dd1d 013d c084 0abd
000001a0: e680 26bd 8ad3 8dbc fbca 123d 3c94 1f3d
000001b0: ad90 113d 3f78 53bc 321b 113d e4f6 163d
000001c0: 489c 353b 2c77 863c c2fd db3c 88df 70ba
000001d0: c4f3 a33c 6271 0a3a ec32 e0bc 271a dfbb
000001e0: 83bb 8c3b 6d6c 0f3c 85d9 ecbc 841f 2ebc
000001f0: edbd ba3b 830b 1abd b0ef 97bc 9639 06bd
00000200: b19e e53b d2bc 0d3d 993b ac3c a6b8 d53c
00000210: 0c2c 223c b803 42bc ac0b 283b 5efb 583c
00000220: 4f19 72bc 48c3 65bc 5399 ffbc fd52 953b
00000230: 92b5 aebc 5e52 3e3c 7bec 1b3d 2f6e 1b3d
00000240: 4777 bd3c 9b4c 6d3c 8219 133d 5be8 e43c
00000250: 0ce6 15ba 7181 f13c e7e2 8db9 55d8 babc
00000260: ef16 143c 41a2 f63c 88f2 16bb 51f7 f23c
00000270: b5c6 cdbb 5b11 ddbc 1f68 073d ce9a c7bc
00000280: 8bb4 743c 6ed8 30bc 88a2 763c 6f7d 423c
00000290: f153 7d3c e667 9fbc 0838 133c 694d 863c
000002a0: 1c1e ffbc dcef c1bb 25d6 bf3c 089b 373d
000002b0: dea6 e7bb f9f3 003d ce40 003d 3599 1abc
000002c0: dfd2 803c bf31 18bd f43d 19bd 6fb6 0cbc
000002d0: 0235 a33c 8039 a4bc 0edc 8c3c aaff 963c
000002e0: 3f89 ee3c 7c7a 853b 12f6 e93c 1044 193d
000002f0: 3522 193d c50f 0c3d 57bd 383d fd14 2e3d
00000300: 039e 973b 8d23 3abc 6c74 9abb f084 b2bb
00000310: 5cb4 0fbd d7d2 a4bc 003f 50bc 4723 113d
00000320: 0fb6 1a3c 3749 07bc 8a8d b4bb 73db 01bd
00000330: 42ef d93c bb7c 683c d30c 64bc 2186 6e3b
00000340: 646f 9fbc 0b61 03bd b39a f4bc 83a6 503a
00000350: 0f67 e53c 026f 01bc be8c fc3c ad81 0b3d
00000360: b399 57bc 96cd 82bc 85bb d2bc 132e 4eba
00000370: abfc c83c ab3a 83bb 92f7 80bc b72b 9b3c
00000380: 7e53 e5bc 63bc ee3b 48e2 ecbc 06bd 0abd
00000390: 4cf6 023c 85a2 1dbd dd2b f13c 9af0 283c
000003a0: f064 22bd 8961 afbc 8f65 a5bb 2ba2 75bc
000003b0: 18bb 07bd a884 b5bb 4b37 d93c 5220 b53c
000003c0: 7065 71bb 7796 313c 9de3 4d3d a334 403d
000003d0: d2ce 2d3b 0dc4 0d3c 362f adbc a9de eebc
000003e0: 9a24 0dbd 1508 22bd 76fc 2cbc cec4 b23b
000003f0: 6f72 2cbc e530 9a3c ba76 d3bc 9559 063d
0.0106855985 0.008403599 -0.042375796 -0.036507618 -0.033610027 -0.018852346 0.0068579237 0.032551855
-0.01134333 0.017709346 -0.008298275 0.027517699 -0.017092 0.026066232 0.027813112 -0.00014810539
0.03255096 0.017488185 0.0028457798 0.027471775 0.03393369 0.005794925 -0.019823723 -0.027954591
0.022117443 -0.010288973 0.012935779 0.00023886046 0.020891942 -0.0066142045 -0.015012661 0.021095127
-0.016006364 0.008562991 -0.014229258 0.032012526 0.033129852 -0.013298008 -0.024339242 0.00058178056
0.027435398 0.013566352 0.002625594 -0.013854986 0.009615606 0.0024072896 -0.024287274 0.0046502817
-0.025189476 -0.016028048 -0.023791684 -0.017793372 0.0030259253 0.00064674503 -0.03878125 -0.020913862
-0.025564086 0.018283624 0.014766735 -0.0136310505 -0.019305589 -0.010457739 -0.016647713 0.0011333266
0.032639764 0.00089666544 0.035937734 0.028405307 0.041349642 0.012918854 0.0146826655 0.011460712
0.029064067 -0.018414786 -0.02829237 -0.043447375 0.017086131 0.009647491 -0.031682506 -0.046696894
-0.0053613265 -0.011421939 0.006186478 0.010820474 -0.006199175 0.0009922085 -0.004157277 0.012130705
-0.02295543 0.041683987 0.047030304 0.016323281 -0.0017428211 -0.030597547 -0.01343908 -0.033618793
0.009327026 -0.04568373 0.01275773 -0.042961057 -0.025739592 -0.017394489 0.03152262 -0.033818007
-0.04065027 -0.017312784 0.03583811 0.038959727 0.035538364 -0.012907087 0.035426326 0.036856547
0.002771156 0.016414247 0.0268544 -0.0009188582 0.020013697 0.00052811776 -0.027368031 -0.0068085375
0.004294814 0.008753878 -0.028912315 -0.010627631 0.0056989104 -0.037608635 -0.01854691 -0.032769762
0.007007443 0.0346039 0.021024512 0.026089024 0.009898197 -0.011841707 0.0025641723 0.013243524
-0.014776542 -0.014023609 -0.03120104 0.004557012 -0.021326814 0.011616318 0.038067322 0.037946876
0.023128165 0.014483596 0.035912998 0.027942827 -0.00057181786 0.029480668 -0.0002706267 -0.022808233
0.009038671 0.030106666 -0.0023032743 0.029658945 -0.0062797912 -0.026985815 0.033058282 -0.024365809
0.014935623 -0.010793788 0.015053399 0.011870726 0.015461908 -0.019458722 0.008985527 0.016394334
-0.031142287 -0.005918486 0.023417542 0.044825584 -0.0070694527 0.03148267 0.031311803 -0.009435941
0.015725551 -0.037156817 -0.0374126 -0.008588417 0.019922737 -0.02004695 0.017194774 0.018432457
0.029118178 0.004073439 0.028559718 0.037418425 0.037386138 0.034194726 0.045102444 0.042500485
0.0046269908 -0.011361015 -0.0047135856 -0.0054479763 -0.035084113 -0.020120068 -0.012710333 0.035434034
0.00944282 -0.008257202 -0.005510037 -0.031703424 0.026603345 0.014189894 -0.013919073 0.0036395865
-0.019462295 -0.03207497 -0.029858923 0.00079593825 0.028003244 -0.0079000015 0.03082883 0.034059215
-0.013159203 -0.015967172 -0.025724182 -0.0007865142 0.024534544 -0.0040047965 -0.01574305 0.018941743
-0.027993914 0.007285641 -0.028916493 -0.033871673 0.007993292 -0.03848507 0.029439861 0.01031127
-0.039647043 -0.021408813 -0.005047507 -0.014992277 -0.03313741 -0.0055394955 0.026515624 0.022110138
-0.0036834143 0.010839096 0.050265897 0.0469252 0.002652098 0.008652699 -0.021140676 -0.029158907
-0.034458734 -0.03955849 -0.010558238 0.00545559 -0.01052533 0.018822143 -0.02581345 0.032800276

bias f4 [64]
00000000: 75e0 20bb 5a11 50bd a4cd 273c 4f33 edbc
00000010: 0a55 163d 3f5c 953c 693d 39bd 9c6c fcbc
00000020: 351d 813b 7684 9ebc a446 ef3c cfea 993c
00000030: ac7b 3f3d 7595 2cbc 9ac8 d3bb dc83 813b
00000040: 7d80 a43b 83cc d8bc 20af ac3b 742a 21bd
00000050: b9d3 cfba baa1 d4bc d873 23bd 7698 5539
00000060: 194c df3c 967f 1b3c 69d4 6abb ea4d 66bc
00000070: 2d30 cc3b 16c5 873c 6bfd e4bc c55d 25bd
00000080: b4b5 913c 0a6b f63a 665c a33b 443a 0e3d
00000090: f446 fb3c 586b f33b 0220 213d bc1e cf3c
000000a0: 54ab c13c 6a94 2abc b96d 48bd 5292 893b
000000b0: ff5a b63c 1eae fb3c de53 eb3c a4d8 ed3c
000000c0: 7991 273d 31d7 f8bc 0c48 d6bc 829b c83b
000000d0: b976 fcbc 8c5a b6bc 94e0 91bd ac79 3bbb
000000e0: 6ca9 e3bc 2e5e 1ebd 18d3 a3bb 1303 cc3c
000000f0: 35d5 f1bb 6441 183b c1e6 6bbc bc6b 0f3c
-0.002454785 -0.050797798 0.0102419 -0.02895513 0.036702193 0.018232463 -0.04522458 -0.030813508
0.0039402493 -0.019350272 0.029208489 0.018788723 0.046748802 -0.01053368 -0.0064631226 0.0039524864
0.0050202 -0.026464706 0.0052699 -0.039347127 -0.0015855945 -0.025956023 -0.0399054 0.00020370059
0.027257966 0.009490868 -0.0035832173 -0.014056662 0.006231329 0.01657347 -0.02795287 -0.04037263
0.017786838 0.0018800211 0.00498538 0.034723535 0.030673482 0.007428568 0.039337166 0.02528321
0.023641266 -0.010411361 -0.048932765 0.004198351 0.022260187 0.030722674 0.028726514 0.029033966
0.040910218 -0.030376049 -0.026157402 0.0061220536 -0.03081833 -0.022259973 -0.07122913 -0.0028606458
-0.027790748 -0.038664035 -0.0049995296 0.02490381 -0.0073801526 0.0023232335 -0.014398278 0.008753713

weight f4 [64, 1024]
00000000: 72cc 0a3c 12ae 15bc bb65 dc3c d60c 8bbc
00000010: a93b 203b 9ca3 ec3c 2049 7ebb c3d8 223c
00000020: 9ee2 aabc 62ba 39bc bd0f 8e3c 1380 fa3c
00000030: 5979 1ebc f7a7 1bbc a8bd b8bc 42e4 a53c
00000040: 9b3a f6bc 500c a1bb dd8a e7bb 8b52 9a3c
00000050: fa85 88bc 8ebc d4bc e9f0 d0bb 80d9 cfbc
00000060: ec98 1abd 4126 973c b475 b9bc 585d 713b
00000070: ac90 00bd fc45 aaba 2bdc d93c 1760 7bbc
00000080: fbaa f03a 4b05 483c d8a4 ad3b 03d0 6abc
00000090: 0d79 2c3b 6190 c3bc dc9d abbc a1c2 76bc
000000a0: 084c a53c a3b1 2abb be69 bd3a 7e30 d6bc
000000b0: aec1 d5bb 6a15 103b a5e1 febc 5772 c9bc
000000c0: c341 d63c 06a1 e53c eab7 713c a23e afbc
000000d0: 8020 593c 1361 b03c 68a0 b3bb a69e c93c
000000e0: 242d 8c3c 6cd2 eebc db66 a9bb 66e2 aa3c
000000f0: b767 013d 91a6 00bd 6b0a e83c a6b3 843c
00000100: 5bb2 cbbc f205 af3a 28ea 8e3b 8449 db3b
00000110: a2f8 c03c 1706 503a df4f 02bb c988 7bbc
00000120: 9730 0bbd 4ff5 243c 9f87 edbc 6adb a53c
00000130: 58fc 7abc f1fc 593c dbc0 dfbc de16 20bb
00000140: 88a9 e1bc 1ccc 963c 7131 d63c f059 d83c
00000150: e2e7 df3c 4d54 d73c bec4 eebc 9a9a 6abc
00000160: 1e98 113d 5cbb 90bc 025e 0cbd 54f2 c73c
00000170: fbf4 c03c e168 01bd a0ef cfbc c134 843c
00000180: 7163 e73c 5cb6 b0bc 5a1e 923c 14ce 5ebc
00000190: 1a05 92bb c6d0 62bb 4191 7eba 418a 1ebc
000001a0: 6d61 8ebc 956d d9bc f7fb 8d3c ca64 903c
000001b0: 269a e43c 7e1b 043c 5985 80ba 3601 773b
000001c0: b4e5 89bc 58d4 adbc 02f8 ea3c 959b a9bb
000001d0: 963a ffba 38c9 b5bc 436c 85bc 5be6 7a3c
000001e0: 9154 7fbc 5024 e13b 69fa 33bc e40c fb3b
000001f0: 485f 3c3c 1179 2e3c f2cc dc3b cb2d 653c
00000200: c568 c7bc eaa0 cb3b a0c8 dfbc 889b 08bd
00000210: 80c5 563c 42f8 c83b e478 d83c f2ac 973c
00000220: 42b5 12bd 6b66 a0bc 985f 033c 0173 1d3b
00000230: 42fb cabc 17fd 06bb 416c 9ebb 17d8 bcbb
00000240: ba17 36bc aab0 e93b 6645 c53c 1732 a3bc
00000250: 93a9 003d 286e dc3b 5710 9abc acc8 5f3c
00000260: 2841 b23b a2fb f6bc b777 84bc 56ad 98bc
00000270: 6f51 48bb b5ec fb3b e8eb dfbc e659 de3c
00000280: 169d 003b 739e e8bb 60b9 283c 61c8 d23c
00000290: 30de ef3c 8a7b 25bc 1a89 d8bc 855e 753b
000002a0: 4dae 62bb 6c7c c83c 6a41 ff3c d562 65bc
000002b0: 7762 65bc d2fb f1ba 02ff 9dba a4da 0dbc
000002c0: 3512 cdbc 495d 44bc 7966 403c e363 fd3c
000002d0: 0ca1 bf3c eb64 0c3b d8b4 bcbc 6d09 d6bc
000002e0: 09b9 963a 03a0 0fbd 54cf f5bc 716f 7dbc
000002f0: 920c 0fbc f745 aebc 7241 86bb 9cb0 d5bc
00000300: 8cab babc 206c d4bc 537d 4e3c 4e75 9dbc
00000310: 4bcf 65bc 0261 f33b ebea 39bc 8335 01bc
00000320: 8e55 c43c af10 22bc dc8b 3f3d 6eed a4bc
00000330: 992e 803a 963d a2bc 2962 ed3c c3a4 ba3c
00000340: ad38 f4bc ae5c b13c 67c9 963a 60a2 07bd
00000350: 7c28 23bd 0fe8 313c 49c9 98bc 211d 243c
00000360: 56c7 0dbd 0fe3 0bbd f3fe 95bc b0e3 8fba
00000370: 9edb 02bb 1aac 84bc fad2 53bc 4684 a4bc
00000380: c3ed a8bb 8837 d33c 26c4 c5ba 43a8 d8bb
00000390: 6d51 54bb 8b0f 19bd 4b0d c3bc 6b1a f4bc
000003a0: a3e0 9a3c 0625 27bc 9bdb 1abb c4de b73c
000003b0: c2d1 ae3c 4516 f939 a4e1 49bb 4f1e cebb
000003c0: 7b56 1f3b 21bf 77bc 9817 073c de6b ad3c
000003d0: 3464 ce3c 9110 f3bc 9342 f2bc c774 e33b
000003e0: a5ce ac3c 7c4c 0d3c bd98 1dbc 9f1e 4dbc
000003f0: 2ce7 d53c 71c8 95bc 8531 d7bc 5328 87bb
0.008471595 -0.00913574 0.026903978 -0.016973894 0.0024449623 0.028886609 -0.003880091 0.009939375
-0.020860013 -0.011335941 0.017341489 0.030578649 -0.009672486 -0.009500495 -0.022551373 0.020250443
-0.030057242 -0.004914798 -0.0070661143 0.018838188 -0.016665448 -0.025968816 -0.006376375 -0.025372267
-0.037743494 0.018450858 -0.022639133 0.003682932 -0.03138797 -0.0012990828 0.026594242 -0.015342734
0.0018361503 0.012208293 0.005299192 -0.01433182 0.002631727 -0.023872556 -0.020949297 -0.015061052
0.020177856 -0.002604582 0.0014451069 -0.02614617 -0.0065233326 0.002198542 -0.031113455 -0.024590654
0.026154405 0.028030884 0.014753321 -0.02139217 0.0132523775 0.021530664 -0.0054817684 0.024611782
0.017111368 -0.029153071 -0.005169732 0.020859908 0.03159305 -0.03140885 0.02832528 0.016198944
-0.02486532 0.0013353212 0.0043614097 0.0066921134 0.023556057 0.0007935478 -0.0019884033 -0.015352436
-0.033981886 0.010068252 -0.028995333 0.020246226 -0.0153189525 0.013304935 -0.02731364 -0.0024427692
-0.02754666 0.018407874 0.026146622 0.026410073 0.02733225 0.026285315 -0.029146548 -0.014319086
0.03554546 -0.017667465 -0.03426934 0.024407543 0.023554316 -0.03159416 -0.025382817 0.016138436
0.02824566 -0.02157133 0.017836738 -0.013598938 -0.0044561746 -0.0034609302 -0.00097109756 -0.009676517
-0.01738044 -0.02654151 0.01733206 0.017626185 0.027905535 0.008063195 -0.0009805366 0.003768993
-0.016833164 -0.021219417 0.028682712 -0.0051760175 -0.0019472416 -0.022190675 -0.016286975 0.01531371
-0.015584127 0.006870784 -0.010984995 0.007661449 0.011497326 0.010648982 0.0067382986 0.013987969
-0.02434195 0.006214251 -0.027317345 -0.03335145 0.013108611 0.0061331103 0.026424833 0.018515084
-0.035817392 -0.019580087 0.008018397 0.0024024846 -0.024778012 -0.002059763 -0.004834682 -0.0057630646
-0.011114055 0.0071316557 0.024080943 -0.019921346 0.03141172 0.006726999 -0.01880662 0.013658684
0.005439896 -0.030149285 -0.016170366 -0.01863734 -0.0030566116 0.00768813 -0.027334169 0.027142476
0.001962488 -0.0070989667 0.010298103 0.025730314 0.029280752 -0.010100255 -0.026432563 0.0037440371
-0.0034588755 0.024473391 0.031159122 -0.014000614 -0.014000527 -0.0018461889 -0.0012054148 -0.008658085
-0.025033096 -0.011985132 0.011743181 0.030931419 0.023392223 0.0021422456 -0.023035452 -0.026127541
0.0011499237 -0.03506471 -0.030006088 -0.015468464 -0.008731024 -0.021273596 -0.004097157 -0.02608519
-0.022786878 -0.025930464 0.012603122 -0.019220974 -0.014026473 0.0074273357 -0.011347513 -0.007886293
0.023966577 -0.009891673 0.04676424 -0.020132747 0.0009779512 -0.019804757 0.02897747 0.022783643
-0.029812181 0.021650638 0.0011504114 -0.033113837 -0.03983353 0.01085855 -0.018650668 0.0100167105
-0.03461393 -0.034152087 -0.018310046 -0.001097789 -0.0019967328 -0.016195346 -0.012928719 -0.020082604
-0.0051552965 0.025783315 -0.0015088364 -0.0066118552 -0.0032397166 -0.03736834 -0.02381005 -0.029797753
0.018905943 -0.010201698 -0.002362943 0.02244509 0.021340255 0.00047509573 -0.0030804658 -0.006290234
0.002431302 -0.015121252 0.008245371 0.0211696 0.025194265 -0.029670985 -0.02957276 0.006941411
0.02109463 0.008624192 -0.009618935 -0.012519508 0.026111208 -0.018284054 -0.02626873 -0.00412468

bias f4 [64]
00000000: be27 c73c 1d1d f8bc 2631 37bd 863c 223c
00000010: 856f 233d 7fb3 19bd 2643 b23b 8732 eb3c
00000020: 2fde 1f3c 6500 83ba 77b3 d1bc 6cbf 853c
00000030: 2715 983c 800a 44bd 4052 093d 9405 153a
00000040: 900b f4ba 8694 933c 2800 073d e1da 87bc
00000050: 895b b7bc b870 c13c 9c7c 79bc 74b9 a23c
00000060: ff80 2bbd ab2c af3a 5635 9c3c 3b88 e53b
00000070: 6f6c d43c 6a43 153c af4c 603d f31c ca3c
00000080: c8b3 d4bc 25a3 c7bb 9674 45b9 2201 3a3c
00000090: 5424 143c 9b97 c1bc 0774 783b de50 8f3b
000000a0: b273 4d3d ecd5 ca3c 27a1 cb3c c219 273d
000000b0: e244 333c 4f32 b2bc 73ad 05bd 58cc c33a
000000c0: efe4 97bc 8468 5e3c a856 533b 493f a33c
000000d0: 571f 71bb ecda a2bc ca46 47bd 76b4 153c
000000e0: 62e1 033d 8473 69bb 3465 943b 726c cb3c
000000f0: c827 a5ba d265 3bbc 8182 64bb 3eb2 113d
0.024310943 -0.03028732 -0.044724606 0.009902125 0.039901275 -0.037524696 0.0054401336 0.028710617
0.009757563 -0.0009994624 -0.02559827 0.016326629 0.018564774 -0.047861576 0.033525705 0.000568473
-0.0018619169 0.018015157 0.032959133 -0.016583862 -0.022382515 0.023613319 -0.015227463 0.019863822
-0.041871067 0.0013364753 0.019068401 0.0070047653 0.025930611 0.009110311 0.05476063 0.024672007
-0.025964633 -0.0060924464 -0.00018830816 0.011352809 0.009041864 -0.023631861 0.0037910955 0.004373654
0.050159164 0.024760209 0.024857117 0.04079605 0.010941716 -0.021752505 -0.032636117 0.0014938219
-0.018541781 0.013574723 0.0032247696 0.019927638 -0.0036792362 -0.01987978 -0.048651494 0.0091372635
0.032197364 -0.0035621831 0.004528666 0.024831984 -0.0012600357 -0.01143785 -0.0034867825 0.035570376

weight f4 [10, 64]
00000000: 46a3 77bd 03f9 40bd 0b28 bd3d 8171 06be
00000010: eddc 15be 64c5 4b3e f3eb 0d3d df2f 81bd
00000020: 3d71 853d 1851 e4bd c2c6 5d3d 3648 75bb
00000030: c335 3dbc 75e0 083e 594c 1e3d dc96 eebb
00000040: 01be bb3c e43e d33c a060 d7bd aa25 c03d
00000050: 7cfb acbd 21e8 0a3c e8d9 133e 54a2 a93c
00000060: 9e34 383e 4c4f 5bbd 6825 cebd 8524 afbd
00000070: 128d c4bd 5abd 07be 77b5 31be c2c3 03be
00000080: c85a 1abc a408 be3d 6939 ab3d 6e95 3f3d
00000090: 8dd5 fabd 6d1f 4dbc 2507 5b3d b51f 3c3d
000000a0: e978 6ebd fbdf 213e 26e9 63bd fc65 bfba
000000b0: 5b56 b6bc 27bc fd3d 1e32 f83d 81e7 9c3c
000000c0: a665 7f3d 9658 203e e082 92bb 008e f43d
000000d0: 1d2e 8f3b 4541 a13d 3c17 b33d 6e75 2dbe
000000e0: 1cf4 743c e588 2bbe fb93 113e ba1a 4dbd
000000f0: be8b 14be 8baa 30bd 9743 acbb 4e6e ecbd
00000100: 0e86 9d3c 5ef0 05be 34de 523e 4926 45be
00000110: 61c1 5dbd e596 ba3c 57b0 713d f7d7 14be
00000120: 2dcf babc 34c3 393d 1140 1d3e 985b 223e
00000130: c011 00be 4992 98bd 5d86 88bd 08f8 f43b
00000140: 60f7 05bd 5bd6 f43d 9a71 403c 38ed 913d
00000150: 1a4e 333e 53b3 233e 3951 1e3e f3eb 4dbe
00000160: 301c ce3d 01ed 10be 3a47 b33d dc1a 8dbc
00000170: 6178 5fbe 0598 93bd 374d 02be 6c46 a1bd
00000180: 962e 47bb b733 c13d 0cb2 c5bb fa06 e43b
00000190: 7745 8d3d 038b 30be c38e 10be 865b 423e
000001a0: f86f c03d 2a28 133e 300c 543d ad21 473c
000001b0: 5afd 39be 36e5 fbbd 3e3d 8b3d 7694 59be
000001c0: baa5 43be a898 2fbe 16fc f53d d359 1dbe
000001d0: 702c 173c 785e 1abe 74d6 bbbb 78c6 1c3c
000001e0: 63e1 253e af25 68be e962 68be 1424 29bd
000001f0: b7d1 cb3d 244e 0fbe c996 3d3d 1cb8 053e
00000200: 961b 17be 4e2e f9bd 9ea8 3ebe baa8 073e
00000210: 314f 6b3d 806e 2b3e 1236 033e 39e4 483d
00000220: d706 3a3e 9a96 7e3d f8e6 25be d283 9e3d
00000230: 630f d13d cd62 83bc 8e5f 4abd 4990 2fbe
00000240: a59a 72bd e44f 0e3e 95b7 903d 8072 7cbd
00000250: 0cf0 24bd ce0e f7bd 7d7b 33bd d4a8 d63d
00000260: 35a2 8c3d 4c0a 08be e813 a6bd a90d 84bc
00000270: 5fe3 323c 16a0 813d ed4b 0c3e dcbb 5f3d
00000280: de42 9d3d d173 aa3d e946 9dbd 09be f439
00000290: 2e40 b7bc 5e03 3f3e 027e f03d 3462 e0bc
000002a0: 6d9c 82bd 1234 67bd d79b 573d daa8 c63d
000002b0: 76e2 673d 8867 0abd 0f10 0c3e 9952 1a3c
000002c0: 03ae 7abd 5634 103b 4109 9fbc 7f72 8b3d
000002d0: aec1 17be 4252 8abd 6a20 a03d b30d e2bd
000002e0: 6a48 f53d 7b99 883d 9bfb f1bd 7436 b4bd
000002f0: e7a5 04bd 379b db3d dde9 63bd 0111 79bc
00000300: 78bd 893c 5dc4 ccbd a3ec 1bbe 5322 f9bd
00000310: 9fe1 763d 35a4 52bd 3190 e6bc 0dde adbd
00000320: e4f9 083e 38c0 b6bd c8a0 1c3d 232b f5bd
00000330: 5203 00bc 206a a6bc a54f d8bc d820 93bd
00000340: 1bad 993d a44c 81bd f560 203e e8e8 33bd
00000350: b7e5 603b 757e 0bbe ea93 69bb e53a 053e
00000360: 630e a5bc 611e 993b 7cd6 c63d 9c45 b6bd
00000370: 7c77 193e ac3e 843c 1145 fd3d b9a6 2a3e
00000380: 21f8 8abd d7bd 613c e318 63bc 1fd0 d53d
00000390: 1f28 e63d 9f8a 693d f856 033e 60f8 6fbe
000003a0: 9c35 d03d 63b1 20be edc5 253c 5dcb 0a3e
000003b0: 1ea8 3fbd e657 36bd a8a3 953d 6b10 403e
000003c0: 3920 2bbd d098 94bc 550c cdbd a02e 34be
000003d0: 16c9 7a3c 423e 9abd 93bf 8cbb ca46 003e
000003e0: 5a88 17be 40b5 98bd 172f 193d 1631 eb3b
000003f0: fbda 913d 17a4 78bc c3bd 4c3d c67a 793d
-0.060458444 -0.047112476 0.09236153 -0.13129236 -0.14635058 0.19899517 0.034648847 -0.06307959
0.06515739 -0.1114828 0.05414463 -0.0037427074 -0.011548462 0.13366874 0.03864703 -0.0072811674
0.02291775 0.025786825 -0.10516477 0.09382184 -0.08446404 0.008478195 0.14438593 0.020707287
0.17988822 -0.05354242 -0.100657284 -0.085518874 -0.095972195 -0.13255826 -0.1735438 -0.12867644
-0.009421058 0.09278992 0.083605595 0.046773367 -0.12247763 -0.0125196995 0.05347361 0.045928676
-0.058220778 0.15808098 -0.05564227 -0.0014602537 -0.022257974 0.12389403 0.12118934 0.019153358
0.0623528 0.15658793 -0.004471168 0.11941147 0.004369511 0.07873777 0.08744666 -0.16939327
0.014950778 -0.1675144 0.14216606 -0.050074317 -0.14506432 -0.043131392 -0.005257081 -0.115444764
0.019228961 -0.13079974 0.20592576 -0.19252886 -0.0541395 0.02277703 0.05900606 -0.14535509
-0.022803867 0.045352176 0.1535647 0.15855253 -0.12506771 -0.07449777 -0.06666253 0.0074758567
-0.03270662 0.119549476 0.011745835 0.07125324 0.17510262 0.15986376 0.15460671 -0.20109539
0.1006397 -0.1415291 0.0875382 -0.017224722 -0.21823265 -0.0720673 -0.12724768 -0.0787476
-0.0030392758 0.09433692 -0.0060331877 0.0069588395 0.06898015 -0.17240529 -0.1411696 0.18980226
0.09396356 0.1437079 0.051769435 0.012154025 -0.18163052 -0.12299578 0.067987904 -0.2124804
-0.19106188 -0.17148077 0.12010972 -0.15366296 0.009226903 -0.150751 -0.005732352 0.009568803
0.1619926 -0.22670625 -0.22693981 -0.041294172 0.09952109 -0.13994652 0.046286378 0.13058513
-0.14756617 -0.12167035 -0.1861901 0.13247958 0.05744857 0.16741371 0.12813595 0.049045775
0.18166672 0.062155344 -0.16201389 0.077399865 0.10208013 -0.016038323 -0.049407534 -0.17144884
-0.05922951 0.13897663 0.070662655 -0.061632633 -0.04026799 -0.12063371 -0.04381894 0.1048142
0.06866876 -0.13285178 -0.081092656 -0.016119795 0.010918467 0.06329362 0.13700838 0.054622516
0.076787695 0.083228715 -0.07679541 0.00046680894 -0.02236947 0.18653628 0.11742784 -0.027390577
-0.06377492 -0.056446142 0.052638855 0.09700175 0.056612454 -0.03379014 0.13678001 0.009419107
-0.061201107 0.002200385 -0.019413592 0.06808948 -0.14819977 -0.06753971 0.078186825 -0.11037769
0.119767025 0.06669899 -0.11815568 -0.087994486 -0.03238478 0.10722964 -0.05564295 -0.015201808
0.016813979 -0.09998391 -0.15226988 -0.1216475 0.060273763 -0.05142613 -0.028144928 -0.084896185
0.13376576 -0.089233816 0.03823927 -0.11971118 -0.007813292 -0.020314276 -0.026405165 -0.07183999
0.075037204 -0.06313446 0.15661986 -0.04392329 0.0034316608 -0.13622458 -0.0035641142 0.13010748
-0.020148462 0.004672811 0.097088784 -0.08899996 0.14986986 0.016143166 0.12366689 0.16665162
-0.06785608 0.0137781715 -0.013860914 0.104400866 0.11238121 0.057016965 0.12826145 -0.23434591
0.10166475 -0.15692668 0.01011799 0.1355414 -0.04679119 -0.04451742 0.073066056 0.18756263
-0.041778777 -0.018139273 -0.10012118 -0.17595911 0.015306732 -0.07531406 -0.0042952984 0.12527004
-0.14798108 -0.07456446 0.037398424 0.0071774824 0.07121845 -0.015175841 0.04998566 0.0609081

bias f4 [10]
00000000: 0bf8 35be 241a c43c 9049 6f3d 2c2d 4a3d
00000010: 773d ad3d a59b e6ba 8b78 233e 5d37 a33c
00000020: dc11 27bd e25f 173c
-0.17770402 0.023938246 0.058419764 0.049359486 0.08458989 -0.0017593993 0.15963952 0.01992386
-0.040788516 0.009239169
