DeepLearningDemo/models/jingxin_3.pth (torch, 588127 bytes, 10 tensors)

weight f4 [32, 3, 5, 5]
0	0xbbf7166c	-0.0075405147
1	0x3dd329cc	0.103107065
2	0xbd4c2bae	-0.049846344
3	0xbda3118d	-0.07962332
4	0x3ce15bcf	0.027509598
5	0xbd3f692e	-0.046731167
6	0xbdbcaf31	-0.092131026
7	0x3d86e9a9	0.06587536
8	0x3d99bfbd	0.07507274
9	0x3cee4eb4	0.029090263
10	0x3d56b410	0.052417815
11	0x3dfd6369	0.123724766
12	0x3e178443	0.14796548
13	0x3d99ea62	0.07515408
14	0x3c513dc9	0.012771078
15	0x3ccb7324	0.024835177
16	0xbd5ba010	-0.053619444
17	0xbd98bbcb	-0.07457694
18	0x3c98b14c	0.01863923
19	0xbdacfa25	-0.08446149
20	0xbd3302c3	-0.043703806
21	0x3d2e6188	0.04257348
22	0xbdc85916	-0.09782617
23	0x3debbe9d	0.11510966
24	0xbdbdce75	-0.09267894
25	0x3d812c64	0.06307295
26	0x3db74812	0.08949293
27	0xbd92012a	-0.07129128
28	0xbda2e4fb	-0.07953831
29	0xbd58f38f	-0.05296665
30	0xbc6d7e73	-0.01449548
31	0xbdb0be6d	-0.08630071
32	0x3ddb2fa9	0.1070245
33	0xbd3965ca	-0.04526309
34	0x3d3f140e	0.046649985
35	0xbccfff29	-0.025390225
36	0xbdb9779b	-0.09056016
37	0x3c8b943a	0.017038453
38	0x3e04d3f6	0.12971482
39	0x3cb1f4e7	0.021723224
40	0x3dcb01b1	0.09912432
41	0x3b3eec14	0.0029132413
42	0xbd91ab47	-0.07112747
43	0x3d4f48e0	0.05060661
44	0x3d9d8a28	0.07692367
45	0xbdf1f869	-0.118149586
46	0xbdfe0d13	-0.124048375
47	0x3c1ef76a	0.009702543
48	0xbc936fb7	-0.017997606
49	0x3d1b5dd3	0.037931275
50	0xbd4686c8	-0.04846838
51	0xbcbb30d8	-0.022850439
52	0xbcb973b3	-0.022638177
53	0xbd9df00b	-0.077118
54	0xbdd8756f	-0.10569274
55	0x3cd84539	0.026400195
56	0xbde4ed48	-0.1117807
57	0x3d69f148	0.05711487
58	0xbc7b730d	-0.015347254
59	0x3dbf1046	0.09329276
60	0x3d0ff3ee	0.03514474
61	0xbd8ec0fa	-0.06970401
62	0x3df2c605	0.118541755
63	0x3d144cfc	0.03620623
64	0x3cdd096d	0.026982034
65	0xbd133104	-0.035935417
66	0x3b175959	0.0023094027
67	0xbdb48a89	-0.08815486
68	0xbd658bbd	-0.056041468
69	0x3c373423	0.011181864
70	0x3d8a2143	0.067446254
71	0xbd147077	-0.036240067
72	0x3ddcb3b3	0.107764624
73	0x3dc4e5e3	0.0961416
74	0xbd5f617c	-0.054536328
75	0xbdc6a951	-0.09700263
76	0xbd8849f9	-0.06654734
77	0x3c8d4aaf	0.017247526
78	0xbbbb3b90	-0.0057138875
79	0x3c4ed9ed	0.0126252
80	0x3dc52ff5	0.09628288
81	0xbd45a430	-0.048252285
82	0x3c3e6fd1	0.011623339
83	0xbd805ac6	-0.06267314
84	0x3d0320ff	0.03201389
85	0x3c6b26ef	0.014352544
86	0xbe05d04f	-0.13067745
87	0xbb6bfebf	-0.0036009995
88	0xbdb8a4ba	-0.09015794
89	0xbd5bf1c2	-0.053697355
90	0x3d183dee	0.037168436
91	0x3c01d813	0.007925051
92	0x3dda3574	0.106547266
93	0x3de648b7	0.11244338
94	0xbd9ba27c	-0.07599351
95	0xbc83b741	-0.016078593
96	0x3d018424	0.03162016
97	0xbd93f6ec	-0.07224831
98	0x3de79d08	0.11309248
99	0x3d3bf8e8	0.045891672
100	0xbdfcafd5	-0.12338225
101	0xbd178b37	-0.036998
102	0xbdf7e26a	-0.12103732
103	0xbd7b7ab7	-0.061396327
104	0x3dbc7030	0.092010856
105	0x3d4a9c7c	0.04946564
106	0xbcd109df	-0.025517402
107	0x3ddced4b	0.107874475
108	0xbd2fad57	-0.04288992
109	0xbe000188	-0.12500584
110	0x3c27933a	0.010227973
111	0x3cbdcfe8	0.023170426
112	0xbc10048b	-0.008790146
113	0xbde913e6	-0.113807485
114	0xbd195910	-0.037438452
115	0x3cbe5f7f	0.023238895
116	0x3df4ad3b	0.119471036
117	0xbd8b6ce3	-0.06807878
118	0x3d1edbef	0.038783964
119	0x3dba1f99	0.09088058
120	0x3dc0bcad	0.09410987
121	0xbd359a25	-0.044336457
122	0xbbb59811	-0.0055418094
123	0x3cc73d20	0.024321139
124	0x3c905902	0.017620567
125	0x3dbfb779	0.093611665
126	0x3d6e9abe	0.058253042
127	0x3da5e909	0.081010886
128	0x3dcbd6ab	0.09953054
129	0xbda5142a	-0.080604866
130	0x3dc287ee	0.09498583
131	0x3da0461d	0.07825873
132	0xbd3561d4	-0.04428275
133	0x3c304ca5	0.010760461
134	0xbc423e2f	-0.011855646
135	0xbdabc884	-0.08387855
136	0x3dc8c4c0	0.09803152
137	0xbd6e9f20	-0.058257222
138	0xbd71aaa8	-0.05900064
139	0x3dc02d6e	0.09383665
140	0xbc60f0d2	-0.013729291
141	0xbcb1a955	-0.02168719
142	0x3c970324	0.018434115
143	0x3d0b869c	0.03406392
144	0x3d0ee60d	0.034887362
145	0x3dc73c33	0.09728279
146	0x3ca47c79	0.020078884
147	0x3dc87934	0.09788743
148	0x3d16f258	0.03685221
149	0xbccdd03c	-0.025123708
150	0xbd0c69e4	-0.034280673
151	0x3c99d587	0.018778576
152	0x3bbbab82	0.0057272324
153	0x3e12bf08	0.14330685
154	0x3e3d6d5a	0.18498746
155	0x3bf7b23d	0.0075590895
156	0xbd47bb65	-0.048762698
157	0x3d9b8563	0.07593801
158	0xbd3f332c	-0.04667966
159	0xbd667afc	-0.05626963
160	0x3d614377	0.05499598
161	0x3c803fd0	0.015655428
162	0x3d932873	0.071854495
163	0xbdc7b7ed	-0.09751878
164	0xbd9b256b	-0.07575496
165	0x3cbb6444	0.022874959
166	0xbc44648b	-0.011986862
167	0xbca7a0c7	-0.020462407
168	0x3cd76be1	0.026296558
169	0xbde05391	-0.10953439
170	0x3d642e2b	0.05570809
171	0xbd0e58fc	-0.03475283
172	0xbd6638b6	-0.056206428
173	0x3d4f874e	0.050666146
174	0x3d96c56e	0.073618755
175	0x3db89ac1	0.09013892
176	0xbe1ba5dc	-0.15199989
177	0xbdb974f8	-0.09055513
178	0xbdfeca1a	-0.124408916
179	0x3dbe4e0e	0.092922315
180	0xbdd37bbd	-0.103263356
181	0xbdd741e9	-0.10510618
182	0xbe297282	-0.16547588
183	0xbe04da49	-0.12973894
184	0x3daeed4f	0.08541357
185	0xbd039ae8	-0.032130152
186	0xbe31183c	-0.17294401
187	0xbd835f66	-0.0641468
188	0xbda1d393	-0.07901683
189	0xbdd63e4f	-0.10461103
190	0xbe125a30	-0.14292216
191	0xbd1a6f29	-0.037703667
192	0x3d8354e2	0.064126745
193	0xbda74c81	-0.08168889
194	0xbe1179ea	-0.14206663
195	0xbcb825a7	-0.022478892
196	0xbde0709b	-0.10958978
197	0x3bcf1052	0.006319084
198	0x3db471b0	0.08810747
199	0x3d1224a8	0.03567949
200	0x3d8bb76e	0.06822096
201	0xbddb90cb	-0.107209764
202	0xbdd27d93	-0.10277858
203	0x3abcb2d7	0.001439656
204	0x3df289e8	0.1184271
205	0x3cfee90d	0.031116987
206	0x3ca1c248	0.01974596
207	0xbe018e64	-0.12651974
208	0x3d47e420	0.04880154
209	0x3db6a606	0.08918385
210	0xbd3c16e2	-0.04592026
211	0xbe04c0e4	-0.12964207
212	0x3d827ec6	0.06371836
213	0xbdfee2ac	-0.12445578
214	0xbd3ed088	-0.04658559
215	0xbdae0783	-0.084975265
216	0xbe06f207	-0.13178264
217	0xbc975473	-0.018472886
218	0x3d5da625	0.054113526
219	0xbdf44d1b	-0.11928769
220	0xbc9beeec	-0.019034825
221	0xbca823aa	-0.020524818
222	0xbd4606a9	-0.048346195
223	0xbcc74963	-0.024326986
224	0x3db7a614	0.08967224
225	0xbc009699	-0.007848405
226	0x3db00707	0.0859509
227	0xbdaeee14	-0.085415035
228	0xbdcdffb5	-0.10058538
229	0x3bc0b3fb	0.0058808303
230	0xbd47e84f	-0.04880553
231	0x3d0dcbed	0.034618307
232	0xbc7355cd	-0.0148519995
233	0xbdc9e3a9	-0.09857876
234	0x3db7e235	0.089786924
235	0x3da7f7fa	0.08201595
236	0xbc085b48	-0.008322544
237	0xbcb52eac	-0.022116981
238	0x3c6c6ee6	0.014430737
239	0xbdd839b5	-0.10557882
240	0xbd69c0b5	-0.057068545
241	0xbdee4bbe	-0.116355404
242	0x3b7411e1	0.0037242102
243	0xbccbd4b2	-0.024881694
244	0xbd3ded3b	-0.04636882
245	0xbdd17b77	-0.10228627
246	0x3de08ff1	0.10964955
247	0x3d9b9655	0.07597033
248	0x3db9f226	0.09079389
249	0x3dfbe694	0.12299839
250	0xbd45a741	-0.04825521
251	0x3da1ced1	0.07900775
252	0xbc808419	-0.01568799
253	0xbcd27e04	-0.025694855
254	0x3d847c85	0.06469063
255	0x3bf88021	0.0075836335

bias f4 [32]
0	0x3cd11ded	0.025526965
1	0xbe4b9f01	-0.19884874
2	0x3cf9899b	0.030461123
3	0xbd9f4bf1	-0.077781565
4	0x3e1ca40e	0.15296957
5	0x3e2859fd	0.16440578
6	0x3e692026	0.2276617
7	0xbe506af8	-0.20353305
8	0xbd92b30c	-0.07163057
9	0xbe136ca2	-0.14396909
10	0xbbc3aa71	-0.005971246
11	0xbdb3fa12	-0.087879315
12	0xbd9bb51b	-0.076029025
13	0xbd372a80	-0.044718266
14	0xbd84b32d	-0.064794876
15	0x3e282b84	0.1642285
16	0xbd0a13f1	-0.033710424
17	0xbd99d81e	-0.07511924
18	0xbe26b8e5	-0.16281469
19	0xbe65da52	-0.22446564
20	0x3e4e6ebd	0.20159431
21	0xbe2bccf4	-0.16777402
22	0xbded89e1	-0.11598564
23	0x3d8807e5	0.06642131
24	0x3c36b953	0.011152583
25	0xbdb16190	-0.08661187
26	0x3d241ac1	0.040064577
27	0xbcd962af	-0.026536314
28	0x3e68a753	0.22720079
29	0x3b0e5ef2	0.0021724072
30	0xbe05e5a5	-0.13075884
31	0xbda1c918	-0.07899684

weight f4 [32, 32, 5, 5]
0	0x3ce8cac9	0.028417008
1	0xbc96c53f	-0.018404601
2	0x3c9e9a43	0.019360667
3	0xbd0fe2eb	-0.035128515
4	0x3c788bb6	0.015170028
5	0x3c5eb52b	0.0135929985
6	0x3cdc1c0d	0.026868844
7	0x3c2bdeef	0.010490163
8	0x3c9a8fe4	0.01886744
9	0xbd0cd8d4	-0.03438647
10	0xbce377ad	-0.027767027
11	0xbd1335f7	-0.035940137
12	0xbcf89aa0	-0.030347168
13	0x3c171cac	0.0092231445
14	0xbd070389	-0.032962356
15	0xbbb29b1d	-0.00545062
16	0xbcb14106	-0.02163745
17	0x3cc99b5d	0.024610216
18	0x3c973109	0.018455999
19	0xbb3dce15	-0.0028961946
20	0xbc0aa8d8	-0.008463107
21	0xbb64ed5c	-0.0034931516
22	0xbcdec58f	-0.027193813
23	0x3c8d1f48	0.01722683
24	0xbd0655df	-0.032796737
25	0xbcaa8de9	-0.020819621
26	0xbd192c9c	-0.03739606
27	0x3c424098	0.011856221
28	0x3d01875e	0.031623237
29	0xbced047b	-0.0289328
30	0xbc96d05e	-0.018409904
31	0x3b57c82f	0.0032925715
32	0x3d0927a9	0.03348509
33	0xbcce8f74	-0.025214888
34	0xbcb9c4a2	-0.02267677
35	0x3c14429e	0.009049086
36	0x3b92637f	0.0044674273
37	0xbc6e7101	-0.014553309
38	0x3d0a5ddb	0.033780914
39	0x3c8b4893	0.01700238
40	0x3b46c12b	0.003032754
41	0x3cbfeb8c	0.023427747
42	0xbc26a03c	-0.010170039
43	0xbc906b02	-0.01762915
44	0x3d10d644	0.03536059
45	0x3c9dda49	0.019269126
46	0x3cca884a	0.02472319
47	0x3cc19e35	0.02363501
48	0x3ca2cc57	0.019872827
49	0x3bd348e0	0.0064478964
50	0x3c383629	0.011243382
51	0xbc9de399	-0.019273566
52	0x3cca1d2c	0.024672113
53	0x3cc8d203	0.024514204
54	0xbb272078	-0.002550153
55	0xbc6a0d45	-0.01428539
56	0xbc39bd48	-0.011336632
57	0x3c16f157	0.009212813
58	0xbd18ae2c	-0.03727548
59	0xba83c9e7	-0.0010054678
60	0xbb6622c9	-0.0035115948
61	0xbc2dd14a	-0.01060898
62	0xba77d536	-0.0009454073
63	0xbd1e97ca	-0.038718976
64	0xbd000bea	-0.031261362
65	0x3c0d3813	0.008619326
66	0xbcb58827	-0.022159649
67	0xbbada4ef	-0.0052992026
68	0xbd2e72df	-0.04259002
69	0xbcf2206d	-0.029556477
70	0x3b9c1ec1	0.0047644083
71	0xbceb65bc	-0.028735034
72	0xbd2bbcab	-0.041927975
73	0xbc9841ba	-0.018586028
74	0x3cab51cb	0.020913025
75	0x3c8f93bb	0.017526498
76	0x3cd033bc	0.025415294
77	0xbcbf93a0	-0.023385823
78	0x3cc75a9a	0.024335194
79	0x3caf361e	0.02138811
80	0xbc00c613	-0.007859725
81	0xbc62473c	-0.013810929
82	0xbcdf207d	-0.027237171
83	0x3cb91aad	0.022595728
84	0xbc2b3ad4	-0.010451037
85	0x3d148368	0.03625813
86	0xbcff746b	-0.031183442
87	0x3d03f0db	0.03221212
88	0xbd037636	-0.032095157
89	0xbbe67223	-0.007032649
90	0x3b286a02	0.0025697951
91	0x3d09b7a7	0.03362241
92	0xbcf16838	-0.02946864
93	0x3c70ab73	0.014689314
94	0x3ce5b8b1	0.02804217
95	0xbd06735f	-0.03282487
96	0xbb3c6e24	-0.0028752172
97	0xbc2d26fc	-0.010568377
98	0x3c70663d	0.014672813
99	0x3cd95847	0.026531352
100	0x3d05272a	0.032508053
101	0x3d099583	0.03358985
102	0xbd1433fb	-0.036182385
103	0x3c1b99f1	0.009497152
104	0x3d07d987	0.033166435
105	0x3bf3f2c0	0.0074447095
106	0xbc52497c	-0.012834903
107	0xbd085f35	-0.03329392
108	0xbb66559a	-0.0035146237
109	0xbc84a745	-0.016193042
110	0xbcd4d994	-0.025982656
111	0x3bf10b82	0.007356108
112	0xbc251589	-0.010075935
113	0xbd22bb34	-0.039729312
114	0xbb3f68a3	-0.0029206655
115	0xbcbd315e	-0.02309483
116	0xbd007502	-0.031361587
117	0xbcca731c	-0.024713092
118	0x3b25f421	0.0025322514
119	0x3cd57944	0.0260588
120	0xbd1c2cb9	-0.03812859
121	0xbd0366b5	-0.03208037
122	0xbaea3e4d	-0.001787135
123	0x3b4253a1	0.0029651897
124	0xbc8c8ba4	-0.01715643
125	0x3c7a4c73	0.015277016
126	0x3af0f30b	0.0018382979
127	0xbc263fbd	-0.010147032
128	0xbcea2ae0	-0.028584898
129	0xbb155c0a	-0.0022790455
130	0x3c61b0bf	0.01377505
131	0xbc8e97fe	-0.01740646
132	0xbc573f14	-0.013137598
133	0xbc884fbe	-0.016639587
134	0x3cfdf96f	0.031002728
135	0x3d0ef2c2	0.03489948
136	0x3ca1df48	0.01975979
137	0xb9836c49	-0.00025066946
138	0x3a8eadc8	0.0010885531
139	0xbcf54e4f	-0.029944567
140	0x3c8edb0b	0.017438432
141	0xbd22d471	-0.03975338
142	0xbbf64978	-0.0075160824
143	0xbd06b491	-0.032887045
144	0xbcaa3d07	-0.020781053
145	0xbcb821e5	-0.0224771
146	0xbd0f7ea6	-0.03503289
147	0xbd24bc2d	-0.04021852
148	0xbd1a40c7	-0.037659433
149	0xb9b70376	-0.0003490706
150	0x3d205e31	0.039152328
151	0x3cbd1e08	0.02308561
152	0x3c83599c	0.01603394
153	0x3981cf0b	0.00024759056
154	0x3c77ffe2	0.015136691
155	0x3b9f286e	0.0048571145
156	0xb9d0e4ce	-0.00039843324
157	0xbc89c834	-0.016819097
158	0xbd1c9c56	-0.03823503
159	0x38805fad	6.1213366e-05
160	0x3c269a7f	0.010168671
161	0x3c1f50a2	0.009723814
162	0xbc277ae0	-0.010222167
163	0x3c6bff86	0.014404183
164	0x3c1a262d	0.009408516
165	0xbd18bb0c	-0.037287757
166	0x3c75dc1b	0.0150060905
167	0xbd04a653	-0.03238518
168	0xbd3f1f2a	-0.04666058
169	0xbb7b7ea9	-0.0038375056
170	0xbd17ae09	-0.037031207
171	0x3c7e18b1	0.015508817
172	0xbd191e64	-0.0373825
173	0xbcd3fa12	-0.025876079
174	0x3cc92864	0.024555393
175	0xbce90dbf	-0.028448937
176	0xbc8de3b0	-0.017320484
177	0xbcde0070	-0.027099818
178	0x3c4fb929	0.012678423
179	0xbc3e356d	-0.011609417
180	0xbc200e8c	-0.009769093
181	0x3b86a0c6	0.004108521
182	0xbcb5c33b	-0.02218782
183	0x3b3c4303	0.0028726466
184	0x3c85c815	0.016330758
185	0xbd2a68dd	-0.04160391
186	0xbc9b6030	-0.018966764
187	0x3ca711e1	0.020394268
188	0xbd0da5f1	-0.034582082
189	0xbcc05310	-0.023477107
190	0xbd1c93d2	-0.03822691
191	0xbd25eaf8	-0.040507287
192	0x3ca5ab45	0.02022327
193	0x3c788795	0.015169044
194	0x3ca4a039	0.020095931
195	0xbcd69fd8	-0.026199266
196	0xbc45f72f	-0.012082859
197	0xbc867ece	-0.016417887
198	0x3ca7cf19	0.020484494
199	0xbcdc3407	-0.026880277
200	0x3d024c7b	0.03181122
201	0x3b0c2d65	0.0021389362
202	0x3c11b2af	0.008892699
203	0xbcca6c07	-0.024709715
204	0xbcab9b39	-0.02094804
205	0x3c56be79	0.013106936
206	0x3c97a2ef	0.01851031
207	0x3b3be04f	0.0028667634
208	0x3ccd3022	0.025047366
209	0x3c8236e3	0.015895313
210	0xbc06573f	-0.008199512
211	0xbc9d28b1	-0.019184442
212	0x3c9b5cdf	0.018965183
213	0xbb9e7a0a	-0.0048363255
214	0xbbf9ae7f	-0.0076196785
215	0x3c8aa6d4	0.016925253
216	0xbc5d9a63	-0.013525578
217	0xbcdac6f5	-0.026706198
218	0x3b8e096d	0.0043346197
219	0x3cc5f5fc	0.024165146
220	0x3c0c094a	0.008547137
221	0xbc8c676f	-0.017139165
222	0xbb50bfca	-0.0031852596
223	0xbc6ed23c	-0.014576491
224	0x3c641ce6	0.013922906
225	0xbbc52a20	-0.0060169846
226	0x3c7beef2	0.015376793
227	0xbc3f0d99	-0.011660957
228	0xbc7766ac	-0.0151001625
229	0x3b99b8cc	0.004691219
230	0xbc073b65	-0.008253907
231	0x3c18b29b	0.009319927
232	0x3bfe406f	0.007759146
233	0xbb95d6e5	-0.0045727366
234	0xbcd43f5c	-0.025909118
235	0xbc64a08c	-0.013954293
236	0xbcc8a71f	-0.024493752
237	0xbbf2bc9d	-0.0074077384
238	0x3d1a78bf	0.03771281
239	0xbcc683ea	-0.024232823
240	0xbcdb74ee	-0.026789155
241	0x3d16c83b	0.03681205
242	0xbcb97bc1	-0.022642018
243	0x3d170e12	0.036878653
244	0xbca5a0c0	-0.020218253
245	0x3d10d2f5	0.035357434
246	0x3d17d76d	0.03707068
247	0xbcbefa5b	-0.023312738
248	0x3cfdb8ce	0.03097191
249	0x3d0665be	0.032811873
250	0xbc4b13f8	-0.012394898
251	0xbc34bed5	-0.011031826
252	0x3b3356f8	0.002736507
253	0x3be87d26	0.007094997
254	0xbbfc1fab	-0.007694205
255	0xbba60d58	-0.0050675087

bias f4 [32]
0	0xbc91ccb5	-0.017797807
1	0x3d3d9d06	0.046292327
2	0xbd60e17d	-0.054902542
3	0xbcef7b8c	-0.029233716
4	0xbc802d59	-0.015646623
5	0xbcc24557	-0.023714704
6	0xbcb10ce9	-0.021612601
7	0xbcd5e031	-0.02610788
8	0xbd3a9c28	-0.04555908
9	0xbdc6474c	-0.096815675
10	0xbd43308b	-0.047653716
11	0x3d0baae1	0.03409851
12	0x3c5dfe3e	0.013549386
13	0xbd042070	-0.032257497
14	0x3cb77688	0.022395387
15	0xbdac5afe	-0.08415793
16	0xbd051db4	-0.03249903
17	0xbce11b82	-0.027478937
18	0xbd0fdfd3	-0.035125565
19	0x3d9d1d41	0.07671595
20	0xbd09d6c3	-0.03365208
21	0xbc0f71c9	-0.008755156
22	0x3a1ffe76	0.0006103286
23	0xbd2eab4d	-0.042643834
24	0x3c94d711	0.018168958
25	0xbd2ff5dc	-0.04295908
26	0xbcf02fd2	-0.029319678
27	0x3d316f3a	0.043318965
28	0x3ce40145	0.027832637
29	0x3ccdf493	0.025141036
30	0xbc85b261	-0.01632041
31	0xbd7a7e05	-0.061155338

weight f4 [64, 32, 5, 5]
0	0x3c2c8536	0.010529807
1	0x3c182f51	0.009288625
2	0xbd25a9ac	-0.040445015
3	0xbd0df45b	-0.034656864
4	0xbd02f853	-0.0319751
5	0xbca5fa44	-0.020260938
6	0x3bc4b6f6	0.006003256
7	0x3d05e646	0.03269031
8	0xbc31c47b	-0.010850067
9	0x3c8e37c4	0.017360575
10	0xbbcba2a3	-0.006214456
11	0x3ceb9006	0.0287552
12	0xbc7664f4	-0.015038718
13	0x3ce5ee5d	0.028067762
14	0x3ced14b1	0.02894053
15	0xb9b12db9	-0.00033794137
16	0x3d00051d	0.031254876
17	0x3c967dff	0.018370626
18	0x3bab550a	0.0052286433
19	0x3cec63e8	0.028856233
20	0x3d061148	0.032731324
21	0x3bada7e6	0.005299556
22	0xbc946325	-0.018113682
23	0xbcd7087a	-0.02624916
24	0x3cbccc89	0.023046749
25	0xbc2dd958	-0.010610901
26	0x3c57969e	0.0131584685
27	0x38d87822	0.00010322059
28	0x3caad874	0.020855166
29	0xbbcb2fce	-0.006200767
30	0xbc862a88	-0.016377702
31	0x3ca5b0db	0.020225933
32	0xbc871a0d	-0.016491914
33	0x3c0b8241	0.008514942
34	0xbc77d12c	-0.015125554
35	0x3d0423ea	0.032260813
36	0x3d093535	0.033498008
37	0xbc4d84e9	-0.012543895
38	0xbcbd97f5	-0.023143748
39	0x39e741d1	0.0004410879
40	0x3ce9b944	0.028530724
41	0x3c771bb2	0.015082287
42	0x3b8e6a59	0.0043461737
43	0xbc550d77	-0.013003699
44	0x3c283b34	0.010268021
45	0x3af4a556	0.0018664997
46	0xbcc283e5	-0.023744533
47	0x3bb28708	0.005448226
48	0xbcd070bc	-0.025444381
49	0xbc8394d9	-0.016062187
50	0xbcbab87f	-0.022793053
51	0xbc91ee59	-0.017813848
52	0x3b3fb84c	0.0029254137
53	0x3a1641ad	0.00057318324
54	0xbd211f0b	-0.039336246
55	0xbca1cd27	-0.019751145
56	0xbcd0378b	-0.02541711
57	0x3c9a5098	0.018837258
58	0x3c7f1044	0.015567843
59	0xbc4e26a7	-0.012582458
60	0xbc9f5514	-0.019449748
61	0xbc390c7e	-0.011294482
62	0xbc8ef790	-0.017452031
63	0x3a62f896	0.0008658258
64	0x3d059426	0.03261199
65	0x3ab86461	0.0014068001
66	0x3d0f8060	0.035034537
67	0x3cdcc0b1	0.026947351
68	0x3d280ce2	0.04102791
69	0x3c4a7f94	0.012359519
70	0x3c77ba76	0.015120139
71	0x3c34c85d	0.011034098
72	0x3cf0e279	0.029404866
73	0xbc89a42b	-0.016801914
74	0xbcdba960	-0.026814163
75	0xbd2949f1	-0.04133028
76	0x3c9dcb25	0.019261906
77	0x3c34872c	0.011018556
78	0xbcfe5e92	-0.031050954
79	0xbd3adf6e	-0.045623235
80	0xbbf51f04	-0.007480504
81	0xbc39f1c2	-0.011349143
82	0x3bccb10c	0.0062466916
83	0x3c201234	0.009769965
84	0xbc013edd	-0.007888523
85	0x3b336605	0.002737404
86	0xbb6d88df	-0.0036244912
87	0x3c507a4f	0.012724473
88	0xbcb9375f	-0.02260941
89	0x3d2473d7	0.040149536
90	0x3d3b9bc7	0.045802858
91	0x3c649ae8	0.013952948
92	0xbb1496ae	-0.002267282
93	0xbcf636c1	-0.030055406
94	0xbc54cf01	-0.012988807
95	0xbd099195	-0.033586103
96	0x3c51bc23	0.012801203
97	0xbd26671d	-0.04062568
98	0x3c79e323	0.0152519075
99	0xbd277b57	-0.04088911
100	0xbcd81b71	-0.026380273
101	0xbc86c7d3	-0.016452705
102	0x3d041f35	0.032256324
103	0xbd06ade7	-0.03288069
104	0xbd23db63	-0.040004145
105	0xbc94e77a	-0.018176783
106	0x3d10e141	0.03537107
107	0x3d208f33	0.039199065
108	0x3d107f04	0.03527738
109	0xbc70130c	-0.014652979
110	0x3d10b5bd	0.03532957
111	0x3d0d2567	0.034459498
112	0x3b2b47a1	0.0026135223
113	0x3c84892b	0.016178688
114	0x3ccdf67c	0.025141947
115	0xbb1601f3	-0.0022889345
116	0x3c9dd086	0.01926447
117	0x3b647e3b	0.0034865278
118	0xbcca2298	-0.024674699
119	0xbb96decd	-0.0046041966
120	0x3b597f50	0.0033187456
121	0x3c1f86d4	0.009736735
122	0xbcd8662a	-0.026415903
123	0xbc23c97c	-0.009996768
124	0x3be70411	0.0070500453
125	0xbd1d179f	-0.038352605
126	0xbc98e1c1	-0.018662335
127	0xbd09d6cd	-0.033652116
128	0x3bd17efc	0.0063933115
129	0x3d05095b	0.032479625
130	0x3cbf47a1	0.023349585
131	0x3cecaa5e	0.028889831
132	0x3c5e11cf	0.013554051
133	0xbc0d03e1	-0.008606882
134	0x3bacadad	0.005269727
135	0x3c34e520	0.011040956
136	0xbc5e03d7	-0.01355072
137	0xbc2938a6	-0.010328447
138	0xbce729de	-0.028218206
139	0x3be88efb	0.0070971227
140	0xbc985717	-0.018596215
141	0x3c72492b	0.014787952
142	0x3d23bdb1	0.039975826
143	0x3d1ead99	0.038739774
144	0x3cbf4d1c	0.023352198
145	0x3c6336dd	0.013868061
146	0x3d093558	0.03349814
147	0x3cd714b1	0.026254984
148	0xba0bad22	-0.0005328228
149	0x3d0097e5	0.031394858
150	0xbb4ff4cb	-0.0031731601
151	0xbcc697c7	-0.024242295
152	0x3bfdd09e	0.0077458164
153	0x3cea5a03	0.028607374
154	0xbb9ff275	-0.004881198
155	0x3d0a279a	0.033729173
156	0xbb0c84a7	-0.0021441372
157	0xbcbfed51	-0.023428591
158	0x3d123091	0.035690848
159	0xbcbf419f	-0.02334672
160	0x3c5ab9c5	0.013349955
161	0xbc2fe838	-0.010736518
162	0x3c89f2e5	0.016839454
163	0x3c698fba	0.0142554585
164	0x3c8ff6b4	0.017573692
165	0xbc95a326	-0.018266272
166	0x3c5127bb	0.01276582
167	0x3c9df302	0.019280914
168	0xbd037ff1	-0.032104436
169	0xbbfd7747	-0.0077351662
170	0x3cbd3acc	0.023099326
171	0x3d30135a	0.042987205
172	0xbc1bcf48	-0.009509869
173	0x3ceb3ca1	0.028715434
174	0x3cf1aad1	0.029500397
175	0xbc010345	-0.007874315
176	0x3c9d608a	0.019211072
177	0xbd065dde	-0.032804362
178	0xbd0d1bd9	-0.034450386
179	0xbbd5699c	-0.0065128338
180	0x3c86fd63	0.016478246
181	0xbcbd7c59	-0.023130583
182	0x3c83298c	0.016011022
183	0x3c85480a	0.016269702
184	0x3ccc1c29	0.024915772
185	0x3beaa579	0.007160839
186	0x3cefcabd	0.029271478
187	0x3d1bdf4c	0.03805475
188	0x3d1db436	0.03850194
189	0x3d0fd914	0.03511913
190	0x3d2d8d16	0.04237088
191	0x3d2886fb	0.041144352
192	0x3bc2bbaa	0.0059427815
193	0xbc05352f	-0.008130356
194	0xba531f1c	-0.0008053647
195	0xbbeed7d1	-0.007288911
196	0xbd0d6c70	-0.034527242
197	0xbcab51ca	-0.020913024
198	0xbc829956	-0.015942257
199	0x3d02c8ce	0.031929784
200	0x3c3c014d	0.0114749195
201	0xbbe663d7	-0.007030945
202	0xbb8bc795	-0.0042657354
203	0xbcfb2fec	-0.0306625
204	0x3cde4dd7	0.027136726
205	0x3c57fe40	0.0131831765
206	0xbc659c10	-0.014014259
207	0x3b85dccc	0.004085159
208	0xbc960cd5	-0.018316666
209	0xbd003a5e	-0.031305663
210	0xbcd42ad8	-0.025899336
211	0x3b793d3e	0.0038030888
212	0x3cf213e9	0.02955051
213	0xbbc1f454	-0.0059190188
214	0x3d022136	0.031769954
215	0x3d0bf3cf	0.03416806
216	0xbc68113b	-0.014164264
217	0xbc892e7f	-0.016745804
218	0xbcc7a4ba	-0.02437054
219	0x3988b24f	0.00026072792
220	0x3ccfc5f9	0.025362955
221	0xbb1a50fc	-0.0023546806
222	0xbc5dd160	-0.013538688
223	0x3cb2d021	0.02182776
224	0xbcdbda27	-0.026837422
225	0x3c0f901b	0.008762385
226	0xbce77be2	-0.028257314
227	0xbd07ab56	-0.033122383
228	0x3c0f63ff	0.008751868
229	0xbd1a78ec	-0.037712976
230	0x3cefeab8	0.029286727
231	0x3c3f95c2	0.01169342
232	0xbd1a4cba	-0.03767083
233	0xbca0d791	-0.01963404
234	0xbb7153b3	-0.003682357
235	0xbc486463	-0.012230965
236	0xbcf8cc02	-0.030370716
237	0xbb02d4a4	-0.001996317
238	0x3ceaf62a	0.028681833
239	0x3cc054d6	0.023477953
240	0xbb8d6e77	-0.004316147
241	0x3c00e0ee	0.007866127
242	0x3d4a23bc	0.049350485
243	0x3d3fdfae	0.046844177
244	0x3a91dbe8	0.0011128159
245	0x3c14a117	0.00907161
246	0xbca1effc	-0.019767754
247	0xbccec3cc	-0.025239848
248	0xbcf7b3ab	-0.03023704
249	0xbd149edc	-0.036284313
250	0xbc23dfb5	-0.010002066
251	0x3bc73eb4	0.006080473
252	0xbc10491d	-0.008806494
253	0x3ca2f8e3	0.019894069
254	0xbcd2f131	-0.025749775
255	0x3d0601ba	0.03271649

bias f4 [64]
0	0xbaa7dc43	-0.0012806732
1	0xbd3ae7d6	-0.045631252
2	0x3c8a9539	0.016916858
3	0xbcac7495	-0.021051684
4	0x3d07e2a9	0.033175144
5	0x3ca08c05	0.019598017
6	0xbd2fdbf2	-0.042934366
7	0xbcdab1bc	-0.026696078
8	0x3c1333d1	0.008984522
9	0xbc82247f	-0.015886543
10	0x3cf9e5e6	0.030505132
11	0x3cb6affb	0.02230071
12	0x3d4b8060	0.049682975
13	0xbb87d9bb	-0.0041458285
14	0x387c5a3c	6.016552e-05
15	0x3b652a63	0.0034967891
16	0x3b1dc8df	0.0024076027
17	0xbcdaaa94	-0.026692666
18	0x3be76824	0.007061975
19	0xbd18327a	-0.037157513
20	0xbadb10b4	-0.0016713352
21	0xbc9be4ae	-0.019029941
22	0xbd2f5c77	-0.04281279
23	0x3bf66a1d	0.007519974
24	0x3cf68978	0.030094847
25	0x3c7dfa35	0.015501549
26	0x38a79a80	7.9919584e-05
27	0xbc556ec1	-0.013026894
28	0x3c25171f	0.010076313
29	0x3c854cc2	0.016271953
30	0xbcc32f9f	-0.023826418
31	0xbd21c806	-0.039497398
32	0x3c86ab39	0.016439067
33	0x3c0b84d8	0.008515559
34	0x3c1f031e	0.009705333
35	0x3d124cf1	0.03571791
36	0x3d013513	0.031544756
37	0x3ca153e7	0.019693328
38	0x3d2a6c1b	0.041607004
39	0x3ce37f66	0.02777071
40	0x3ca1d2f9	0.01975392
41	0xbc47e8b9	-0.0122014815
42	0xbd4bbc7d	-0.049740303
43	0x3c352151	0.0110553065
44	0x3cd615f6	0.026133519
45	0x3d030e1a	0.03199587
46	0x3cd7a9d6	0.026326101
47	0x3cdc1680	0.026866198
48	0x3d2baf85	0.041915435
49	0xbce92ad5	-0.028462807
50	0xbcb01970	-0.021496505
51	0x3c1727fd	0.009225843
52	0xbccdec60	-0.025137126
53	0xbca8cde5	-0.02060599
54	0xbd8d3dde	-0.06896566
55	0xb89e6993	-7.553692e-05
56	0xbcd0170e	-0.025401618
57	0xbd12372e	-0.035697155
58	0x36565f94	3.1944119e-06
59	0x3ce980a1	0.028503718
60	0xbbc2c4fe	-0.0059438935
61	0x3bbf905b	0.005846066
62	0xbc35897c	-0.011080142
63	0x3c5636bd	0.013074574

weight f4 [64, 1024]
0	0x3bcc12fd	0.0062278495
1	0xbc490f84	-0.012271766
2	0x3cd176e8	0.025569394
3	0xbc92a556	-0.017901104
4	0x3aece46d	0.0018073447
5	0x3ce3ae83	0.027793175
6	0xbb559064	-0.0032587284
7	0x3c1960b6	0.009361437
8	0xbca24dc2	-0.019812468
9	0xbc1e93f3	-0.0096788285
10	0x3c8a1644	0.01685632
11	0x3d016547	0.031590726
12	0xbc1b49e7	-0.009478069
13	0xbc0559ae	-0.008139057
14	0xbcb561f1	-0.022141429
15	0x3caabfc5	0.020843396
16	0xbcf07373	-0.029351925
17	0xbb83cd27	-0.004022259
18	0xbbf0acf1	-0.007344835
19	0x3c96877e	0.018375155
20	0xbc871c05	-0.016492853
21	0xbcd64977	-0.026158078
22	0xbb643507	-0.0034821646
23	0xbcc35d69	-0.023848252
24	0xbd13f320	-0.036120534
25	0x3ca7100f	0.0203934
26	0xbcbc406c	-0.022979937
27	0x3b91f041	0.0044536893
28	0xbcfe41ff	-0.031037329
29	0xba367ea9	-0.0006961623
30	0x3cd72bf0	0.026266068
31	0xbc773220	-0.015087634
32	0x3b367148	0.0027838517
33	0x3c83a0b1	0.016067835
34	0x3bda957d	0.0066706524
35	0xbc4f1e58	-0.012641512
36	0x3b576857	0.0032868588
37	0xbcb2f503	-0.021845346
38	0xbca0ff87	-0.019653095
39	0xbc6a32b9	-0.01429432
40	0x3c94ed7c	0.018179648
41	0xbb955831	-0.0045576324
42	0x3b4076ee	0.0029367763
43	0xbcd54fd9	-0.02603905
44	0xbbcc35df	-0.006232008
45	0x3afe29e2	0.0019391144
46	0xbcf8b6b7	-0.030360563
47	0xbccd5bb2	-0.025068138
48	0x3cf23778	0.029567465
49	0x3cf937dc	0.030422144
50	0x3c86623a	0.01640426
51	0xbc9e82e3	-0.019349521
52	0x3c4b4e7d	0.01240885
53	0x3cb3cb43	0.021947509
54	0xbb9fadcd	-0.0048730136
55	0x3cc33fc3	0.023834115
56	0x3c9922bb	0.018693319
57	0xbce4f509	-0.027948873
58	0xbb81290c	-0.0039416607
59	0x3caf2992	0.021382127
60	0x3d0a65bb	0.033788424
61	0xbce98078	-0.028503641
62	0x3cfcb332	0.030847166
63	0x3c90ff82	0.01769996
64	0xbcc8afd8	-0.024497911
65	0xba43d556	-0.0007470449
66	0x3b898d14	0.004197726
67	0x3be1daef	0.006892554
68	0x3cc381d4	0.023865618
69	0x3a8ade0a	0.0010594737
70	0xba54d0fe	-0.00081183005
71	0xbc66afe9	-0.014080026
72	0xbd0a0e80	-0.033705235
73	0x3c2d2438	0.010567717
74	0xbcdd2411	-0.026994737
75	0x3ca90996	0.020634454
76	0xbc853a24	-0.016263075
77	0x3c48e127	0.012260712
78	0xbce3270f	-0.027728586
79	0xbb7f539b	-0.0038959745
80	0xbcd94325	-0.026521275
81	0x3c9b7002	0.018974308
82	0x3ce5699c	0.02800446
83	0x3ce33402	0.02773476
84	0x3ce66335	0.028123477
85	0x3ccf8ba3	0.025335139
86	0xbce5f806	-0.028072368
87	0xbc696214	-0.014244575
88	0x3d10ac2c	0.035320446
89	0xbc773e7c	-0.015090581
90	0xbd039247	-0.032121923
91	0x3cd2d98c	0.0257385
92	0x3cbaa5fe	0.02278423
93	0xbcfa5c43	-0.030561572
94	0xbcc94b29	-0.024571972
95	0x3c8e74dd	0.01738971
96	0x3ceef382	0.029168848
97	0xbca556df	-0.020183025
98	0x3ca14fa7	0.019691302
99	0xbc4af52b	-0.012387554
100	0xbb16818d	-0.0022965402
101	0xbb6f43aa	-0.0036508837
102	0xbb173323	-0.0023071251
103	0xbc1ab23c	-0.009441908
104	0xbc87f495	-0.016596118
105	0xbcd27459	-0.025690245
106	0x3c8936c5	0.016749749
107	0x3c9a499d	0.01883393
108	0x3ce4ca9c	0.027928643
109	0x3bebb007	0.007192615
110	0xba62daa4	-0.0008653796
111	0x3b75372e	0.0037416923
112	0xbc78106c	-0.015140634
113	0xbca02e90	-0.019553453
114	0x3cfd0bb8	0.030889377
115	0xbb83a7ef	-0.004017822
116	0x3a0d72da	0.00053958374
117	0xbcb19e60	-0.021681964
118	0xbc77c007	-0.0151214665
119	0x3c921594	0.017832555
120	0xbc683007	-0.014171607
121	0x3bdc0036	0.0067138923
122	0xbc285280	-0.010273576
123	0x3c0e2fb7	0.008678368
124	0x3c5c0316	0.01342847
125	0x3c5eab45	0.0135906385
126	0x3c2006aa	0.009767214
127	0x3c747497	0.014920375
128	0xbcc76798	-0.02434139
129	0x3bc30412	0.005951413
130	0xbce4f980	-0.027951002
131	0xbd060d0a	-0.03272728
132	0x3c5ed76d	0.013601166
133	0x3be55c8f	0.0069995592
134	0x3ce35d82	0.027754549
135	0x3c9bbfcb	0.019012352
136	0xbd0d39a6	-0.034478806
137	0xbc927fb2	-0.017883155
138	0x3c125a53	0.008932668
139	0x3b2b2930	0.002611708
140	0xbccf6d2c	-0.025320612
141	0xbb0a5f13	-0.0021113798
142	0xbbc1113d	-0.0058919475
143	0xbbe583bd	-0.00700423
144	0xbc33fdfc	-0.010985848
145	0x3c06496d	0.008196217
146	0x3cc2f9ed	0.023800815
147	0xbca2ab2e	-0.019857015
148	0x3cf8a2a7	0.030350996
149	0x3bc68d27	0.006059307
150	0xbc9ad40b	-0.018899938
151	0x3c2a544d	0.010396075
152	0x3c05f41a	0.008175874
153	0xbcf100f5	-0.029419402
154	0xbc65e862	-0.014032455
155	0xbc9d3aa5	-0.019193003
156	0xbaed5e02	-0.0018109682
157	0x3c09b8b0	0.008405849
158	0xbcce2be9	-0.025167422
159	0x3ce07143	0.027397757
160	0x3b147a87	0.002265604
161	0xbbbec07d	-0.0058212862
162	0x3c4a0c2e	0.012332005
163	0x3cd408c9	0.025883095
164	0x3cef2cd7	0.029196186
165	0xbc017e20	-0.007903606
166	0xbcc4c83b	-0.024021259
167	0x3bacc173	0.0052720844
168	0xbae61f7c	-0.001755699
169	0x3cc3f4c7	0.02392043
170	0x3cfe21b0	0.031021923
171	0xbc4fd826	-0.012685811
172	0xbc4fcd3c	-0.012683209
173	0xbb1b636e	-0.0023710388
174	0xbb0e533e	-0.0021717097
175	0xbc0f53fe	-0.008748053
176	0xbce4f1a1	-0.027947249
177	0xbc4d0302	-0.012512924
178	0x3c3291ec	0.010899048
179	0x3cf4fa92	0.029904637
180	0x3cbc5142	0.022987965
181	0x3b03b282	0.0020095413
182	0xbcaa7f09	-0.020812528
183	0xbcd4af3b	-0.025962463
184	0x3ad275dd	0.0016056855
185	0xbd14ced4	-0.03633006
186	0xbce4dd20	-0.027937472
187	0xbc77bcf1	-0.015120731
188	0xbc1faff6	-0.009746542
189	0xbcb34d05	-0.021887312
190	0xbb94c7e4	-0.0045404304
191	0xbccdd749	-0.02512707
192	0xbccec4c8	-0.025240317
193	0xbcca6576	-0.024706583
194	0x3c680d4a	0.014163325
195	0xbca0ceeb	-0.019629916
196	0xbc7179cb	-0.01473851
197	0x3bf37b0d	0.0074304403
198	0xbc1a24f8	-0.009408228
199	0xbc163e18	-0.009170078
200	0x3ca00d53	0.019537603
201	0xbc3eb993	-0.011640924
202	0x3d2bf1af	0.041978534
203	0xbcc0701e	-0.023490962
204	0xbb115e8b	-0.0022181596
205	0xbca9bb49	-0.020719187
206	0x3cda1246	0.026620042
207	0x3c9adbb4	0.01890359
208	0xbce18eb9	-0.027533876
209	0x3ca5223e	0.02015793
210	0x3aa9eb4f	0.0012963804
211	0xbcfc98b5	-0.030834535
212	0xbd1e89fc	-0.03870581
213	0x3c2502b3	0.010071444
214	0xbc991bc7	-0.018690003
215	0x3c2b68fc	0.010462042
216	0xbd047e1e	-0.032346837
217	0xbcfbc367	-0.030732824
218	0xbc82c421	-0.015962662
219	0x3b0b87cd	0.002129066
220	0xbb025d17	-0.0019891912
221	0xbc7c933e	-0.015415965
222	0xbc4b0558	-0.012391411
223	0xbc9f13ac	-0.01941856
224	0xbb9ff31d	-0.0048812763
225	0x3cd08749	0.025455134
226	0xbaab75e0	-0.0013081394
227	0xbbadbc08	-0.005301956
228	0xbaac058f	-0.0013124215
229	0xbd113337	-0.035449233
230	0xbcc107cc	-0.023563288
231	0xbce85b40	-0.028363824
232	0x3c9be504	0.019030102
233	0xbc13bcc7	-0.009017176
234	0xb8361140	-4.3408247e-05
235	0x3cc365f6	0.02385233
236	0x3caed734	0.021342851
237	0x3a196144	0.00058509805
238	0xbb0427d5	-0.0020165343
239	0xbbf8bb62	-0.007590697
240	0x3b606312	0.0034238738
241	0xbc841cbf	-0.016126988
242	0x3beb965d	0.0071895556
243	0x3ca3ea60	0.02000922
244	0x3ccc310c	0.024925731
245	0xbcf5cc05	-0.03000451
246	0xbcfcb0a6	-0.030845951
247	0x3c01dc09	0.007925996
248	0x3c94d566	0.018168163
249	0x3bfd86ba	0.007737008
250	0xbc4a390d	-0.0123427035
251	0xbc3e8b48	-0.011629887
252	0x3cd2b7ed	0.025722468
253	0xbc9e9dde	-0.019362386
254	0xbcd9a282	-0.026566748
255	0xbb353bb8	-0.0027654003

bias f4 [64]
0	0x3cb0bd26	0.021574568
1	0xbd065528	-0.032796055
2	0xbd3515a9	-0.04421011
3	0x3c2016ce	0.009771062
4	0x3d1701b9	0.036866877
5	0xbd052f20	-0.032515645
6	0x3c31878a	0.010835538
7	0x3cdcff3d	0.026977176
8	0x3c54fae8	0.012999274
9	0x39eb2eb7	0.00044857498
10	0xbcccdd49	-0.02500786
11	0x3ca23c4d	0.019804144
12	0x3cacb507	0.021082414
13	0xbd3b6438	-0.045749873
14	0x3d004e1b	0.031324487
15	0x39bd2bf6	0.00036081643
16	0xba984012	-0.0011615774
17	0x3ca7a86b	0.02046605
18	0x3d019565	0.031636614
19	0xbc849f5d	-0.016189272
20	0xbcc93782	-0.024562601
21	0x3cc38e5b	0.023871591
22	0xbc63af88	-0.01389683
23	0x3c929089	0.017891185
24	0xbd179bc1	-0.037013773
25	0xbb92d60b	-0.0044810823
26	0x3c883e64	0.016631313
27	0x3b59ddc2	0.003324375
28	0x3cb91517	0.022593064
29	0x3c1b5bf6	0.009482374
30	0x3d58a369	0.052890215
31	0x3cd1bedd	0.025603706
32	0xbcbbebe2	-0.022939626
33	0xbb7a2f99	-0.0038175343
34	0xbaddcae3	-0.0016921427
35	0x3c22d474	0.009938348
36	0x3c13b3da	0.009015048
37	0xbca2c660	-0.019869983
38	0x3b8f131c	0.0043662917
39	0x3bcc8af9	0.006242153
40	0x3d3fb332	0.046801753
41	0x3ce29216	0.02765755
42	0x3cdf04f0	0.027224034
43	0x3d1e63af	0.038669284
44	0x3c272382	0.010201337
45	0xbcc67cff	-0.024229525
46	0xbcf2ddaf	-0.029646723
47	0x3b996903	0.004681708
48	0xbca1ccc6	-0.019750964
49	0x3c7fe4cc	0.015618514
50	0x3b81951d	0.0039545433
51	0x3ca45f95	0.020065108
52	0xbba3db55	-0.0050005116
53	0xbcab9d45	-0.020949015
54	0xbd3e2fcc	-0.0464323
55	0x3bacebce	0.0052771335
56	0x3d0dd716	0.03462895
57	0xbbd1c6a0	-0.006401852
58	0x3b0017f7	0.0019545534
59	0x3cbda436	0.023149591
60	0xbbb03c7f	-0.0053783054
61	0xbc61a5de	-0.013772456
62	0xbbaa8e18	-0.005204927
63	0x3d0c88dc	0.034310207

weight f4 [10, 64]
0	0xbd6564c6	-0.05600431
1	0xbd28e64d	-0.041235257
2	0x3dc1c1ee	0.09460817
3	0xbdf29026	-0.118439004
4	0xbe121e2b	-0.1426932
5	0x3e3f8a50	0.18705106
6	0x3d0338e0	0.032036662
7	0xbd62d93f	-0.055382963
8	0x3d5ca24c	0.053865716
9	0xbdde4ac4	-0.10854104
10	0x3d4cea4c	0.05002813
11	0xbbf90a09	-0.0076000732
12	0xbcb1a258	-0.021683857
13	0x3e00f74b	0.12594335
14	0x3d106c38	0.035259455
15	0x3c50d4b7	0.012746028
16	0x3c8a4271	0.016877385
17	0x3c905036	0.017616373
18	0xbdd2c30a	-0.10291107
19	0x3daa7690	0.08323395
20	0xbd930222	-0.07178141
21	0x3c312d9d	0.010814098
22	0x3e12b496	0.143267
23	0x3c4ba547	0.012429542
24	0x3e25fa6a	0.16208807
25	0xbd45cae3	-0.04828919
26	0xbdbcc205	-0.09216694
27	0xbda1835c	-0.07886383
28	0xbdb9b216	-0.0906717
29	0xbdfec611	-0.12440122
30	0xbe2caac0	-0.16862011
31	0xbdec5b4c	-0.11540851
32	0xbc07d72f	-0.00829105
33	0x3dbd8c21	0.09255243
34	0x3d95e0f4	0.07318297
35	0x3d2e01f8	0.042482346
36	0xbdd92365	-0.10602454
37	0xbc1c417d	-0.009537098
38	0x3d5380f6	0.05163666
39	0x3d728e5f	0.059217807
40	0xbd854643	-0.06507542
41	0x3e1d73da	0.15376225
42	0xbd682c23	-0.056682717
43	0xbbe44956	-0.00696675
44	0xbcd8e630	-0.02647695
45	0x3dfe2209	0.124088354
46	0x3dd69b9a	0.104788974
47	0x3c9b15de	0.018931326
48	0x3d7660e8	0.06015101
49	0x3e110859	0.1416334
50	0xbba85bf9	-0.005137917
51	0x3df166c6	0.117871806
52	0xb9a085e5	-0.00030617337
53	0x3d9dd23c	0.07706115
54	0x3db17c55	0.086662926
55	0xbe20c5ff	-0.1570053
56	0x3c4a6601	0.012353421
57	0xbe0eb5ab	-0.13936488
58	0x3e093b25	0.13401468
59	0xbd5b25ac	-0.053502724
60	0xbe11d449	-0.14241137
61	0xbd2dab45	-0.042399663
62	0xbb89d5a5	-0.0042063766
63	0xbdd16946	-0.102251574
64	0x3c9d8eb3	0.019233083
65	0xbe02c5b1	-0.12770726
66	0x3e4299eb	0.19004028
67	0xbe3c92a0	-0.18415308
68	0xbd6741e8	-0.056459337
69	0x3ccfe958	0.025379822
70	0x3d5d1668	0.053976446
71	0xbe0fac8b	-0.14030664
72	0xbc6d072b	-0.014467041
73	0x3d2c34c2	0.0420425
74	0x3e115dcb	0.14195935
75	0x3e1dfcd3	0.15428476
76	0xbde8d02d	-0.113678314
77	0xbd9411cc	-0.07229957
78	0xbd7c0e55	-0.061537106
79	0x397610e2	0.00023466678
80	0xbcca09be	-0.024662849
81	0x3de3e0b2	0.111268416
82	0x3c8ab810	0.016933471
83	0x3d7fcad5	0.062449295
84	0x3e22f04a	0.15911976
85	0x3e18486b	0.14871375
86	0x3e121bd4	0.14268428
87	0xbe3f82b6	-0.18702206
88	0x3dbda8b9	0.09260697
89	0xbe0d2b0a	-0.1378595
90	0x3da660b3	0.08123913
91	0xbc920ffc	-0.017829888
92	0xbe4dde80	-0.20104408
93	0xbd8f7abc	-0.070058316
94	0xbdf77a68	-0.12083894
95	0xbd92840a	-0.07154091
96	0xbbd2c66f	-0.0064323465
97	0x3dbc2b65	0.09187964
98	0xbbfca46d	-0.007710031
99	0x3bceb1f5	0.006307835
100	0x3d7a6a12	0.061136313
101	0xbe225c49	-0.15855516
102	0xbe0a75e4	-0.13521534
103	0x3e33d256	0.17560706
104	0x3db41b4b	0.08794268
105	0x3e08ad98	0.13347471
106	0x3d28dc84	0.041225925
107	0x3c310185	0.010803585
108	0xbe2b4c28	-0.1672827
109	0xbde978ff	-0.11400031
110	0x3d898fd8	0.06716889
111	0xbe4736d3	-0.19454508
112	0xbe30238e	-0.17201063
113	0xbe220429	-0.158219
114	0x3df4a2fa	0.11945148
115	0xbe127d1a	-0.14305535
116	0x3c171fdf	0.009223907
117	0xbe1445ad	-0.14479704
118	0xbb346dec	-0.002753134
119	0x3b511516	0.0031903437
120	0x3e1881c1	0.14893247
121	0xbe5b3246	-0.21405897
122	0xbe547e6a	-0.20751348
123	0xbd295c0b	-0.041347545
124	0x3db3eb28	0.08785087
125	0xbe0d7ef8	-0.13817966
126	0x3d2922d0	0.041292965
127	0x3df33d8a	0.11876972
128	0xbe146f4d	-0.14495583
129	0xbdf2f47d	-0.11863039
130	0xbe3e827c	-0.18604463
131	0x3dfe7709	0.12425048
132	0x3d634d9f	0.055493947
133	0x3e222053	0.15832643
134	0x3df73c68	0.120720685
135	0x3d4801bc	0.04882978
136	0x3e364846	0.17801008
137	0x3d63c321	0.05560601
138	0xbe1fc083	-0.15600781
139	0x3d986573	0.07441225
140	0x3dbec6f4	0.09315291
141	0xbc819f03	-0.015822893
142	0xbd421e1b	-0.047391992
143	0xbe297663	-0.16549067
144	0xbd61ae17	-0.055097666
145	0x3e0d0268	0.13770449
146	0x3d8ffefb	0.070310555
147	0xbd57053a	-0.05249522
148	0xbd0ab2e7	-0.03386202
149	0xbdead324	-0.11466053
150	0xbd0bd3c8	-0.034137517
151	0x3dd696f1	0.104780085
152	0x3d85e9bb	0.06538721
153	0xbe039356	-0.12849173
154	0xbda30647	-0.07960182
155	0xbc633c28	-0.013869323
156	0x3b947977	0.0045310813
157	0x3d6db3f3	0.05803294
158	0x3e04bcfb	0.12962715
159	0x3d465d66	0.048428915
160	0x3d9f969f	0.077924006
161	0x3daca899	0.08430595
162	0xbda35ec6	-0.07977061
163	0x3c1d9e4a	0.009620259
164	0xbcbe87c5	-0.0232581
165	0x3e36eff7	0.17864977
166	0x3de2086d	0.11036763
167	0xbcb9f1a1	-0.022698225
168	0xbd720880	-0.059090137
169	0xbd5b969d	-0.053610433
170	0x3d4269ac	0.047464058
171	0x3dcc148f	0.09964859
172	0x3d444253	0.047914814
173	0xbcf266d1	-0.029590042
174	0x3e0dfeb2	0.1386669
175	0x3b87e24a	0.004146849
176	0xbd779d63	-0.06045283
177	0xbbce8f51	-0.0063037057
178	0xbc884442	-0.01663411
179	0x3d87f69c	0.06638834
180	0xbe16dc86	-0.1473256
181	0xbd87f586	-0.06638627
182	0x3d9b8f3f	0.075956814
183	0xbde0cbf5	-0.10976402
184	0x3df35fc4	0.118835
185	0x3d8828fe	0.06648444
186	0xbdefee18	-0.11715335
187	0xbdae9acd	-0.0852562
188	0xbd04d5fc	-0.032430634
189	0x3dcf6886	0.10127358
190	0xbd40f63a	-0.04710982
191	0xbc8f2763	-0.017474836
192	0x3c77c1e2	0.015121909
193	0xbdcea337	-0.100897245
194	0xbe179eb2	-0.14806631
195	0xbded479d	-0.11585925
196	0x3d8205f6	0.06348793
197	0xbd6b8d1e	-0.057507627
198	0xbcaac56a	-0.020846087
199	0xbda373df	-0.07981085
200	0x3e057b30	0.13035274
201	0xbda8ebfa	-0.08248134
202	0x3d246447	0.040134694
203	0xbdf40375	-0.11914722
204	0xbb92f724	-0.004485028
205	0xbc8c6d2b	-0.0171419
206	0xbcbf05e6	-0.023318242
207	0xbd864f1c	-0.06558058
208	0x3d9884c1	0.07447196
209	0xbd850098	-0.06494254
210	0x3e1ab448	0.15107834
211	0xbd47f924	-0.048821583
212	0x3bb81a82	0.0056183944
213	0xbe0938ae	-0.13400528
214	0xbb8b29fd	-0.0042469488
215	0x3dff357e	0.12461375
216	0xbc8d253e	-0.017229673
217	0x3bbb4e4c	0.005716121
218	0x3dce1392	0.100623265
219	0xbdba0840	-0.09083605
220	0x3e1988b8	0.1499356
221	0x3caa624d	0.020798827
222	0x3e038b36	0.12846074
223	0x3e32126d	0.17389841
224	0xbd845baf	-0.064628
225	0x3c3c7ae9	0.011503913
226	0xbc7c050a	-0.015382061
227	0x3dc0444d	0.09388027
228	0x3deed8b9	0.1166243
229	0x3d808a1a	0.06276341
230	0x3e00a2d4	0.12562114
231	0xbe66cf7e	-0.2254009
232	0x3dc59bd8	0.096488655
233	0xbe1fec27	-0.15617429
234	0x3c5fe3c8	0.013665147
235	0x3e080a56	0.13285193
236	0xbd5e5881	-0.054283623
237	0xbd41ecc8	-0.047344953
238	0x3d88adc0	0.06673765
239	0x3e3df5df	0.18550824
240	0xbd4731ff	-0.048631664
241	0xbcbd17a8	-0.02308257
242	0xbdd66d3b	-0.10470053
243	0xbe337fcf	-0.17529224
244	0x3c41c8af	0.011827632
245	0xbda1c4c0	-0.07898855
246	0x37d36c5d	2.520362e-05
247	0x3e01f035	0.12689288
248	0xbe165ae4	-0.1468311
249	0xbd95ff89	-0.0732413
250	0x3d0ed9fd	0.03487586
251	0x3c23676a	0.009973386
252	0x3d9210cd	0.07132111
253	0xbc14c2d4	-0.009079654
254	0x3d49d167	0.049271967
255	0x3d77c28b	0.060488265

bias f4 [10]
0	0xbe2915c9	-0.16512217
1	0x3cea2786	0.0285833
2	0x3d8e70fd	0.069551446
3	0x3d2f9ee8	0.042876154
4	0x3d995871	0.07487572
5	0x3ac7a168	0.0015230598
6	0x3e1b3c84	0.15159804
7	0x3ca82ad1	0.020528229
8	0xbd547635	-0.051870544
9	0x3c49c31c	0.012314584
