DeepLearningDemo/models/jingxin_7.pth (torch, 588127 bytes, 10 tensors)

weight f4 [32, 3, 5, 5]
00000000: aa07 fdbb b0a0 d63d b4df 90bd 0698 e6bd
00000010: 006c a03c 0c9f 72bd 2350 e1bd 54c9 963d
00000020: a845 9b3d 332b 1f3d 2ca1 703d 683c 013e
00000030: f9c6 2c3e 2408 b83d 816e 8f3c 5f3e 223d
00000040: 1ad6 59bd a4d8 c5bd dff2 583b 6873 ccbd
00000050: 456c 3cbd f611 093d 71e7 dfbd c048 e23d
00000060: d5f0 ddbd 90c5 8f3d f9a9 c63d 3927 b0bd
00000070: 55fc d7bd 4243 58bd 3980 b3bc e278 cfbd
00000080: 8165 f43d 0ef8 19bd 1eac 853d d678 5fbc
00000090: 3db9 adbd d857 2f3d 91ca 1c3e 0057 193d
000000a0: 8bf2 f93d b778 243c e487 aebd 036d 3c3d
000000b0: 0e4c 983d d16d e4bd 9150 febd 37ee f83b
000000c0: 335e 42bc 4cbe 0d3d 3ad1 4fbd a4af cbbc
000000d0: 6241 39bd bbe5 debd 83df e8bd 9b37 403c
000000e0: 9c93 09be 755c 703d 4d64 9bbc 4598 cd3d
000000f0: 01bb 273d 9019 8ebd 7806 0a3e 5638 423d
00000100: 4762 033d e88d 8dbc 5f6e f73b 6f34 d8bd
00000110: e857 8abd 217c 133b eacc 923d 6fa8 14bd
00000120: 8c3b d53d d867 c83d 8344 7cbd eab3 e2bd
00000130: 4af5 9dbd f7be 793c 70d2 1ebb 279c 653c
00000140: aced b53d 182b 7abd ad86 e0ba 8c0e aabd
00000150: 1b36 4d3c 9bb0 0a3a b12d 16be fe35 bdbc
00000160: 74fa e5bd b850 94bd a695 0f3d 084d 023c
00000170: 2d78 d83d c02a f33d da7d 9dbd 3c9e fbbb
00000180: 35d8 093d 38f9 93bd f7e9 fb3d bc59 453d
00000190: e646 efbd 9d4c dfbc 4410 d9bd c6e6 33bd
000001a0: b25b d73d f41b 813d f79d 86bc bf62 e63d
000001b0: b9f7 49bd 5bd1 07be 94fd 5d3c cf4b d13c
000001c0: d283 6cbc 83a5 ffbd ff5e 37bd 6c07 013d
000001d0: 7469 043e b80a 80bd b23c 513d a667 c73d
000001e0: 4f88 dd3d d6fc 1bbd d9b5 4bbb 06ec 133d
000001f0: 317b b03c 7441 c23d aa95 823d 6ff4 ba3d
00000200: b4f0 e33d 2bd2 9bbd 31a4 d43d b0e0 ac3d
00000210: ca31 2dbd d6e6 253b e321 c4bc 4dc1 b0bd
00000220: 987e c53d 05e1 87bd 7cc2 92bd ef00 aa3d
00000230: fcc6 4abc 8576 8dbc b3a1 a43c e7ea 283d
00000240: 1831 113d a95d d63d 223b b13c 944b c63d
00000250: 8181 2e3d 4c47 e5bc a864 30bc b6fc c23c
00000260: 60ad 413c 14aa 263e 3fb5 6b3e 0c2f 0c3d
00000270: bd84 51bd 8182 9a3d c415 fdbc ea4a e6bb
00000280: 8319 a33d 7262 c83b 84a5 853d f5c3 a8bd
00000290: eeee d1bc 8cd7 e03c 5817 08bd 4223 03bd
000002a0: 57f7 ed3c 5b12 a9bd 1c73 6d3d f730 43bd
000002b0: 853c 4bbd 3ab6 7e3d 1fc4 c83d 6289 b23d
000002c0: 88a4 37be b2b2 f2bd 866a 0abe 1844 e83d
000002d0: a3b9 cbbd 2b5f 0abe c616 47be eba1 0cbe
000002e0: 4458 ed3d 5cbd c7bc 14f1 4ebe 940b babd
000002f0: b7d2 a2bd 022f 89bd 9ba0 1abe 7e92 94bd
00000300: 2c89 1d3d 571d b9bd 8a8b 00be ded8 ebbc
00000310: 2b2a 07be caf3 0d3b c430 ba3d e73d 543d
00000320: b1bb a43d c441 f2bd b2fc ebbd f486 dc3b
00000330: 9d95 1d3e b0c0 593d b645 2b3c 2af9 0abe
00000340: 2190 7a3d 45c4 0d3e df78 b9bc 363b 10be
00000350: 2afd 5f3d 42b4 dcbd 10f0 d63b 7711 9dbd
00000360: 1325 18be 2af5 d9bc da09 7e3d 0d79 b4bd
00000370: ffd5 11bc eda4 dabc 0dba 1abd c21b e0bb
00000380: 47e3 f33d c0a3 3d3c 74d7 d73d 6a3f cfbd
00000390: 7dc1 d7bd fe01 a83c 1cc2 c6bc aa4d 153d
000003a0: 28d7 2abd 8576 c6bd 16bc d83d fe46 cc3d
000003b0: 9cd0 e6bc 73d7 53bd 6a2c a33c a372 cbbd
000003c0: 7985 88bd ed12 17be da60 acbc bd6e c2bc
000003d0: 1922 3ebd 5216 dabd 7bfc cc3d 967b 943d
000003e0: 4492 d43d b8f6 0a3e 4e24 8ebc a680 d93d
000003f0: 94d5 cfbc 60be b8bc 4bfc af3d 5e1c 353d
-0.007721861 0.104798675 -0.07073918 -0.11259465 0.019582748 -0.05923371 -0.11001613 0.07362619
0.07581645 0.038859557 0.058747455 0.126207 0.16872777 0.08985928 0.017508747 0.039610263
-0.0531827 -0.096604615 0.0033103747 -0.099829495 -0.04600169 0.033464395 -0.10932816 0.11049032
-0.10836951 0.07020104 0.097003885 -0.08601231 -0.105461754 -0.052798517 -0.021911727 -0.101304784
0.11933423 -0.03759008 0.065269694 -0.013639649 -0.08482597 0.042808384 0.15311648 0.037436485
0.122044645 0.010038546 -0.08522013 0.0460024 0.07436381 -0.11153758 -0.124177106 0.007596757
-0.011863279 0.03460531 -0.050736643 -0.024864025 -0.04522837 -0.10883661 -0.113707565 0.011732007
-0.13435215 0.058681924 -0.018968726 0.10038809 0.040949825 -0.069384694 0.1347903 0.047417007
0.032076146 -0.01727958 0.007550999 -0.10556876 -0.06755048 0.0022504407 0.071679905 -0.036293443
0.10411748 0.097854316 -0.061588775 -0.11069472 -0.07712801 0.0152432835 -0.0024234317 0.01401428
0.08883223 -0.061076254 -0.001712998 -0.08303556 0.012525107 0.00052905985 -0.14665867 -0.023097035
-0.11229411 -0.072419584 0.035054825 0.007952936 0.10569797 0.11873388 -0.0769002 -0.007678775
0.033653457 -0.07225269 0.12300485 0.04818128 -0.11683445 -0.027258212 -0.105988055 -0.043921255
0.10515536 0.0630416 -0.016432745 0.11249303 -0.049308512 -0.13263457 0.013549227 0.025548844
-0.014435725 -0.12482741 -0.04476833 0.03150122 0.12930852 -0.062520444 0.051083274 0.09736566
0.108170144 -0.03808292 -0.0031083731 0.03611376 0.021543117 0.094851404 0.063762024 0.09128653
0.11129895 -0.07608446 0.103828795 0.08441293 -0.04228381 0.002531459 -0.02394194 -0.08630619
0.096432865 -0.06634716 -0.07166001 0.08300959 -0.012376543 -0.017268429 0.020096635 0.041239645
0.03544721 0.10467083 0.021634642 0.09682384 0.042603973 -0.027988099 -0.010766186 0.023802143
0.011821121 0.16275817 0.23018359 0.034224555 -0.05115198 0.07544423 -0.030894168 -0.0070279734
0.0796385 0.006115251 0.0652571 -0.08240501 -0.025626626 0.02744653 -0.033225387 -0.032016046
0.029048605 -0.08255454 0.057971105 -0.04765412 -0.049618263 0.062185504 0.09803032 0.0871761
-0.17933857 -0.1185049 -0.13517198 0.11341113 -0.09947517 -0.13512866 -0.19442281 -0.13733642
0.11589101 -0.024382286 -0.20209152 -0.090842396 -0.07950347 -0.06698419 -0.15100329 -0.07254504
0.038460895 -0.09038799 -0.1255323 -0.028789934 -0.1319968 0.0021660202 0.090913326 0.051816847
0.08043612 -0.1182895 -0.11522807 0.006729955 0.15389104 0.053162277 0.010453632 -0.13571611
0.06117261 0.13844402 -0.022640644 -0.14085087 0.054684795 -0.10776569 0.0065593794 -0.07669347
-0.14857893 -0.026606161 0.062021114 -0.08812151 -0.008901118 -0.02668997 -0.037775088 -0.0068392465
0.11908584 0.011574686 0.10539141 -0.10119517 -0.10534952 0.020508762 -0.02426248 0.03645102
-0.041709095 -0.096905746 0.105827495 0.09974478 -0.028175645 -0.05171914 0.01991864 -0.099339746
-0.06666083 -0.14753313 -0.021042276 -0.023734445 -0.046419237 -0.106487885 0.10009094 0.07250135
0.103794605 0.13570678 -0.017351296 0.10620241 -0.025370397 -0.022551715 0.08593043 0.044216506

bias f4 [32]
00000000: d883 353d a14c 74be 246a e23d 3fe0 99bd
00000010: 2095 443e 15ae 7a3e fc5c 993e 0fab 97be
00000020: 5921 93bd 4213 46be 8233 84bc 56f7 aebd
00000030: 2443 5fbd ee94 4ebd 95c4 fabc 9c35 443e
00000040: 2a66 b8bc 4644 1cbe 6cc4 46be 23c1 88be
00000050: 0c59 8c3e 74d6 58be 7680 0ebe 32e9 923d
00000060: 306e d3bb eb46 f9bd d913 8a3d 74cc de3c
00000070: e0f1 9f3e 4d66 d4b9 7353 15be 8321 07be
0.04431519 -0.23857357 0.11055401 -0.07513475 0.19197512 0.2448047 0.29953754 -0.29622695
-0.07184095 -0.19343284 -0.016137842 -0.08543269 -0.05450739 -0.050435 -0.030611316 0.19161075
-0.022509653 -0.15260419 -0.19410866 -0.26709852 0.27411687 -0.21175557 -0.13916191 0.07173385
-0.0064523444 -0.1217173 0.06742067 0.0271971 0.31239223 -0.0004051201 -0.14582615 -0.13196377

weight f4 [32, 32, 5, 5]
00000000: 89af db3c 7714 8fbc 242d 9f3c 0030 18bd
00000010: 98b4 463c f2c8 6a3c 0819 e93c d901 323c
00000020: 98e3 853c cb1a 14bd c8d7 cabc 009b 06bd
00000030: 06db debc ce6b 083c f15a 01bd 28f5 c7bb
00000040: 6deb c5bc 8f7d c03c 3c0b 6d3c 522e 7bbb
00000050: 3b2b 0dbc cd29 acbb b94d ecbc 40bb 6f3c
00000060: 2046 06bd 10a1 c3bc 7d80 1fbd a657 4b3c
00000070: baff 073d e692 ebbc c42c a1bc 3295 853b
00000080: 26a9 163d d658 abbc f22f a1bc 9242 153c
00000090: aee0 ab3b af23 56bc 77ab 143d 2d6c 973c
000000a0: 4e7c cb3b 00e8 d93c 35ca 14bc d72d 76bc
000000b0: fc18 143d e2e0 a93c fd06 db3c 8716 bc3c
000000c0: db83 9d3c e358 9f3b e9ee e93c 4c2e 06ba
000000d0: 7184 0a3d 084e cd3c 2ce8 d7b9 2b71 cc3b
000000e0: 79af cc3b 1651 3d3c b2ce 2dbd 3811 e8ba
000000f0: 03f2 323c cbfd 78bb 289e cdbb 35d3 54bd
00000100: b6e9 0ebd af31 903c 3071 8bbc def3 29bc
00000110: 9ca1 5bbd 8010 00bd 1ea7 b23b dddc ecbc
00000120: 6254 3abd ebf7 d5bc 5dbc a53c fd1e c73c
00000130: b573 073d 97aa abbc b12b cf3c c9a4 ac3c
00000140: 036f aa3a 68f8 d0bb 6fe1 d0bc d10f bf3c
00000150: b5a4 09bc c6f2 323d 6240 e1bc 7853 043d
00000160: ac83 08bd ae05 a7bb 45f4 fc3b 14c3 143d
00000170: abe8 01bd 264b 5c3c deb7 f23c b38a f3bc
00000180: 616b 1138 40c3 49bc 4336 6c3c 898d e83c
00000190: 944f 1a3d f32d 263d 8952 04bd ba0a 263c
000001a0: bdc4 063d 7bd5 533c 2b32 9bbb d269 f5bc
000001b0: 184c c5bb 715c 88bc 7ac8 a1bc 1669 733c
000001c0: b73e efbb 415a 33bd 3c91 b3ba 54e5 9ebc
000001d0: a8fd e9bc 1a52 aebc 2342 34bb d7bd de3c
000001e0: 8137 10bd bac4 03bd 6e01 473a 7180 d93a
000001f0: 5dfe 60bc 5452 c13c 3a6f 133c 6b87 99bb
00000200: f8f7 cdbc a9cf aa3b 007e c93c 0c6e 1ebc
00000210: a566 46bc f06c 92bc 6ed2 133d dfc3 313d
00000220: afa1 af3c af89 dfbb 447a 9fbb 9332 f5bc
00000230: 988f a73c 8456 29bd 57b5 9cbc 4ce3 32bd
00000240: 2d5a c7bc 5046 c5bc 1b9a 17bd b4c8 39bd
00000250: 3da2 3abd 4a14 49bb 6907 7a3d cce3 3f3d
00000260: ad57 e83c 648b 64ba 5c78 3d3c 6718 f73c
00000270: d141 af3c 4856 43bc b374 33bd c6d6 20bb
00000280: 0348 043d 6a71 c63c d6a7 27bc d47a 973b
00000290: 81a8 d33b a1cc cebc 4f12 bc3c 5381 19bd
000002a0: 2ff2 6cbd 7c91 c9bb 7302 f5bc 4fa4 a93c
000002b0: d853 2bbd f43f 06bd 54f5 d23c 97f5 01bd
000002c0: ccde b6bc adac e7bc 57f7 7e3c 72b8 18bc
000002d0: c71e 5bbc c127 203a e357 b2bc 502e c33b
000002e0: 07b2 8f3c e63c 45bd ce02 d5bc b8bd 883c
000002f0: bed7 0dbd 1a58 bfbc 74ce 36bd 1c9c 44bd
00000300: 3b77 913c 467c 653c c74f 9e3c cff6 f4bc
00000310: 9c88 71bc cb8a 80bc 2570 9d3c 77f9 e1bc
00000320: cb0d eb3c 225c 283b 020d f73b b3de ddbc
00000330: bd72 c2bc 2f7e 6a3c 850a ab3c 6f89 2b3b
00000340: f796 c53c 5f55 7f3c afd3 d6bb e453 7ebc
00000350: ed2c b13c 7745 b9bb d5de cebb 8f1a 903c
00000360: 6422 52bc 8a02 d1bc 0b51 ab3b 18e1 d73c
00000370: a1e5 293c 7666 89bc d4ea 9ebb b17c 70bc
00000380: 7b63 833c 66e2 14bc 9187 913c 381f d1bb
00000390: 1a61 5dbc 0707 b23a 80cd 0abc b1a5 6c3c
000003a0: c5a5 6e3c c86a 01ba 2286 c4bc d5b8 07bc
000003b0: 3041 99bc fb3a 74bb ad82 1d3d ce60 c8bc
000003c0: 3b74 a0bc c45e 233d 9e33 b7bc f153 083d
000003d0: 98a1 babc c02e 253d 7877 263d 9321 d5bc
000003e0: 623e cb3c bc67 eb3c 83d7 5cbc 949d 0dbc
000003f0: da90 a83b 36f0 c93b 4166 36bc 8e2a 49bb
0.0268171 -0.017465813 0.019430704 -0.03715515 0.012128018 0.014330136 0.028454319 0.010864698
0.016343877 -0.036158364 -0.024761096 -0.032862663 -0.027204048 0.008326484 -0.03158087 -0.006102223
-0.024160111 0.023497371 0.0144680105 -0.003832717 -0.008616264 -0.0052540065 -0.028845655 0.014632046
-0.03278172 -0.023880512 -0.038940895 0.012411034 0.033202864 -0.02875657 -0.019674666 0.0040766234
0.036782406 -0.020916384 -0.019676182 0.00911011 0.0052452898 -0.013070031 0.036296334 0.0184842
0.0062098866 0.026599884 -0.009081413 -0.0150255775 0.03615664 0.020737115 0.02673673 0.02295996
0.019227913 0.004862891 0.028556304 -0.0005118593 0.033817712 0.025061622 -0.00041180977 0.0062390766
0.006246504 0.011554977 -0.042433448 -0.0017705327 0.010921958 -0.003799307 -0.006274957 -0.051959235
-0.034890853 0.017601816 -0.017021745 -0.010373084 -0.05362092 -0.031265736 0.005452051 -0.02891391
-0.04549063 -0.026119193 0.02023142 0.024306769 0.03306933 -0.020955367 0.025289388 0.02107467
0.0013003055 -0.0063772686 -0.02549812 0.023322972 -0.008401086 0.043688558 -0.02749652 0.032306165
-0.033328697 -0.0050971126 0.007719549 0.036318853 -0.03171603 0.013445651 0.02962869 -0.029729223
3.46707e-05 -0.012314618 0.014417234 0.028387802 0.037673548 0.040571164 -0.032305274 0.010134393
0.032902468 0.012929316 -0.004736205 -0.029957686 -0.006021034 -0.016645642 -0.019748915 0.014856597
-0.0073011774 -0.043787245 -0.00136999 -0.019396462 -0.028563336 -0.021279383 -0.002750524 0.027190132
-0.035209183 -0.032170035 0.00075914606 0.0016594065 -0.01373252 0.023598827 0.008998686 -0.0046853325
-0.025142655 0.0052127433 0.024596214 -0.009669792 -0.012109433 -0.017874211 0.036089353 0.043399688
0.021439401 -0.006821833 -0.00486687 -0.029931342 0.020454213 -0.041342273 -0.019129438 -0.0436738
-0.024334991 -0.02408138 -0.0370122 -0.04535742 -0.04556488 -0.003068226 0.061042223 0.046848103
0.02836212 -0.00087182806 0.01156434 0.030163003 0.021393688 -0.0119224265 -0.043812465 -0.0024542077
0.03229524 0.024224002 -0.010232886 0.0046227966 0.006459296 -0.025244059 0.022957949 -0.03747685
-0.05784815 -0.0061513763 -0.029908394 0.020708231 -0.041828007 -0.032775834 0.025751747 -0.031728353
-0.022323035 -0.02828058 0.0155619 -0.009321319 -0.013374037 0.00061094394 -0.021770423 0.0059564486
0.017540945 -0.04815378 -0.026002314 0.016692027 -0.034629576 -0.02335744 -0.044630483 -0.04800044
0.017757049 0.01400668 0.01932515 -0.029902844 -0.014742043 -0.015691182 0.019218514 -0.027584774
0.0286931 0.002568968 0.0075393924 -0.02708373 -0.023736352 0.014312311 0.02087904 0.0026174446
0.024119837 0.015584319 -0.0065559964 -0.015522931 0.021627868 -0.005654033 -0.0063131847 0.01759079
-0.012825582 -0.025513906 0.005228167 0.02635245 0.010369689 -0.01677249 -0.004849771 -0.014678166
0.016038647 -0.009087181 0.017764838 -0.0063818954 -0.01351192 0.0013582417 -0.008471847 0.014443801
0.01456589 -0.0004936871 -0.02398974 -0.0082838135 -0.018707842 -0.00372666 0.0384547 -0.024460223
-0.019586673 0.039885297 -0.02236348 0.033283178 -0.022782132 0.040327787 0.040641278 -0.026016986
0.02481002 0.028735988 -0.013479116 -0.008643527 0.005144221 0.0061626686 -0.011132778 -0.003069553

bias f4 [32]
00000000: 0eea 04bd 7540 363d f962 aebd 2158 3dbd
00000010: ed07 14bd f95e bfbc 0504 bfbc 8026 bcbc
00000020: 7ee3 9fbd 4d5a 02be 859f 66bd 60da be3c
00000030: f236 af3c 3a54 8ebd 8164 d53c 1af9 ccbd
00000040: 6817 53bd ad28 36bd 5b16 1abd 94a6 b13d
00000050: ff67 fcbc c89e b0bc 14b7 e8ba 5497 96bd
00000060: 8d16 853c b0fb 96bd 8b9d 1ebd a553 d0bb
00000070: 429e 1c3d 72d7 eb3c 8d8c 06bd e7cc 91bd
-0.032449774 0.044495065 -0.08514971 -0.046226624 -0.03614037 -0.023360716 -0.023317346 -0.022967577
-0.078070626 -0.1272976 -0.056304473 0.023297489 0.021388505 -0.06949659 0.0260489 -0.1000845
-0.051535994 -0.044472385 -0.037618976 0.086743504 -0.030811308 -0.021560088 -0.0017754757 -0.07353082
0.016246105 -0.07372224 -0.038724463 -0.0063576275 0.038236864 0.028789256 -0.032848883 -0.0711916

weight f4 [64, 32, 5, 5]
00000000: 3a8a 1b3c 135c cd3b e758 33bd e66e 1cbd
00000010: c93f 12bd 309f 8fbc c0d5 ec3b 58db 033d
00000020: 33de 45bc fc53 ab3c 9776 62bc f595 db3c
00000030: 5f6c 99bc 4e79 c93c 2b48 013d 8710 b6ba
00000040: 15e1 0e3d ae17 5a3c 4621 24bb 69e4 d23c
00000050: 296a 1a3d 0ea2 bb3b f6e4 ddbc ddca 0dbd
00000060: f151 823c 40d0 31bc 6497 493c 9979 25ba
00000070: 34fc a43c 63f4 08bc 83d9 72bc b569 9c3c
00000080: 7936 a3bc b4c9 b53b c2a0 6fbc 89f1 e53c
00000090: b86d f93c 7cb3 88bc 22b8 f0bc 51b6 a2ba
000000a0: ca69 b43c 6ae7 f33b 13ff 44bb 19df 89bc
000000b0: e9f6 683b 391a b83b b82a b6bc e9d8 c73b
000000c0: d66f c1bc 3554 8fbc 96b1 b9bc bdb9 8abc
000000d0: 18a6 a83b 208d 663b 5de5 13bd d9e3 d1bc
000000e0: 5ba4 f0bc f74e 743c 9c8a 523c cf52 87bc
000000f0: 63ca 8bbc 4d4a 08bc 96b2 66bc f405 ee3a
00000100: 83d6 093d f768 ae3a dfda 1b3d 44be 033d
00000110: 2c3a 2e3d e014 843c a0fc 5b3c 1f72 2e3c
00000120: 7f4c d33c a69c b7bc 90f1 fdbc 0183 43bd
00000130: da95 363c e2de c93b 17d5 06bd 7f10 49bd
00000140: 2662 1cbc 15f6 c8bc 83a1 eabb d686 9a3b
00000150: 6844 f7bb 6046 7dba 3727 37bb cbc1 7e3c
00000160: b24e 93bc 4fed 4d3d 49a1 3e3d d03f ac3c
00000170: acae 253b 8c72 f0bc 68cb 8abc 9acf e0bc
00000180: 679d 6c3b 6d18 60bd f197 1d3c 3b90 4abd
00000190: ace6 ddbc 8245 a2bc f9fd f73c 436f 0ebd
000001a0: eed5 21bd 1238 a4bc 0733 0b3d d3d2 0e3d
000001b0: a229 123d 616b dabb da8c 023d 1793 443d
000001c0: 6a5a c23b 6579 aa3c cfa5 153d eb11 1e3b
000001d0: 5041 d93c 92bc acbb e311 0fbd 1ffe 9abc
000001e0: 1a35 1d3c 0c90 003c dab4 02bd ad4c 84bc
000001f0: 31c1 b3bb b94e fdbc f9d9 9dbc 4a91 07bd
00000200: 2774 093c 7a9c 1d3d 0477 9c3c b9ed ac3c
00000210: 95c8 943b 0cee 50bc fc03 bfba 6d31 973c
00000220: c59e aebc 4557 d3bc ba38 21bd a0fb 74bb
00000230: 5b90 c5bc ab2d ac3b 351d 153d f8bb 173d
00000240: 664e c23c 7e5a 853c 4653 353d 1541 113d
00000250: 5fc2 5e3b 0250 c83c b951 173c 0946 abbc
00000260: 6755 133c b24e fc3c 173e be3a ce0a d93c
00000270: 7021 3cbc dd34 01bd ac06 f93c 7bbb ccbc
00000280: 7ab8 733c 9efe 88bc 10fc 013c 686d f33b
00000290: 5309 cf3b c7f1 7fbc 8d57 3d3a 2c56 353c
000002a0: a0b7 b7bc b958 373b a773 bf3c 55a4 4b3d
000002b0: db7c a03a c241 363d c0f5 1f3d 3c5a 8bbc
000002c0: 7d16 de3b 08ca 42bd 0cff 39bd 3a80 40bc
000002d0: 6216 b43c d3b2 b5bc 3abe e23b 5832 823c
000002e0: ef89 1a3d c4ff b8b9 a4e1 123d 3c77 353d
000002f0: 0ced 283d 9cee 223d ea49 3b3d 14d2 2c3d
00000300: d20c e6b9 6b85 bdbc d07a c1bc d34c c93b
00000310: 5652 09bd 324f 81bc 6a58 21bb 71e9 433d
00000320: c938 cc3b 3334 34bc 7990 01bc 90e0 eebc
00000330: 1630 e73c c48d 6b3c f41d 9abc 148d 2dbb
00000340: 2f6c b8bc 2c7f 06bd fcce 19bd 83c5 93bb
00000350: 1926 cf3c 7f94 0cbc 770b 0d3d 7dc7 063d
00000360: da80 52bc b58f 80bc a03d d5bc 797c 1bbb
00000370: cf87 c63c 3049 22bc 5f9f b8bc af4c 6c3c
00000380: f808 fdbc ac3b ab3b 3154 fbbc c270 0bbd
00000390: 24f1 b23b b51f 30bd 6bdc be3c 5b4f 13bb
000003a0: a1fa 4dbd f825 e2bc 9d44 0abc 901a b5bc
000003b0: ca5a 22bd b596 47bc fd04 e23c 2147 ec3c
000003c0: 503c 8ebb 84b2 a03c b526 663d 4cfb 5a3d
000003d0: 4828 563c 53d2 123c 6827 cbbc bae0 1fbd
000003e0: c8db 2dbd 8c6c 49bd 66ed 04bc 56c8 ee3b
000003f0: 217f 56bc ff50 933c b4d3 bebc f9e7 0f3d
0.009493405 0.0062670796 -0.043785956 -0.0381917 -0.03570536 -0.017531961 0.0072276294 0.032191604
-0.012076902 0.02091407 -0.013822219 0.026804904 -0.018728433 0.024593975 0.031562965 -0.0013890424
0.034882624 0.01331131 -0.0025044247 0.02574368 0.0376989 0.0057261055 -0.027086716 -0.034617294
0.015908213 -0.010852873 0.012304161 -0.000631237 0.020139791 -0.008359048 -0.014822367 0.019093374
-0.019923436 0.0055477265 -0.01462573 0.028069275 0.030447826 -0.016687147 -0.029384676 -0.0012413954
0.0220231 0.007443358 -0.0030059263 -0.016830014 0.003554756 0.0056183604 -0.022237167 0.0060988558
-0.023612898 -0.017496208 -0.022667687 -0.01693427 0.005146753 0.0035179332 -0.03610741 -0.025621342
-0.029375246 0.014911405 0.01285043 -0.016518978 -0.017064279 -0.008318496 -0.014080664 0.0018159733
0.03365184 0.0013306428 0.03805053 0.032163873 0.042535946 0.016123235 0.01342693 0.010647326
0.025793312 -0.022413563 -0.030998975 -0.047732357 0.011144126 0.006160603 -0.032918062 -0.049087998
-0.009544885 -0.024531404 -0.007160367 0.0047157807 -0.0075459965 -0.0009661671 -0.0027946958 0.0155491335
-0.01798186 0.050275143 0.046540532 0.021026522 0.0025281115 -0.029351495 -0.016942695 -0.027442742
0.0036104561 -0.054710794 0.009618745 -0.049453955 -0.027087532 -0.019808535 0.03027247 -0.034774076
-0.03951066 -0.020046268 0.03398421 0.034869026 0.035684235 -0.0066656326 0.031872608 0.04799184
0.0059311884 0.020809839 0.03653508 0.0024119567 0.026520401 -0.005271503 -0.034929167 -0.018920003
0.00959518 0.007846843 -0.031910755 -0.016149843 -0.0054856767 -0.030921327 -0.019268977 -0.033097543
0.008389509 0.038479306 0.01909972 0.021109449 0.004540513 -0.012752067 -0.0014573331 0.018456185
-0.021315942 -0.02579845 -0.03936074 -0.0037381425 -0.024116686 0.0052544675 0.036404807 0.037044495
0.023719024 0.016278502 0.04426887 0.035462458 0.0033990366 0.024452213 0.009235793 -0.020907419
0.0089925295 0.030799244 0.0014514354 0.02649441 -0.0114825815 -0.031544555 0.03039869 -0.024991741
0.014875526 -0.016722973 0.007933632 0.0074288137 0.00631825 -0.015621609 0.0007222824 0.011067908
-0.022426426 0.0027976467 0.023370577 0.049717266 0.0012244241 0.044496305 0.039052725 -0.0170108
0.006777583 -0.047555953 -0.045409247 -0.011749322 0.02198333 -0.022179997 0.0069196494 0.015893146
0.0377292 -0.00035285775 0.03585972 0.044303164 0.04124169 0.039778337 0.045724787 0.042192534
-0.0004387857 -0.023134908 -0.023618132 0.0061431914 -0.033525787 -0.015784834 -0.002461935 0.04783005
0.0062323553 -0.010998773 -0.00790798 -0.029159814 0.028221171 0.014377061 -0.01881311 -0.0026481794
-0.022512523 -0.032836124 -0.03755091 -0.004509629 0.025286721 -0.008580326 0.03443476 0.03290509
-0.012848103 -0.015693525 -0.026030362 -0.0023725315 0.02423468 -0.009905145 -0.022536932 0.01442258
-0.030888066 0.0052256193 -0.030679794 -0.03404308 0.005460875 -0.04299899 0.023298463 -0.002247772
-0.050287846 -0.027605996 -0.00843921 -0.022107393 -0.039637364 -0.012181927 0.02759027 0.02884251
-0.004340686 0.019616373 0.056189258 0.05346231 0.013071127 0.008961278 -0.024799064 -0.039032675
-0.042445928 -0.049175784 -0.008113241 0.0072870655 -0.013091833 0.017982958 -0.023294307 0.035133336

bias f4 [64]
00000000: d573 98bb 1b3c 81bd b39b eebb 6301 46bd
00000010: 0150 2b3d a463 463c 88a2 56bd 1987 24bd
00000020: bd7f e1bb 556f e2bc 8d90 b93c ac37 3e3c
00000030: 9ce5 173d 0020 c0bc e223 bbbc 9944 00ba
00000040: 2431 073c 363a e9bc 04d4 b9ba d3e9 3dbd
00000050: aa10 98bb a379 29bd ed19 1dbd 33c3 73bc
00000060: d8c6 9d3c 1518 8abb e7a3 75bc f03a a2bc
00000070: 684d bbbb 0794 4f3c 735c 1bbd 1ada 2abd
00000080: 3d1b ad3c 584d 3fbc b3a0 d4bb 0518 003d
00000090: ae60 d33c 48c1 a4bc af97 f53c 99f6 973c
000000a0: c5f6 043d f12a 69bc a955 51bd cdba 48bc
000000b0: 749d 0a3c 073c cf3c 53cf ff3c 64ca 013d
000000c0: 9b1c 1a3d 6d1e 14bd fc54 1cbd 5a5f 2cbb
000000d0: 3e61 36bd 6dc1 ccbc 2489 9fbd 04a2 5dbc
000000e0: f87c 06bd b553 3cbd c887 89bc 6a9e 9c3c
000000f0: ca22 5abc 95e8 f6bb 5426 cbbc 2e16 49bb
-0.00465248 -0.06310292 -0.0072817444 -0.048341166 0.041824345 0.012108717 -0.052401096 -0.0401679
-0.0068816827 -0.027640978 0.022651935 0.011609953 0.037084207 -0.023452759 -0.022844259 -0.00048930343
0.008251462 -0.02847014 -0.0014177565 -0.04636557 -0.0046406584 -0.041375767 -0.038354803 -0.014878082
0.019259855 -0.0042142966 -0.014992691 -0.019803494 -0.0057160147 0.01266957 -0.037929963 -0.041711904
0.021131152 -0.011676155 -0.0064888834 0.031272907 0.025802936 -0.020111695 0.029979555 0.018550204
0.0324619 -0.014231429 -0.051107083 -0.012251568 0.008460391 0.025297178 0.03122679 0.031687155
0.037624937 -0.03616183 -0.038166985 -0.002630195 -0.04452633 -0.024994576 -0.077898294 -0.013527397
-0.032834023 -0.045978267 -0.016788378 0.019118506 -0.013313958 -0.00753505 -0.02479855 -0.0030683386

weight f4 [64, 1024]
00000000: 3941 5d3c cda3 7eb9 6c70 fc3c 99f1 8abc
00000010: 3a38 f238 2662 ec3c 57b4 17bc efc2 0e3c
00000020: 6e93 cbbc c039 9fbc 4fe5 683c 7b78 dc3c
00000030: e9d6 dabb d73d 34bc b49d adbc 2578 a03c
00000040: 5cb0 03bd f55c 0fbc 766e ceba b7ed b63c
00000050: 4fd3 aebc a060 f3bc 5af8 66bc f7ec 02bd
00000060: e701 35bd 9e4a 4f3c a025 a5bc ea21 263a
00000070: 51db febc e3aa a33a 796a 043d 1047 5abc
00000080: 1d49 2bba c384 083b a5e7 f93a 4364 9fbc
00000090: de80 f83a b4a3 ebbc 7536 9dbc 4d21 8abc
000000a0: 906a cc3c 7cf0 43ba 856c 47ba eda9 f4bc
000000b0: 8ab0 e3bb 9fbe adb9 89c7 02bd b0be d8bc
000000c0: e6fb 943c 896b ba3c a3ff 453c b0a3 dcbc
000000d0: cbaf 3f3c 126a a43c d557 e8bb b9a9 b63c
000000e0: a2e0 3c3c 2bb5 f1bc 1639 13bb 7c6f 983c
000000f0: 03f7 e43c dd6c 20bd a134 cc3c 139b 8a3c
00000100: 3748 c9bc 018d cb3b 70bb 023c 8455 153c
00000110: 2d80 b93c e2f5 c5ba b288 79bb b896 a1bc
00000120: 8e69 12bd a79f 0f3c 9e12 0fbd 7490 953c
00000130: 38bf 30bc fc73 683c 8ff5 d2bc ba2d 36ba
00000140: 960e 05bd 4b6c 833c 8d0d b63c 765e ce3c
00000150: 58e5 ab3c 3601 db3c 4add fbbc b650 77bc
00000160: 682c 153d 2055 aabc 525d 1dbd c6d7 aa3c
00000170: b480 e33c 97b0 e7bc ec39 cebc 9705 713c
00000180: 391a d43c 4841 c3bc 3028 5f3c d9e0 79bc
00000190: b8de fcbb 97f3 e63a 4f46 2a3b 5f6f dabb
000001a0: 7ad3 98bc 7135 b1bc aa1a 9e3c 3685 873c
000001b0: 982a dc3c 4234 5b3c eecf 0b3b 944c ca3b
000001c0: 7087 8abc d11d bebc 25f8 bf3c 2691 ccbb
000001d0: 039f e6bb 9440 d2bc c570 b6bc 99e7 433c
000001e0: 11f2 95bc c1f3 003c 2f9a 3ebc 814e ef3b
000001f0: 5a36 1e3c e98c d13b 4bd3 8e3b 8b7c 623c
00000200: c53b d0bc cb74 003c 496c d6bc 2d6c 11bd
00000210: a218 373c 2c51 c43a 550c 8d3c 9386 763c
00000220: 113e 21bd 835a d0bc 45c3 ee3b 0afe 88b9
00000230: 0136 aabc f245 7fbb fa88 5e3b dc55 3fbb
00000240: 534f 83bc 14ac 3f3b 1c5b d43c 6a4b b7bc
00000250: ee12 ff3c 328c c53b 663a 91bc bea5 b23c
00000260: 01eb 55bb b4c4 f7bc 6474 b2bc 0a55 83bc
00000270: 3c06 90bb 8140 593b 1196 efbc 8fb9 dd3c
00000280: 0370 1bba 93c5 7dbb 2976 2e3c 514a b43c
00000290: 56f4 e03c bba6 23bc e614 e3bc 03e9 a1bb
000002a0: 38a7 eabb eede e33c 19ba 053d 2b0b 89bc
000002b0: 50c9 97bc 1d8b 9bbb 3c95 a9ba 8464 12bc
000002c0: 622b a1bc dcf8 6ebc b3a5 5d3c 062a 083d
000002d0: 5751 db3c e6a6 e836 6abd bfbc 932a d6bc
000002e0: 3b7a 7b3a 8c9d febc f17e 1fbd 5256 9cbc
000002f0: 869a 6fbb fc95 74bc 061e e7ba c595 e9bc
00000300: bcdf a7bc 70ab 05bd e655 d43b 4dc4 acbc
00000310: 4ed9 2bbc 0c3b 9e3b 54ed 87bc 1f9e fcbb
00000320: ee5d 143d ccc7 56bb e0b2 583d be60 53bc
00000330: b4a4 053c 96b0 8abc 96c4 a53c 4865 0c3d
00000340: 1038 0bbd 25bf e33c 553c fc3b 3485 12bd
00000350: a2f1 30bd e5ec 663c 812d 87bc 3c30 1a3c
00000360: af01 2abd b488 1ebd 41b0 a1bc a6f0 a7bb
00000370: 047c 753a fb95 32bc a630 1ebc 028b 6bbc
00000380: ca7b dbbb 55a6 dd3c 6b2c 4ebb 6091 23bc
00000390: 13b7 f5bb 00d7 22bd 9e2d b3bc ef0d 02bd
000003a0: 328a 9a3c 741c 0fbc d1c2 38b9 9831 a93c
000003b0: 1996 b83c 5239 d03a 0ef1 bc3a 87a0 9439
000003c0: 306b 5dba cfc1 26bc 831e 293c bbc5 ba3c
000003d0: 2ed6 cf3c db55 c9bc f2e4 c3bc 5793 9db9
000003e0: 716d e23c 84e4 3d3c 4dc6 d5bb 3b6a 8abc
000003f0: b06e d23c 1fd0 77bc 2340 d9bc 489e dfbb
0.01350432 -0.00024284348 0.030815326 -0.016960906 0.00011549932 0.028855395 -0.009259305 0.008713468
-0.024850573 -0.019436717 0.014214828 0.026912918 -0.0066784513 -0.011001072 -0.021193363 0.01958854
-0.03215061 -0.00875019 -0.0015749473 0.022330148 -0.021340994 -0.02970916 -0.014097298 -0.03196427
-0.044191267 0.0126520675 -0.020159543 0.0006337451 -0.031110438 0.0012486841 0.032328103 -0.013322607
-0.0006534027 0.0020831085 0.0019066228 -0.019456988 0.0018959304 -0.028764583 -0.019191006 -0.016861582
0.024953157 -0.00074744946 -0.0007607418 -0.029866183 -0.0069485353 -0.00033139155 -0.031928573 -0.026458114
0.01818652 0.022756355 0.012084874 -0.026933521 0.011699627 0.02007011 -0.0070905485 0.022297727
0.011528166 -0.029505333 -0.0022464446 0.018607847 0.027949816 -0.03916632 0.02492744 0.016919648
-0.024570568 0.0062118773 0.007979259 0.009114627 0.022644127 -0.0015103186 -0.0038075862 -0.019725189
-0.035745196 0.008766091 -0.034929864 0.018257357 -0.010787778 0.014187809 -0.025751857 -0.0006949563
-0.032484613 0.016042849 0.022223258 0.025191527 0.020983383 0.026733976 -0.030745167 -0.015094927
0.036419302 -0.020792544 -0.038419075 0.020854842 0.027771331 -0.028282447 -0.025174104 0.014710805
0.02589141 -0.02383484 0.013620421 -0.015251362 -0.00771698 0.0017620203 0.0025981849 -0.0066661085
-0.018655527 -0.021631928 0.019299824 0.016543012 0.026875779 0.013379158 0.0021333653 0.0061736796
-0.016910285 -0.023207577 0.023433754 -0.006242889 -0.0070379986 -0.025665559 -0.02227057 0.011957073
-0.018303903 0.007870615 -0.01163344 0.0073030596 0.009656513 0.0063949716 0.004358684 0.013823639
-0.025419125 0.007840346 -0.026174681 -0.035503555 0.0111753065 0.0014977804 0.017217794 0.015046733
-0.03936583 -0.025433784 0.0072864615 -0.00026129215 -0.020777704 -0.0038951603 0.0033956156 -0.0029195463
-0.016029036 0.0029246854 0.02592235 -0.022374827 0.031136956 0.0060286755 -0.017728042 0.021807548
-0.0032641294 -0.030245163 -0.021784015 -0.01603176 -0.0043952744 0.003315002 -0.029246362 0.02706602
-0.0005929472 -0.00387225 0.010648289 0.022008093 0.027460258 -0.009988482 -0.027719926 -0.0049411072
-0.0071610473 0.027816262 0.03264818 -0.016728958 -0.01852861 -0.004746808 -0.0012938152 -0.008935098
-0.019674007 -0.0145857 0.013528275 0.0332432 0.026772184 6.9335683e-06 -0.02340575 -0.026143348
0.0009593104 -0.031080984 -0.03893942 -0.01908413 -0.003656061 -0.014928337 -0.0017632849 -0.028513798
-0.020492427 -0.0326342 0.0064799665 -0.021089697 -0.010488821 0.0048288163 -0.016592659 -0.007709279
0.03622239 -0.0032772897 0.052904963 -0.012901483 0.008156944 -0.016929906 0.020235341 0.034276277
-0.033989012 0.027801106 0.007697622 -0.035771564 -0.04319919 0.014094566 -0.01650119 0.009410914
-0.04150551 -0.03870459 -0.019737365 -0.005125123 0.0009364488 -0.010900016 -0.009655153 -0.014376404
-0.0066981064 0.027056852 -0.003145958 -0.009983391 -0.007498631 -0.03975582 -0.021872338 -0.03175157
0.018864725 -0.008734811 -0.00017620182 0.020653531 0.02253251 0.0015886223 0.0014415102 0.00028348362
-0.0008446453 -0.0101780435 0.010322216 0.022799363 0.025370684 -0.024577072 -0.02391288 -0.0003005515
0.027640076 0.011590127 -0.0065238834 -0.016896358 0.025687546 -0.0151253035 -0.02651984 -0.0068242885

bias f4 [64]
00000000: 0c31 e93c 4cd0 ccbc 7b28 3cbd 49c1 253c
00000010: 49ac 2f3d e5ca 35bd 7320 81bb 0cad 043d
00000020: f0ef a93b 4c25 97bb b5e9 d9bc a6d8 203c
00000030: 7b72 733c fd47 59bd be9f 1a3d f8ae 953a
00000040: 2d4e 69ba b5ec 733c 475d 053d 403f 81bc
00000050: 4061 b0bc 0226 cf3c 1ad9 8cbc e3f5 c43c
00000060: 0db2 50bd 401f 433c 9844 b63c 2226 493c
00000070: b121 013d 42a1 1d3c 6968 653d 39cf b73c
00000080: a4f9 03bd 70e2 3cbc d324 3c3b d37b 693c
00000090: bf89 d23b 78e9 03bd 5f69 0239 73fb d83a
000000a0: 721c 603d aa43 c13c f6ec 9d3c 313a 2f3d
000000b0: e8b4 693c 3486 8abc f860 1dbd c83e 92bb
000000c0: feef 62bc 639e 4b3c bf5f b23b 056f c33c
000000d0: 3e41 98ba 01c8 97bc 7800 59bd ae3c 463c
000000e0: 087a f53c df9c bf3a 41bd 403c 955c e03c
000000f0: f9e0 853b 7532 17bc 77a7 073a f3f4 173d
0.02846577 -0.025001667 -0.045937043 0.010116884 0.042888913 -0.04438295 -0.003940636 0.032391593
0.0051860735 -0.0046126004 -0.026600698 0.009817278 0.014858837 -0.05304717 0.03775 0.0011419943
-0.0008899894 0.014887978 0.03255966 -0.01577723 -0.021530747 0.025286678 -0.017193366 0.02404303
-0.050951052 0.011909306 0.022249505 0.012277158 0.03152627 0.009620966 0.056007776 0.022437679
-0.032220498 -0.011528596 0.0028708472 0.014250713 0.006425112 -0.032205075 0.0001243702 0.001655443
0.054714628 0.023591835 0.01927803 0.042780105 0.014264323 -0.016909696 -0.038422555 -0.0044630505
-0.013851164 0.012427899 0.0054435427 0.02385665 -0.0011616123 -0.018527986 -0.052978963 0.012099428
0.029965416 0.0014618895 0.011763872 0.027387897 0.0040856567 -0.0092283385 0.00051747955 0.037098836

weight f4 [10, 64]
00000000: 2a43 92bd 34a6 5ebd b982 aa3d d88e 16be
00000010: cbd6 24be d6af 653e 21f4 273d c7e6 94bd
00000020: 041c c53d 55a3 ccbd 8fce 793d f759 803b
00000030: 3a2a 973c c714 2c3e e412 563d ba13 33bd
00000040: 42a5 f43c 2fad 013d 7a6f d8bd 4241 dc3d
00000050: 7e0f e2bd 5b24 18bb 59f7 113e 3362 2c3d
00000060: 946c 5e3e e9c4 84bd 5bea f3bd bc0a cdbd
00000070: e252 b6bd 086b 1cbe 42c3 34be 96e8 0dbe
00000080: 9a59 25bc 67d4 c83d 6ceb d73d 3dc2 2a3d
00000090: 1cca 22be d08c 1dbb bc7c 963d 553d 863c
000000a0: f40f 84bd 7961 213e e609 3cbd 12fe 083c
000000b0: 9bc4 2dbc 43e3 053e a1a6 153e 9d8b 343d
000000c0: cdab 833d 182b 513e 4926 59bc 4a2f 0c3e
000000d0: 0511 973c 5f1e b93d d9bb c13d 79c1 3ebe
000000e0: d95d 2d3c 0fd5 60be a26c 213e 020e 32bd
000000f0: d104 27be 672a febc 493f afbc 0066 15be
00000100: c4b5 fd3c 545e 0cbe 3f5c 6b3e 8572 50be
00000110: ed84 47bd 802e 103c 7c9c 933d 5966 20be
00000120: b78c 0cbd 393d 6b3d 47d6 363e 8d3b 2f3e
00000130: 29fc 0cbe 8f9a d2bd 0a64 b4bd 7f3e 823c
00000140: 7918 0dbd 92e2 153e a914 113b 54ba ba3d
00000150: dad3 4a3e 578b 423e 33de 303e 4160 6abe
00000160: c775 dd3d 8174 21be b8fd d33d 06cb e7bc
00000170: 6f6f 7dbe a9ee 8cbd 1587 fdbd 01d2 a6bd
00000180: 421f 3f3b 4d4c b03d e30b 11bb 6be7 9a3b
00000190: dda7 9e3d c87d 58be cca4 26be c0b1 583e
000001a0: 29de e53d 4dc7 283e 94d8 893d 3f0f 333c
000001b0: e29d 58be a730 21be 1257 873d 7cc4 78be
000001c0: e197 5dbe ad8b 53be b073 0d3e 4720 42be
000001d0: 1a12 883c 358f 31be b7ea 8abc a19f e63c
000001e0: 138b 453e 4968 82be 00b1 8cbe ad2d 31bd
000001f0: 16b3 083e 9a8b 1ebe 09f5 803d 0544 203e
00000200: 9950 1abe d118 04be d956 47be d85f 203e
00000210: c8a2 983d a231 503e 5170 123e 6e07 4e3d
00000220: 380f 3d3e 2707 a73d 873b 40be b290 a63d
00000230: 56b4 f93d 732a cbbb d4c3 58bd 9576 5bbe
00000240: e75f a7bd 2fe0 203e 6fd4 9f3d 3cde 9cbd
00000250: 5906 4bbd a4c3 0abe 270f 96bd 21fa ee3d
00000260: 8424 da3d 9417 15be 9e3f cebd 3a82 00bb
00000270: f719 453c 1cf1 783d 2af5 213e d789 713d
00000280: 9363 9d3d c71d b63d c74e 77bd 39b5 21bc
00000290: 315d 02bd 3c99 4b3e 82f4 1b3e 8b5e 3dbd
000002a0: 6589 7dbd e6d3 7ebd 8243 9a3d e1ef db3d
000002b0: d6ae a23d 5453 d2bc c077 103e fcda 163c
000002c0: ec38 90bd 687c 043d 371a 19bd 0203 8c3d
000002d0: accc 1bbe a8c8 75bd 9a90 b83d c65c e9bd
000002e0: 877d 043e cec0 753d 3dce 02be e4c7 b5bd
000002f0: a80a eebc 9265 0d3e baf0 9ebd 7698 82bc
00000300: 3e69 943c 1eb4 cbbd 0bf1 23be fc26 0ebe
00000310: d1dc 773d a61c 57bd a69b 35bd 689c b8bd
00000320: d52f 003e d28a e7bd 1ee5 2d3d 2dda edbd
00000330: ab13 86bc d266 6cbc f91f ccbc 6e1c 9abd
00000340: 2e1e 903d 4960 88bd e4b1 2f3e e058 edbc
00000350: 1c3c 263c 5173 18be 5707 5bba dd25 163e
00000360: f874 ddbc 3e58 423c 3a21 b63d 79d3 a5bd
00000370: 8a26 1b3e bdf9 1abc 21f4 f13d 47c9 0f3e
00000380: 07a3 97bd ef16 b23c a680 52bc 9483 fc3d
00000390: 4982 df3d a50a 3a3d 31bf 0a3e 55db 80be
000003a0: b219 e33d ee2c 2bbe 5dc1 c03b 6d5b 143e
000003b0: 33da 3cbd b584 00bd f859 ae3d 4fc8 423e
000003c0: cf07 0bbd 8167 70bc c6fe ddbd b847 3cbe
000003d0: 00a5 b93c e38d 5fbd 73e5 9dbb d06b 033e
000003e0: e869 26be dc81 a7bd fd46 3e3d f7be a53b
000003f0: adde 933d 8a06 93bc 87ed 533d 89bf 5c3d
-0.07141717 -0.054357722 0.083257146 -0.14702928 -0.16097562 0.22430357 0.041004304 -0.0727058
0.09624484 -0.099920906 0.060988005 0.0039169746 0.018452752 0.16804801 0.05226411 -0.043719985
0.029863957 0.0316593 -0.105681375 0.107546344 -0.11038111 -0.002321503 0.14254512 0.042085838
0.21721107 -0.0648287 -0.11909934 -0.10011813 -0.089025274 -0.15275204 -0.1765261 -0.13858256
-0.010092163 0.098061375 0.1054295 0.041689146 -0.15897411 -0.002404023 0.0734801 0.016386667
-0.06448355 0.15759839 -0.045907877 0.008361356 -0.010605956 0.13074975 0.14614345 0.044078458
0.06429253 0.20426595 -0.013253757 0.13689914 0.018440733 0.09038996 0.09459657 -0.18628491
0.010581457 -0.21956275 0.15764096 -0.04347039 -0.16310431 -0.031026078 -0.021392481 -0.14589691
0.030970462 -0.13707858 0.22984408 -0.20356186 -0.048710752 0.008800149 0.072075814 -0.15664043
-0.034313884 0.057431433 0.17855178 0.1711256 -0.13768066 -0.10283386 -0.088081434 0.015898941
-0.034447167 0.14637211 0.0022137559 0.091175705 0.19807377 0.18998466 0.17272262 -0.2288828
0.1081348 -0.15767099 0.103511274 -0.028295051 -0.2474954 -0.06881458 -0.123792805 -0.08145524
0.0029162918 0.08608303 -0.002213233 0.004727294 0.07746861 -0.21141732 -0.16273803 0.21161556
0.11224014 0.16482277 0.06730762 0.010928928 -0.21153978 -0.15741216 0.06608404 -0.24293703
-0.21639968 -0.20658751 0.13813663 -0.18957625 0.016610194 -0.17339785 -0.016957624 0.028152289
0.19291334 -0.25470188 -0.2747879 -0.04325645 0.13349566 -0.15482941 0.06296737 0.15650947
-0.15069808 -0.12900092 -0.19466724 0.15661561 0.07452923 0.20331433 0.14300658 0.050300054
0.18462837 0.08155661 -0.18772708 0.08133067 0.121925995 -0.0062001287 -0.05292113 -0.21431954
-0.08172589 0.15710519 0.0780419 -0.07659575 -0.0495666 -0.13551193 -0.07327109 0.11668802
0.10651496 -0.14559776 -0.10070728 -0.001960887 0.012030116 0.060776815 0.15816179 0.058969345
0.07685008 0.08892398 -0.060377862 -0.009869867 -0.031827156 0.19882673 0.15229991 -0.04623274
-0.061898608 -0.0622138 0.07532407 0.10739113 0.079435036 -0.0256745 0.14108181 0.009207483
-0.07042107 0.032345206 -0.037378516 0.06836511 -0.15214795 -0.060005814 0.090119556 -0.11394648
0.1293851 0.059998326 -0.12773986 -0.08876017 -0.029057816 0.13808277 -0.07760759 -0.01594184
0.01811659 -0.09946464 -0.1600992 -0.13882059 0.06051332 -0.052517556 -0.04433789 -0.09014207
0.12518246 -0.11305775 0.04245483 -0.11613879 -0.0163668 -0.014428811 -0.02491759 -0.07524954
0.07037006 -0.0665899 0.17157704 -0.028973043 0.010146167 -0.1488774 -0.0008355281 0.14662881
-0.027033314 0.011861859 0.08893056 -0.08096976 0.1515142 -0.009458956 0.11814142 0.14041625
-0.07404142 0.021739451 -0.012848055 0.12329784 0.10913522 0.045420308 0.13549496 -0.25167337
0.11088885 -0.16716358 0.0058824257 0.14488001 -0.04610653 -0.03137656 0.08513254 0.19021724
-0.033942994 -0.014673115 -0.1083961 -0.18386734 0.022661686 -0.054578673 -0.0048186122 0.12834096
-0.16251338 -0.081790656 0.04645442 0.005058165 0.072202064 -0.017947454 0.051740196 0.0538936

bias f4 [10]
00000000: f053 43be ecb6 6b3c e238 173d 0f77 5e3d
00000010: 7311 df3d 0d03 13bc 0f18 323e 7cfd a13c
00000020: 3942 f7bc 74fc d53b
-0.19074988 0.014386874 0.036919482 0.054312762 0.10892 -0.008972895 0.1739199 0.019774191
-0.030182945 0.006530339
